onnx/Proposed/kaon.onnx (onnx, 196178 bytes, 35 tensors)

emb.layers.0.bias f4 [128]
00000000: 188e 9b3d 31b1 a53b 18b7 283e 082f a4bd
00000010: 7afa f13d 80c1 1dbe 33ce 2d3e 5b3a dfbd
00000020: fa4a 00be 46b0 ad3d 3c62 31be 4ef9 c7bd
00000030: 99b5 25be 81ef cbbd 5402 bebd 9359 3abe
00000040: e5e1 a9bd 31df 83be ac4e 77bd c3b3 21be
00000050: 20ac 85bd a1b8 dfbd 97d8 e43c de89 6d3d
00000060: 8b45 8d3d f679 ff3a b545 0fbe ffec e33a
00000070: 53de 943d 5bfc 2abe 5bff 13bd 9c59 1f3e
00000080: 3287 2e3c 75de e1bc 8d9b 553e cb8e cdbd
00000090: 124f 67be cccc 943d accf 853d 1dc2 ae3d
000000a0: 6dec 00bd e8e9 3dbe e93b d83d 6b3c 49bd
000000b0: d19e cebd 8728 4c3e 5476 27be 8b51 393e
000000c0: dfab f93d c65b b4bd d0d5 263e 58cc 5b3e
000000d0: 49cd f43d 93b2 83bd 8599 65be 1409 f63c
000000e0: 3cce b43d 33b9 4ebe 008b cc3d 8402 bf3d
000000f0: dd9f 49be 1457 f63d 1b93 ce3c 47da 163e
00000100: e7ce 0c3e a72f 2dbd d741 c9bd 48e8 6bbd
00000110: 052d 5abe 5ffa 95bc fa4a 52be a1a8 dc3d
00000120: e6b7 03bb f7f3 fe3d 2bd3 c63d d39c 0f3e
00000130: dd1b e8bd d967 983d 949c e5bd b17c d3bd
00000140: 2fe2 a8bc 18a1 81bd 0a48 bd3d cc64 19be
00000150: 49fb 68bd c84a ddbd 5128 76bc 92cb b33d
00000160: a1d0 203e 8f0b 1f3e f3b0 1fbc 623e d43d
00000170: 53f6 3a3d 0ef6 0cbe 203f 353d 4147 ffbd
00000180: 775a c03a 93a3 0e3e 6719 1f3e 273a cebd
00000190: 7236 efbc ed51 a7bd 1cb0 b23c d0f5 75bd
000001a0: b4e8 6d3d dc1e e7bd f2ba 3e3d 7dc6 00be
000001b0: 679e 3d3d 1aa3 18bd a534 973d 30df d53c
000001c0: f12c 06be 5bc9 5a3e f610 07be 0087 1ebe
000001d0: 2e5c b1bd 3611 95bd cea2 11be 4fd8 a4be
000001e0: 4738 0abe 4c44 8e3d d371 4ebe 8a92 70bd
000001f0: 5de5 1dbe 8860 36bd 09cf be3d ede9 1cbe
0.075954616 0.0050565233 0.16476095 -0.08016783 0.11815353 -0.15405846 0.1697319 -0.10899802
-0.12528601 0.08480887 -0.1732263 -0.09764348 -0.16182555 -0.09957791 -0.09277788 -0.18198232
-0.08295039 -0.2575622 -0.06037776 -0.1579123 -0.06526971 -0.10923887 0.02793531 0.05799281
0.0689803 0.0019491303 -0.13991435 0.0017389356 0.072689675 -0.16697828 -0.036132198 0.15561527
0.01065235 -0.027571896 0.20860119 -0.10037001 -0.22588757 0.072656244 0.06533751 0.08533118
-0.031475473 -0.1854626 0.10558302 -0.049129885 -0.100888856 0.19937335 -0.16353732 0.18097512
0.12190985 -0.08806567 0.162925 0.2146467 0.119532175 -0.06430545 -0.22421844 0.030033626
0.088283986 -0.20187835 0.0998745 0.09326652 -0.19689889 0.120283276 0.02521663 0.14731704
0.13750802 -0.042281773 -0.09827011 -0.057594568 -0.21306236 -0.018307863 -0.20536414 0.10774351
-0.0020098626 0.12448876 0.09708246 0.14024667 -0.113334395 0.07441682 -0.112115055 -0.103265174
-0.020615665 -0.06329554 0.09242256 -0.14979857 -0.05688027 -0.10805279 -0.015024261 0.08779062
0.15704586 0.15531753 -0.009746778 0.10363461 0.04564507 -0.13765737 0.044249654 -0.124647625
0.0014675398 0.13929586 0.15537034 -0.100696854 -0.029200766 -0.08169923 0.021812491 -0.06004888
0.05808325 -0.11285183 0.046565004 -0.12575717 0.046293642 -0.03726492 0.07383088 0.0261074
-0.13103081 0.21365874 -0.13190064 -0.15481186 -0.0866016 -0.07278673 -0.14222261 -0.3219628
-0.1349803 0.0694662 -0.20160608 -0.0587335 -0.15419526 -0.044525653 0.093168326 -0.1532361

emb.layers.2.bias f4 [32]
00000000: adb0 1c3c 1d91 21bd 0955 98bd d4f6 df3b
00000010: 4557 c13c 34b0 12bc ff99 68bd e4da 843d
00000020: 69a8 89bd e6e4 3e3d a97b 683d 5159 b9bc
00000030: cd53 193d ae4b a13d 68d4 68bd c209 98bd
00000040: b63f cc3c 8be6 983c 46bd af3c cd5d a03d
00000050: 51a4 7abd 3336 e5bc 35b7 2fbd 1dfd 93bd
00000060: 7519 babd 8d97 073b 5e83 5dbd 2323 433d
00000070: fac2 4a3c 3fe3 abbc 5cb3 eebc b78a 5b3d
0.009563607 -0.03944503 -0.07438094 0.006834844 0.023601184 -0.008953143 -0.056787487 0.064870626
-0.06721575 0.046605013 0.056758557 -0.022625597 0.037433434 0.07875763 -0.05684319 -0.07423736
0.024932723 0.018664619 0.021452557 0.07830391 -0.06119186 -0.027979946 -0.04289933 -0.07226012
-0.09086887 0.0020689697 -0.05408036 0.04764093 0.012375588 -0.020982383 -0.02913826 0.053599086

encoder.layers.0.self_attn.in_proj_bias f4 [96]
00000000: 0904 dabd ebed 6ebe ca29 16be d882 fc3d
00000010: 1766 533e 1cd7 1f3e ba6d 0d3e 5c38 92bd
00000020: 5cc6 2bbe a5ef 273e a80f 183d 55d2 303e
00000030: 132f 2cbe 937e ea3d 15b5 44be f771 603e
00000040: ddd5 fbbd d75b 0a3e 51a5 f1bd 894f 95bd
00000050: b4b5 f13d 5a61 ebbd d04f 04be c907 bf3d
00000060: f5e5 c8bd 7367 f8bd 21ab 1a3e afbb f03d
00000070: b742 b53d 2ba3 4b3e 2378 e53d a2ea 00be
00000080: a713 23b8 12fa 9338 1759 fdb6 797b 9037
00000090: dee0 0f38 fb99 f536 e192 c637 7d38 65b7
000000a0: 67c0 cfb7 e5ee 9937 09d8 a237 a58d 4336
000000b0: ad92 32b8 e9a6 a337 2b83 4e37 3c1f a536
000000c0: 4858 59b8 abd4 4237 1747 a837 aca6 fcb7
000000d0: 8805 b038 93ed 35b8 5960 13b8 ed48 0fb7
000000e0: 8f3a 8036 8866 beb7 c269 90b7 d883 2438
000000f0: 10c8 97b7 6b45 8238 8c1c 2435 28a8 ecb6
00000100: 142d e03c e3fb c8bc 8e5c 05bc f536 f2bc
00000110: d990 10bb af4a 9ebc 9cb3 83bc 961a a53c
00000120: 77cf b53c 6196 b5bb 3b09 c4bc 54d5 80ba
00000130: ccb4 503c 6e35 163a 0c75 2ebc 9037 423b
00000140: 59c9 18bc b541 53bc 080f ad3c 2148 083b
00000150: 7fee 0f39 9723 ddbc f0d5 2fbc f5d4 1abd
00000160: db87 86bc 025c d43c 8fdd 8a3c f269 413b
00000170: 497a a13c 3356 ad3b 799d c03b 420b a139
-0.10645301 -0.23332946 -0.14664379 0.12329644 0.20644413 0.15609401 0.13811389 -0.07139656
-0.16774887 0.16400011 0.037124306 0.17267735 -0.16814832 0.11449923 -0.19209702 0.21918474
-0.122966506 0.13511597 -0.1179911 -0.07290561 0.11802235 -0.11493178 -0.12921071 0.09327657
-0.09809486 -0.121291064 0.15104343 0.11754548 0.088506155 0.19886462 0.11204555 -0.12589505
-3.888053e-05 7.0560855e-05 -7.550359e-06 1.7223634e-05 3.430328e-05 7.3194947e-06 2.3671835e-05 -1.3662616e-05
-2.4765917e-05 1.8350265e-05 1.9412504e-05 2.9139712e-06 -4.257511e-05 1.9508838e-05 1.2309097e-05 4.9210194e-06
-5.181905e-05 1.1612817e-05 2.0060264e-05 -3.0118354e-05 8.393364e-05 -4.337502e-05 -3.5137262e-05 -8.540444e-06
3.8215144e-06 -2.269751e-05 -1.7215385e-05 3.9223436e-05 -1.8093764e-05 6.211813e-05 6.11363e-07 -7.052924e-06
0.027365245 -0.024534171 -0.008139743 -0.029567221 -0.0022058992 -0.019322721 -0.016076855 0.020154279
0.022193654 -0.005541608 -0.023930183 -0.0009829202 0.012738418 0.00057300075 -0.010648023 0.0029635169
-0.009325349 -0.012894084 0.021125332 0.0020794945 0.0001372639 -0.02699451 -0.010732159 -0.037800748
-0.016422203 0.025922779 0.01695135 0.0029512611 0.01971163 0.0052898168 0.005878147 0.000307167

encoder.layers.0.self_attn.out_proj.weight f4 [32, 32]
00000000: c40b 49bd 0d2b aebd 1b29 c3bd 5112 cbbd
00000010: ed05 df3d acdb 2cbd fa25 0e3d 2123 943d
00000020: 2b2b febd 1e39 a83d 4134 0f3e a713 e2bb
00000030: 4c46 44bc 1109 023e 61f4 9fbd 69a0 bc3d
00000040: 76e4 6ebd 5f53 b3bd 8d5a 723e b9a1 a33d
00000050: a0ee b63d 5a3b 053d 14ae 40ba 653d 24be
00000060: 8b81 86bd 58e6 663d 977c 9abd 3fb4 1c3e
00000070: c3f8 e0bd b31f 88bd 9715 453d 2e56 053e
00000080: cc9c 423d 05ac 1bbe 8a48 053e f622 eebd
00000090: 8869 fa3c 3c43 413d 8623 0d3e b645 8c3d
000000a0: 2d9c 9e3d 2da1 dc3c 187d e33d a59b 19be
000000b0: 2f66 f5bd 1f9d 2d3d 1e3f 27be 57fb 043d
000000c0: c506 e33d bc5c 863d 86c3 4c3b 6a46 e1bd
000000d0: 8d28 ae3d d3d7 ecbd 5eab ffbd 0fc1 a13d
000000e0: 923d bcbc 018d 563d cc85 2d3d e977 0bbe
000000f0: 91df 03be 14b4 f73d 7784 27bd a002 c1bc
00000100: d7b0 b5bd 9ee4 19be a186 43bd ca0d 4a3d
00000110: a12b 3dbe 4c48 db3c 8a8f a03d 8064 e93d
00000120: 70a5 d73d 15ac 96bc ab10 1a3e f5ec 54bd
00000130: 31e0 18be 28b0 8ebc 1a16 033e 2c99 88bd
00000140: 51b2 f2bd a4d7 c6bd ee7e 0a3e 03e2 e93c
00000150: 27de 21be 3f92 1fbd 4c30 d33b fe7e ecbd
00000160: aa79 a43c e92b b03d b30d 24be c626 edbc
00000170: 0f85 01bd 4d11 2b3d aea7 2a3d 16c0 14be
00000180: c62a 71bc 2ac3 63bd a922 b83d 21f8 a03d
00000190: c111 35bd 51bc fd3d fc2f 1e3e 06a6 013d
000001a0: 1e0f cdbc 8662 24bd e71b be3d 6037 3abd
000001b0: b526 bb3d dac5 183e ceed 243e 5f98 0d3d
000001c0: 8273 d63d 045c da3b ed78 f3bd caaa 303e
000001d0: 4d08 edba feff c2bd f082 27be 89c4 223e
000001e0: c478 8ebd 188e 3a3e afb6 dfbd 38e5 6bbd
000001f0: 7a32 16bd 6042 42bd cdcc 69bd 5758 dabd
00000200: 63e3 e93d 17f3 763d 7e22 3d3e c62d 643c
00000210: 8b05 01bd 9306 acbd c511 abbd ec4e 9c3d
00000220: 481c 973c 7cb3 dfbc 9f4a 9bbc 6b73 c13a
00000230: 9f6c 023a 922f 383d 612d 1b3d d025 c1bd
00000240: 3d6c 4dbc 14a5 cdbd 3b5f 933d e377 23bc
00000250: 30c5 c7bd be39 173e 7fa2 83bc 0994 083d
00000260: 3042 833d 6556 37be 061a cdbd 0758 27be
00000270: 7875 d6bd 16a3 2bbe d8d0 373b e296 14be
00000280: 29bc a3bd 3ec8 87bd 680e 8abd 4367 cdbd
00000290: f255 ccbd f922 eebd 8a8c 193e b3e7 14be
000002a0: d41a 26be 2e3e 7c3c 9240 023e 3255 373d
000002b0: 9a1e ae3d 20ae abbd c4eb 0ebe 1b74 21bd
000002c0: efb6 ef3d 0e49 4fbc d6f3 873d a97c 37bd
000002d0: 32ec 1fbe 495b ebbb 8a91 91bc be83 20bc
000002e0: bee3 353e 5da6 36be 522c 1d3a 7294 09be
000002f0: 40e1 35be 8954 98bd 9a26 a2bd 87a3 513e
00000300: 26af 1f3d 46ca aa3c f4d6 6bbc 0af9 9abc
00000310: 0c9a 733d b11c 903d 3025 f7bd 253b 09bd
00000320: 302d 0f3e 7e5b 0abd 2676 0dbd 8134 f0bd
00000330: 50ae 4bbd 4c9c d0bc 26cf 30bc 1eb8 d03c
00000340: 2d4d 9cbd c725 573d f3c8 eabb 0de6 d73c
00000350: 71cf 0e3e d27e 323d b21c 55bd 78be 48bd
00000360: b639 5b3d b942 113e d38c 1b3e 90f0 6abd
00000370: 81f7 173d 18a2 c53d 54a7 65bb fbbc 5dbc
00000380: f1e6 a9bc be50 b9bc a72b e4bc 3122 9cbd
00000390: 7469 3bbd 477e 82bc 135f 693d 4bfb 193e
000003a0: c3d9 073e 1e8a 84bd b225 bd3b 7e6e fc3c
000003b0: 6845 173d f226 063d ce37 05bd 336a 58bd
000003c0: 37d3 e53d ff2f 033e 092b 053e ef05 f9bd
000003d0: 4100 8f3d 464b dcbd 089b e43d 1760 99bd
000003e0: 2d86 e93d 5fcf 083e f015 f7bd 3c39 953d
000003f0: fd8d c1bd b002 253e 01cf cf3d 7a3f 92bd
-0.049083486 -0.08504305 -0.095293246 -0.09915603 0.10889802 -0.042201683 0.034704186 0.07233263
-0.124105774 0.08214019 0.13984777 -0.0068993154 -0.011979651 0.12698771 -0.078102835 0.09210283
-0.058323346 -0.08756136 0.23667355 0.079898305 0.08932233 0.032527305 -0.00073501584 -0.16039045
-0.06567677 0.056372017 -0.07543295 0.15303133 -0.109849475 -0.06646671 0.048116293 0.13021156
0.047512814 -0.15202339 0.13015953 -0.11627762 0.0305679 0.04718326 0.13783082 0.06849234
0.07744632 0.026932323 0.11107844 -0.1500078 -0.119823806 0.04238617 -0.16332671 0.03246626
0.110852756 0.065606564 0.003124447 -0.109997585 0.08503828 -0.11564603 -0.124838576 0.07898151
-0.022978578 0.052380566 0.042363927 -0.13619961 -0.12878253 0.12094894 -0.040897813 -0.023560822
-0.0887162 -0.15028617 -0.047735814 0.049329557 -0.18473674 0.026767872 0.07839878 0.11396122
0.105296016 -0.018392602 0.15045421 -0.051983792 -0.14929272 -0.017417982 0.128014 -0.0666984
-0.118504174 -0.09709099 0.13524982 0.028550154 -0.158074 -0.03895783 0.0064449664 -0.11547659
0.020077545 0.08602125 -0.16020851 -0.028949153 -0.031621035 0.041764546 0.041663818 -0.145264
-0.014719671 -0.055606045 0.08990986 0.07859827 -0.044206385 0.12389434 0.15447992 0.031652473
-0.025031622 -0.04013302 0.09282666 -0.045462966 0.09138242 0.14919224 0.1610634 0.03456914
0.1047125 0.006663801 -0.11888299 0.17252651 -0.0018084139 -0.09521483 -0.16358542 0.15895285
-0.06956628 0.18218267 -0.10923516 -0.057591647 -0.036669232 -0.04742658 -0.05708008 -0.10661381
0.11420324 0.060290422 0.18470189 0.013926929 -0.031499427 -0.083996914 -0.08352999 0.07632241
0.018446103 -0.027307265 -0.01895648 0.0014759129 0.0004975292 0.04496724 0.037885074 -0.0943104
-0.012538013 -0.10041252 0.07195898 -0.009977314 -0.097544074 0.1476812 -0.016068695 0.033344302
0.06409109 -0.1790405 -0.10014729 -0.16342174 -0.10471624 -0.16761431 0.0028048065 -0.14510682
-0.07994873 -0.0662999 -0.06741029 -0.10029461 -0.0997733 -0.11627764 0.14995018 -0.14541511
-0.16221172 0.015395684 0.12719944 0.044758983 0.085019305 -0.08382821 -0.13957125 -0.039417367
0.11704814 -0.012651695 0.06638305 -0.04479662 -0.15617445 -0.007182513 -0.017769594 -0.009797035
0.17762658 -0.178369 0.0005995679 -0.13435534 -0.17761707 -0.07437999 -0.07917519 0.20472537
0.038985394 0.020848405 -0.014394511 -0.01891758 0.059473082 0.070367225 -0.1206764 -0.03350367
0.13982081 -0.03377866 -0.034536503 -0.11728764 -0.049726784 -0.025465153 -0.010791576 0.025478419
-0.076319076 0.05252626 -0.0071650683 0.026354814 0.1394632 0.043577977 -0.05202932 -0.04900977
0.053521834 0.14185609 0.15190439 -0.057358325 0.037101272 0.096500576 -0.0035042362 -0.013533826
-0.020740004 -0.022621509 -0.027852846 -0.07623709 -0.045754865 -0.015929354 0.056975435 0.15037267
0.13266663 -0.06471656 0.005772316 0.030814406 0.036931425 0.032751985 -0.032523923 -0.052835654
0.11221927 0.12811278 0.13004698 -0.12159335 0.0698247 -0.10756545 0.11162382 -0.07489031
0.11402545 0.13360356 -0.12064731 0.07286307 -0.0945091 0.16114306 0.10146905 -0.071410134

encoder.layers.0.self_attn.out_proj.bias f4 [32]
00000000: 544d e33b 19c7 a3bb 9f44 c2ba ad6d a7bc
00000010: 2fef 0dbc 4eea cebb f3dd 393c 3153 f33b
00000020: 35b7 59bc c7c8 ddbb f372 e8bb f74e 723c
00000030: 46de a13c a759 9b3b e850 53bc d7cd 0dbc
00000040: 7a2f d23c 3aaa 7c3b efbb 6d3c ee75 263a
00000050: 9d79 1a3b 084b 983b f243 ff3c 7fba 2abc
00000060: 0d95 c2bc f3cb c83b 2e01 04bb 2f4e 103c
00000070: 890e de3c 5c33 18bd 6ad1 bdbc c4d8 62bc
0.0069367085 -0.0049980995 -0.0014821476 -0.02043804 -0.008662983 -0.0063145524 0.011344421 0.0074256887
-0.013288309 -0.0067683193 -0.007093781 0.0147893345 0.019759309 0.004740912 -0.0128977075 -0.008655033
0.025657404 0.0038553611 0.014510139 0.00063499704 0.0023571022 0.0046476163 0.031160329 -0.010420441
-0.023752714 0.0061278283 -0.0020142305 0.008807703 0.02710654 -0.037158355 -0.023171145 -0.013845626

encoder.layers.0.linear1.bias f4 [128]
00000000: 536f 1b3d 1ad4 d1bc d617 fd3d 0d69 d0bd
00000010: ce2b 31bd a8fe 323d d270 523c 0a67 0cbe
00000020: 0662 103d 4337 ca3d 3349 593d 9871 113d
00000030: b61f 1abd 5a91 12be d634 e1bd 15a1 a63d
00000040: 5ef4 1abc dee4 a6bd b8a0 3abe 504e 13be
00000050: fb0d e3bd 9f6d 6a3c 3984 b13d 25d2 f53d
00000060: a107 2abe 13a4 5abd bc01 ebbd 6d9b 8c3d
00000070: 5267 1bbe 88a5 293d 7ee1 ba3c 963d 1dbd
00000080: f6af 0bbe b811 b63d 7fe7 89bd eb30 eb3d
00000090: 7edf 9c3d 2b94 e1bc 760b 3f3d 5066 dfbd
000000a0: db9a 20be 4c98 963c b427 a8bd b756 0bbe
000000b0: bcc2 3dbe 7724 5ebe da85 b73d a005 8abc
000000c0: 0cdc d9bc 88e0 ddbc 73f3 673d bcc5 e93d
000000d0: a9a8 6cbd 5047 9a3d 2aba 543d 0b34 d0bd
000000e0: 03da 833d d257 09be 57f4 13be 3d4e a63d
000000f0: 91e8 2fbe 2626 4abe af4d 0bbd b0a0 0bbe
00000100: efca f1bd c35d 7e3d aaa6 1d3e c6d1 a0bd
00000110: 0631 653d 3cc8 aabd 6099 163e efac cebd
00000120: f81f 7bbd e15e 4dbc a8e6 d0bd 3c15 9dbb
00000130: f50e bebd 5202 f7bd 4ca8 21be d6a9 4a3d
00000140: 74d7 4fbd 6fd1 8c3d 26d7 9b3d e659 183e
00000150: 489e 2bbd 2f76 8abd f493 d93d 3ece 5abd
00000160: 64b4 98bc 5dbf 89bb e77c fa3d c33c b939
00000170: 7fe4 91bb a46f 46be 00a8 923d 4ee8 6dbd
00000180: 2ab6 7dbc 8c11 113e 1e61 033d 7196 6c3d
00000190: 37b5 233e 5629 fabc 639e f6bd 9c14 22be
000001a0: a93c 343c 8a7a 903c 42bd ebbd 1cdf 83bd
000001b0: c284 2abe 5432 babc e1ac f3bd 2db9 31be
000001c0: 8e4e 90bd d7ac 9fbb 3a4b ac3d c4b7 e0bd
000001d0: 1cee 6bbe 4c07 20bd ee39 c93d 2dbb 913d
000001e0: 6ec0 6f3d f189 8c3c 1320 1fbe 1783 c73d
000001f0: baa5 b03d 6348 8e3d 6ed6 b13d 71b8 a7bd
0.037947964 -0.025613833 0.12358062 -0.10176287 -0.043254666 0.04369989 0.012844281 -0.13711181
0.035249732 0.098738216 0.053048324 0.035508722 -0.0376279 -0.1431326 -0.10996406 0.08136193
-0.009457676 -0.08149122 -0.18225372 -0.14385343 -0.11086651 0.014308362 0.086677976 0.120029725
-0.16604473 -0.05337913 -0.1147494 0.068655826 -0.15176132 0.04141763 0.022812601 -0.03838881
-0.13641343 0.08890098 -0.067336075 0.1148394 0.07659815 -0.027536472 0.04664179 -0.109081864
-0.15684073 0.018383168 -0.08210698 -0.13607298 -0.18531317 -0.21693598 0.08961077 -0.016848385
-0.026594184 -0.027084604 0.056628656 0.11414668 -0.057778034 0.07533133 0.051935352 -0.101661764
0.06438067 -0.13412407 -0.14448677 0.081203915 -0.17178561 -0.19741115 -0.03400963 -0.13635516
-0.11806285 0.062101137 0.15395609 -0.07852511 0.055954956 -0.08338973 0.14706945 -0.10091578
-0.061309785 -0.012534828 -0.10200244 -0.004793791 -0.092801966 -0.120609894 -0.15786856 0.049478374
-0.05074258 0.06875884 0.07609396 0.14878044 -0.041898996 -0.06760823 0.10623923 -0.053419344
-0.018640704 -0.0042037205 0.122308545 0.0003533122 -0.0044522877 -0.19378525 0.0716095 -0.05808287
-0.015485326 0.1416685 0.03207504 0.05776066 0.15987097 -0.030537289 -0.120419286 -0.15828174
0.011000791 0.017636556 -0.115107074 -0.06439039 -0.16652206 -0.022729076 -0.118982084 -0.17355795
-0.07046233 -0.004872899 0.08412786 -0.109725505 -0.2304005 -0.03906946 0.09825502 0.07115779
0.058533125 0.01715562 -0.15539579 0.097418 0.0862536 0.069474004 0.08683477 -0.08189476

encoder.layers.0.linear2.bias f4 [32]
00000000: 289e 203d 9d34 81bc 7af1 8d3c 8db4 a8ba
00000010: c54d 263d 1333 903d 6636 4cba 3689 c43c
00000020: b0f4 8a3d e19d 023c 3342 3a3d 94fc 8fbd
00000030: 78d4 873d c2d3 a93d 39f2 43bd e011 60bd
00000040: ee7d 723d f19b 2bbc bb63 48bd ddea 33bd
00000050: 38d2 4f3b b22d 8bbc 7252 19bd f984 7fbd
00000060: e944 02bd 5c41 213d 4f34 5abd 0caa 68bd
00000070: 4179 293d 5b51 223d a48c c5bd b0af b63d
0.03921333 -0.015772158 0.017327059 -0.0012871191 0.04060151 0.07040992 -0.00077900884 0.023991209
0.06784952 0.007972212 0.04547329 -0.07030597 0.06632322 0.08292343 -0.047838423 -0.054704547
0.059202127 -0.010474191 -0.048923235 -0.043925155 0.0031710993 -0.016989563 -0.03743214 -0.062382672
-0.031804 0.039368972 -0.05327254 -0.056802794 0.041375402 0.039628368 -0.09645966 0.089202285

encoder.layers.0.norm1.weight f4 [32]
00000000: 72ad 843f cc30 703f 68bd 793f cc99 813f
00000010: 470b 863f ab2c 873f c949 853f 4896 7b3f
00000020: 2808 853f ad90 823f 91b5 8d3f 0a18 783f
00000030: 15ed 783f 381f 793f 4925 7c3f 922a 813f
00000040: c599 7e3f 4cf4 783f 1990 813f 9d37 773f
00000050: 9911 823f e8f7 813f 7818 803f 656f 833f
00000060: b700 863f bbe8 8c3f 1dc7 753f 1c67 6a3f
00000070: 1301 823f fbb9 7d3f f7ae 853f 437a 813f
1.0365431 0.9382446 0.97554636 1.012506 1.0472192 1.0560507 1.0413142 0.98276186
1.0393114 1.0200402 1.1071035 0.9691168 0.9723676 0.9731326 0.9849439 1.0091116
0.99453384 0.9724777 1.01221 0.96569234 1.016162 1.015378 1.0007467 1.026837
1.0468968 1.1008524 0.9600695 0.9156358 1.0156578 0.9911191 1.044402 1.0115436

encoder.layers.0.norm1.bias f4 [32]
00000000: e623 473c 59c7 27bc 7941 23bd 530d e6bc
00000010: 33e4 35bd acf9 6e3b 2eb3 dcbc 5f89 b53b
00000020: 866c 4abc ec19 a43a ad29 c93c 7670 2d3d
00000030: 44ee 3b3d 040e bcbc 18c2 24bc 1624 753c
00000040: 7221 f83c 36c6 3c3b 8ec1 8c3c e06d f5bb
00000050: e333 ef3c 2e6d d73c d1ef b63b 8ea0 f43c
00000060: b91e 8dbd 61da ae3b 4e9b 13bd 9d45 983c
00000070: f2bf 153d 757c 0ebd 27c7 1ebd d6ff b13c
0.012154555 -0.010240399 -0.03985736 -0.028082525 -0.04440708 0.0036464734 -0.026940908 0.0055400576
-0.012354976 0.0012519932 0.024556005 0.04234358 0.045881525 -0.022955902 -0.010056041 0.014962217
0.030289385 0.0028804666 0.017182138 -0.0074899048 0.029199546 0.026297178 0.0055827876 0.029861715
-0.068906255 0.0053360914 -0.036036782 0.018587882 0.036560006 -0.03478666 -0.038764145 0.021728437

encoder.layers.0.norm2.weight f4 [32]
00000000: 2288 803f 1b48 7f3f 897d 863f b237 853f
00000010: 1fd9 843f b781 863f 1f37 853f 137e 793f
00000020: 2415 7b3f 926f 7f3f 5330 893f 44f1 7b3f
00000030: 3b50 773f a6ca 883f 6bbe 873f 2367 863f
00000040: 1b3c 7f3f f532 833f 5f35 853f 577e 7b3f
00000050: 2f49 893f b24a 843f 20e1 793f 17e5 813f
00000060: 6ad9 773f d7ae 883f 7ac8 7f3f 4fdf 753f
00000070: b626 863f a0da 803f 43b7 763f f8eb 803f
1.0041544 0.997194 1.050706 1.0407622 1.037876 1.0508336 1.0407447 0.97458
0.98079133 0.9977962 1.0717872 0.9841502 0.96606797 1.0686843 1.0604986 1.0500225
0.9970109 1.0249926 1.0406913 0.98239654 1.0725459 1.0335295 0.9760914 1.0148038
0.9681612 1.0678357 0.9991528 0.96043867 1.0480564 1.0066719 0.96373385 1.0072012

encoder.layers.0.norm2.bias f4 [32]
00000000: 6e78 be3c 8553 a1bc 6e77 bdbc 6984 1ebd
00000010: d5c9 95bc efcd a43c 0421 d2bc bf21 27ba
00000020: 616f b23c a8f8 e5ba e007 d0bb 91dc 763c
00000030: c8fc 49bb 1125 86bc 7ecf 90bb e528 f3bb
00000040: ea32 593c 407c 853c 095a 1e3c 8106 09bc
00000050: cc7d 683d e36b 97bb cf21 14bd 2299 b03d
00000060: 76ed 35bd b291 2a3d 3bee 13bd 28d4 293d
00000070: 24dd e33c ae52 1dbd 4e6d 863b 36e7 b43a
0.023250785 -0.019693146 -0.023128238 -0.038700495 -0.018284718 0.020117728 -0.025650509 -0.0006375573
0.021781625 -0.0017545419 -0.006348595 0.015067236 -0.0030820835 -0.016375097 -0.0044192662 -0.0074206465
0.013256768 0.016294599 0.009665021 -0.008363367 0.056760594 -0.0046210154 -0.036165055 0.08622958
-0.044415914 0.041642852 -0.036115866 0.041462094 0.027815409 -0.038408928 0.0041023856 0.0013801816

encoder.layers.1.self_attn.in_proj_bias f4 [96]
00000000: 2a1b 073e 76a7 48bd 5581 983d b68f e7bd
00000010: 685c 443d 17bf a9bd 317f a1bb 2545 563d
00000020: f7d8 053e 9473 953d 4f5d 79bd b939 38bd
00000030: 7de7 513d aaa6 8ebd fc36 bc3c ef9e 6e3c
00000040: 08d9 4cbb b035 97bd 1454 a2bd a144 9c3d
00000050: 6442 603c 7101 513d afe1 893d c7c6 023d
00000060: 4f49 39bd 48c5 9ebc c040 ad3d 08bb ac3d
00000070: 9331 b7bd a12c 963d 47f3 323d 5c94 d9ba
00000080: 42c0 01bb 3ad2 313a 054e 6bba f552 1c3b
00000090: ed8d 81ba 8524 32b9 25ed dbb9 d23e 65ba
000000a0: 9cc9 a8ba 912e eeb9 28d8 25ba 5877 9c39
000000b0: d589 b838 a3be 3bba 73ea d738 479d 74b9
000000c0: 25c6 5c38 c4a1 033b 4de8 ce3a e1cb ddba
000000d0: 55f6 ed38 191f 64b9 64a9 ebb9 2db8 8eb9
000000e0: 0cfd 5d3a 29d4 8639 a2e6 36bb 6624 8dba
000000f0: 2d70 683a e20e 2aba 4190 1aba 3439 483a
00000100: 42a9 bb3c 480d ffbc e001 7bbc d1a5 afbc
00000110: 41da 363c e8d3 05bd 28ec fbbb 6654 c33b
00000120: dd2d 393d 19c7 6dbc 8cbc a2bc eaec fb3c
00000130: fc1b 3c3c d754 f3ba 1af3 723c 5667 c8bc
00000140: 4a75 8d3b 124d 22bb d645 563b f10d 933b
00000150: 474e 2c3c 3488 503c 3a45 c2bc e711 9bbc
00000160: e40f 11bc a112 c63b bef0 90bb 700e 873c
00000170: 7fd3 10bc 6bb0 aabb bc07 55b8 f365 b23c
0.13193956 -0.04898783 0.07446543 -0.113067076 0.047939688 -0.082884006 -0.0049284925 0.052312035
0.13071047 0.072974354 -0.06088 -0.044976924 0.051246155 -0.069653824 0.022975437 0.01456426
-0.003125729 -0.07383287 -0.07926193 0.076302774 0.013687704 0.051026765 0.06732499 0.03192785
-0.04523593 -0.01938118 0.08459616 0.08434111 -0.089450024 0.07332731 0.04368904 -0.0016600001
-0.0019798432 0.00067833404 -0.00089761644 0.0023853157 -0.0009884216 -0.00016989007 -0.00041947622 -0.00087450177
-0.0012877467 -0.00045429592 -0.000632646 0.00029843557 8.799477e-05 -0.0007161891 0.000102956685 -0.00023328244
5.2636624e-05 0.0020085433 0.0015785784 -0.0016921723 0.000113469236 -0.00021755359 -0.000449489 -0.00027221572
0.0008468188 0.00025716543 -0.0027908464 -0.0010768294 0.0008866813 -0.0006487203 -0.00058961293 0.00076379185
0.022907857 -0.031134263 -0.015320271 -0.021441372 0.011160434 -0.032672793 -0.007688064 0.005960989
0.045209754 -0.014512801 -0.019865297 0.030752618 0.011481281 -0.0018564713 0.014828468 -0.024463337
0.0043169605 -0.0024765176 0.0032695434 0.004487746 0.01051671 0.012727786 -0.02371465 -0.018929435
-0.008853886 0.006044701 -0.00442323 0.016486377 -0.008839487 -0.005209019 -5.079036e-05 0.021777129

encoder.layers.1.self_attn.out_proj.weight f4 [32, 32]
00000000: 054d 03be d2d9 41bd 2856 b23b 0844 bc3c
00000010: 65b7 f43d 8bb7 bd3c 71ee a73d ad84 da3d
00000020: d579 3dbe fb0f d03d 2baa 3b3e 3117 e4bb
00000030: f0c9 c8bc 2bab 0e3e 7399 78bd 97fc 183e
00000040: a77a 10bd e812 a93c ade8 233e 8007 af3d
00000050: c026 363d 62c7 923d 94ee 173d cbd5 e0bd
00000060: 7c38 5cbd 7274 5c3c 52b1 e6bd ad6b 163e
00000070: 3c16 45be bd19 e5bd 4a08 8e3c d80d 0e3e
00000080: c05f 51bc 3b2b f7bd ab9c 233e 3397 d8bc
00000090: da07 333d 4a35 e73d b914 383e 7edd ac3d
000000a0: 65b0 b13d b63c 5f3d 2b55 113e 535e debd
000000b0: 807c 0cbe 26fa ef3c 6c5b 0cbe f2f6 a53d
000000c0: 5c79 fe3d dbff 433e 9705 a9bd 9a6b aabd
000000d0: b011 d03d edd0 1bbd 35ae 9bbd 0093 1c3e
000000e0: 7e19 57bd 3ed0 b6bb dfc7 e83c 879c 2bbe
000000f0: fc77 73be 0c0c f73d 1135 d6bd f98b 473c
00000100: 110e b5bd ddfd 11be 1ed1 a6bb ea39 893c
00000110: 8ddc 88be 2dbe 10bd 3304 513d 6ee8 1b3e
00000120: 9dfd aa3d 2ba1 cebc a645 043e 4996 11be
00000130: 04c1 2abe 6b24 c4bb a18c d33d d748 a0bd
00000140: a7f3 b6bd 6601 5abe 7b47 3c3e 62c4 083d
00000150: 00ca 83bd b982 5ebd f95d 34be a41b 54be
00000160: 2c7b c43d c6a1 f23d fa69 45be e079 473d
00000170: 9678 693d 230c 3f3d 0b72 ca3d 2761 aabd
00000180: 1490 9dbc 6dc8 69bd 3118 e83d 6f1b 0e3e
00000190: 2be9 04bd c30a 0f3e e661 083e 3b07 903d
000001a0: 529e 073d bb26 abbd aeef 0a3e 2266 0bbd
000001b0: 3ddf 653d 4bee 4f3e 916a 9f3d 4545 773c
000001c0: 03ac 993d a33a 8a3d 74f3 1dbe f484 263e
000001d0: 79e5 f4bc 267c 95bd 683a 04be fbfa 353e
000001e0: 1117 f9bd 856e 2a3e 643c d7bd a620 86bd
000001f0: 9c3a 07bd 9178 6dbd d001 8bbc 5cae e4bc
00000200: 026b 133e 68d8 053d 096e 323e 6fc7 703c
00000210: bb96 943c 4617 02be b323 31be 8068 843d
00000220: ff7e a23c 83f6 17bd c8b2 28bb 0e3d bfbd
00000230: 542f 0bbd 3f81 223e 11bb d63c c0ab c6bd
00000240: 3b54 6e3d 366e e8bd 2d6c 203d bfc3 e0bc
00000250: 8d36 103c 7f64 3d3e cb93 edbd 0668 de3c
00000260: 03cd 8b3c 1151 3cbe 7205 a8bd 9ed0 14be
00000270: 35c7 adbd f332 4dbe ccc5 853d 5ed9 c4bd
00000280: db6b 09bd 5697 a7bd 1e56 51be 2fef 3fbe
00000290: 63ea bebd 77c6 06be 8039 153e c136 26be
000002a0: 1708 1abe 49b8 083d c5f7 f63d 5bfd 123d
000002b0: 322f bf3d e14b 92bd 7a35 d0bd ca49 66bd
000002c0: 81a5 043e b643 b5bd 1025 213e 5796 b7bd
000002d0: f1bc 14be 2897 48bd 9a1a fbbc 2a17 dabc
000002e0: ddf2 563e 34f4 29be e7db 053c a011 09be
000002f0: c4f6 19be 815a e4bc 0875 a9bd 1a82 1e3e
00000300: d5d3 8dbb 460c 783d 4025 bc3d 2f6b 603c
00000310: 7061 70bd 6565 0b3d 4b61 33be 8e39 c3bd
00000320: e79e 0b3e 50a4 a1bd 4ad3 55bd 6621 2bbe
00000330: 276e cabc 331b afbd 15ed 00be de04 0e3c
00000340: fd84 00be c46f 1fbc 126f c0bc b964 413d
00000350: c107 053e 99a2 253d f571 f7bd 557b babd
00000360: 143d 063d 86f8 1d3e 021c 333e 6251 4ebd
00000370: ba0f 8c3d 1312 1a3d d1d3 853c f385 b83c
00000380: f3d6 1d3d 6dd2 ba3b cc57 f1bd e60c 34be
00000390: 0de6 afbc 4efd e0bc 2cb7 bb3d 1c3c 293e
000003a0: 1116 d03d 1b1b 34bd 360a 06bc d31a b53d
000003b0: 286b f23d 4ea3 a33c 9209 38bd cf13 13be
000003c0: f00e 283e 21a1 f13d 5984 c93d e991 2bbe
000003d0: 54cd e03b 39b0 00be da45 273e 9bce 7bbd
000003e0: 9a30 253e b718 073e 463d 12be 3fab 093e
000003f0: 73b8 afbd 0867 253e 0a49 0f3e f1dd 8ebd
-0.1282235 -0.04732687 0.0054423995 0.022981659 0.11949042 0.02315881 0.08199776 0.10669837
-0.18503506 0.10159298 0.18326633 -0.0069607724 -0.024510354 0.13932483 -0.060693216 0.14940105
-0.03527322 0.020638898 0.16006728 0.085463524 0.04447055 0.071669355 0.03709276 -0.10978278
-0.053764805 0.013455497 -0.1126429 0.14689513 -0.19246763 -0.1118655 0.017337937 0.13872468
-0.012779176 -0.120687924 0.15977733 -0.026439285 0.04370866 0.11289461 0.17976655 0.08440684
0.08676223 0.054501258 0.14192645 -0.10857835 -0.13719368 0.029294085 -0.1370675 0.08103742
0.12425491 0.1914057 -0.08253019 -0.083213046 0.101596236 -0.038041044 -0.07601587 0.15290451
-0.052514546 -0.0055790236 0.028415618 -0.16758929 -0.23776239 0.12062845 -0.1045934 0.012179368
-0.088405736 -0.14256997 -0.0050908467 0.016751248 -0.26730767 -0.035337616 0.051029395 0.15225384
0.08349154 -0.025223335 0.12917194 -0.14217485 -0.16675192 -0.0059857867 0.10329557 -0.07826393
-0.08933192 -0.21289596 0.18386643 0.03339041 -0.06435013 -0.054323886 -0.17613973 -0.20713669
0.09593806 0.11847262 -0.19278708 0.048700213 0.056999765 0.046642434 0.09885033 -0.083193116
-0.01923374 -0.057075907 0.11332739 0.13877653 -0.03244893 0.13968949 0.13318595 0.07032629
0.03310997 -0.083569966 0.13567993 -0.03403295 0.0561211 0.20305745 0.07783998 0.015092199
0.07503512 0.06749465 -0.15424901 0.16261655 -0.029894577 -0.0729907 -0.12912905 0.17771523
-0.12162603 0.16643722 -0.105095655 -0.06549196 -0.03301488 -0.05797631 -0.016968638 -0.027915172
0.14396289 0.032677084 0.17424788 0.014695986 0.01813828 -0.1270419 -0.17298774 0.06465244
0.019835947 -0.037100326 -0.0025741328 -0.09337817 -0.033980682 0.15869616 0.026212247 -0.097007275
0.058185797 -0.11349146 0.039165664 -0.027437089 0.008802068 0.18495367 -0.11600455 0.027149212
0.01706553 -0.183903 -0.082041636 -0.14532706 -0.08485261 -0.20038967 0.065318674 -0.09611772
-0.033550125 -0.08183162 -0.20443007 -0.18743585 -0.093220495 -0.13161646 0.14572716 -0.16231824
-0.15042149 0.033378873 0.12058977 0.03588615 0.09335174 -0.07143379 -0.1016645 -0.056222714
0.1295376 -0.088508055 0.15736794 -0.08964222 -0.145252 -0.04897228 -0.030652333 -0.026622374
0.20991082 -0.16597062 0.008170105 -0.1338563 -0.1503554 -0.027875187 -0.08274275 0.15479317
-0.004328231 0.06055858 0.091867924 0.01369743 -0.058686674 0.034032244 -0.17517583 -0.09532462
0.13634835 -0.07892668 -0.052203454 -0.16711959 -0.024710728 -0.0855011 -0.1259044 0.008668153
-0.12550731 -0.009731237 -0.023490462 0.047215197 0.12991239 0.04043827 -0.120822825 -0.09105555
0.032773092 0.15426835 0.17491153 -0.05037058 0.06838937 0.037614893 0.016336353 0.02252481
0.03853507 0.0057013542 -0.11784324 -0.17583045 -0.021472001 -0.027464535 0.09165797 0.16526836
0.10160459 -0.043971162 -0.008181145 0.08843007 0.11836845 0.01997533 -0.044931002 -0.14363025
0.16411948 0.11798311 0.098396964 -0.16754879 0.0068604145 -0.12567224 0.1633524 -0.06147633
0.16131821 0.13193022 -0.14281186 0.13444231 -0.08580103 0.16152585 0.13992706 -0.06975926

encoder.layers.1.self_attn.out_proj.bias f4 [32]
00000000: 9667 1cbc a7fd 88ba 4e82 09bb db5b b1bc
00000010: b8b6 573c 94c0 60ba bbd0 383c 1de6 1a3d
00000020: fc19 e83b 3d62 033b 82c3 cc38 ac62 28ba
00000030: 1f02 0a3d e7ae 1fbc 0e36 973a 67f0 353c
00000040: 6ea1 9bbc 9676 67bc 6674 6e3c d34f c1bc
00000050: 3e3c 5f3b c270 563c 1d6d 84bc 01aa 3f3c
00000060: 184d eebb f0cb a03c 674a b2bc e3ab e13b
00000070: 0fd9 f93c 11c4 1dbd ba58 1fbd 6581 d4bc
-0.009546181 -0.0010451571 -0.0020982209 -0.021650245 0.013166122 -0.0008573618 0.011280234 0.03781711
0.0070831757 0.0020047568 9.763894e-05 -0.00064233947 0.03369343 -0.00974629 0.0011536495 0.01110468
-0.018997874 -0.014127394 0.014554119 -0.023597633 0.0034063007 0.013088407 -0.01616531 0.011698247
-0.007272374 0.019628495 -0.021763993 0.0068869456 0.03049901 -0.03851706 -0.038902976 -0.025940606

encoder.layers.1.linear1.bias f4 [128]
00000000: 5145 993d d69e c23c a892 f13d 55d0 d6bd
00000010: a794 75bd 2e7d 9e3d 251b d13a b883 d8bd
00000020: 2d8c 213d ddb6 e03d 427a 963d 5643 843d
00000030: 79b0 2cbd bc08 dfbd f78d efbd bee1 b83d
00000040: 8a52 80bc af04 82bd 5592 38be bc75 11be
00000050: 2d79 f8bd f922 3a3c 7d1a ff3d 9992 2a3e
00000060: 8f02 12be 0954 17bc f798 c4bd 7072 a23d
00000070: 7ca5 18be c7fb 553d 197e b13c 8133 0ebd
00000080: a820 ffbd 9835 e53d 11dc 7ebd 6bd0 033e
00000090: e89d c53d 08b4 e8bc 385b 6e3d fba9 29bd
000000a0: 9056 1cbe accc f93c 6717 77bd 6648 bfbd
000000b0: eb9d 00be 15a0 42be 15be 193e d0e4 2a3b
000000c0: 1047 18bb 3a7d 0dbd c0a4 c23c 6f29 103e
000000d0: afff d8bc ebe5 f13d 5438 033e 2976 debd
000000e0: 1a05 8d3d 0808 c0bd 9ff8 2ebe 0bc1 d13d
000000f0: fcd1 2bbe 2981 45be f68e 7cbc 52a5 1dbe
00000100: 6b41 10be 24c2 b93d 2d19 163e 8e6a 95bd
00000110: 2b76 903d c688 afbd 7cea 213e 62a6 d7bd
00000120: 9794 95bd 6dfc a83a 00d4 5cbd 637c b43a
00000130: dd4f bdbd 38de 08be 3988 16be 50fb 7c3d
00000140: c872 c7bd c432 793d 6398 ee3d 4bcc 193e
00000150: 05c1 debc d4d2 29bd 72cf b83d 4de1 b6bd
00000160: a17b 16bd a902 973c 3eaa 2d3e bb18 fc3b
00000170: cdd6 ac3c e26f 19be 9dec a23d 9a6d 9db8
00000180: 5488 cc3c 0c51 033e bc57 a03d b67c b33d
00000190: ca0c 103e 7745 85bc 2244 27be 020a 32be
000001a0: f783 493d 5896 383d dc7f bdbd ffde 6ebd
000001b0: f830 49be 1671 52bb 141a 9ebd 9313 40be
000001c0: cf7a 5dbd 33fb a13c efc5 763d 3d74 02be
000001d0: dce0 3dbe 09b4 cb3a 2fd9 d93d 7aca 113e
000001e0: 2356 a63d 892c 3b3c 5ed1 1dbe 7129 033e
000001f0: 5190 9a3d fb74 973d 478f af3d 0099 d5bd
0.07483924 0.02375738 0.117955506 -0.10488955 -0.05995622 0.0773872 0.0015953524 -0.10571998
0.039440323 0.109723784 0.073475376 0.06458156 -0.042160485 -0.10890338 -0.116969995 0.09027432
-0.015664358 -0.063485496 -0.18024571 -0.14205068 -0.121324874 0.011360877 0.12456224 0.16657485
-0.14258789 -0.009236344 -0.09599488 0.079319835 -0.14906877 0.052242067 0.021666573 -0.034717087
-0.124574006 0.11191863 -0.06222159 0.12872474 0.09649259 -0.028406158 0.05819246 -0.04142187
-0.15267396 0.030493103 -0.060325053 -0.09339981 -0.12560241 -0.19006379 0.15013917 0.0026076324
-0.0023235716 -0.034543253 0.0237602 0.14078306 -0.026489107 0.118114315 0.12814456 -0.10862381
0.06885739 -0.09376532 -0.17087029 0.10241898 -0.16779321 -0.19287552 -0.015414944 -0.15395096
-0.14087455 0.090702325 0.14658041 -0.07295714 0.07053789 -0.08571009 0.15812105 -0.10529782
-0.07303732 0.0012892612 -0.053913116 0.001376998 -0.09243748 -0.1336602 -0.14700402 0.061763108
-0.0973869 0.06083943 0.11650159 0.15019338 -0.027191648 -0.041460827 0.09023942 -0.089296915
-0.036738995 0.018433886 0.16959473 0.007693378 0.021098519 -0.14984086 0.07955287 -7.506758e-05
0.02496735 0.12823886 0.07829234 0.08764021 0.14067379 -0.016268475 -0.16334584 -0.1738663
0.049198117 0.045065254 -0.09252903 -0.058318134 -0.19647586 -0.0032110862 -0.07719818 -0.18757467
-0.054072198 0.019773101 0.060247358 -0.12739654 -0.18542808 0.0015541326 0.106371276 0.14237395
0.08121898 0.011424192 -0.15411898 0.12808777 0.075470574 0.07395359 0.0857225 -0.10429573

encoder.layers.1.linear2.bias f4 [32]
00000000: 53cb a13c 7411 99bc 6089 623c 2a9f b5bb
00000010: d3de 473d df30 973d aa4e 7e3b 1f60 4d3d
00000020: 5871 873d 12bb e23b e866 513d a7f9 77bd
00000030: 1848 673d 6760 a43d 84a0 28bd 67da 8fbd
00000040: 2a6c 3b3d e020 f4bc f41e 8bbd eb39 1abd
00000050: ec7f ad3c f767 c3bb 3fc8 5cbd e2ba 2fbd
00000060: e8ef f0bc e579 9e3d 488b 40bd b3e8 58bd
00000070: 5118 f33c 32aa 6b3d 8d65 aebd 8738 863d
0.019750273 -0.01868508 0.013826698 -0.0055426555 0.048796486 0.07382368 0.0038804212 0.050140496
0.066134155 0.006919273 0.05112353 -0.06054082 0.05646524 0.080262 -0.041168705 -0.07024079
0.04575745 -0.029800832 -0.06793013 -0.03765289 0.021179162 -0.0059633213 -0.053901907 -0.042902835
-0.029411271 0.07738093 -0.04700783 -0.052956294 0.02967468 0.057535358 -0.08515463 0.065537505

encoder.layers.1.norm1.weight f4 [32]
00000000: 3a1b 7b3f 7050 7b3f 453d 853f a155 853f
00000010: d407 803f 2a2f 813f 9f81 7f3f 103a 7e3f
00000020: 9075 803f f0ac 833f 96d9 7f3f 2fb7 833f
00000030: 5f0e 7d3f a1c5 863f d4e7 863f 3670 863f
00000040: 37be 763f 1cc6 893f 9df8 883f d49e 773f
00000050: 633a 743f f96e 813f 543b 6b3f c1e0 843f
00000060: fbda 803f 0eb4 843f 6ede 783f 5ff7 7a3f
00000070: c6ed 823f bbb7 863f 9156 763f 2ddf 733f
0.9808842 0.9816961 1.0409323 1.0416757 1.0002389 1.0092518 0.9980716 0.99307346
1.0035877 1.0287151 0.99941385 1.0290278 0.98850054 1.0529062 1.0539498 1.0502994
0.96383995 1.0763583 1.0700871 0.9672673 0.9540159 1.0111991 0.918874 1.038109
1.0066828 1.0367448 0.972144 0.9803371 1.0228813 1.052482 0.9622584 0.95262414

encoder.layers.1.norm1.bias f4 [32]
00000000: 744a ffbc f36f 0d3b d327 9dbc c98f b63b
00000010: c7e8 aabb 2a1a c43b ab91 a1bc 2bf1 6b3c
00000020: c626 033c 1b42 263c 65bc b63c f12d db38
00000030: dab1 383a 155e 08bd 531b 2d3c 2fc4 b13c
00000040: 8272 d43b ac08 53bc dcfa 83bc f622 3cbc
00000050: d2bd ddbc daa7 3b3c 3b30 8bbc 7265 3b3d
00000060: 6cab 71bc fc16 4d3c 37dd d93b bbf8 b5bc
00000070: 3da5 d5ba 6861 85bb 1c28 7abc 2c54 05bc
-0.031163432 0.002158162 -0.019184029 0.0055713397 -0.0052157375 0.0059845643 -0.01972278 0.014400761
0.00800485 0.010147597 0.02230663 0.00010451291 0.0007045545 -0.03329285 0.010565597 0.021699993
0.006483377 -0.0128804855 -0.01611083 -0.011482945 -0.027068052 0.011453593 -0.016990772 0.045751043
-0.014750343 0.012517687 0.0066486853 -0.02221333 -0.0016299855 -0.0040704496 -0.015268352 -0.008137744

encoder.layers.1.norm2.weight f4 [32]
00000000: 3a26 8c3f c7f6 963f 90db 983f 7609 8d3f
00000010: 41a9 8d3f 790d 983f c2f4 8b3f 8ab8 993f
00000020: 65fc 8d3f de1d 8a3f 30c1 8d3f 4128 963f
00000030: d3ca 963f e690 923f 1bd5 9d3f 4b7f 913f
00000040: 45d0 963f 457b 913f d616 9b3f 4da6 8f3f
00000050: 63ad 8a3f e470 913f 7a2e 8e3f 3390 8b3f
00000060: 9577 8d3f 3dec 933f c58b 8f3f b68b 913f
00000070: 1106 9d3f 5d63 8c3f 5cf7 8f3f 241e 883f
1.0949166 1.179406 1.1942005 1.1018512 1.1067277 1.1879112 1.0934069 1.2009442
1.109265 1.0790365 1.1074581 1.1731035 1.1780647 1.145047 1.233066 1.1366972
1.1782309 1.1365744 1.2116344 1.1222626 1.0834163 1.1362576 1.1107934 1.0903381
1.1052119 1.1556469 1.1214529 1.1370761 1.2267476 1.0967823 1.1247363 1.0634198

encoder.layers.1.norm2.bias f4 [32]
00000000: 974c b5bc 7c0f ddbc ee17 00bd fe50 61bd
00000010: d5a8 fa3c 4d6c 873d a5e9 42bd e0fd 183d
00000020: 9ef0 643d b03e 893d fbab 493c 8b62 79bd
00000030: 2629 0d3c fbc1 adbd f358 ddbc c33e 333d
00000040: 0b2d 6fbc e567 113d 0875 623d deb9 e53c
00000050: b0bf 7d3d 389d c1bc d455 84bd 0d43 713d
00000060: c6a2 8cbd 6740 2c3d 1ddb febb 5f9c ae3d
00000070: 47c5 2d3d ba9c 17bd 93ef f9bc c222 693d
-0.022131247 -0.026984923 -0.03127282 -0.05500888 0.030598084 0.066124536 -0.047586102 0.03735149
0.055893533 0.0670141 0.01230907 -0.060884994 0.008615768 -0.084842645 -0.027019953 0.043761026
-0.014598141 0.035499472 0.05528739 0.02804273 0.061950386 -0.023634538 -0.06461683 0.058901835
-0.06866984 0.042053606 -0.007777585 0.08525919 0.042424466 -0.0370147 -0.030509746 0.056917913

pool.net.layers.0.bias f4 [64]
00000000: c7b4 733d 4f0b 0e3d 50ea bc3e 9806 2fbe
00000010: df2c 623e 8c58 123e 3d10 6c3e 3b5c 63bd
00000020: 2d1c 6fbc 5fea 9bbd cf50 2b3e 4d49 173e
00000030: 1218 a4bd d662 4f3e 8560 0abc 9304 05bd
00000040: 4216 133e 1e91 4abd 269a 753d 4b67 ef3d
00000050: 1014 8bbd 0989 c53d 554f d63d abde 353e
00000060: e713 bfbd da08 fdbd 52c7 c6bc e938 8dbd
00000070: 3af0 b13b e8c8 bbbc ba65 4e3e 7207 9b3e
00000080: ef53 04be 732a a73d 2957 c53d f3d4 4c3e
00000090: 6ad9 75bd 69d7 023e 64e7 2b3e 7564 123e
000000a0: 68ae 58bd a82e 6fbc 15de 3dbc 9180 0bbe
000000b0: 57ca 3b3d 0fc6 dfbb d2a6 8c3c 9747 303e
000000c0: a41c d93e 5c39 7bbc bae3 8cbd 6399 8b3e
000000d0: 11ad 863e 6030 213e 6887 933e c861 bfbc
000000e0: 7826 4cbc bb47 813e b59c e13d 65b5 2abd
000000f0: 0617 3a3e 251b 823c a415 72bc 00ac 523e
0.059498575 0.034678753 0.36897516 -0.17092359 0.2208743 0.1429159 0.2305307 -0.05550788
-0.01459412 -0.07613062 0.16730045 0.14774056 -0.080124035 0.20252547 -0.008445864 -0.032475065
0.1436396 -0.0494548 0.05996146 0.116896234 -0.06790936 0.09645278 0.1046435 0.17760722
-0.09329968 -0.12355204 -0.024264965 -0.068956204 0.0054302486 -0.022922948 0.20155993 0.30279118
-0.12922643 0.081623934 0.09635765 0.20003109 -0.060021795 0.12777485 0.16787487 0.14296134
-0.0529007 -0.014598526 -0.011588593 -0.13623263 0.045847263 -0.0068290303 0.01716939 0.1721481
0.42404664 -0.0153335 -0.06879373 0.27265462 0.26303914 0.1574111 0.28814244 -0.023362055
-0.012460344 0.25250039 0.110162176 -0.041676898 0.18172845 0.015882084 -0.014775667 0.20573425

pool.net.layers.2.bias f4 [32]
00000000: ea4b 3f3a 7bc0 5f3c f983 863d 5f66 013c
00000010: 92db 873c 5fce 5cbd c5d5 a33b 5e47 58bd
00000020: 08cc e8bb 89ec ac3d 11ed f63d 6278 b93c
00000030: 99df db3c abb9 bcbc 7537 1d3d f1da 873d
00000040: 0085 eebd 7f13 4e3d fdbb b43d cf74 f0b9
00000050: 3627 7bbd fd91 ab3d db19 553d 489c e73c
00000060: 9d27 403d 0240 563d 194c f23c 5668 993c
00000070: e7e9 f1bd 87da dabd 5589 a03d 3aba cd3c
0.0007297384 0.013656731 0.065681405 0.007897942 0.016584191 -0.05390775 0.0049998485 -0.052802436
-0.0071044005 0.08443553 0.120569356 0.02264041 0.026840018 -0.023037752 0.038382966 0.06633557
-0.116464615 0.05031156 0.088249184 -0.00045863396 -0.06131669 0.083774544 0.05202661 0.028272763
0.04691278 0.052307136 0.029577302 0.018726509 -0.118121915 -0.10686212 0.07838694 0.025113214

net.layers.0.weight f4 [64, 32]
00000000: 5ef4 8c3e 4eab 5c3d 20fc 913e 2d4e dd3d
00000010: 5e85 313d 0517 85bb a229 b0bd 1ee8 94bd
00000020: a862 0b3e 074d df3c 3922 e5bb 1864 c1bd
00000030: 603c 3cbe 0214 c8bd 9983 69bd c3fc f23d
00000040: a229 a33c b67e bc3d 186c 46bd a0de 143e
00000050: 3c77 d8bd f8c8 11bd 5dd2 aa3d 7aa9 08bd
00000060: 98f0 4a3e 1d46 a13d 6b6b e73d 822b 42bd
00000070: 7979 63be 931d f0bd 8b93 e6bd beef 89bc
00000080: 2875 503e e52b 273e 21b0 623d aeaa 5ebd
00000090: f566 823c 54e1 d73c 1288 aabd abe5 02be
000000a0: c3b9 ccbc 18f3 fa3c b625 7abe 6c8b a8bd
000000b0: 3b89 72be 46d0 51bc 6783 2b3e 8dcf c2bd
000000c0: 80e6 bb3d 025a f63c 060c 833d 79ce 71bd
000000d0: 2d1c 903d 1f88 e7bd cf1a bc3d 087a bdbd
000000e0: 11d4 ebbd ed7c fa3d badc acbd 183b 533e
000000f0: d3cc 383d 4b3a 173e 5aca f7bd 7509 093e
00000100: c6d9 cb3d 3c27 0d3e ac0b 8abd eb61 8a3c
00000110: d5f5 413d 0d0e 74be dbb1 9b3d abad d7bd
00000120: b7a8 c4bd bded 7e3d 24ce 373c 779c bdbd
00000130: 575a 42be 98a2 06be a931 153e 8560 133e
00000140: d060 aa3d 5ba2 f23d 6509 62bd 6b2f 1abe
00000150: ea51 92bd 359a 15be 3394 163d 3d7d 063e
00000160: 7268 843d 09ac 743d 0bd5 ba3d 4e9e ef3d
00000170: 42c2 253e bbc8 b7bd 8149 febb ae0a 2bbd
00000180: 4060 2b3d 5bc1 96bc 0d48 b0bd 9b28 47bc
00000190: add1 e3bb eeee 1d3c e06d 57be 2472 573d
000001a0: abfb 473e 0143 b53d 7732 bc3d 6750 42be
000001b0: 8a21 49bc 3e96 66be 29c1 bfbd f112 2a3e
000001c0: c27a 4abd e878 593c 8a6a 6f3c 8255 0d3e
000001d0: 5901 a53d 5387 8a3a 3a45 e4bc 2869 66bd
000001e0: 737d 4dbe bc51 23be 40ed 09be 77fb 9ebc
000001f0: cdc5 e6bc 02b2 d9bd 08fa 033e 5584 9dbd
00000200: dd47 c73d 19a8 40be 569b 393d 19a8 46be
00000210: d785 363e 47b3 e43c 7bbb 40be 029a 9d3c
00000220: 480a 923d 64c6 db3d 8a22 8f3b 7197 41be
00000230: a248 413e 181f c2bd c5c0 42be 725b 49bd
00000240: 8ca3 aa3d 33e3 cd3d c45e 0fbe 1124 013e
00000250: a01b d0bd ce2e 65be dd4e 79be 6bd4 3b3e
00000260: 44a0 173d f04c 0ebe 5a2f 753d 7c23 14bd
00000270: bb4e d0bd 0546 f6bd 54b5 863c c34e d23d
00000280: 7e63 b03d 7b2a 1b3d 0635 cfbd 0ac6 c93d
00000290: ac3f 683e d5ce a63e 79c4 debd aded 963d
000002a0: 5f34 6a3e ffeb 573d 4ee6 a5bd da22 96bd
000002b0: 0cc6 8b3e 4262 1abd 0ec6 db3c dfa5 233e
000002c0: 952e ffbc 6b94 efbd d6a7 e9bd 17af 93bd
000002d0: e016 fe3d 3e64 cfbd 85b4 44bd cc9d 41be
000002e0: 86b1 05be 7f40 e6bd 8abf 113e 6ab2 963c
000002f0: d99a 703c bf53 aa3d 72f6 9a3d 4a69 8bbd
00000300: 0f69 a1bd 89e9 093c 68bc 61bd 8bd3 1fbe
00000310: 409b 893d 77bc 8a3e b437 69bd c283 d43d
00000320: 5bd3 0c3e cb8c 6a3b 14d6 a7bc 2564 ff3c
00000330: a208 653e 597b a8bc d4e9 2ebe b2e4 0fbc
00000340: b0bf 913c 3167 eb3c 93ec b53d ec7c 173e
00000350: 7506 5f3d e271 adbd f96e 43be 2f4a 1e3e
00000360: fafe 17be 4c53 083e 7436 063d 1581 da3d
00000370: f29e 1bbb 0360 26be c308 5bbd eee5 493e
00000380: 6d65 783d 82af 663e 4fa4 343e 1f4d d23b
00000390: 6770 0dbe 60de 26be a37f 0d3e d343 363e
000003a0: fb3e 1f3e 7b72 52be c181 65bd 6cd9 6bbd
000003b0: 272a bcbd 6255 7ebd 1751 b23c edb5 313c
000003c0: af96 c7bb 1b56 43be 5416 b4bd 093e 1fbd
000003d0: 5453 73be 6a24 413e 13ef 133b d31d 48bd
000003e0: a596 44be 1570 c43b 62ca dd3a fda0 40bd
000003f0: 5cfd 873e 37d3 2f3e e505 f1bd f575 09be
0.27530187 0.053874306 0.2851267 0.108059265 0.04334008 -0.004061582 -0.08601691 -0.07270835
0.13611853 0.02725841 -0.006992605 -0.094429195 -0.18382406 -0.09769441 -0.057010267 0.11864617
0.019917313 0.09203856 -0.04844293 0.1453805 -0.10569617 -0.03559205 0.08340905 -0.03336475
0.19818342 0.07874701 0.11299785 -0.047404774 -0.22214307 -0.11724391 -0.1125861 -0.01683795
0.20357192 0.16325338 0.05534375 -0.05436199 0.015918234 0.026352562 -0.083267346 -0.12782924
-0.024990922 0.030633494 -0.24428448 -0.082297176 -0.23685162 -0.012806004 0.16749345 -0.095122434
0.09174824 0.030072216 0.06398778 -0.0590348 0.07036624 -0.1130526 0.09184801 -0.09251791
-0.11515058 0.12230859 -0.08440538 0.20628011 0.04511721 0.14768331 -0.120991424 0.13382514
0.09953646 0.13784498 -0.067405075 0.016892394 0.047353584 -0.23833485 0.076022826 -0.105311714
-0.09602492 0.062238444 0.011218581 -0.09258359 -0.18979774 -0.13147962 0.14569725 0.14392288
0.08319247 0.11847373 -0.05518474 -0.15057151 -0.0714453 -0.14609607 0.036762428 0.13133712
0.06465234 0.059734378 0.09122666 0.11700116 0.16187385 -0.08973833 -0.007760227 -0.04175823
0.041839838 -0.018402746 -0.086074926 -0.012155677 -0.0069524855 0.009639485 -0.21038008 0.052599087
0.19529597 0.088506706 0.09189313 -0.18975984 -0.012276063 -0.2251825 -0.09363014 0.16608788
-0.049433477 0.013273455 0.014612803 0.1380215 0.08056898 0.0010568894 -0.027865041 -0.05625263
-0.20067386 -0.15949148 -0.1346941 -0.019407017 -0.02817049 -0.106296554 0.12888348 -0.07691256
0.09730504 -0.18814124 0.045314156 -0.19400062 0.17824493 0.027917517 -0.18821518 0.019238476
0.07130867 0.107311994 0.004368131 -0.18905427 0.18875363 -0.09478587 -0.19018848 -0.049159475
0.08331975 0.100531004 -0.14000994 0.12611414 -0.10161519 -0.22381136 -0.2434649 0.1834275
0.037018076 -0.13896537 0.05985961 -0.036166653 -0.10171267 -0.12025074 0.016443886 0.10268929
0.08612727 0.03788231 -0.10117535 0.09852226 0.22680539 0.32579675 -0.10877318 0.07369552
0.2287154 0.052715298 -0.08100568 -0.07330866 0.27299535 -0.037691362 0.026827838 0.15981244
-0.031150142 -0.1169823 -0.11408965 -0.0721113 0.12406707 -0.101265416 -0.04802372 -0.18907851
-0.13056001 -0.112427704 0.14233223 0.018395621 0.014685356 0.083167545 0.07566537 -0.06807192
-0.078813665 0.0084174955 -0.05511132 -0.15608041 0.06719065 0.27096912 -0.05693789 0.10376693
0.137525 0.0035789486 -0.020487823 0.031175682 0.22366574 -0.02056663 -0.17081386 -0.008782553
0.017791599 0.028735729 0.088830136 0.14793748 0.054449517 -0.08468987 -0.19085301 0.15457986
-0.1484336 0.13313025 0.032766774 0.10669152 -0.0023745862 -0.16247563 -0.053475153 0.19716617
0.060643602 0.22527888 0.17640804 0.006417885 -0.1381241 -0.16295767 0.13818221 0.1779931
0.15551369 -0.20551483 -0.056031946 -0.057580397 -0.091877274 -0.062093146 0.021767182 0.010846597
-0.006090961 -0.19075815 -0.08793321 -0.03887752 -0.23762256 0.18861547 0.002257292 -0.048856568
-0.19198091 0.0059948065 0.0016921277 -0.04702853 0.26560485 0.17170416 -0.117687024 -0.13423903

net.layers.0.bias f4 [64]
00000000: 28ff bd3d a924 d5bd 1229 0b3e 5662 8b3d
00000010: 22ce e43d 8dce 353e 273f 543e c79a 10bd
00000020: 2b8d 82bd 276b c5bd 07c6 643e b34b cbbc
00000030: 1aab dabd 909e 163e a923 193d 9d53 06be
00000040: f251 0fbe aab6 33bd 1659 c03d 4ed1 ccbd
00000050: c1de ad3d b1ab 18be 28c2 143e df94 313d
00000060: 05ba c1bd da96 1ebe a807 6bbd 204f 3cbd
00000070: 6c7b 173e 4662 dc3b d489 613d 265d 993d
00000080: e0d4 a3bd a808 c83c 004a af3d 0d93 f13b
00000090: 6c1c a53c 6062 81bd 57b8 1239 6fa3 ad3d
000000a0: 4d25 d7bd 0b12 3b3e c1e1 97bd 73a9 a4bd
000000b0: cf83 b13d 5546 303e 4086 a4bd fc79 623c
000000c0: 6200 b4bd 3834 f83d 065f 2ebd 4b5b 023e
000000d0: 0116 1d3e caaf 0d3e c9de 043e 513a 0abe
000000e0: 47d0 82bd 4422 c13b b702 12be 204f 093e
000000f0: 97b2 86bd a67f 05be 26c6 f03d c954 30be
0.09277183 -0.10407383 0.13589886 0.068058655 0.11172129 0.17754574 0.20727216 -0.035303857
-0.06374582 -0.09639578 0.22341166 -0.02481637 -0.10677166 0.14708924 0.037387524 -0.13117833
-0.13996103 -0.043875374 0.09391992 -0.10000859 0.084897526 -0.14909245 0.1452719 0.043354865
-0.094593085 -0.15487233 -0.05738035 -0.045973897 0.14793175 0.0067255823 0.055063084 0.0748847
-0.07999587 0.02441819 0.08559036 0.007372266 0.020155154 -0.06317592 0.00013992317 0.08478438
-0.105051614 0.18268602 -0.07416106 -0.080401324 0.086677186 0.1721433 -0.08033419 0.013823029
-0.087891355 0.12119335 -0.04257109 0.12730138 0.15340425 0.1383659 0.12975611 -0.13498808
-0.06387382 0.0058939774 -0.14258848 0.1340909 -0.06577032 -0.13036975 0.11756544 -0.17219843

net.layers.2.weight f4 [1, 64]
00000000: dcfd 563e 4015 343e 5219 4c3d 22ec 1bbe
00000010: 6f00 d7bd d97e 46be 52de 43be a6dd 7fbe
00000020: ea53 96be 55b5 fe3d fe26 91bd 716b 413e
00000030: 73c7 c4be 370a 25bd 0499 28be a791 6d3e
00000040: ac13 0b3e 90d5 e43d 9138 853d 14e1 1d3e
00000050: 8cd7 68be bae7 453e 7938 6d3e 0d0d 183e
00000060: f2fc 8a3d c371 963d ef9c de3d 485d 343e
00000070: ce0d 3c3e bc74 c4be 3f3b 42be 8da7 2a3e
00000080: 2486 833e f27c 923e 20bf c23d 38ae 1bbe
00000090: a717 7dbe bf6d f9bd dcc6 43be 5c59 183e
000000a0: 86df 24be 4bff e83d 5252 30be f1c6 e43d
000000b0: 7dd3 a6bd e47a 6cbd 8a76 b73e 2f07 5cbe
000000c0: eb86 b5be f1ac 23bd c853 a63e 409e 213d
000000d0: 2dc2 683e 034d 19be 13d2 2ebe e451 433e
000000e0: f2f6 71be 3adb 6c3e a123 9fbe c262 78be
000000f0: 9638 d0bd 0776 d0bd 2045 edbe 9808 233e
0.20995277 0.17586231 0.049828835 -0.15226796 -0.104981296 -0.19384326 -0.19127777 -0.24986896
-0.29360896 0.1243693 -0.07087515 0.18888642 -0.38433418 -0.040292945 -0.16464621 0.23200093
0.13581723 0.11173546 0.0650493 0.15417892 -0.22738475 0.19326678 0.23166074 0.14848728
0.06786527 0.07345917 0.108697765 0.17613709 0.18364641 -0.3837031 -0.18967913 0.16665478
0.2568828 0.2861095 0.095091105 -0.15203178 -0.24716054 -0.121791355 -0.19118828 0.14877838
-0.16100892 0.11376818 -0.17218903 0.111707576 -0.08145807 -0.057734385 0.35832626 -0.21487115
-0.35454497 -0.03995985 0.32485795 0.03945756 0.22730322 -0.14970784 -0.17072324 0.19074208
-0.23629358 0.23130503 -0.3108187 -0.24256423 -0.10167043 -0.10178762 -0.463418 0.15921247
