onnx/Proposed/proton.onnx (onnx, 196178 bytes, 35 tensors)

emb.layers.0.bias f4 [128]
0	0x3e3dd762	0.18539193
1	0x3dd164f9	0.10224337
2	0x3c8add69	0.01695128
3	0x3d804c73	0.062645815
4	0x3cb1588a	0.021648664
5	0xbe32cb06	-0.1746026
6	0x3e1b513b	0.15167706
7	0xbbd5dd07	-0.0065265927
8	0xbcd2683b	-0.025684467
9	0xbe5913da	-0.21198979
10	0xbe19b3ae	-0.15009949
11	0xbca0f181	-0.019646408
12	0xbe1d791c	-0.15378231
13	0xbe7dd450	-0.24788022
14	0x3b7131ad	0.003680329
15	0x3e1ec916	0.15506396
16	0x3e22ae4b	0.158868
17	0x3dba8c07	0.09108739
18	0xbe1e4f83	-0.15460019
19	0x3d1a9dd7	0.037748184
20	0xbdef1de8	-0.11675626
21	0x3c8d6ccd	0.017263794
22	0x3df3fa21	0.11912943
23	0x3e0ab267	0.13544618
24	0x3e20f9a6	0.15720233
25	0xbe2c32d3	-0.16816263
26	0xbdcf6462	-0.101265684
27	0xbd541926	-0.051781796
28	0xbdb43a98	-0.08800238
29	0x3e546ca5	0.2074457
30	0xbcbd1e49	-0.02308573
31	0xbe42de69	-0.19030155
32	0xbdf442c7	-0.11926799
33	0x3e47612c	0.19470662
34	0xbd7a79f1	-0.06115145
35	0xbdac597a	-0.08415504
36	0x3e650e28	0.22368681
37	0xbc164e43	-0.0091739325
38	0xbd9f8067	-0.07788163
39	0xbc88de21	-0.016707482
40	0xbe201214	-0.15631896
41	0xbdd8c7e0	-0.10584998
42	0xbdece73e	-0.115675434
43	0xbd02d454	-0.031940773
44	0x3e16516a	0.14679495
45	0xbda5a819	-0.08088703
46	0xbe4a1442	-0.1973429
47	0xbab77984	-0.0013998006
48	0xbe37e388	-0.1795789
49	0x3e51bd0d	0.20482273
50	0x3e263b47	0.1623355
51	0xbdb4a688	-0.08820826
52	0x3d99e815	0.07514969
53	0xbc1e237e	-0.009652017
54	0x3d3e49a0	0.046456933
55	0xbd9dae2d	-0.07699237
56	0x3de63a22	0.11241557
57	0x3d9c4f7d	0.07632349
58	0xbdf05de5	-0.11736659
59	0xbddf2532	-0.10895766
60	0x3e62af7d	0.22137256
61	0x3ddc6312	0.10761084
62	0x3d69bab4	0.05706282
63	0xbcafc04d	-0.021454
64	0x3e455ce1	0.19273712
65	0xbd7ac125	-0.061219353
66	0xbe0c5b16	-0.13706622
67	0x3e0f4232	0.13990095
68	0x3d90352e	0.07041393
69	0x3e20f9f3	0.15720348
70	0xbdd07f2b	-0.10180505
71	0x3daf6a1e	0.08565162
72	0x3ca82299	0.02052431
73	0x3d833355	0.06406275
74	0x3e0f73c1	0.14009
75	0x3dc87288	0.0978747
76	0x3e20c6b5	0.157008
77	0xbc02e3ec	-0.007988911
78	0x3de7c3a4	0.11316612
79	0x3ddb86dd	0.107190825
80	0x3c32f088	0.010921605
81	0x3d97bf52	0.07409538
82	0xbe4ef137	-0.20209204
83	0x3d703939	0.05864832
84	0xbda925ad	-0.08259139
85	0x3d918423	0.07105281
86	0xbde36cf6	-0.11104767
87	0x3e1275fe	0.14302823
88	0x3d6e23b5	0.05813952
89	0xbe0f7dd4	-0.14012843
90	0xbe020e93	-0.12700872
91	0xbe143fd3	-0.14477472
92	0x3df30570	0.118662715
93	0x3d9d99be	0.076953396
94	0xbd1b5634	-0.037924007
95	0xbd8d875d	-0.06910584
96	0x3e0109ec	0.12601441
97	0xbd3b31cd	-0.04570179
98	0xbdb3ef6b	-0.087859
99	0x3e1535a4	0.14571244
100	0x3e35615c	0.17712921
101	0x3e0730fa	0.13202277
102	0xbe182bf7	-0.14860521
103	0x3ddf09a5	0.108905114
104	0x3da26e24	0.07931164
105	0xbd913013	-0.070892476
106	0xbe340376	-0.17579445
107	0xbdde8b64	-0.108664304
108	0xbd44d0d2	-0.04805071
109	0xbd267611	-0.04063994
110	0xbe2aceca	-0.16680446
111	0x3d3cf141	0.046128515
112	0xbd1c633c	-0.038180575
113	0xbdc1877d	-0.094496705
114	0x3ce82255	0.028336683
115	0xbe353238	-0.17694938
116	0xbe0dea52	-0.13858917
117	0xbde7716d	-0.11300931
118	0x3e35e897	0.17764507
119	0xbe235b87	-0.15952884
120	0xbe21d7f8	-0.15805042
121	0x3d2bed18	0.041974157
122	0x3d702c9c	0.058636293
123	0xbe2a2fc6	-0.16619787
124	0x3e290dec	0.16509217
125	0xbce227d4	-0.027606882
126	0x3dc4ad2c	0.096033424
127	0xbda63397	-0.08115309

emb.layers.2.bias f4 [32]
0	0x3d3dca88	0.046335727
1	0x3d9a03cf	0.07520258
2	0x3d876497	0.06610983
3	0xbc62bd27	-0.013839043
4	0xbc80325a	-0.01564901
5	0xbc404b52	-0.011736708
6	0x3d8830d3	0.066499375
7	0xbcec9fbb	-0.02888476
8	0xbcc23075	-0.023704747
9	0xbd30aa32	-0.04313106
10	0x3d3e909f	0.04652464
11	0x3da7cfac	0.08193907
12	0xbca97279	-0.020684468
13	0xbd94a371	-0.072577365
14	0x3d3e3465	0.046436686
15	0x3dbebb8f	0.09313118
16	0xbd9539c7	-0.07286411
17	0xbceb7652	-0.028742943
18	0x3b93e6f3	0.0045136153
19	0x3d3646b4	0.04450102
20	0xbc1b3c4f	-0.009474828
21	0xbdc0909a	-0.094025806
22	0xbc211fc5	-0.009834235
23	0x3bee81fd	0.0072786794
24	0x3d7b4da5	0.061353344
25	0xbc693e14	-0.014235992
26	0x3da4abb2	0.08040561
27	0x3dc944f2	0.098276034
28	0xbd7422f0	-0.05960363
29	0xbd51037d	-0.051028717
30	0xbdaf475b	-0.08558532
31	0x3d96547a	0.073403314

encoder.layers.0.self_attn.in_proj_bias f4 [96]
0	0xbde5469b	-0.111951075
1	0xbdff97d3	-0.1248013
2	0xbde79af5	-0.113088526
3	0xbdf3d6e0	-0.119062185
4	0xbe0296ee	-0.12752888
5	0x3dbfdf8f	0.09368812
6	0x3de64ebc	0.11245486
7	0x3de18e62	0.110134855
8	0xbdd3ac9f	-0.10335659
9	0xbe0db930	-0.13840175
10	0xbddee47c	-0.10883424
11	0x3dcc14e2	0.099649206
12	0xbde92e8a	-0.1138583
13	0x3d5454f1	0.05183882
14	0xbd919776	-0.07108967
15	0xbdcd9300	-0.10037804
16	0x3daa8100	0.08325386
17	0xbd9a470d	-0.07533083
18	0xbd89bd27	-0.06725531
19	0xbd94e7e8	-0.07270795
20	0x3dab595e	0.08366655
21	0x3d9dc36f	0.077032916
22	0x3da60a34	0.08107415
23	0xbda1c689	-0.07899196
24	0x3dcee72d	0.10102687
25	0xbdafa848	-0.08577019
26	0xbc527f42	-0.012847723
27	0x3dcc3849	0.09971673
28	0xbddfd378	-0.10929006
29	0x3d873e23	0.066036485
30	0xbda32af2	-0.079671755
31	0x3d156e61	0.03648222
32	0x36b3f8b5	5.363569e-06
33	0x37c057d9	2.292909e-05
34	0xb7a0c498	-1.9165032e-05
35	0xb8142bba	-3.5326673e-05
36	0x379ca31e	1.8672607e-05
37	0xb67a88ce	-3.7332534e-06
38	0xb7856abb	-1.5904536e-05
39	0x37b6f69f	2.1810933e-05
40	0x36069658	2.0055068e-06
41	0x37aa9cdf	2.0338628e-05
42	0xb72f9fbb	-1.0468003e-05
43	0x37cfe617	2.4783467e-05
44	0xb708159e	-8.111265e-06
45	0x3730cab6	1.0537615e-05
46	0xb791493e	-1.7319453e-05
47	0xb6eab28b	-6.9945286e-06
48	0xb5e1781d	-1.6798764e-06
49	0x369f2435	4.7427843e-06
50	0x36e9b897	6.96543e-06
51	0xb6a32dbf	-4.863104e-06
52	0xb6f08284	-7.1677514e-06
53	0x36c7ec21	5.958151e-06
54	0xb6e628d2	-6.8592863e-06
55	0xb741a740	-1.1542637e-05
56	0x38296d84	4.0394734e-05
57	0x371e19e7	9.423565e-06
58	0x37c07637	2.2943232e-05
59	0x37614039	1.3425998e-05
60	0xb688b5ed	-4.074295e-06
61	0xb52b316d	-6.377439e-07
62	0xb784a9be	-1.5814669e-05
63	0xb610688d	-2.1518529e-06
64	0x3cacae74	0.02107928
65	0x3c7948b0	0.015215084
66	0x3c81be00	0.01583767
67	0xbcdaf8a3	-0.026729887
68	0x3b5232fd	0.0032073848
69	0x3c3687f2	0.01114081
70	0x3caeb476	0.021326285
71	0xbca25348	-0.019815102
72	0x3c912d78	0.017721877
73	0xbcdaf9dd	-0.026730472
74	0xbbbca9f8	-0.0057575665
75	0x3d1b299f	0.03788149
76	0x3b966611	0.004589804
77	0x3be35acf	0.0069383155
78	0x3cb599d4	0.022168078
79	0xbce2b334	-0.027673341
80	0xbc5bc2bc	-0.0134131275
81	0x3d2b4698	0.04181537
82	0xbc45eeb7	-0.01208084
83	0xbc129d0d	-0.008948577
84	0x3cb122da	0.021623064
85	0x3b179033	0.002312672
86	0xbc8f574e	-0.017497685
87	0xbce57b8d	-0.028013015
88	0xbceaf1c1	-0.02867973
89	0x3cd61aeb	0.026135882
90	0xbba942f6	-0.005165453
91	0xbcfb4393	-0.03067187
92	0xbbb73abb	-0.005591718
93	0xbc9e6c67	-0.0193388
94	0xbcd29d2d	-0.025709713
95	0xbd09b3d6	-0.03361877

encoder.layers.0.self_attn.out_proj.weight f4 [32, 32]
0	0x3e2b97ac	0.16757077
1	0x3da505ea	0.08057769
2	0xbe126371	-0.14295746
3	0xbd90d6b2	-0.070722
4	0x3e034bc7	0.12821876
5	0x3d3886bc	0.045050368
6	0x3cf7032b	0.030152878
7	0xbdfce167	-0.123476796
8	0xbe1c20dc	-0.1524691
9	0x3cf69861	0.030101957
10	0x3d3bef8e	0.045882754
11	0x3d9b88c7	0.075944476
12	0xbe21ab3a	-0.15787974
13	0x3dceb7a7	0.10093623
14	0xbe1f419f	-0.15552376
15	0xbe00bcfe	-0.12572095
16	0x3d8b07e4	0.067886144
17	0xbd409123	-0.047013413
18	0xbe45e2be	-0.19324777
19	0xbd1d0100	-0.03833103
20	0x3d3af997	0.045648184
21	0xbd270e55	-0.040785152
22	0xbe02ff78	-0.12792766
23	0xbd14455f	-0.03619897
24	0xbcdb7ba3	-0.026792353
25	0x3e1c5f92	0.15270832
26	0x3cfa71be	0.030571815
27	0xbd114269	-0.035463724
28	0x3df1c36c	0.11804852
29	0xbdb5dd94	-0.08880153
30	0x3d790b9f	0.0608021
31	0xbdd92139	-0.1060204
32	0xbd80152d	-0.06254039
33	0xbe1caa06	-0.15299234
34	0xbdeda62c	-0.116039604
35	0xbcea771c	-0.028621249
36	0x3ad48c06	0.0016216047
37	0xbda93c04	-0.082634
38	0x3d7a807e	0.061157696
39	0xbab3a487	-0.0013705649
40	0x3de73737	0.11289828
41	0xbdf58f32	-0.11990203
42	0xbddd5c97	-0.10808676
43	0x3e22f9ac	0.15915555
44	0x3d2ae4b5	0.04172202
45	0x3dee0d31	0.1162361
46	0xbbf2fd3c	-0.007415442
47	0xbdeec606	-0.11658864
48	0xbccee471	-0.025255414
49	0x3d11f7ae	0.035636596
50	0xbd9a5430	-0.07535589
51	0x3d9621b7	0.07330649
52	0x3c6b2d42	0.014354052
53	0x3d7f1454	0.062275246
54	0x3e34d57a	0.1765956
55	0x3db104fd	0.086435296
56	0x3d860eb1	0.06545771
57	0x3d82d5c8	0.06388432
58	0xbdf522e6	-0.11969547
59	0xbda6351e	-0.081156
60	0x3d9f579f	0.07780384
61	0x3c45f252	0.012081699
62	0xbc4a92b5	-0.012364079
63	0xbd14fa0b	-0.036371272
64	0x3d4b5cf6	0.0496492
65	0xbc5e943a	-0.013585145
66	0x3e1ebce5	0.15501745
67	0xbda87d8a	-0.0822707
68	0xbdb6fa3b	-0.089344464
69	0x3d9fc8b6	0.078019544
70	0x3d83fce1	0.06444717
71	0xbe1523c5	-0.14564426
72	0x3cc44e91	0.023963245
73	0xb98db98b	-0.00027031856
74	0x3daea680	0.08527851
75	0x3da823c0	0.08209944
76	0xbc9bd646	-0.019023072
77	0xbd7d6606	-0.061864875
78	0x3dbe8e30	0.09304464
79	0x3dfb0d25	0.122583665
80	0xbd186b42	-0.037211664
81	0x3d1565a9	0.036473904
82	0xbcbea670	-0.023272723
83	0xbda86070	-0.08221519
84	0x3e074099	0.13208236
85	0x3d8290ec	0.06375298
86	0x3d8ca971	0.06868256
87	0x3de4b5f7	0.111675195
88	0xbc8a336c	-0.016870223
89	0xbe38a4c2	-0.180316
90	0xbcd96a31	-0.026539894
91	0x3dc45e62	0.095883146
92	0xbd5b6bd8	-0.053569645
93	0xbe2d3d75	-0.16917975
94	0xbde2c5c3	-0.11072876
95	0x3d637b53	0.055537533
96	0xbd9701e0	-0.073734045
97	0xbe019688	-0.1265508
98	0x3d7376a9	0.059439335
99	0x3ddc9618	0.107708156
100	0xbe0766dc	-0.13222831
101	0x3dda5e15	0.10662476
102	0xbdf752d8	-0.12076348
103	0xbe309e5f	-0.17247914
104	0x3e1a45c6	0.15065679
105	0xbd9ac407	-0.075569205
106	0x3db47e63	0.08813169
107	0xbd0caf1e	-0.034346692
108	0xbdb2d9c0	-0.08732939
109	0x3e5de1a9	0.21668114
110	0xbda3fbc4	-0.08007005
111	0x3e31cfc1	0.17364408
112	0xbc5525f3	-0.013009536
113	0x3d8274d0	0.063699365
114	0xbd3eb371	-0.046557847
115	0x3c12ff46	0.008971995
116	0xbcdedba1	-0.027204337
117	0xbde69d4b	-0.1126047
118	0x3e190acf	0.1494553
119	0x3de47d39	0.11156697
120	0x3c8b5e8c	0.017012857
121	0x3d84755a	0.064676955
122	0xbdafadad	-0.08578048
123	0x3ce0f7d8	0.027461931
124	0x3d501f75	0.05081125
125	0x3e11e42d	0.14247198
126	0xbdbe1b7e	-0.092825875
127	0xbd16b2bb	-0.036791544
128	0xbd3ebe17	-0.046568003
129	0x3e5aa7a2	0.2135301
130	0x3dfcad64	0.12337759
131	0xbe1249fe	-0.14286038
132	0xbd89a76a	-0.06721385
133	0x3e36d489	0.17854513
134	0x3e5dbb16	0.21653399
135	0xbd132064	-0.035919562
136	0xbd95c4ed	-0.07312951
137	0x3c3f8de7	0.011691547
138	0xbdb8dc76	-0.090264246
139	0x3e020219	0.12696113
140	0x3d6424ac	0.055699036
141	0x3d6af13d	0.05735897
142	0xbd6629d1	-0.056192223
143	0xbb9b5f10	-0.004741557
144	0xbdc69a1f	-0.09697365
145	0x3db4dc24	0.08831051
146	0x3e26d1bf	0.1629095
147	0x3b956622	0.0045592943
148	0x3e17e4d3	0.14833383
149	0x3d960ccd	0.0732666
150	0xbdf5aeea	-0.11996253
151	0xbe04845b	-0.12941115
152	0xbe373236	-0.17890248
153	0x3db10dd7	0.08645218
154	0xbe0c091c	-0.1367535
155	0xbe16f65a	-0.14742413
156	0xbe234a32	-0.15946272
157	0xbe571d83	-0.21007352
158	0xbe21b133	-0.15790252
159	0xbbf301f2	-0.0074160034
160	0x3e3dcd01	0.18535234
161	0xbde4f320	-0.11179185
162	0xbdd14559	-0.10218305
163	0xbdb83bf1	-0.08995808
164	0x3c7b257d	0.015328762
165	0xbd4d646f	-0.05014461
166	0x3e56bbd8	0.20970094
167	0x3becc0bc	0.007225124
168	0x3e2c061c	0.16799206
169	0xbd96494f	-0.07338201
170	0x3cc1101c	0.023567252
171	0xbd9e34d8	-0.07724923
172	0x3e367119	0.17816581
173	0xbdcbb65a	-0.0994689
174	0xbd1a7afe	-0.03771495
175	0x3e08c231	0.13355328
176	0x3c63d83f	0.013906538
177	0xbd870812	-0.06593336
178	0x3e05440f	0.13014244
179	0xbd878d19	-0.06618709
180	0xbb4192f8	-0.0029537063
181	0x3dbc43eb	0.09192642
182	0x3dcb86f0	0.09937847
183	0xbdd56d0e	-0.10421191
184	0xbe43a0d7	-0.19104324
185	0x3b153d3c	0.0022772094
186	0xbd072909	-0.03299812
187	0x3d10479a	0.035224535
188	0x3cbab3a8	0.022790745
189	0xbe0dc705	-0.13845451
190	0x3e03c2f6	0.1286734
191	0xbb501166	-0.0031748652
192	0xbe1030dd	-0.1408114
193	0x3d4f73ce	0.05064755
194	0x3ce4f1e6	0.027947377
195	0x3dd6e606	0.10493092
196	0x3dc50b73	0.096213244
197	0xbb1b28a6	-0.0023675351
198	0x3e164024	0.14672905
199	0x3e1fc1a6	0.15601215
200	0x3dfa83fe	0.12232207
201	0xbbfc37c5	-0.007697078
202	0x3dcbf361	0.0995853
203	0x3c443c58	0.011977278
204	0x3d1c4bba	0.038158156
205	0x3ddf48d3	0.10902562
206	0x3cbde62f	0.02318105
207	0xbdca99b5	-0.098925985
208	0xbd42de18	-0.047575086
209	0xbd77e653	-0.06052239
210	0x3d96f256	0.07370441
211	0x3e05eb8d	0.13078137
212	0xbd23b519	-0.03996763
213	0x3c71b9d5	0.014753778
214	0x3e1ddd2c	0.15416402
215	0x3de6b022	0.112640634
216	0x3de9655b	0.11396285
217	0xbd06c192	-0.032899447
218	0xbdf4f883	-0.11961462
219	0xbc81300d	-0.015769983
220	0x3e01f0dd	0.12689538
221	0x3d310ddf	0.04322612
222	0xbccd9cf4	-0.025099255
223	0xbdc61e98	-0.09673804
224	0x3da56895	0.08076588
225	0xbcc7d61e	-0.024394091
226	0xbe2fc5b8	-0.17165267
227	0x3db34ae2	0.08754517
228	0xbd6b776f	-0.057486948
229	0x3dcee4ec	0.10102257
230	0xbdfc37e2	-0.12315346
231	0xbe06061f	-0.13088273
232	0xbc80a6b7	-0.015704496
233	0x3d71b3bb	0.059009295
234	0xbd5d5e03	-0.054044735
235	0xbdb7fccc	-0.08983764
236	0x3df66212	0.12030424
237	0x3e20d5cb	0.15706556
238	0x3da26e78	0.079312265
239	0x3df34fc4	0.118804485
240	0x3db9f175	0.090792574
241	0xbe0e3551	-0.13887526
242	0x3d0af171	0.033921663
243	0x3e2f972b	0.1714751
244	0x3e3eddcb	0.18639295
245	0x3dab4e04	0.0836449
246	0x3cf3ac9e	0.029745396
247	0x3daed6bf	0.08537053
248	0xbd5c0b96	-0.053721987
249	0x3d5012a5	0.05079903
250	0xbd5f604f	-0.054535206
251	0x3d52ae9b	0.051436048
252	0xbd14c2fe	-0.03631877
253	0x3cf046a0	0.029330552
254	0x3c27c742	0.010240378
255	0xbe452aaa	-0.19254556

encoder.layers.0.self_attn.out_proj.bias f4 [32]
0	0x3c2a5b1f	0.0103977015
1	0x3d328a07	0.043588664
2	0xbb3219da	-0.0027176053
3	0xbbafccb4	-0.0053649787
4	0x3cce60fa	0.025192726
5	0x3cca641d	0.02470594
6	0x3b287c55	0.0025708873
7	0xbb6f1a3e	-0.0036484147
8	0xbbeeb8d9	-0.007285219
9	0xbc735237	-0.0148511445
10	0x3c6a7606	0.014310366
11	0xbb405a52	-0.002935071
12	0x3c214760	0.009843677
13	0xbc6b54aa	-0.014363447
14	0xbcbffab3	-0.023434972
15	0xbc892841	-0.016742827
16	0xb9081ea2	-0.00012981382
17	0x3c26e520	0.010186464
18	0x3b63db9c	0.0034768349
19	0x3c9750e4	0.018471189
20	0x3c221db9	0.009894782
21	0xbc4ef5a0	-0.012631804
22	0x3b6b2f35	0.0035886292
23	0x39ba69a4	0.00035555393
24	0x3bb6daa8	0.005580265
25	0xbbf51e75	-0.0074804374
26	0x3cd00c30	0.025396436
27	0xbb8bd4b1	-0.004267298
28	0xbca7f19a	-0.020500947
29	0xbcf2603e	-0.029586907
30	0xbc84c36b	-0.016206464
31	0x3c87496d	0.016514504

encoder.layers.0.linear1.bias f4 [128]
0	0x3dd0fa37	0.10203975
1	0xbe0c419c	-0.13696903
2	0xbe327fea	-0.17431608
3	0xbbeb6d5c	-0.0071846675
4	0xbdd44513	-0.10364737
5	0x3da2deaf	0.0795263
6	0xbe0634d0	-0.13106084
7	0xbd9a3fc3	-0.07531693
8	0xbd9ed3dd	-0.077552535
9	0x3c390cb3	0.011294532
10	0xbd2f4eed	-0.04279988
11	0xbdffc7c2	-0.12489273
12	0x3d815637	0.06315272
13	0xbd9519ea	-0.07280333
14	0xbd54fcfb	-0.051999073
15	0xbde5449e	-0.11194728
16	0x3d5ada5e	0.053430907
17	0xbdfc0a6a	-0.12306674
18	0x3e06bc50	0.13157773
19	0x3ce4e023	0.027938908
20	0xbe315dc5	-0.17320926
21	0xbe4d7c76	-0.2006701
22	0x3e03c6a9	0.12868752
23	0xbe428ea0	-0.1899972
24	0x3dc24e38	0.09487575
25	0xbe1c8aca	-0.15287319
26	0xbd9e642b	-0.07733949
27	0xbdceadb4	-0.10091725
28	0xbcb2bac5	-0.021817574
29	0xbdc7e11a	-0.097597316
30	0xbe4aaded	-0.1979291
31	0x3cc943cf	0.024568466
32	0x3b209e2f	0.0024508347
33	0x3e258da6	0.16167316
34	0xbddb91d0	-0.10721171
35	0xbe2d26c3	-0.16909318
36	0x3d7ed707	0.062216785
37	0xbe14006b	-0.14453284
38	0xbd86d11c	-0.06582853
39	0x3da973bc	0.08274028
40	0xbe12fd52	-0.14354447
41	0xbe1fcbe1	-0.15605117
42	0xbe3309f3	-0.17484264
43	0x3ce2972d	0.027659977
44	0xbdc40b02	-0.09572412
45	0x3d87d06d	0.06631551
46	0xbc847548	-0.016169205
47	0xbc4bf294	-0.012447972
48	0xbcfc3457	-0.030786676
49	0xbd9a66bc	-0.07539126
50	0xbd6c2de7	-0.057660963
51	0xbd111367	-0.035418894
52	0xbd692033	-0.056915473
53	0xbce28a4b	-0.027653834
54	0xbcd40011	-0.025878938
55	0x3d4ec059	0.050476406
56	0xbd907ecd	-0.07055435
57	0xbe2b5945	-0.16733272
58	0xbbde430f	-0.0067828964
59	0xbe1df05b	-0.1542372
60	0x3ddfc809	0.109268256
61	0x3dd1536b	0.10220989
62	0x3d904378	0.07044119
63	0x3be74021	0.0070572053
64	0xbdd1bd17	-0.10241144
65	0x3d92b093	0.07162585
66	0xbd3a10d2	-0.045426197
67	0xbcf8c2e5	-0.03036637
68	0x3db464c7	0.08808284
69	0x3e066b30	0.13126826
70	0xbdf672a0	-0.12033582
71	0xbdd2ac52	-0.10286774
72	0x3de1ac88	0.11019236
73	0xbe0a364b	-0.13497274
74	0x3dc2141c	0.09476492
75	0xbe2a74e7	-0.16646157
76	0x3d9aa653	0.07551255
77	0xbdf7e600	-0.12104416
78	0x3a0798a2	0.00051725854
79	0xbcf8b813	-0.03036121
80	0xbe3d2ed6	-0.18474898
81	0xbc0bd553	-0.008534747
82	0xbe0089e4	-0.12552601
83	0x3d2c16a7	0.04201379
84	0xbdaf67bd	-0.085647084
85	0x3c8b3991	0.016995223
86	0xbe479e58	-0.19493997
87	0xbbbc608f	-0.0057488154
88	0xbe182288	-0.14856923
89	0x3e045abc	0.12925237
90	0x3dbd2363	0.09235265
91	0xbe54e75a	-0.20791379
92	0xbcdd956c	-0.027048789
93	0x3d996914	0.07490745
94	0xbe2a77d6	-0.16647276
95	0x3e3af83a	0.18258753
96	0xbcb56915	-0.022144834
97	0x3d1d1000	0.038345337
98	0x3d979720	0.07401872
99	0x3dd33a3c	0.10313842
100	0x3c2f70b3	0.010708022
101	0x3dd853f1	0.105628856
102	0x3d43430c	0.047671363
103	0x3d589645	0.052877683
104	0xbc1a73de	-0.009427039
105	0xbe142e5d	-0.14470811
106	0xbcfc159a	-0.03077202
107	0x3de94f91	0.11392129
108	0xbddc1176	-0.10745518
109	0x3d2e71a9	0.042588864
110	0xbe425fc4	-0.18981844
111	0x3ca18818	0.019718215
112	0xbe4736ce	-0.194545
113	0x3e02240f	0.12709068
114	0xbdf44171	-0.119265445
115	0x3d98f1e0	0.07468009
116	0x3e19148d	0.14949246
117	0xbd987458	-0.07444066
118	0xbe498b3a	-0.19682017
119	0x3e136c8a	0.14396873
120	0x3d8fd665	0.070233144
121	0xbe254ab5	-0.1614178
122	0x3c2f032e	0.01068191
123	0x3e030fa4	0.12798935
124	0xbcd13fca	-0.025543112
125	0xbd38b1c4	-0.045091406
126	0xbd0a2564	-0.033727065
127	0x3d90948a	0.070595816

encoder.layers.0.linear2.bias f4 [32]
0	0x3d4aa41c	0.049472913
1	0x3ca3cdea	0.019995648
2	0xbda62d98	-0.08114165
3	0xbdc955c9	-0.09830815
4	0x3d7b322c	0.061327145
5	0x3c2cf88e	0.010557307
6	0xbd059e95	-0.03262194
7	0xbd8fadc0	-0.07015562
8	0xbd1e0ce4	-0.038586512
9	0xbcec1ed9	-0.028823303
10	0xbdaa8f9a	-0.08328171
11	0x3d462ee0	0.048384547
12	0xbd9b83b3	-0.07593479
13	0xbd665413	-0.056232523
14	0x3d50c98b	0.050973456
15	0x3ce21f18	0.027602717
16	0x3d024df8	0.031812638
17	0xbceb066d	-0.028689587
18	0x3d0be0ad	0.034149814
19	0xbd8a6c58	-0.06758946
20	0xbcbefc4e	-0.023313668
21	0x3d91f174	0.07126132
22	0xbc0fa136	-0.008766463
23	0xbd0ade03	-0.033903133
24	0xbd281aa8	-0.041041046
25	0xbdb88bcc	-0.09011039
26	0x3d60425d	0.05475079
27	0xbd5a276f	-0.053260263
28	0x3da23ce4	0.0792177
29	0x3c929a22	0.017895762
30	0xbd578ab1	-0.0526225
31	0xbdaf8608	-0.08570486

encoder.layers.0.norm1.weight f4 [32]
0	0x3f80430f	1.0020465
1	0x3f74cbf9	0.9562374
2	0x3f835546	1.0260398
3	0x3f83aac9	1.0286494
4	0x3f8a79fb	1.0818475
5	0x3f7666e7	0.96250767
6	0x3f7ebc46	0.9950603
7	0x3f7945af	0.97371954
8	0x3f838fb9	1.0278236
9	0x3f7724b4	0.9654038
10	0x3f82b174	1.0210404
11	0x3f7b3c89	0.98139244
12	0x3f80f466	1.0074584
13	0x3f7d2624	0.9888632
14	0x3f866f38	1.0502691
15	0x3f85e6af	1.0461024
16	0x3f7ee991	0.99575144
17	0x3f8520c6	1.0400627
18	0x3f83e1fb	1.0303339
19	0x3f81109e	1.0083196
20	0x3f7472b0	0.954875
21	0x3f7f9ca2	0.9984838
22	0x3f82bb0b	1.0213331
23	0x3f74911c	0.9553392
24	0x3f8077e4	1.0036588
25	0x3f820fc6	1.0161064
26	0x3f7e7e8a	0.99411833
27	0x3f85318a	1.0405743
28	0x3f80e13f	1.006874
29	0x3f75876b	0.95909756
30	0x3f7a7756	0.9783834
31	0x3f785e67	0.97019047

encoder.layers.0.norm1.bias f4 [32]
0	0xbc97dced	-0.018537963
1	0xbc263fc0	-0.010147035
2	0xbcecb366	-0.028894138
3	0x3d0133a3	0.031543385
4	0xbd529ab6	-0.051417075
5	0xbcbac40c	-0.02279856
6	0x3c4fa306	0.012673145
7	0x3c142c32	0.00904374
8	0x3c8d7b28	0.01727064
9	0x3c16b1be	0.0091976505
10	0xbcb563d1	-0.022142323
11	0xbb252a8f	-0.002520237
12	0xbcd1dcc7	-0.02561797
13	0x3cb79fbb	0.022415033
14	0xbba7e706	-0.0051239757
15	0xbc4a5504	-0.012349371
16	0xbcc2d94f	-0.023785261
17	0x3cb5edb7	0.022208078
18	0xbb0b30fa	-0.002123891
19	0xb9c331c3	-0.00037230374
20	0xbc886907	-0.016651643
21	0x3bef6dfe	0.0073068133
22	0x3cfb850f	0.030703096
23	0x3d0575b7	0.032582965
24	0x3c9cf86c	0.019161426
25	0x3c82f22e	0.01598462
26	0xbd063c15	-0.032772142
27	0xbc2e954f	-0.010655715
28	0xba9de74a	-0.0012047079
29	0x3baad814	0.005213747
30	0x3cb8f458	0.02257745
31	0x3b9b6947	0.0047427746

encoder.layers.0.norm2.weight f4 [32]
0	0x3f805615	1.002627
1	0x3f81e278	1.0147238
2	0x3f857d7b	1.0428919
3	0x3f8fdbe2	1.1238978
4	0x3f8002f2	1.0000899
5	0x3f817cab	1.0116171
6	0x3f807991	1.0037099
7	0x3f83a451	1.028452
8	0x3f814001	1.0097657
9	0x3f816c9e	1.0111272
10	0x3f7ff396	0.9998106
11	0x3f84b2af	1.036703
12	0x3f7de6e2	0.99180424
13	0x3f83bbc0	1.0291672
14	0x3f8365c1	1.0265428
15	0x3f8393f5	1.0279528
16	0x3f80d01b	1.0063509
17	0x3f897efd	1.0741879
18	0x3f88c354	1.068461
19	0x3f875e44	1.0575643
20	0x3f83546a	1.0260136
21	0x3f85ca91	1.0452443
22	0x3f81b60c	1.0133681
23	0x3f80a7e0	1.0051231
24	0x3f83f0cd	1.0307862
25	0x3f844365	1.0333067
26	0x3f75219f	0.95754427
27	0x3f8d175a	1.1022751
28	0x3f852ac3	1.0403675
29	0x3f838b01	1.0276796
30	0x3f835118	1.0259123
31	0x3f813437	1.009406

encoder.layers.0.norm2.bias f4 [32]
0	0x3b858b87	0.004075471
1	0x3cf73249	0.030175345
2	0xbc8eb8f6	-0.01742218
3	0x3d72254f	0.05911761
4	0xbcb435b8	-0.021998271
5	0xbb252ff9	-0.0025205596
6	0xbaa3a50d	-0.0012485102
7	0x3b38c66b	0.0028194438
8	0xbbd57472	-0.0065141255
9	0xbc247625	-0.0100379335
10	0xba4f6bc2	-0.00079124805
11	0x3d500cc6	0.05079343
12	0xbc9fb293	-0.01949433
13	0x3c4ebb89	0.012617954
14	0xbd04e107	-0.032441165
15	0xbcac5893	-0.02103833
16	0xbd73d83e	-0.059532396
17	0x3cbff28a	0.023431081
18	0x3c5bbfe6	0.013412451
19	0xba8168cd	-0.0009873152
20	0x3cbabf9f	0.02279645
21	0xbcaa809e	-0.020813283
22	0x3c231aef	0.009955152
23	0x3c7a6d87	0.015284902
24	0x3a23e9c2	0.0006252789
25	0x3b9a48ff	0.004708409
26	0xba3a1a43	-0.000709925
27	0x3c5f3028	0.013622321
28	0xbc5aa901	-0.013345958
29	0xbcce78c7	-0.025204076
30	0xbc7b25d9	-0.015328848
31	0x3c68d53f	0.014210998

encoder.layers.1.self_attn.in_proj_bias f4 [96]
0	0xbcd8b74e	-0.026454594
1	0xbd11c2da	-0.035586216
2	0xbd4503ce	-0.04809933
3	0x3d8bbdc4	0.06823304
4	0xbd88120f	-0.066440694
5	0x3d62ff23	0.0554191
6	0x3c2ab5d2	0.010419326
7	0xbcbb5b25	-0.02287061
8	0xbd000943	-0.031258833
9	0xbc05b904	-0.008161787
10	0x3d1c7480	0.03819704
11	0x3d1bbb64	0.038020507
12	0xbd87a718	-0.066236675
13	0x3d3b80e8	0.04577723
14	0x3d590a31	0.052988235
15	0x3ab89012	0.0014081022
16	0x3c2ce5d3	0.010552841
17	0xbbb830a8	-0.0056210347
18	0x3d3695a8	0.044576317
19	0xbb633403	-0.0034668453
20	0x3d6c743e	0.057728045
21	0x3cb023d6	0.021501463
22	0xbba7a6fd	-0.005116342
23	0xbb4a809f	-0.0030899418
24	0x3d081ca7	0.03323045
25	0xbc12b127	-0.008953369
26	0xbbcfd009	-0.0063419384
27	0x3c59263d	0.013253746
28	0xbcaecc8c	-0.02133777
29	0xbd0a3bac	-0.033748314
30	0x3c6bb80e	0.014387144
31	0xbd1c6302	-0.03818036
32	0x38a5dd10	7.908989e-05
33	0x396591a5	0.00021893399
34	0xb99015e7	-0.0002748214
35	0xba201993	-0.00061073265
36	0x3a7db07d	0.0009677483
37	0xb955aee6	-0.00020378418
38	0x3924b147	0.000157063
39	0x3a2fc7f3	0.0006705515
40	0x39b73bb3	0.0003494896
41	0x3962e420	0.00021638023
42	0xb99f5780	-0.00030392036
43	0xb987cf50	-0.00025903666
44	0x3ae74c79	0.0017646692
45	0x39cba584	0.00038842496
46	0xba03ddc8	-0.00050303014
47	0x3a25ec3b	0.00063294516
48	0x3925d76f	0.00015815881
49	0xbae1a67f	-0.0017215757
50	0x393cfdd5	0.00018023637
51	0x3abab17b	0.0014243567
52	0x3a35ab34	0.00069301133
53	0xba422803	-0.0007406475
54	0x390b4aa1	0.00013283874
55	0x3a6c0b7b	0.0009004396
56	0x3a55e5b9	0.00081595365
57	0xbae7da02	-0.0017688873
58	0xbb309e53	-0.0026949837
59	0xba5570f7	-0.0008142138
60	0xba09d9c1	-0.0005258583
61	0x3ae05c62	0.0017117376
62	0xb71092ff	-8.617294e-06
63	0xb991a810	-0.00027781771
64	0x3c96276f	0.01832935
65	0x3becf9f3	0.0072319447
66	0x3bd2efb0	0.0064372644
67	0x3c9f2ff2	0.019432042
68	0x3cc4abce	0.024007704
69	0xbcb567e2	-0.022144262
70	0xbc37c317	-0.011215947
71	0x3ca845f0	0.020541161
72	0x3cf6c969	0.030125337
73	0xbcaf7268	-0.021416858
74	0x3c3c3348	0.011486836
75	0x3c43e733	0.011956978
76	0x3c1ab717	0.009443066
77	0xbc02c629	-0.007981815
78	0x3cb036e7	0.021510554
79	0x3b4dda23	0.0031410537
80	0x3cb3a364	0.021928497
81	0xbc8bcd01	-0.017065527
82	0x3c3aa8ee	0.011392815
83	0xbafbf1cb	-0.001922184
84	0xbcd92367	-0.026506139
85	0xbd0386d4	-0.032111004
86	0x3cbd11fa	0.023079861
87	0x3cbaa824	0.022785254
88	0x3ce88165	0.028382013
89	0x3a9bc847	0.0011885249
90	0xba54bf0e	-0.00081156276
91	0x3c8477b7	0.016170366
92	0x3cbd3d47	0.023100508
93	0x3d0bf33e	0.03416752
94	0xb9907dba	-0.00027559494
95	0xbc2bbafb	-0.010481591

encoder.layers.1.self_attn.out_proj.weight f4 [32, 32]
0	0x3de52979	0.11189551
1	0x3e277a89	0.16355337
2	0xbe0a1b4a	-0.13486972
3	0xbde27bef	-0.11058795
4	0x3da61d69	0.08111078
5	0x3dab6d5c	0.08370468
6	0xbcd04970	-0.025425643
7	0xbe57616c	-0.21033257
8	0xbe6696e7	-0.22518502
9	0x3d41853b	0.0472462
10	0xbcdcbabd	-0.026944513
11	0x3e16ee2e	0.14739296
12	0xbe19c8d8	-0.15018022
13	0x3e5d5c48	0.21617234
14	0xbe05055b	-0.12990324
15	0xbda96cf6	-0.08272736
16	0x3e3402b2	0.17579153
17	0xbdfde77e	-0.12397669
18	0xbe3b8d3a	-0.18315592
19	0x3c97e7aa	0.018543083
20	0x3d925bc8	0.07146412
21	0xbdadddcf	-0.08489572
22	0xbdd4c548	-0.10389191
23	0xbd84e78d	-0.06489477
24	0xbbf114d5	-0.0073572197
25	0x3e142688	0.14467824
26	0x3e1d045b	0.15333693
27	0x3d64d33a	0.055865504
28	0x3e41241f	0.18861435
29	0xbd9da26e	-0.07696997
30	0x3d94fa17	0.07274263
31	0xbbc7ca2f	-0.0060971
32	0xbde68b50	-0.112570405
33	0xbe0ee412	-0.1395419
34	0xbdff9f91	-0.12481607
35	0xbda64911	-0.08119405
36	0xbd8807fc	-0.06642148
37	0xbde6132c	-0.112341255
38	0x3b27afbb	0.0025586921
39	0x3bcc45f6	0.006233926
40	0x3dd84bfe	0.10561369
41	0xbd7523c3	-0.05984856
42	0xbe07c5fe	-0.13259122
43	0x3e386a10	0.1800921
44	0xbbb1fe45	-0.0054319226
45	0x3e2f2bfc	0.17106622
46	0xbc9dbb0d	-0.019254232
47	0xbe13eff7	-0.14447008
48	0xbcc53433	-0.024072742
49	0xbd3b297c	-0.04569386
50	0x3d6cd874	0.057823613
51	0x3dcdcc50	0.10048735
52	0xbd8d3a93	-0.06895938
53	0x3cf1eab6	0.029530864
54	0x3e67ea92	0.22648075
55	0x3e04c3dd	0.12965341
56	0x3e0dca6e	0.13846752
57	0x3de9d0d0	0.11416781
58	0xbd8ac99a	-0.06776734
59	0xbd4a4c68	-0.049389273
60	0x3e1b339b	0.15156405
61	0x3d4e50ef	0.050370153
62	0xbc9468d0	-0.018116385
63	0x3d9a136a	0.07523234
64	0xbcb5e224	-0.022202559
65	0xbc1cf73c	-0.00958043
66	0x3e0e0d38	0.1387223
67	0xbde20d82	-0.11037733
68	0xbe318818	-0.17337072
69	0x3d2b8fbb	0.04188512
70	0x3c6da57a	0.014504785
71	0xbe21f33b	-0.15815441
72	0xbdb5c775	-0.08875934
73	0x3d16f7a0	0.036857247
74	0x3cf79c2e	0.03022584
75	0x3ddc07b4	0.10743657
76	0xbd118a85	-0.035532493
77	0xbca8cd8d	-0.020605827
78	0x3da75eda	0.081723884
79	0x3e5c527c	0.2151584
80	0xbc53823c	-0.012909468
81	0x3d3dadf2	0.046308465
82	0xbdabff7d	-0.0839834
83	0xbd236f8f	-0.039901312
84	0x3e32f916	0.17477831
85	0x3dd06bcf	0.10176813
86	0x3dbbfb30	0.091787696
87	0x3e1acd58	0.15117395
88	0xbda9534a	-0.08267839
89	0xbe232d3e	-0.15935227
90	0x3dbbb572	0.09165467
91	0x3dc9c647	0.098522715
92	0xbc831eab	-0.016005835
93	0xbe500437	-0.20314108
94	0xbe2a3fcd	-0.166259
95	0x3d8cb7be	0.068709835
96	0xbd6a94c6	-0.057270788
97	0xbe2815c5	-0.16414554
98	0x3d3d214a	0.046174325
99	0x3e80586b	0.25067458
100	0xbe22f3c8	-0.15913308
101	0x3dc0e576	0.09418766
102	0xbe2c1c75	-0.1680773
103	0xbe03fe6e	-0.12890026
104	0x3e456299	0.19275893
105	0xbdbc7363	-0.09201696
106	0x3e4cb3fa	0.1999053
107	0xbda56b29	-0.0807708
108	0xbdda58d3	-0.10661473
109	0x3dfa6c45	0.12227682
110	0xbe124ec4	-0.14287859
111	0x3e28710c	0.16449374
112	0xbd9460be	-0.072450146
113	0x3e0e3d30	0.13890529
114	0xbd091a1b	-0.03347216
115	0x3c9a6978	0.01884912
116	0xbd0c8eff	-0.03431606
117	0xbe1b9f2b	-0.15197437
118	0x3e165fb5	0.14684947
119	0x3dc5a1e1	0.096500166
120	0x3c454633	0.012040663
121	0x3db10413	0.08643355
122	0xbe410388	-0.18849003
123	0x3d1fa450	0.03897506
124	0x3d1e5d9c	0.03866349
125	0x3df7a18e	0.12091361
126	0xbd696965	-0.056985278
127	0xbde7508f	-0.11294662
128	0xbe029881	-0.12753488
129	0x3e650424	0.22364861
130	0x3dc69e51	0.09698165
131	0xbe0a1285	-0.13483627
132	0xbdd30e3e	-0.10305451
133	0x3e612102	0.21985248
134	0x3df00b3e	0.11720894
135	0x3d64662a	0.055761494
136	0xbe516e8d	-0.20452328
137	0x3da71a7f	0.081593506
138	0xbd9a281c	-0.075271815
139	0x3d85a001	0.06524659
140	0xbc2609ce	-0.010134174
141	0x3d41eb5e	0.047343604
142	0x3d1d4c57	0.03840288
143	0x3dabecee	0.083948
144	0xbdc5135f	-0.09622835
145	0x3cb07a4e	0.021542694
146	0x3e5cacca	0.21550289
147	0xbd3e0363	-0.04638995
148	0x3dc3bfb1	0.095580466
149	0x3cc391e5	0.023873279
150	0xbe5d5e03	-0.21617894
151	0xbd9bbde8	-0.07604581
152	0xbe21f408	-0.15815747
153	0xbc9973b0	-0.018731922
154	0xbc929e0a	-0.017897625
155	0xbdfe43a3	-0.124152444
156	0xbdf39757	-0.118941
157	0xbe03f137	-0.12884985
158	0xbe30dd11	-0.1727183
159	0x3deaaa24	0.11458233
160	0x3db90a9a	0.09035225
161	0xbddd5735	-0.10807649
162	0xbe3b068e	-0.18264219
163	0xbdcaec1c	-0.099083155
164	0xbcc7b281	-0.02437711
165	0xbd3a0aba	-0.045420386
166	0x3dee6ec1	0.116422184
167	0x3dbe166c	0.092816204
168	0x3dc2f0fa	0.09518619
169	0x3c2a9efd	0.010413882
170	0x3d4b8866	0.049690627
171	0xbe1302ed	-0.14356585
172	0x3d9c1e9e	0.07623027
173	0xbda2dd65	-0.07952384
174	0x3d00d6d6	0.031454884
175	0x3e146cb2	0.14494589
176	0xbceeba79	-0.029141651
177	0xbdf38629	-0.118908234
178	0x3e4ddbba	0.2010335
179	0xbddd548c	-0.10807142
180	0xbd2e04ce	-0.04248505
181	0x3d964c6a	0.073387936
182	0x3dd435f2	0.10361852
183	0xbda59904	-0.08085826
184	0xbe177774	-0.14791662
185	0xbd202cc1	-0.03910518
186	0xbcf8f16b	-0.030388555
187	0x3b8a9d6b	0.0042301915
188	0x3cd8458d	0.026400352
189	0xbdce8ad1	-0.10085071
190	0x3deb41f2	0.114871874
191	0x3d82a264	0.0637863
192	0xbe1c94a0	-0.15291071
193	0xbaf12dd1	-0.0018400495
194	0x3a2b9a33	0.000654611
195	0x3e2d6785	0.16934021
196	0x3dd31327	0.103063874
197	0xbd1cf286	-0.038317226
198	0x3e227724	0.15865761
199	0x3e679fac	0.22619504
200	0x3e2a9acd	0.16660614
201	0x3cb65c36	0.022260766
202	0x3e458c48	0.19291794
203	0xbd506f7e	-0.050887577
204	0x3a9489e8	0.0011332603
205	0x3d5e5b0e	0.054286055
206	0x3cfa7729	0.030574398
207	0xbdfad061	-0.12246776
208	0xbd7e383e	-0.062065355
209	0xbd353fd0	-0.04425031
210	0x3dd76cd8	0.10518807
211	0x3de97c4a	0.114006594
212	0xbd8ceb17	-0.06880777
213	0x3d077d37	0.0330784
214	0x3e076ea4	0.132258
215	0x3e06b0a8	0.13153327
216	0x3e08546a	0.13313451
217	0xbd1d8015	-0.038452227
218	0xbe400885	-0.1875325
219	0xbd37be19	-0.044859026
220	0x3e13e6ff	0.14443587
221	0x3d8f5e96	0.07000463
222	0x3a91ce0a	0.0011124026
223	0xbdf180d8	-0.11792153
224	0x3d00eeb2	0.031477638
225	0x3d53ddc8	0.05172518
226	0xbe22cec8	-0.15899193
227	0x3dce0390	0.10059273
228	0xbd934a71	-0.07191933
229	0x3e2fd849	0.1717235
230	0xbe160c53	-0.14653139
231	0xbe2b1e7f	-0.16710852
232	0xbd836701	-0.06416131
233	0x3dd61788	0.10453707
234	0xbd4d0b76	-0.050059758
235	0xbdb7deb7	-0.08978026
236	0x3de72e43	0.112881206
237	0x3e24f3d8	0.16108644
238	0x3da7158f	0.08158409
239	0x3df310af	0.118684165
240	0x3ddcd091	0.107819684
241	0xbe2edb5b	-0.17075865
242	0x3dc2137d	0.09476373
243	0x3e02c76d	0.12771387
244	0x3e26f4ac	0.16304272
245	0x3d0a3921	0.03374589
246	0x3d3d2c9c	0.04618512
247	0x3d737fca	0.05944804
248	0x3bed2f7e	0.0072383275
249	0xbb287e05	-0.002570988
250	0xbd111d82	-0.03542853
251	0x3dc92d5a	0.09823103
252	0xbd2bbb4f	-0.04192668
253	0x3da3a3df	0.0799024
254	0xbb04716d	-0.0020209209
255	0xbd78fd53	-0.060788464

encoder.layers.1.self_attn.out_proj.bias f4 [32]
0	0x3c925bf0	0.017866105
1	0xbca41b69	-0.020032601
2	0xba839923	-0.0010040145
3	0x3d2b4bca	0.041820325
4	0x3b832628	0.0040023513
5	0xbc9d9b58	-0.019239113
6	0xbc4a5300	-0.01234889
7	0xbc80ff50	-0.015746742
8	0xbc5fb4cb	-0.013653944
9	0xbd352025	-0.04422011
10	0x3d02b1c3	0.031907808
11	0xbd095818	-0.03353128
12	0x3c9eae28	0.019370154
13	0xbcec1ff1	-0.028823825
14	0xbd6015c8	-0.054708272
15	0xbca28587	-0.019839061
16	0x3b7e5a8d	0.0038811297
17	0x3d510f1e	0.051039807
18	0x3d55b0ba	0.052170493
19	0x3d5a5049	0.053299222
20	0x3a830636	0.0009996358
21	0x3b8c0975	0.0042735883
22	0x3d16964a	0.03676442
23	0xbd798377	-0.06091639
24	0xbbda99ca	-0.006671165
25	0x3c5f4323	0.0136268465
26	0x3d112505	0.035435695
27	0x3ced60f7	0.0289769
28	0xbd26b309	-0.040698085
29	0xbd3cd411	-0.04610068
30	0xbd7f8d10	-0.062390387
31	0x3d599b7e	0.053126805

encoder.layers.1.linear1.bias f4 [128]
0	0x3de208ba	0.11036821
1	0xbe03535e	-0.12824771
2	0xbe37fc02	-0.17967227
3	0x3ceaf2ef	0.028680293
4	0xbdae8d78	-0.08523077
5	0x3dafc228	0.08581954
6	0xbe299dfe	-0.16564175
7	0xbd391b39	-0.045191977
8	0xbd81180e	-0.06303416
9	0x3ca67f2c	0.020324312
10	0xbaa90723	-0.0012895804
11	0xbe241e7e	-0.16027257
12	0x3de126b0	0.10993707
13	0xbd38a32a	-0.04507748
14	0x39652f44	0.0002185675
15	0xbde425ac	-0.11139998
16	0x3d813f62	0.063109174
17	0xbe099d3b	-0.13438885
18	0x3e2f7dcb	0.1713783
19	0x3d7604ff	0.06006336
20	0xbe114b38	-0.1418885
21	0xbe0d9aa4	-0.13828522
22	0x3e2d18d7	0.16904007
23	0xbe32a280	-0.17444801
24	0x3df9e3cf	0.12201654
25	0xbe165041	-0.14679052
26	0xbd9fdb63	-0.078055166
27	0xbdda58b6	-0.106614515
28	0xbd2eee7c	-0.042707905
29	0xbddb32f6	-0.107030794
30	0xbe5e4ad9	-0.2170824
31	0x3a822870	0.0009930264
32	0x3d535d50	0.05160266
33	0x3e25e047	0.16198836
34	0xbd5c3bf0	-0.0537681
35	0xbe21fc66	-0.15818939
36	0x3dad76e8	0.08469945
37	0xbe25e319	-0.16199912
38	0xbd19dadf	-0.037562247
39	0x3dc2ac9d	0.095055796
40	0xbe1bc5fe	-0.15212247
41	0xbdd5f2c6	-0.10446696
42	0xbe2d3b0c	-0.16917056
43	0x3bb38cd4	0.0054794345
44	0xbdd381a8	-0.10327464
45	0x3d956b4b	0.07295855
46	0xbd176669	-0.0369629
47	0x3d203950	0.039117157
48	0xbcf1670c	-0.029468082
49	0xbd9c25f9	-0.0762443
50	0xbcaf04e0	-0.02136463
51	0xbdc63c1c	-0.09679434
52	0xbce63ccb	-0.02810516
53	0xbb90a025	-0.004413622
54	0x3b928a9a	0.004472089
55	0x3dc7609c	0.09735224
56	0xbd836309	-0.06415374
57	0xbe20f39a	-0.15717927
58	0x3bd244d4	0.0064168964
59	0xbe24a425	-0.16078241
60	0x3dac9011	0.08425916
61	0x3da7c7e2	0.081924215
62	0x3d41b1a0	0.047288537
63	0xbc32545e	-0.0108843725
64	0xbd93b539	-0.072123
65	0x3dfb7121	0.12277437
66	0xbc800fae	-0.015632477
67	0x3d1b4b30	0.0379135
68	0x3dc4f2c3	0.096166156
69	0x3dd065d8	0.10175675
70	0xbde92739	-0.11384434
71	0xbdec2bdf	-0.11531805
72	0x3da04bdf	0.07826971
73	0xbe0c1fb3	-0.13683967
74	0x3e1cbd8f	0.15306686
75	0xbdf833de	-0.12119268
76	0x3de2a507	0.11066633
77	0xbde178e6	-0.11009388
78	0xbbf2df44	-0.0074118692
79	0xbc74a815	-0.014932652
80	0xbe3ad848	-0.18246567
81	0xbca184e8	-0.019716695
82	0xbe0f4382	-0.13990596
83	0x3cfe4492	0.031038556
84	0xbd5d43ec	-0.054019853
85	0x3d4444f8	0.047917336
86	0xbe244df8	-0.16045368
87	0x3a876026	0.0010328337
88	0xbda3f1a4	-0.08005074
89	0x3e1804a5	0.14845522
90	0x3de5c975	0.112200655
91	0xbe301fa1	-0.17199565
92	0xbca3a76a	-0.01997729
93	0x3db8ab8f	0.09017097
94	0xbe148ae5	-0.14506109
95	0x3e3e2440	0.18568516
96	0xbc45c7ad	-0.012071532
97	0x3c862ce8	0.016378835
98	0x3db606f3	0.08888044
99	0x3e14fc3a	0.14549342
100	0x3c1affe2	0.009460421
101	0x3dd22ece	0.102628335
102	0x3d17e661	0.03708494
103	0x3d2632bf	0.04057574
104	0x3d16936f	0.036761697
105	0xbe39be3b	-0.18138973
106	0xbc224520	-0.009904176
107	0x3e046122	0.12927678
108	0xbdba35b1	-0.09092272
109	0x3d0ebdba	0.034848906
110	0xbe2ba9a1	-0.16763927
111	0x3cdcfdad	0.02697643
112	0xbe70907f	-0.23492621
113	0x3dbae453	0.09125581
114	0xbda81346	-0.08206801
115	0x3defebd9	0.11714906
116	0x3e21d6af	0.15804552
117	0xbda50fcf	-0.08059656
118	0xbe029a96	-0.12754282
119	0x3e1e4597	0.15456234
120	0x3dd9449a	0.10608788
121	0xbe2e4ef6	-0.17022309
122	0x3cb35f82	0.021896128
123	0x3de62d89	0.11239154
124	0x3ca03f75	0.019561509
125	0x3bcc8634	0.006241584
126	0xbcc9faf8	-0.024655804
127	0x3ccfdfe6	0.025375318

encoder.layers.1.linear2.bias f4 [32]
0	0x3d79de92	0.061003275
1	0x3cd17cfa	0.025572289
2	0xbd934a90	-0.07191956
3	0xbd90c2e8	-0.070684254
4	0x3d730ef7	0.059340443
5	0x3c45ed79	0.012080544
6	0xbd46b5c2	-0.04851318
7	0xbd3c8210	-0.046022475
8	0xbd3e9444	-0.046528116
9	0xbd218f98	-0.039443582
10	0xbdbf216b	-0.09332546
11	0x3d639063	0.05555762
12	0xbd39c2c1	-0.045351747
13	0xbd867a3a	-0.065662816
14	0x3d2fa7da	0.042884685
15	0x3ce40628	0.027834967
16	0x3cc48a93	0.023991859
17	0xbd0dfee4	-0.03466691
18	0x3d09fe0c	0.033689544
19	0xbd8f77db	-0.070052825
20	0xbd2bf941	-0.041985754
21	0x3d9ee587	0.077586226
22	0xbcdd9ef7	-0.02705334
23	0xbd46df97	-0.048553076
24	0xbd6e2c6a	-0.058147825
25	0xbdbbe6cb	-0.0917488
26	0x3daf96c7	0.0857368
27	0xbd8514fd	-0.06498144
28	0x3d9690c4	0.073518306
29	0x3c9dbf07	0.019256128
30	0xbd842314	-0.06452003
31	0xbdba04d0	-0.09082949

encoder.layers.1.norm1.weight f4 [32]
0	0x3f7d7026	0.9899925
1	0x3f79e7ae	0.9761914
2	0x3f7c249a	0.9849335
3	0x3f830f23	1.0238994
4	0x3f8036db	1.001674
5	0x3f80894e	1.0041902
6	0x3f7ce751	0.9879046
7	0x3f726a74	0.94693685
8	0x3f7612f6	0.9612268
9	0x3f7a5dc6	0.97799337
10	0x3f816d18	1.0111418
11	0x3f849061	1.0356561
12	0x3f84287e	1.0324857
13	0x3f808a41	1.0042192
14	0x3f8186f1	1.0119306
15	0x3f85455e	1.0411794
16	0x3f8510e8	1.0395784
17	0x3f8371de	1.0269125
18	0x3f848c0b	1.0355238
19	0x3f7d1518	0.9886031
20	0x3f746748	0.95470095
21	0x3f84132b	1.031835
22	0x3f6d51a0	0.92702675
23	0x3f7cd1df	0.9875774
24	0x3f83548d	1.0260178
25	0x3f7be605	0.98397857
26	0x3f731434	0.949527
27	0x3f815e70	1.0106945
28	0x3f821574	1.0162797
29	0x3f8186b2	1.0119231
30	0x3f81e599	1.0148193
31	0x3f7a8103	0.97853106

encoder.layers.1.norm1.bias f4 [32]
0	0x3d049e62	0.032377608
1	0xba5f6cbb	-0.0008522977
2	0xbc0c4568	-0.00856147
3	0x3d47d39a	0.048785783
4	0xbcd4fb09	-0.02599861
5	0xbc96d573	-0.018412327
6	0xbc0f1807	-0.008733756
7	0x3c05e9d9	0.008173429
8	0xbbdb83e5	-0.0066990727
9	0xbc928817	-0.017887158
10	0xbb9580d7	-0.004562478
11	0x3d64981d	0.05580913
12	0xbc4b476c	-0.012407165
13	0x3c283322	0.010266097
14	0xbc72b376	-0.014813295
15	0xbc3e363e	-0.011609612
16	0xbd8a080e	-0.067398176
17	0x3c77be41	0.015121044
18	0x3c911e16	0.017714541
19	0x3a06bb43	0.00051395985
20	0xbd458a34	-0.048227504
21	0x3c864139	0.016388522
22	0x3c988503	0.018618112
23	0x3ba1b58a	0.004934971
24	0xbb1330ee	-0.0022459584
25	0x3c6cf373	0.01446234
26	0x3bd57c5a	0.006515068
27	0xbc370122	-0.011169704
28	0x3b0bf122	0.0021353443
29	0xbb4ff8ad	-0.0031733916
30	0x3c2da1e8	0.0105976835
31	0x3c3daae1	0.011576385

encoder.layers.1.norm2.weight f4 [32]
0	0x3f84f620	1.0387611
1	0x3f8c8ae5	1.0979887
2	0x3f85762f	1.0426692
3	0x3f8bfe04	1.0936894
4	0x3f8bb353	1.09141
5	0x3f8a8353	1.0821327
6	0x3f892798	1.0715208
7	0x3f813c05	1.0096442
8	0x3f8f8c9e	1.1214788
9	0x3f88212d	1.0635124
10	0x3f9159b8	1.1355505
11	0x3f87ae1b	1.0600008
12	0x3f8bc54e	1.0919588
13	0x3f842773	1.0324539
14	0x3f8b833d	1.0899426
15	0x3f9150c6	1.1352775
16	0x3f89cf47	1.0766381
17	0x3f900a17	1.1253079
18	0x3f916e9e	1.1361883
19	0x3f8d0414	1.101687
20	0x3f8d6c64	1.1048703
21	0x3f879036	1.0590885
22	0x3f8a77bd	1.0817791
23	0x3f921e25	1.1415449
24	0x3f865fab	1.0497946
25	0x3f899563	1.0748714
26	0x3f855de0	1.0419273
27	0x3fa7bd22	1.3104594
28	0x3f94bc8d	1.1620041
29	0x3f907f6e	1.1288888
30	0x3f8fd0b4	1.1235566
31	0x3f97a4ab	1.1847128

encoder.layers.1.norm2.bias f4 [32]
0	0xbd1d8cac	-0.038464233
1	0xbb15f5c0	-0.0022882074
2	0xbd3301d2	-0.043702908
3	0x3d31c617	0.043401804
4	0xbd70a946	-0.05875518
5	0xbc87a1d4	-0.016556658
6	0x3d22ca3a	0.03974364
7	0x3ce79588	0.028269544
8	0x3de102f9	0.10986895
9	0xbcf18e26	-0.029486727
10	0xbd11cb7e	-0.035594456
11	0x3d0ae7fb	0.03391264
12	0xbd8b6f3a	-0.06808324
13	0x3d170b3b	0.036875945
14	0x3ca80323	0.020509308
15	0xbdc17e96	-0.094479725
16	0xbd60037f	-0.054690834
17	0x3d7a8db1	0.061170284
18	0x3d07bbd5	0.033138115
19	0x3cadb34c	0.02120366
20	0x3d09fff0	0.033691347
21	0xbd1c51dc	-0.038164005
22	0x3d358058	0.04431185
23	0x3d6a7920	0.05724442
24	0x3d8110bb	0.06302019
25	0x3c7f8690	0.015596047
26	0xbd8995ca	-0.06718023
27	0xbe319351	-0.17341353
28	0xbd1be5a6	-0.038060807
29	0xbd6ff696	-0.058584772
30	0xbce2051c	-0.027590327
31	0x3cd20e2b	0.025641521

pool.net.layers.0.bias f4 [64]
0	0x3dabc936	0.08387987
1	0x3e50e32c	0.20399159
2	0x3de19a5b	0.11015769
3	0xbca7a0f8	-0.020462498
4	0x3e300d39	0.17192544
5	0xbcab5f97	-0.020919604
6	0xbe02813e	-0.12744614
7	0x3cae0c33	0.021246051
8	0x3dfe777f	0.12425136
9	0xbdf317b1	-0.11869753
10	0x3d1a3301	0.037646297
11	0x3d252dbf	0.04032683
12	0x3ce9e577	0.0285518
13	0x3e0c0e89	0.1367742
14	0xbd9380bd	-0.07202289
15	0xbe13a081	-0.14416696
16	0xbdb1eec0	-0.08688116
17	0x3e07ac19	0.13249244
18	0x3de6f459	0.11277074
19	0x3e53ab7e	0.20670888
20	0x3e98e1bb	0.2985972
21	0x3dd43470	0.10361564
22	0x3e225008	0.15850842
23	0x3b05fd5b	0.00204452
24	0xbd9892b3	-0.07449856
25	0x3e323bf6	0.17405686
26	0xbc9bd14f	-0.019020705
27	0x3dcf0222	0.10107829
28	0x3d1c309d	0.0381323
29	0x3d6dec7d	0.05808686
30	0x3dde9d3f	0.10869836
31	0x3ddf6dbc	0.10909602
32	0xbd90f3f6	-0.07077782
33	0xbda00e25	-0.07815198
34	0x3dbfefe2	0.09371926
35	0xbb64407f	-0.0034828482
36	0x3de57b70	0.112051845
37	0x3e259993	0.16171865
38	0x3d6bc5ad	0.057561565
39	0x3d33151c	0.043721303
40	0x3e65e315	0.22449906
41	0x3e0c3420	0.13691759
42	0xbdb1b69b	-0.08677407
43	0x3deaef48	0.114714205
44	0x3d2bf2e2	0.041979678
45	0x3dc9bb30	0.09850156
46	0xbdcd508e	-0.1002513
47	0x3d88abbd	0.066733815
48	0xbd791d60	-0.06081903
49	0x3dff5385	0.12467102
50	0xbcc2153b	-0.023691764
51	0xbdb33d32	-0.087519065
52	0x3e011967	0.12607346
53	0x3decd8a0	0.115647554
54	0xbe07b7a6	-0.1325365
55	0x3da5e99f	0.081012
56	0x3df887f4	0.12135306
57	0xbd94b5f3	-0.072612666
58	0x3e7a806b	0.2446305
59	0xbe3f6a9d	-0.18693013
60	0x3df15a86	0.11784844
61	0xbd9d299c	-0.07673952
62	0xbdab315d	-0.08359025
63	0x3e0a9964	0.13535076

pool.net.layers.2.bias f4 [32]
0	0xbdae4d16	-0.08510797
1	0x3ddb4562	0.10706593
2	0x3dce56ef	0.10075175
3	0x3d8f5b67	0.069998555
4	0x3d952ad7	0.07283562
5	0x3c83a871	0.01607153
6	0x3da5c460	0.08094096
7	0xbdb5a969	-0.08870203
8	0x3de30070	0.11084068
9	0xbc31c990	-0.010851279
10	0xbda2ca37	-0.07948726
11	0x3d823b3f	0.063589565
12	0xbce9e74d	-0.028552676
13	0x3d7b826f	0.061403688
14	0xbd58bbd5	-0.052913506
15	0xbc84f2b2	-0.016229007
16	0x3d972ed5	0.073819794
17	0xbd33ca21	-0.043893937
18	0x3ce06b16	0.027394813
19	0xbd611418	-0.054950804
20	0xbdab0e71	-0.08352364
21	0x3d402ff8	0.046920747
22	0xbce75662	-0.028239433
23	0xbdf381f9	-0.11890025
24	0xbdbdd8ed	-0.09269891
25	0x3d173379	0.036914323
26	0x3c6b6663	0.014367673
27	0xbdfa3983	-0.12218001
28	0x3dbd325c	0.09238121
29	0x3dfd9bae	0.12383209
30	0xbdc8f95c	-0.098131865
31	0x3de73026	0.112884805

net.layers.0.weight f4 [64, 32]
0	0x3d3d78e5	0.046257872
1	0x3c95c5d1	0.018282803
2	0x3d4c9e8d	0.049955893
3	0xbe811d4e	-0.2521767
4	0x3d86647a	0.06562133
5	0x3c544587	0.01295603
6	0x3d664adf	0.056223746
7	0xbc2df8bd	-0.010618386
8	0x3e05982d	0.13046332
9	0x3cd68ee8	0.02619119
10	0x3ddb7fe8	0.107177556
11	0xbdbbfe02	-0.091793075
12	0x3cac7365	0.021051118
13	0x3d590744	0.052985445
14	0xbcb12544	-0.021624215
15	0xbe6bc521	-0.23024417
16	0x3e69c55a	0.2282919
17	0x3a8b2794	0.0010616654
18	0xbdf49a04	-0.11943439
19	0x3d9556b5	0.07291929
20	0xbc87a57a	-0.016558398
21	0x3e0b2a37	0.13590322
22	0x3d13bacf	0.036066826
23	0x3df87b3d	0.12132881
24	0xbe459f28	-0.19298995
25	0xbe04b463	-0.12959437
26	0x3df32adb	0.118734084
27	0xbe0e1a44	-0.13877207
28	0x3ba654db	0.0050760335
29	0xbd2f5ce5	-0.0428132
30	0x3db24c09	0.08705909
31	0xbe4e36d2	-0.201381
32	0xbe2bc11f	-0.16772889
33	0x3e5fa716	0.21841082
34	0x3d874de6	0.06606655
35	0xbe8b817f	-0.27247235
36	0x3e232da3	0.15935378
37	0x3cde2dbe	0.027121421
38	0x3e08a995	0.1334594
39	0xbdd2d8e8	-0.10295278
40	0x3cee8e70	0.029120654
41	0x3e9166d9	0.2839878
42	0x3e02ac61	0.1276107
43	0x3d4c1574	0.049825147
44	0xbe26f2b9	-0.16303529
45	0x3e04d9a4	0.12973648
46	0x3e061f1a	0.13097802
47	0xbd8ba24f	-0.06818067
48	0xbda1b71a	-0.07896252
49	0x3d6b14c9	0.05739287
50	0xbe39bcc5	-0.18138416
51	0xbe587e8f	-0.21142028
52	0x3e3982bb	0.18116276
53	0x3e2affa6	0.16699085
54	0x3c8fa7ea	0.017536122
55	0x3e0aabd2	0.13542107
56	0x3e12d33a	0.14338389
57	0xbe082674	-0.13295919
58	0xbe257e3a	-0.16161433
59	0xbb33c05f	-0.0027427895
60	0x3e255d79	0.16148938
61	0xbd28f242	-0.04124666
62	0x3e4dd015	0.20098908
63	0xbe763736	-0.24044499
64	0xbe1bfc55	-0.15232976
65	0xbd5e877a	-0.05432842
66	0xbd8ed0cc	-0.069734186
67	0xbe0b6fd2	-0.13616875
68	0xbd22d628	-0.039755017
69	0x3e7c066d	0.24611826
70	0xbdb71b74	-0.08940783
71	0x3c277869	0.010221579
72	0x3e2f4e78	0.17119777
73	0xbd7d204b	-0.061798375
74	0x3e2b9257	0.16755043
75	0xbe3b6c7e	-0.18303105
76	0xbdaf6713	-0.08564582
77	0xbe0b428d	-0.13599606
78	0x3e04d921	0.12973453
79	0xbe878d71	-0.264751
80	0x3e546646	0.20742139
81	0x3df6e683	0.12055685
82	0x3d965e4f	0.07342207
83	0x3e149bc0	0.14512539
84	0xbda03ec9	-0.07824475
85	0x3daf9e21	0.085750826
86	0xbdd956d1	-0.10612262
87	0x3e85ba4a	0.2611869
88	0xbdf9fae1	-0.122060545
89	0xbdf57637	-0.11985438
90	0xbddde39b	-0.10834428
91	0xbe07bf2d	-0.13256522
92	0xbb7866d0	-0.0037903078
93	0x3df64579	0.120249696
94	0x3e52b26e	0.20575878
95	0xbe5b5a61	-0.21421196
96	0xbe535574	-0.20638067
97	0xbe19ce41	-0.15020086
98	0xbdfe4628	-0.12415725
99	0x3e6c436c	0.23072594
100	0xbd85c25e	-0.06531213
101	0x3e08dd67	0.13365708
102	0x3cbf97c5	0.023387799
103	0xbde84902	-0.1134205
104	0xbd489ff9	-0.048980687
105	0x3d849c35	0.064751066
106	0xbe5384b5	-0.20656092
107	0x3e22f63e	0.15914246
108	0x3d2c5ed0	0.042082608
109	0x3e06bcd5	0.13157971
110	0xbe00f7a1	-0.12594463
111	0xbdd5e7c5	-0.10444597
112	0xbde65339	-0.11246342
113	0x3dd93924	0.10606602
114	0x3dcabfb9	0.098998494
115	0x3e027a96	0.12742075
116	0x3db3a9df	0.08772635
117	0xbd6e446d	-0.058170725
118	0x3e2c3819	0.16818275
119	0xbe470683	-0.19436078
120	0x3e355066	0.17706451
121	0x3ddce0d3	0.10785069
122	0xbd66588c	-0.05623679
123	0xbe3ef632	-0.18648604
124	0xbe003706	-0.1252099
125	0xbe2ce651	-0.16884734
126	0x3c45cb97	0.012072465
127	0xbd9d372c	-0.07676539
128	0x3e11ca46	0.14237317
129	0xbd72c7ce	-0.05927258
130	0x3c7f3228	0.015575923
131	0x3e2a7d67	0.166494
132	0x3d54ac13	0.051921915
133	0xbdcd26db	-0.10017177
134	0x3e13818b	0.14404885
135	0xbe4e46ac	-0.20144147
136	0xbe125f23	-0.14294104
137	0x3d8e6116	0.069521114
138	0xbcd31ab8	-0.025769576
139	0x3e407eb5	0.18798335
140	0x3cfdf01f	0.030998288
141	0xbdee187e	-0.11625765
142	0x3e12f961	0.14352943
143	0x3e910232	0.28321987
144	0xbd8feed3	-0.07027974
145	0xbe3ce7d0	-0.18447804
146	0x3dc961e6	0.09833126
147	0xbcbc7763	-0.023006147
148	0x3e3b3f98	0.18285978
149	0xbd07fc4c	-0.033199593
150	0x3c661616	0.014043352
151	0xbe13af70	-0.14422393
152	0xbe1b78c4	-0.15182787
153	0xbe0b11f7	-0.13581072
154	0xbe24c9b1	-0.16092564
155	0xbc9ce405	-0.019151697
156	0x3cbfbb02	0.023404602
157	0x3c66742a	0.014065782
158	0x3c487b49	0.012236425
159	0x3e3e6834	0.18594438
160	0x3d3bafbc	0.04582189
161	0x3d950b9f	0.07277607
162	0x3d9dc80f	0.07704174
163	0xbe0c5aa0	-0.13706446
164	0xbddbfad1	-0.10741199
165	0x3e4265c9	0.1898414
166	0xbe08ebc6	-0.1337119
167	0xbdb2ed4c	-0.08736667
168	0xbde27bc0	-0.1105876
169	0x3e339a0d	0.17539234
170	0xbd4dc604	-0.05023767
171	0xbdf477e1	-0.119369276
172	0xbdbb82ee	-0.09155832
173	0xbcf1a04b	-0.029495379
174	0x3e05e2f7	0.13074861
175	0xbe08b443	-0.13350014
176	0xbe02897f	-0.12747763
177	0xbe1e396b	-0.1545159
178	0x3c89b32b	0.016809067
179	0x3d4fc436	0.05072423
180	0xbd97cd87	-0.07412248
181	0xbe261354	-0.1621831
182	0x3df0c6dd	0.1175668
183	0x3e09bdf6	0.1345137
184	0x3e1b8e1f	0.15190934
185	0xbdb37af5	-0.087636866
186	0x3e23d39b	0.1599869
187	0xbe36bc49	-0.17845263
188	0x3e13680b	0.14395158
189	0xbd2f5b41	-0.042811636
190	0x3dafd4d1	0.085855134
191	0xbe1a9ca7	-0.1509882
192	0xbe1d8152	-0.15381363
193	0xbdb395f3	-0.08768835
194	0xbdd0d41d	-0.101967074
195	0x3e621ec8	0.22082055
196	0xbdcb2379	-0.09918875
197	0xbe2eb5c5	-0.17061527
198	0x3e075084	0.13214308
199	0x3c2f4f3d	0.010700044
200	0x3c4d8fda	0.012546504
201	0xbda4f908	-0.080553114
202	0xbc9dfbde	-0.019285139
203	0x3e4480d8	0.19189775
204	0xbdb30348	-0.0874086
205	0xbd909085	-0.07058815
206	0xbbd836c2	-0.0065983245
207	0xbe3faf66	-0.18719253
208	0xbdb3c021	-0.0877688
209	0x3e015b96	0.12632594
210	0x3d208f69	0.039199267
211	0x3c9516c7	0.018199338
212	0xbcddfd7e	-0.027098414
213	0xbbec6aae	-0.0072148656
214	0x3e1b517e	0.15167806
215	0x3d562e33	0.052290153
216	0xbc50f8e1	-0.01275465
217	0xbe29031d	-0.16505094
218	0x3d9077d8	0.070541084
219	0xbd001b0c	-0.031275794
220	0xbe851638	-0.25993514
221	0xbe559f0c	-0.20861453
222	0x3ab83ca5	0.0014056159
223	0x3e61efda	0.22064152
224	0x3dd940f8	0.10608095
225	0x3d97cf8e	0.07412635
226	0x3cb3fc58	0.021970913
227	0x3dc0d008	0.09414679
228	0xbe2c63b4	-0.16834909
229	0xbd359d9f	-0.044339772
230	0x3d94a27b	0.07257553
231	0xbd57ffd1	-0.0527342
232	0x3b678529	0.0035327172
233	0xbe45f54b	-0.19331853
234	0xbe6d7966	-0.23190841
235	0xbdbdceda	-0.092679694
236	0xbdc69bdb	-0.09697696
237	0x3d9b46da	0.07581873
238	0x3e21a9ff	0.15787505
239	0x3e124379	0.14283551
240	0xbe6a270c	-0.22866458
241	0x3e0e7df9	0.13915242
242	0xbd18cac3	-0.037302744
243	0x3e183118	0.14862478
244	0x3d9ad680	0.07560444
245	0xbe02678f	-0.12734817
246	0x3e05bdd2	0.13060692
247	0x3da883a2	0.08228232
248	0x3d62f3fc	0.055408463
249	0x3da941f4	0.08264533
250	0x3c920dbf	0.01782882
251	0xbe3192a1	-0.1734109
252	0xbdcded28	-0.100549996
253	0x3dea8a2f	0.11452138
254	0xbdb2bce8	-0.08727437
255	0x3e1cb857	0.15304695

net.layers.0.bias f4 [64]
0	0xbcba429d	-0.022736842
1	0x3b0cbefe	0.0021476145
2	0xbdaeeca4	-0.08541229
3	0x3d8d47e3	0.06898477
4	0x3df12567	0.11774712
5	0x3d95d2a7	0.07315569
6	0x3de5b8bd	0.11216877
7	0x3e26fb10	0.1630671
8	0xbe00c968	-0.1257683
9	0x3d0ffd26	0.03515353
10	0xbbb54e5e	-0.0055330237
11	0x3b74c3cb	0.0037348147
12	0xbd7e481e	-0.062080495
13	0xbdef0fb7	-0.11672919
14	0x3d6e0165	0.0581068
15	0xbdce2de0	-0.10067344
16	0x3d929eff	0.07159232
17	0x3bc370e5	0.005964386
18	0xbd909ef7	-0.0706157
19	0xba0bed3b	-0.00053377793
20	0xbe017216	-0.12641177
21	0x3d3e1952	0.046410866
22	0x3db113ec	0.08646378
23	0x3d8e8694	0.069592625
24	0x3d86b4f4	0.06577483
25	0xbd5c3b50	-0.053767502
26	0x3e3728b8	0.17886627
27	0x3db63e00	0.08898544
28	0xbd584b63	-0.05280627
29	0x3e20fc64	0.1572128
30	0xbe29b6df	-0.16573666
31	0x3d2acee9	0.04170123
32	0x3e139ef1	0.144161
33	0x3c83d889	0.016094463
34	0xbddd2048	-0.10797173
35	0xbc485605	-0.01222754
36	0xbba6aae7	-0.005086291
37	0x3e1a5e06	0.1507493
38	0xbdd15169	-0.10220606
39	0x3e358b88	0.17729008
40	0x3daf59de	0.08562063
41	0xbdb6ebed	-0.08931718
42	0x3dbda7b0	0.092604995
43	0x3e4803f9	0.19532765
44	0x3e2f21d7	0.17102753
45	0xbcc6fb54	-0.024289764
46	0xbd5f4690	-0.054510653
47	0xbd8bce78	-0.0682649
48	0x3e350b59	0.1768011
49	0x3e2885a0	0.16457224
50	0xbdd00ccd	-0.101586916
51	0x3db529ba	0.08845849
52	0xbcc639d8	-0.024197504
53	0xbe048e3a	-0.1294488
54	0xb8779a52	-5.903311e-05
55	0x3d0a56ae	0.03377407
56	0x3c39a2e2	0.011330338
57	0xbd5c5cb7	-0.053799357
58	0xbd4e3a9e	-0.05034887
59	0xbe047ca0	-0.12938166
60	0x3d699521	0.057026986
61	0x3c9a3f44	0.018828996
62	0x3cd54c47	0.026037348
63	0xbbdb0403	-0.006683828
