models/Regression/antikaon_0.pt (torch, 18925 bytes, 7 tensors)

layers.0.weight f4 [64, 19]
0	0xc01e036b	-2.4689586
1	0xbf9aa1c8	-1.2080622
2	0x3b92a348	0.004475031
3	0xbf3c4079	-0.7353588
4	0x3f7b34c6	0.981274
5	0x3e2877cd	0.1645195
6	0xbd41f26e	-0.04735034
7	0xbd9da4d1	-0.07697452
8	0xbcb2b352	-0.021814022
9	0x3cde5689	0.027140873
10	0x3eea381e	0.4574594
11	0x3dc400b2	0.09570445
12	0x3dd2d40f	0.10294353
13	0xbccaacac	-0.02474054
14	0xbc8c45e2	-0.017123166
15	0xba9e1d5c	-0.0012063193
16	0x3c2955ac	0.010335367
17	0x3d0b528d	0.034014273
18	0x3c7d003d	0.015441951
19	0x3dfdfea5	0.12402085
20	0x3e794ed7	0.24346481
21	0xbe17293c	-0.14761823
22	0x3d22e891	0.039772574
23	0xbdfcee8b	-0.12350186
24	0x3e16c4ac	0.14723462
25	0x3d86ea44	0.06587651
26	0xbc40c995	-0.011766811
27	0x3e374575	0.1789759
28	0x3e13696b	0.14395683
29	0xbe2f22d8	-0.17103136
30	0xbe44ef30	-0.19231868
31	0x3d0048b9	0.031319354
32	0xbd823106	-0.06357007
33	0xbe576007	-0.21032725
34	0xbcca8b5c	-0.024724655
35	0xbcc650be	-0.024208423
36	0x3e343065	0.17596586
37	0x3d7b3f52	0.061339684
38	0x3f818dd4	1.0121408
39	0xbe924ef5	-0.28575864
40	0xbe51110d	-0.2041666
41	0xbe8ac910	-0.27106524
42	0x3e69ba56	0.22824988
43	0x3df9a24b	0.12189158
44	0x3d8fa157	0.07013195
45	0x3e004e66	0.12529907
46	0x3d892dca	0.06698187
47	0xbf0a3879	-0.5399242
48	0x3f8559d3	1.0418037
49	0xbe399738	-0.18124092
50	0xbe47812a	-0.19482866
51	0x3c31d6a0	0.010854393
52	0xbdaeb9f1	-0.08531559
53	0x3d207895	0.039177496
54	0x3db2cfef	0.087310664
55	0xbdb898eb	-0.09013542
56	0xbc91ad88	-0.017782941
57	0xbeba03c5	-0.36331
58	0x3c3428ae	0.010996027
59	0xb8be30c1	-9.068987e-05
60	0xbd411786	-0.047141574
61	0xbf43218a	-0.7622305
62	0x3f896d31	1.0736448
63	0x3f2eadd4	0.6823399
64	0x3bddd981	0.0067703133
65	0x3d789105	0.060685176
66	0xbd5d19c5	-0.053979654
67	0xbfb95397	-1.4478635
68	0xbd4c0f9c	-0.049819574
69	0x3c9830dc	0.018577985
70	0x3c151d15	0.009101172
71	0x3ccb1d32	0.024794195
72	0xbc6eb4d8	-0.014569484
73	0x3c3bed23	0.011470112
74	0xbc02326b	-0.007946591
75	0x3b58dbd0	0.0033090003
76	0x3d629e94	0.055327013
77	0x3e4fad37	0.2028092
78	0xbdece6e9	-0.1156748
79	0xbd45ce28	-0.04829231
80	0xbdfd153d	-0.123575665
81	0xbc9c01c8	-0.019043818
82	0xbc86f8e0	-0.016476095
83	0xbd19e4f0	-0.037571847
84	0xbcd4eb10	-0.025990993
85	0x3df7d706	0.12101559
86	0x3e30350f	0.1720774
87	0x3e34e359	0.17664851
88	0xbe1dade4	-0.15398365
89	0x3e4c5e29	0.19957794
90	0xbda1dd04	-0.079034835
91	0xbdee25bd	-0.11628292
92	0x3e1739bf	0.14768122
93	0x3e1ee907	0.1551858
94	0x3e538de7	0.206596
95	0x3dc2cb7e	0.09511469
96	0xbd2876dc	-0.041128978
97	0x3e596823	0.21231131
98	0xbd894506	-0.06702618
99	0x3e65d743	0.22445397
100	0x3df8957a	0.121378854
101	0x3e38874b	0.1802036
102	0x3e5f1c23	0.21788077
103	0xbd324ee0	-0.043532252
104	0xbda85bc6	-0.082206294
105	0xbdacab10	-0.08431065
106	0xbe155e01	-0.14586641
107	0x3e6824f9	0.22670354
108	0x3ddd72e2	0.10812928
109	0x3d55a7ac	0.052161857
110	0xbe532d6e	-0.20622799
111	0xbdb9e79a	-0.090773776
112	0x3da28a82	0.079365745
113	0xbc96f218	-0.018425986
114	0x3e6648c9	0.22488703
115	0x3dc332be	0.09531163
116	0x3be02c60	0.0068412274
117	0xbe64b0d6	-0.22333083
118	0x3c6affd0	0.014343217
119	0x3dbcd89e	0.09221004
120	0xbd315e48	-0.043302804
121	0x3e19dfa7	0.15026723
122	0x3e3b373f	0.18282793
123	0x3e410663	0.18850093
124	0x3d97f982	0.07420637
125	0x3e4f8f07	0.20269404
126	0xbe33ab27	-0.17545758
127	0x3d188904	0.037240043
128	0x3e424e53	0.18975191
129	0xbde4ebeb	-0.1117781
130	0xbe0039c9	-0.12522043
131	0x3dccdafa	0.10002704
132	0x3db1eb92	0.086875096
133	0x3f6c8696	0.9239286
134	0x3cd5a8ef	0.02608153
135	0xbade6cdb	-0.0016969697
136	0xbf3d68f0	-0.73988247
137	0x401966e1	2.3969042
138	0xbf17c694	-0.5928738
139	0xbf03b1da	-0.51443255
140	0x3ce7a8a9	0.028278666
141	0xbdefc5de	-0.11707662
142	0xbc245dad	-0.0100321
143	0x3f97c94e	1.1858308
144	0x3da221b8	0.079165876
145	0xbd20196c	-0.039086744
146	0xb97e051d	-0.00024225232
147	0xbbf469d8	-0.0074589066
148	0x3c3ef3ca	0.0116548035
149	0x3c50797d	0.012724278
150	0x3c49885a	0.012300575
151	0xbb86c109	-0.004112367
152	0x3e3da953	0.18521623
153	0x3e16025f	0.14649342
154	0x3dc2d586	0.095133826
155	0xbd4990d8	-0.0492104
156	0x3d7158cc	0.058922574
157	0xbe0e7266	-0.13910827
158	0xbe069019	-0.13140906
159	0x3e1e16b9	0.15438356
160	0xbd34e58c	-0.044164225
161	0xbe1bbe4c	-0.15209311
162	0xbd2e9ce8	-0.042630106
163	0x3c694bf0	0.014239296
164	0xbdaf3de4	-0.085567266
165	0x3d5fc494	0.05463083
166	0x3d8eee3a	0.06979032
167	0xbe14664c	-0.14492148
168	0x3d6ac7a4	0.0573193
169	0xbe3a3aff	-0.18186568
170	0xbe3016c4	-0.17196184
171	0x3fc09fd8	1.504878
172	0x3cb0f2fd	0.02160024
173	0x39b9ebda	0.00035461673
174	0x3dd10d42	0.10207607
175	0x3f38fb97	0.72258896
176	0x3e7a940e	0.24470541
177	0x3e45c962	0.19315103
178	0xbc29672e	-0.010339541
179	0x3cc1da0b	0.023663541
180	0xbb086a45	-0.0020815295
181	0x3f8bd882	1.0925448
182	0xbcb0b1c3	-0.021569138
183	0x3c875aec	0.016522847
184	0xbb4fc8dc	-0.0031705415
185	0xbaf67fda	-0.0018806413
186	0x3b730e7d	0.0037087493
187	0x3a5b71cd	0.00083711446
188	0xbdad933a	-0.08475347
189	0x3bcf9569	0.0063349498
190	0xc0475539	-3.1145766
191	0x3d42eab2	0.047587104
192	0xbca3d057	-0.019996805
193	0x3e02a126	0.12756786
194	0xbd4f0e7a	-0.050550915
195	0x3f056cae	0.5211896
196	0x3e403fbd	0.18774314
197	0xbb35f396	-0.0027763597
198	0x3d8ed545	0.06974272
199	0xbdb6c23a	-0.089237645
200	0xbf590fb8	-0.8478961
201	0xbe563bba	-0.20921221
202	0x3d1c00cb	0.038086694
203	0x3d0acfff	0.033889767
204	0x3dd0e944	0.10200742
205	0xbb70588a	-0.0036673867
206	0x3d5125e0	0.05106151
207	0x3cf0f36a	0.029412944
208	0xbb1b3a44	-0.0023685852
209	0xbe1f38b0	-0.15548968
210	0xbe3c421e	-0.18384597
211	0xbe1c5ce1	-0.15269805
212	0xbdc74346	-0.09729628
213	0x3db76f3e	0.08956765
214	0x3dd5517a	0.10415931
215	0xbbf05320	-0.007334128
216	0x3e1b2db9	0.1515416
217	0xbe2889e5	-0.16458853
218	0xbe2cf366	-0.16889724
219	0x3defab0a	0.11702545
220	0xbc9ec608	-0.019381538
221	0xbd2a34f4	-0.041554406
222	0xba934280	-0.0011235029
223	0xbdd3ef0e	-0.103483304
224	0xbe2a677c	-0.16641039
225	0x3d642d5c	0.05570732
226	0xbe102d70	-0.14079833
227	0xbe2f7d00	-0.17137527
228	0x3dbf86ce	0.09351884
229	0x3e475d0d	0.1946909
230	0x3db374ea	0.08762534
231	0x3de6ff12	0.112791196
232	0xbdb3605a	-0.08758612
233	0x3e1323a1	0.1436906
234	0x3dc6551e	0.096842036
235	0x3e2499ab	0.16074245
236	0xbe4a4a7c	-0.19754976
237	0xbe56c2a0	-0.20972681
238	0xbe4a5c2c	-0.19761723
239	0x3d13dca4	0.03609909
240	0x3d93ebfa	0.07222743
241	0xbd956b94	-0.072959095
242	0xbe2e05a0	-0.16994333
243	0xbe235294	-0.1594947
244	0x3ddff4a2	0.10935332
245	0x3cfc55c8	0.030802622
246	0x3c5f8620	0.013642818
247	0xbdaaa8c6	-0.08332972
248	0x3da5edfe	0.08102034
249	0xbe224a3a	-0.15848628
250	0xbd84dd4a	-0.0648752
251	0x3db1a6f2	0.086744204
252	0xbd99a782	-0.07502653
253	0xbd3ecee8	-0.04658404
254	0xbdfdea2a	-0.12398179
255	0x3da9c766	0.08289985

layers.0.bias f4 [64]
0	0x3d56a6c2	0.052405126
1	0x3c9d6c4a	0.019216675
2	0xbe1b4206	-0.15161905
3	0x3db3fc2e	0.08788334
4	0x3e236e7d	0.15960117
5	0xbe09121c	-0.13385814
6	0xbd73b4ec	-0.059498712
7	0x3e31edb0	0.17375827
8	0xbd07d1d0	-0.033159077
9	0xbd703d5f	-0.058652278
10	0xbe887c6c	-0.26657426
11	0x3da4f06a	0.08053668
12	0x3d505404	0.050861374
13	0xbe44b9bc	-0.19211477
14	0xbe40ef1f	-0.18841217
15	0xbe2e900e	-0.1704714
16	0x3cb3b3e8	0.021936372
17	0x3d72c73c	0.059272036
18	0xbdf343fd	-0.11878202
19	0xbd9be9ad	-0.076129295
20	0xbe5d1f88	-0.2159406
21	0x3c966cc0	0.018362403
22	0x3cc977c8	0.024593249
23	0xbe07b26e	-0.1325166
24	0x3dca8ef8	0.098905504
25	0xbd7c9306	-0.06166365
26	0xbdd3372b	-0.10313257
27	0xbe571010	-0.21002221
28	0xbe3125aa	-0.17299524
29	0xbe7e9898	-0.24862897
30	0xbda514cb	-0.080606066
31	0xbe27daa3	-0.16391997
32	0x3e7807bd	0.24221702
33	0x3dc90f7e	0.09817408
34	0x3e2699d3	0.16269617
35	0xbd9bd386	-0.07608704
36	0x3cb31b16	0.021863502
37	0x3dd22226	0.102604195
38	0x3cecd988	0.02891232
39	0xbe63e9d2	-0.22257164
40	0x3e414853	0.18875246
41	0xbe7984ed	-0.24367113
42	0xbe427e87	-0.18993579
43	0xbe798d00	-0.24370193
44	0xbe2b65b0	-0.1673801
45	0xbe8817eb	-0.26580748
46	0xbe02f40b	-0.12788408
47	0x3e4b3cfd	0.19847484
48	0xbe16bd87	-0.14720736
49	0xbeb57acc	-0.3544525
50	0xbebee2d6	-0.37282437
51	0x3cdf9479	0.027292477
52	0x3de29e06	0.11065297
53	0xbc647a00	-0.013945103
54	0xbebfbe58	-0.37449908
55	0xbe6f8a8e	-0.23392698
56	0xbe7daa34	-0.24771959
57	0xbd99618c	-0.07489309
58	0xbc2adb80	-0.010428309
59	0x3c1a73f0	0.009427056
60	0x3d3b2337	0.04568788
61	0xbe11fa4e	-0.1425564
62	0xbddc8209	-0.1076699
63	0x3dc5f84c	0.096664995

layers.3.weight f4 [32, 64]
0	0xbe1a94e0	-0.15095854
1	0x3d72bbe5	0.05926122
2	0xba809448	-0.0009809816
3	0x3cc558c4	0.024090178
4	0x3d558c98	0.052136034
5	0xbdb80e1e	-0.08987068
6	0x3dc72e48	0.09725624
7	0xbdb5c344	-0.088751346
8	0x3dcf9c92	0.10137285
9	0x3bb19ddc	0.0054204296
10	0xbd7e85df	-0.06213939
11	0xbcf9b8a8	-0.030483559
12	0xbda9d0c2	-0.082917705
13	0xbc1f1c30	-0.00971131
14	0x3d8dffc4	0.06933549
15	0x3a9f00f3	0.001213102
16	0xbd958fe6	-0.07302837
17	0x3d99e82a	0.07514985
18	0x3d9b25e6	0.07575588
19	0x3caecda8	0.021338299
20	0x3e9bfa8e	0.30464596
21	0x3aae3400	0.0013290644
22	0xbc5d1940	-0.01349479
23	0x3d8d18ba	0.06889482
24	0x3d0b2cb0	0.033978164
25	0xbeefa52a	-0.46805698
26	0xbd3449a2	-0.044015534
27	0x3de41abc	0.11137912
28	0xbc281dde	-0.010261027
29	0x3e2ffe58	0.17186868
30	0xbf7b74c9	-0.98225075
31	0xbf7eecf4	-0.9958031
32	0xbd79c50a	-0.060978927
33	0xbdb01012	-0.08596815
34	0xbbba7320	-0.0056899935
35	0x3dd32d8c	0.10311422
36	0xbf23eec7	-0.6403622
37	0xbe838326	-0.25685996
38	0x3d943856	0.07237308
39	0xbdd24336	-0.10266726
40	0x3d8dd7fc	0.069259614
41	0xbcc83aec	-0.024442159
42	0x3bfbcf54	0.0076846275
43	0x3bacab13	0.005269417
44	0x3db75e2c	0.08953509
45	0xbda6ad44	-0.081385165
46	0xbe1defab	-0.15423457
47	0xbdd6091a	-0.10450955
48	0xbe9e17ff	-0.30877683
49	0x3d9a24b5	0.075265326
50	0xbd6b5a5e	-0.057459228
51	0x3b8f85f1	0.0043799807
52	0x3d966c7a	0.07344909
53	0xbd8e56a4	-0.06950119
54	0x3c5d1a6e	0.013495071
55	0xbf78f940	-0.97255325
56	0x3cf8fd88	0.03039433
57	0x3c808c87	0.015692009
58	0xbdc39a64	-0.09550932
59	0x3cb79e40	0.022414327
60	0x3d83ef8a	0.06442173
61	0xbda84c9e	-0.082177386
62	0x3b4f2a9c	0.003161109
63	0x3f1550e1	0.58326536
64	0x3ce050f8	0.027382359
65	0xbc50e3d3	-0.01274963
66	0xbc1f7c32	-0.0097342
67	0xbef9d373	-0.48794135
68	0x3c011ec0	0.0078808665
69	0x3de6d9b0	0.11271989
70	0x3db52dce	0.08846627
71	0x3d497e94	0.04919298
72	0xbd343c64	-0.044002905
73	0xbec49541	-0.38395122
74	0x3db5e39f	0.08881306
75	0xbb1b94c0	-0.0023739785
76	0xbdaa6736	-0.08320467
77	0xbd83fe38	-0.06444973
78	0x3e051d10	0.12999368
79	0xbc401965	-0.0117248045
80	0x3d568ac8	0.052378446
81	0x3df5a8b0	0.11995065
82	0xbddc5ffc	-0.10760495
83	0xbd755865	-0.059898753
84	0x3d431c1e	0.047634237
85	0x3dc33e78	0.09533399
86	0xbd20c530	-0.039250553
87	0xbd2d306c	-0.042282507
88	0xbca7fba8	-0.020505741
89	0x3de4da60	0.11174464
90	0xbe4d3b84	-0.20042235
91	0x3d9f6908	0.07783705
92	0xbd05849c	-0.03259717
93	0x3db666f6	0.08906357
94	0x3f015d22	0.50532734
95	0x3eb520fc	0.35376728
96	0x3e8fea44	0.28108418
97	0xbd026910	-0.031838477
98	0xbdef78ac	-0.11692938
99	0xbbfcda20	-0.007716432
100	0x3e83b541	0.25724223
101	0x3eeb57d1	0.45965436
102	0x3da070e2	0.07834031
103	0xbd940d44	-0.07229093
104	0xbde448da	-0.11146708
105	0x3e21ec5c	0.1581282
106	0xbca3f7c1	-0.0200156
107	0xbec17d05	-0.37790695
108	0x3dc1a4fa	0.09455295
109	0x3dad3510	0.084573865
110	0x3e059611	0.13045527
111	0xbc220230	-0.009888217
112	0xbd846a36	-0.06465571
113	0xbd551917	-0.05202588
114	0x3d80df0b	0.06292542
115	0x3df31e6e	0.118710384
116	0xbcadaf00	-0.02120161
117	0x3cacc510	0.02109006
118	0xbd90c033	-0.07067909
119	0x3e42ea8c	0.19034785
120	0xbdd3e7ba	-0.10346933
121	0xbd017897	-0.031609144
122	0xbda6729c	-0.08127329
123	0x3d9c36d2	0.07627644
124	0x3da08900	0.07838631
125	0x3d8cc20c	0.06872949
126	0xbb34c751	-0.0027584622
127	0xbe01833f	-0.12647723
128	0xbdadad23	-0.08480289
129	0x3e6de845	0.23233135
130	0xbbba837d	-0.005691944
131	0xbd46144d	-0.048359204
132	0xbd385294	-0.045000628
133	0x3d36f9c8	0.044671804
134	0x3db583cc	0.08863029
135	0x3d175226	0.036943577
136	0x3daaec88	0.08345896
137	0x3f26965a	0.6507317
138	0xbd1d8be8	-0.038463503
139	0x3cb71ae0	0.022351682
140	0x3df3ea14	0.11909881
141	0xbc3900e0	-0.0112917125
142	0xbcab5dba	-0.020918716
143	0x39451c94	0.0001879803
144	0x3d4f18c0	0.050560713
145	0xbdd49b46	-0.103811786
146	0xbde1a3ee	-0.11017595
147	0xbdb4595d	-0.08806107
148	0x3e200277	0.1562594
149	0x3dc2009e	0.09472774
150	0xbd65d674	-0.05611272
151	0xbd98690e	-0.074419126
152	0xbdbdf886	-0.09275918
153	0x3bfedb08	0.0077775754
154	0x3adb575f	0.0016734413
155	0x3c049a90	0.008093491
156	0xbda110ec	-0.07864556
157	0x3e36e3eb	0.17860381
158	0xbf07e583	-0.5308458
159	0xbf0db322	-0.5535146
160	0xbde97afe	-0.11400412
161	0xbd699ef8	-0.05703637
162	0x3df595ac	0.11991438
163	0x3d0ae77c	0.033912167
164	0xbe2a23cc	-0.16615218
165	0x3ef8f438	0.48623824
166	0xbd87b29e	-0.066258654
167	0xbbabf7c0	-0.00524804
168	0xbd985644	-0.07438329
169	0xbd5d4dd1	-0.05402929
170	0x3ab8dcec	0.0014103926
171	0xbd1967d6	-0.03745254
172	0xbd8c0db0	-0.06838548
173	0x3d957d5a	0.072992995
174	0xbe037e2e	-0.12841102
175	0x3bac6ca0	0.0052619725
176	0xbe722b34	-0.23649293
177	0x3dee0a74	0.116230875
178	0x3c0fe989	0.008783706
179	0x3cf2cae6	0.029637765
180	0xbd5d1ae0	-0.053980708
181	0x3dc55940	0.09636164
182	0xbc96e68f	-0.018420486
183	0xbeb5dfed	-0.35522404
184	0xbce84550	-0.028353363
185	0x3d49f83a	0.049308993
186	0x3d01fbb0	0.03173417
187	0xbd86aaea	-0.06575568
188	0xbcce72ed	-0.025201285
189	0xbde5ee24	-0.11227062
190	0x3c8125ce	0.015765097
191	0xbd9be9f4	-0.076129824
192	0xbca3e152	-0.020004902
193	0x3b9983d1	0.004684903
194	0x3be24e16	0.006906281
195	0xbf4e22e2	-0.80521977
196	0xbd370984	-0.04468681
197	0x3c587ce0	0.013213366
198	0xbdb1efc0	-0.08688307
199	0x3e96797e	0.29389566
200	0x3d601fb8	0.05471775
201	0xbf025694	-0.5091336
202	0x3c80fb23	0.015744751
203	0xbdcc0396	-0.099616215
204	0xbd721518	-0.059102148
205	0xbd26a6dc	-0.040686473
206	0xbb60fb57	-0.0034329498
207	0x3bdb7ee0	0.0066984743
208	0xbdbce424	-0.09223202
209	0xbda6159c	-0.081095904
210	0xbdcb3e54	-0.099239975
211	0x3d70a70f	0.05875307
212	0xbe096175	-0.13416083
213	0xbdb24a3e	-0.08705567
214	0xbd820226	-0.06348066
215	0x3bb89340	0.005632788
216	0xbcfe65f4	-0.031054474
217	0x3dff7333	0.124731444
218	0x3deb8c0d	0.11501322
219	0xbde514ca	-0.11185606
220	0xbe64909a	-0.22320786
221	0x3e0fa911	0.14029337
222	0x3ebc644e	0.36795276
223	0x3ef97427	0.4872143
224	0x3edd341b	0.43203816
225	0xbc93f070	-0.018058985
226	0x3cfbd518	0.03074126
227	0x3bfaf3e0	0.0076584667
228	0x3e63bfe0	0.22241163
229	0x3ebc0d8d	0.36729088
230	0xbd254ed0	-0.040358365
231	0x3dcaca0c	0.09901819
232	0xbdb5acb2	-0.0887083
233	0xbe015ab9	-0.12632264
234	0x3ad738d1	0.0016420131
235	0xbe9f8bf2	-0.31161457
236	0x3d542d30	0.051800907
237	0x3d821751	0.063521035
238	0xbd89aa03	-0.0672188
239	0xbcc09ec0	-0.023513198
240	0xbd9eac33	-0.07747688
241	0x3cb5a47a	0.022173155
242	0xbd064659	-0.032781933
243	0x3c1f6ba2	0.0097302515
244	0x3d7156c8	0.05892065
245	0xbca84468	-0.020540431
246	0xbbbf32ff	-0.0058349366
247	0x3e9bbe87	0.30418798
248	0xbe74c3d2	-0.23902825
249	0x3deb448c	0.11487684
250	0xbd81c5ac	-0.06336531
251	0xbd414730	-0.04718703
252	0xbda46c89	-0.08028514
253	0x3c3842a0	0.011246353
254	0xbb438a7a	-0.0029837177
255	0xbe71390d	-0.2355692

layers.3.bias f4 [32]
0	0x3e463c82	0.1935902
1	0xbeb3ecbe	-0.35141557
2	0x3bb4cce5	0.0055175894
3	0xbe561d5f	-0.20909642
4	0xbe8dbcf5	-0.27683225
5	0xbec85d18	-0.39133525
6	0x3e119e16	0.14220461
7	0x3e145ab8	0.14487731
8	0xbceba125	-0.028763363
9	0xbceedf44	-0.029159196
10	0x3ea8d7aa	0.3297704
11	0xbd8cc400	-0.068733215
12	0xbe418aa4	-0.18900543
13	0xbb864bbf	-0.004098385
14	0xbea882fe	-0.3291244
15	0x3e9fd247	0.31215116
16	0x3e0e1a82	0.138773
17	0x3d7b69c0	0.061380148
18	0xbd4a4f8e	-0.049392276
19	0xbe3b6e2f	-0.1830375
20	0xbe91396f	-0.2836413
21	0x3e28998e	0.16464826
22	0x3e8e78de	0.2782659
23	0xbc664bf6	-0.014056196
24	0x3ddafe52	0.10693039
25	0xbd95da8f	-0.07317077
26	0xbe932a44	-0.28743184
27	0xbefbf1a1	-0.49207786
28	0x3e30f9f1	0.17282845
29	0x3d9adb93	0.07561412
30	0xbb5d9eb8	-0.0033816528
31	0xbdadf993	-0.08494868

layers.6.weight f4 [16, 32]
0	0x3ead715c	0.3387555
1	0x3f6a170b	0.9144141
2	0x3e9b1feb	0.3029779
3	0x3f3c69a0	0.7359867
4	0x3eb09f03	0.34496316
5	0x3e6e4978	0.23270214
6	0x3f74a2dc	0.95561004
7	0xbe8a101e	-0.2696542
8	0x3e34c771	0.17654206
9	0x3ea4b8da	0.3217228
10	0x3e3eeef1	0.18645836
11	0xbd5c192e	-0.05373495
12	0x3db74e40	0.08950472
13	0xbd420f3e	-0.047377817
14	0xbc481c51	-0.012213782
15	0xbe80b9be	-0.2514171
16	0xbe597214	-0.21234924
17	0x3ec69c32	0.38791043
18	0x3eb5b408	0.35488915
19	0x3f541d71	0.82857424
20	0x3ec6bece	0.38817447
21	0xbe0d959e	-0.13826606
22	0x3f7ea729	0.99473816
23	0xbd798ee1	-0.060927276
24	0x3d02cb53	0.031932186
25	0x3e8231e6	0.25428694
26	0x3ef3c4b5	0.47611013
27	0xbe292b0d	-0.16520329
28	0x3e02af30	0.12762141
29	0xbe091a50	-0.13388944
30	0x3efa10fa	0.48841077
31	0x3e1d2a80	0.15348244
32	0xbe24b9b1	-0.1608646
33	0xbeef1041	-0.46692088
34	0xbebd7473	-0.37002906
35	0xbdbbc37c	-0.09168145
36	0xbe609303	-0.2193108
37	0xbe42c831	-0.1902168
38	0xbf1584b7	-0.5840563
39	0xbd8e1bfe	-0.06938933
40	0xbf1a72e0	-0.60331535
41	0xbf102028	-0.56299067
42	0x3e252a47	0.16129409
43	0xbe0e75b2	-0.13912085
44	0xbea39771	-0.31951478
45	0xbdb03a75	-0.086049
46	0x3cc1e397	0.023668094
47	0xbe63fe76	-0.22265038
48	0x3ed8d356	0.42348737
49	0xbec2f68d	-0.38078728
50	0x3db0f3e9	0.08640272
51	0xbe96c5ca	-0.29447776
52	0xbe2f7739	-0.17135324
53	0x3f00a68b	0.50254124
54	0xbe76ccb6	-0.24101529
55	0xbec74415	-0.3891913
56	0xbeeca41d	-0.46218958
57	0xbf04548d	-0.51691514
58	0xbece983c	-0.4035052
59	0xbdc0ef9a	-0.094207
60	0x3e0bacea	0.1364018
61	0xbdcacc32	-0.099022284
62	0xbef48b7b	-0.47762665
63	0x3df5ff6c	0.120116085
64	0xbe968962	-0.2940169
65	0xbf01db2d	-0.5072506
66	0xbe090564	-0.13380963
67	0xbf20a296	-0.62748086
68	0xbf04af3a	-0.51829875
69	0xbf232f10	-0.63743687
70	0xbf0a2536	-0.5396303
71	0x3d9c6fac	0.07638487
72	0xbf03e36e	-0.51518905
73	0xbee95f28	-0.4558041
74	0x3d9d13ef	0.07669818
75	0xbe2d82c9	-0.16944422
76	0xbeb80fef	-0.35949656
77	0xbf4b4572	-0.7940284
78	0xbe317865	-0.17331083
79	0x3df4e00a	0.119567946
80	0x3ec55edb	0.3854893
81	0xbf87ab62	-1.0599177
82	0xbe1ee217	-0.15515934
83	0xbef3da3b	-0.47627434
84	0xbeaa631a	-0.33278733
85	0x3e9f583c	0.31122005
86	0xbdd24b43	-0.10268261
87	0xbf009dbd	-0.5024069
88	0xbf24cdca	-0.6437651
89	0xbf4fa79a	-0.81115115
90	0xbd78e47c	-0.060764775
91	0xbeb3bcc4	-0.35104954
92	0x3e0d694f	0.13809703
93	0x3ca5a0d8	0.020218298
94	0xbf74ea09	-0.9566961
95	0xbe1b416a	-0.15161672
96	0xbe70ec77	-0.23527704
97	0xbf28d386	-0.6594776
98	0xbdd9e795	-0.10639874
99	0xbee30b5f	-0.44344613
100	0xbeb26e17	-0.34849617
101	0xbf0c63ed	-0.54839975
102	0xbeeabc37	-0.45846722
103	0xbd0bde77	-0.034147706
104	0xbee4558e	-0.44596523
105	0xbeeec84c	-0.4663719
106	0x3e3f1bf1	0.18663003
107	0x3e235bff	0.15953062
108	0xbedc408b	-0.43017992
109	0xbf5468b4	-0.82972264
110	0xbe8bd609	-0.27311733
111	0xbd7acc0f	-0.06122976
112	0x3e900c17	0.28134224
113	0xbf887686	-1.066117
114	0xbe4ef0cd	-0.20209046
115	0xbf0dddeb	-0.55416745
116	0xbe2c77f9	-0.16842641
117	0x3effba8b	0.49947008
118	0xbe286423	-0.16444449
119	0xbf1c84ae	-0.61139953
120	0xbf56a833	-0.838504
121	0xbf231be5	-0.6371444
122	0xbdd25ab4	-0.102712065
123	0xbef1448d	-0.47122613
124	0x3e4d692c	0.20059651
125	0xbe045aa4	-0.12925202
126	0xbeaefa90	-0.3417554
127	0xbe4046d9	-0.18777026
128	0xbe502ae2	-0.20328858
129	0xbed20f72	-0.4102741
130	0xbeb71219	-0.35755995
131	0x3d36e218	0.044649214
132	0xbe1d0287	-0.15332995
133	0xbed508e9	-0.4160836
134	0xbf0d9078	-0.55298567
135	0x3db6a06f	0.08917319
136	0xbf2b0a73	-0.6681282
137	0xbf00d2ff	-0.50321954
138	0x3e5391f0	0.2066114
139	0x3e0bf1bb	0.13666432
140	0xbeade4bf	-0.33963582
141	0xbf0536c0	-0.52036667
142	0xbd141d1b	-0.03616057
143	0xbe5d0d5b	-0.21587126
144	0x3eb3ce70	0.35118437
145	0xbf4b8f7a	-0.795158
146	0xbe3b2ee5	-0.18279608
147	0xbd19521c	-0.03743182
148	0xbe27c17b	-0.163824
149	0x3e6c359d	0.23067327
150	0xbe6c78e3	-0.2309299
151	0xbf120b22	-0.5704824
152	0xbf3aef84	-0.7302172
153	0xbef1bf20	-0.4721613
154	0xbe5296b4	-0.20565301
155	0xbe3678ea	-0.17819563
156	0x3e6aa883	0.22915845
157	0xbece4385	-0.40285888
158	0xbe881faf	-0.26586673
159	0xbd01571e	-0.031577222
160	0x3eb13d60	0.34617138
161	0x3f39a82b	0.7252223
162	0x3ea0a60e	0.3137669
163	0x3eea81d2	0.4580217
164	0x3ebd207f	0.36938855
165	0x3e9e4fc7	0.3092024
166	0x3f1d95db	0.61556786
167	0xbec3769a	-0.38176423
168	0x3e4a1eb1	0.1973827
169	0x3e922ee5	0.28551403
170	0x3e76ee5f	0.24114369
171	0x3a285b60	0.00064223073
172	0x3e3b3e84	0.18285567
173	0x3d84811e	0.0646994
174	0xbe5b71b4	-0.21430093
175	0xbeaaf1d3	-0.33387622
176	0xbecf4b4a	-0.40487128
177	0x3e680d3a	0.22661296
178	0x3ece92c1	0.4034634
179	0x3f424578	0.7588725
180	0x3e8a13a4	0.2696811
181	0xbea17599	-0.31535032
182	0x3f73f851	0.95300776
183	0xbcc67098	-0.02422361
184	0xbd1583eb	-0.03650276
185	0xbcd758df	-0.026287494
186	0x3ee0ec39	0.43930224
187	0xbe80c950	-0.2515359
188	0x3e983362	0.29726702
189	0xbe2c8730	-0.16848445
190	0x3ee60a98	0.44929957
191	0xbe39e70d	-0.18154545
192	0x3edf0e9c	0.43565834
193	0x3f38e219	0.7222
194	0x3e980570	0.29691648
195	0x3ef4236c	0.47683275
196	0x3e4291d6	0.19000944
197	0x3eb0e26d	0.3454775
198	0x3f41f2b9	0.7576099
199	0xbe8f5baa	-0.27999622
200	0x3d7c2747	0.061560895
201	0x3e9d2e2f	0.30699298
202	0x3e76b3ea	0.2409207
203	0x3e30504b	0.1721813
204	0x3d3ed592	0.046590395
205	0xbd25fd81	-0.040524963
206	0xbd420a58	-0.047373146
207	0xbe4788c5	-0.19485767
208	0xbec30796	-0.38091725
209	0x3e966f07	0.29381582
210	0x3ec4efa4	0.3846408
211	0x3f300c59	0.6876884
212	0x3ebf6c52	0.3738733
213	0xbe662bf6	-0.22477707
214	0x3f580930	0.8438902
215	0xbc0f8297	-0.008759162
216	0xbc092610	-0.008370891
217	0x3def0475	0.11670772
218	0x3eb97ad4	0.36226523
219	0xbdb61c5e	-0.08892129
220	0x3e4916c2	0.19637588
221	0xbe02db16	-0.12778887
222	0x3eb486e1	0.35259154
223	0xbda343d3	-0.07971921
224	0xbe86ad77	-0.26304218
225	0xbe743207	-0.23847209
226	0xbe820157	-0.25391647
227	0xbda34ce9	-0.07973654
228	0xbe96a8d3	-0.29425678
229	0xbee09e22	-0.43870646
230	0xbf3f52fa	-0.7473599
231	0x3d4d15a3	0.050069463
232	0xbf2e17f6	-0.6800531
233	0xbeb51acd	-0.3537201
234	0x3dcda1b1	0.10040606
235	0x3e033e79	0.128168
236	0xbecf3094	-0.4046675
237	0xbdad59cc	-0.08464393
238	0x3c651631	0.013982342
239	0x3d6b2690	0.057409823
240	0x3eb8df1b	0.36107716
241	0xbf403cee	-0.7509297
242	0xbe6c2c4a	-0.2306377
243	0xbe01b4ea	-0.1266667
244	0xbe19027f	-0.14942358
245	0x3e6e3bcf	0.23265003
246	0xbe66e33a	-0.22547618
247	0xbca6d0b7	-0.020363195
248	0xbcd93a5f	-0.026517091
249	0xbee0b1cc	-0.43885648
250	0xbe89eb98	-0.26937556
251	0xbddad8c3	-0.10685875
252	0x3e115b51	0.1419499
253	0xbc80f74e	-0.015742924
254	0xbf1ad857	-0.6048636
255	0x3e3b21d2	0.1827462

layers.6.bias f4 [16]
0	0x3e020927	0.12698804
1	0x3ea3c18e	0.31983608
2	0x3ef37f4b	0.47558054
3	0x3ee0474b	0.43804392
4	0x3ec97271	0.39345124
5	0x3e8d18b5	0.27557912
6	0x3e0b312f	0.13592981
7	0x3ed1e5f8	0.40995765
8	0x3e5e1644	0.21688181
9	0x3eceb8cb	0.4037536
10	0x3e339a55	0.17539342
11	0x3f0554a1	0.5208226
12	0x3ec1dd3d	0.37864104
13	0x3ea9a7c6	0.33135813
14	0x3eee51bc	0.46546733
15	0x3ed01f84	0.40649045

layers.9.weight f4 [1, 16]
0	0xbf1c8966	-0.61147153
1	0x3f40b449	0.75275093
2	0x3fa5b11c	1.2944674
3	0x3fb534fd	1.4156796
4	0x3f8e3b9f	1.1111945
5	0xbf25aebf	-0.64719766
6	0xbf491d96	-0.7856077
7	0x3f6b8f76	0.9201578
8	0xbf116e9c	-0.568094
9	0x3f86d1a4	1.0532727
10	0xbf663eea	-0.8993975
11	0x3f22739f	0.63457674
12	0x3f8291c6	1.0200737
13	0xbf1557e5	-0.5833724
14	0x3f2ed876	0.68299043
15	0x3f808a49	1.0042201
