models/Regression/antiproton_0.pt (torch, 18945 bytes, 7 tensors)

layers.0.weight f4 [64, 19]
00000000: 6561 e93d c8c2 093e 1b3a b63a 40f5 f33d
00000010: adfd 9c3c 9e37 103f 9434 ad3e 7e05 123e
00000020: 2f97 a33d 846b cd3c 6256 a0bf ae9f fcbd
00000030: 43b2 5cbd 6653 fe3c 7855 1c3d 1f7a ebbb
00000040: 61e5 db3d c6b2 953d 0906 213d 5d7c 53be
00000050: 6c09 103d d159 243e adad 2e3e d4e4 043d
00000060: 48fe c33c 0189 263e b54f 523e 0fa5 26be
00000070: 77f6 27be d102 183e 6da7 25be 909b 90bc
00000080: 61fa 5b3e 0852 39be 42f7 51be a06e cdbc
00000090: e443 283d 33f0 2f3e 672e 1e3e ac47 473d
000000a0: abcb a53c 5ad3 9d3e 3745 0f3e d1d9 553f
000000b0: 3f90 f53e 5150 9bbd 2143 2cbb 089e 903d
000000c0: e1ea 4dbf 79f2 86bc 15f2 553d 3784 e2bc
000000d0: 2108 e7ba bd88 27bc 9c8f d6bd 04b7 f5ba
000000e0: 1d50 d53c a6fc 0cc0 9737 8abd 1583 9fbc
000000f0: f1bf 83be d26d 2fbe b64e 8bbf c54e 89bf
00000100: bb57 a53d 92f4 4e3e 40c2 c6bd 681f d23e
00000110: 5f9b 72be 522b 223b 92fb 273d 5f93 8f3d
00000120: 8658 9f3c 4842 7d3c fd8b 29be 1d6f c3bb
00000130: dc8a b03e 3115 71bd 60d4 18be 74c8 943e
00000140: aee6 03be c580 2d3f 9ef3 183f 540c 86bd
00000150: cc5a 67be f455 5cbe 48b7 4abf 234a 1f3e
00000160: d0e7 723e a042 ed3c 922a aebc ad9f a6bb
00000170: ae5e d2bd 6a99 62bc 31cc f9bd 9912 0e40
00000180: b67d e33b ec6d 123a bce8 8fbe 572b d83f
00000190: 182f 9a3d 9b56 95bd 4319 ab3b 3371 853c
000001a0: 6fdf 9ebb bf5f 2a3f 96d5 e33b 8de2 f8bb
000001b0: e510 c43a ae8a 37bd ef8e 743b 2b9b e0ba
000001c0: 2973 6a3d 8341 993c c878 52bd c145 41be
000001d0: 30fa 55be a258 3ebe fefa 06be c498 6fbd
000001e0: ae1d fe3d e021 d9bc 3a1f e73d 9bbc 333e
000001f0: 6449 1dbd 3078 efbc b89e f53c 525d ac3d
00000200: 585b 59be cf74 15be c809 c4bc c468 3ebd
00000210: 27d8 103e 0417 623d 16ea e33d 0079 e13a
00000220: 8d11 d9bd e7b6 173e cfa2 663e e018 0b3c
00000230: 6e0c 5bbe b20a 813d 39ee 5c3e c4c8 66be
00000240: 88d4 843c 6ed2 55be 74a7 7e3d 1d09 5e3e
00000250: 1c2f 62be 5769 3b3e b44c 27bd 8a24 d4bd
00000260: 5b6a 373e 70f6 ecbc ceb7 eb3d 049a 043d
00000270: e830 eb3c 58e2 cd3c a88a d2bd f28d aabd
00000280: 332f 5dbe d0ff a5bc a526 213e 40c8 1bbb
00000290: eba8 173e 3629 833d 042e 1a3d f8ac 1bbe
000002a0: 50d4 e3bc 2aab 883d 821f 2bbe 66a4 54bf
000002b0: f381 e8be 9818 ed3a 0676 b13e 0bc8 52bf
000002c0: 8f00 0a3f 0a58 c83e 5357 943b caa4 90bc
000002d0: fdb3 bc3b a315 9abf 3ab1 a73c b1d7 813c
000002e0: c93c aebc 6f07 81bc c244 77bc 4359 c13c
000002f0: 69b7 5d3d 0594 593d 623a 8bbf 815b 2ebb
00000300: 7718 4a3a ca63 fabe 2e15 cc3f 07a2 043e
00000310: 805c 29bd 7e49 923d c4b4 ff3c 4c7a eebb
00000320: 4c32 903f b56b 10bd fc3a f9bd 3e4f 363c
00000330: 6582 45bd 399f bc38 4dcb 9fbb 3158 4fbc
00000340: 5b1b acbd 5300 7e3e 87dc f33d 4c75 433b
00000350: 6822 da3e be46 443e 8128 4d3f 9821 673f
00000360: b442 80bc c0d3 1f3e 3a71 99bc 4592 31be
00000370: c946 babd 0460 463c fed2 4d3c cd00 91bd
00000380: e91e adbb 43ae febd 470d a0bc 8c68 86bb
00000390: f35a 0f3e 8ef6 8c3c d4dc 263a 2bda a0be
000003a0: 44a5 0740 56fa 9bbe a22c 2fbe 4733 29bd
000003b0: 873f d2bc 6724 183c cdab a33f 0df7 973d
000003c0: 7b04 883d 8f4d 8f3c 2f87 08bb 16ab 203c
000003d0: 73d1 d83b 2ca9 203e a039 6f3b fc36 5bbf
000003e0: 313b 353e aed9 7bbe 5c1c a4bd 84d0 123f
000003f0: bf72 75bd d938 723d 8314 e23d 42e4 513e
0.1139553 0.1345321 0.0013902815 0.11912012 0.01916393 0.56334865 0.33829176 0.14259908
0.0798782 0.025075682 -1.2526362 -0.12335144 -0.05388094 0.031045627 0.038167447 -0.007186189
0.1073711 0.07309489 0.039312396 -0.2065291 0.035165235 0.16049887 0.1705844 0.03244479
0.023924962 0.162632 0.20538218 -0.16273902 -0.16402613 0.14844824 -0.16177149 -0.017652303
0.2148223 -0.18097699 -0.20504478 -0.025077164 0.04108037 0.17181472 0.15447389 0.048652336
0.020238718 0.3082531 0.13991247 0.83535486 0.47961614 -0.075836785 -0.002628513 0.07061392
-0.8043652 -0.016473042 0.05223282 -0.027650936 -0.0017626324 -0.010225472 -0.1047661 -0.001874656
0.026039178 -2.2029204 -0.06748884 -0.019471684 -0.25732377 -0.17131737 -1.0883396 -1.0727164
0.08073374 0.20210484 -0.09705019 0.41039586 -0.23692082 0.002474506 0.0410114 0.07010531
0.019451391 0.015457697 -0.16557308 -0.0059641735 0.3448094 -0.0588581 -0.14924765 0.29059184
-0.12880966 0.6777461 0.5974673 -0.0654532 -0.2259323 -0.21517164 -0.79185915 0.15555625
0.23721242 0.028962433 -0.021260533 -0.005084953 -0.10271965 -0.013830522 -0.121971495 2.219885
0.006942476 0.00055858376 -0.2810725 1.6888226 0.07528514 -0.07291909 0.0052215173 0.01628933
-0.0048484127 0.66552347 0.0069529517 -0.0075953663 0.0014958648 -0.04480999 0.003731664 -0.0017136087
0.05723873 0.018707996 -0.051384717 -0.18874265 -0.2089622 -0.18588498 -0.13181683 -0.058495298
0.12408005 -0.02650541 0.11285253 0.17552416 -0.03840007 -0.029232115 0.02998291 0.08416237
-0.21226251 -0.1459534 -0.023930445 -0.04648663 0.14144956 0.05519773 0.11128633 0.0017202199
-0.10599051 0.14815865 0.22523044 0.008489817 -0.2139146 0.06300868 0.2157525 -0.22537524
0.016214624 -0.20881054 0.062171414 0.21683164 -0.22088283 0.18301903 -0.040844634 -0.10358532
0.17911665 -0.028926104 0.11509667 0.032373443 0.028709844 0.025132343 -0.10280353 -0.08327855
-0.21600036 -0.020263582 0.15737398 -0.0023770481 0.14810531 0.06404345 0.03764154 -0.15202701
-0.0278112 0.06673272 -0.16711238 -0.8306335 -0.45411643 0.0018088995 0.34660357 -0.8233649
0.539071 0.39129668 0.0045270114 -0.017656703 0.005758761 -1.2037853 0.02047025 0.01584992
-0.021269219 -0.015750615 -0.015092077 0.023602134 0.05412999 0.053119678 -1.0877192 -0.0026604834
0.0007709334 -0.48904258 1.5943964 0.12952434 -0.04134798 0.07142924 0.031214125 -0.0072777625
1.1265349 -0.035258967 -0.121694535 0.011127291 -0.048220057 8.994196e-05 -0.0048765303 -0.012655304
-0.08403655 0.24804811 0.11907297 0.0029824553 0.42604375 0.19167611 0.8013993 0.90285635
-0.015656807 0.1560812 -0.018730748 -0.17340954 -0.090955324 0.012107853 0.0125625115 -0.07080231
-0.005283226 -0.124355815 -0.019537581 -0.0041018184 0.13999538 0.01720741 0.00063653034 -0.3141645
2.119462 -0.3046443 -0.1710687 -0.041308668 -0.025665058 0.009286023 1.2786804 0.07420168
0.066414796 0.017493038 -0.0020832529 0.009806415 0.006616765 0.15689534 0.0036502853 -0.85630774
0.17698361 -0.24594757 -0.080132216 0.5734942 -0.059923884 0.059136245 0.110390685 0.2049723

layers.0.bias f4 [64]
00000000: f701 8cbe 684d 1ebd 6284 ee3d db72 5fbe
00000010: 45c0 1abd 2fa4 503c 9b65 143e 707f 19be
00000020: 3f3d 3c3e f798 183e d159 7bbe 9997 aabd
00000030: 38e7 113e 77a3 47be 274d 55be 43c8 3d3e
00000040: 34d5 2e3e 1f92 c13d 3071 463e 3ac5 93bc
00000050: 77dc 0a3d ab25 9ebe d7c8 183d 1f76 0f3e
00000060: 285f 9abd 14a3 1a3d 11b1 98bb 6d41 343d
00000070: 5f08 2ebe 8567 cd38 60ee 19be 88de 28bd
00000080: bfff a1be 0a7d bb3d 4859 8d3d 4f80 933d
00000090: ea79 d3bd bd23 1d3b e3b6 dbbd dd7a a6bd
000000a0: 4b82 d5bd e76d 9cbe 7198 5c3c b7a2 c5be
000000b0: 12d6 53bd b986 04be 3024 8ebd c208 91be
000000c0: 5ba7 06be b81f ba3d 629b 68bd 12d2 8a3e
000000d0: 615c 853d a6d6 833d 6b72 37be b392 333e
000000e0: 4c94 463d c38e 2b3e b329 53be e487 7d3d
000000f0: 25d4 b43c 9cb3 19be fb7d c03d cfa6 28bd
-0.2734525 -0.03864804 0.11646344 -0.21821158 -0.03778102 0.012734457 0.14491884 -0.1499002
0.18382739 0.14902101 -0.24545981 -0.08329696 0.14248359 -0.1949595 -0.20830213 0.18533425
0.17073518 0.094516985 0.19379115 -0.01803838 0.033901658 -0.30888113 0.03730091 0.14009903
-0.07537681 0.03775318 -0.00465978 0.044007707 -0.16995381 9.794444e-05 -0.15032339 -0.041227847
-0.3164043 0.09154709 0.06901795 0.07202207 -0.10325988 0.00239776 -0.10728242 -0.08128903
-0.10425242 -0.305526 0.013464079 -0.38600704 -0.051717825 -0.12942018 -0.06940496 -0.28326994
-0.13149779 0.09088081 -0.05678881 0.27113396 0.065117605 0.06437425 -0.1791474 0.1753643
0.04848127 0.16753678 -0.20621376 0.061897174 0.022073815 -0.15009922 0.09399029 -0.041174706

layers.3.weight f4 [32, 64]
00000000: 8bd1 a13c 365f 8b3d b500 623c 5812 44be
00000010: 8fdc c83c bd2d 133f 2c32 8e3d 1c91 573d
00000020: 4c8a 193d 2710 e1be 64bb 3f3e c9de 8c3c
00000030: 060b bc3e 2029 15bd d1ab ae3e 4454 4abd
00000040: c4c2 c63e 0a61 bf3d 0f72 283e d33e 0b3d
00000050: d26d d23e 7670 7fbe 7ccc 353e ec47 143c
00000060: b486 af3d 0004 09bb 5827 f1ba 7774 5b3d
00000070: f066 2abc 6748 983c 596a d13b 5a61 e7bd
00000080: 357a 88bc 8460 01bd 2962 373d 5ba8 1b3f
00000090: 5028 acbd 30c2 c23e 48ca e23c 15f5 2e3d
000000a0: 4d75 f83c f3fc 83be a7e7 86bd 13c5 92bd
000000b0: 73a6 583d 4b81 88be 4ef1 8f3d eb34 ac3d
000000c0: 807e 82bb ae0f b73c 6585 223d 6179 a0be
000000d0: 0dce 38bc 6402 193d 78d8 79bd 8f1d 14bc
000000e0: 08e2 1ebd 9815 a9bc e724 62be 8658 813d
000000f0: 508e abbe c4b4 17bd 8756 d83c 850c 50bc
00000100: 6f79 acbd f838 9dbd 44c7 02be 99b1 793e
00000110: e54e 9abc b32a 6abe 783e c63c 268c c83d
00000120: a41f a43d ff9f 11bd 0707 0cbe a2d9 0dbe
00000130: e9b9 89bd 5290 dc3c be6a 973d e0a3 793d
00000140: 824f a13f 9c96 89bd 997a 9cbe a05e 893d
00000150: 6caf a13f 37e8 913e a069 a73e ba1a 4f3d
00000160: 885d 12bd 74be 3d3d 43a0 0f3c 3465 d93d
00000170: 68db 353d 320c 23be c115 cebd d6e5 8ebd
00000180: 9252 843c f690 ad3d 7231 673d 10bd cd3e
00000190: b66e c6bd 4c12 583f 00b6 0ebd 9e90 883c
000001a0: ce3f 34bc 5e02 743d fefc 86bb 403f b23d
000001b0: b2a1 29bc 0fd3 23bc 0011 04bc 06dd 46be
000001c0: dc2a 68bd 0fcd 62bd e4bd a7bd abd7 0c3d
000001d0: 2e4c 87bd 94fb 3e3d 9464 99bd a985 7abb
000001e0: 4029 13bc d013 3bbc 6549 79bb e894 86bd
000001f0: 3cee fa3c 8023 8bba e4c1 b33c 80e1 5c3d
00000200: 98b8 4abe 9223 983d d894 1dbe 99f2 2dbd
00000210: e814 24be f2cd 7a3e 6803 d83d 400c 27bc
00000220: 806c 70bd 5aea 82be 912e 3cbd 0212 41bd
00000230: 9c9e 8b3d d9e4 ddbc 11bd 933d 3030 82bd
00000240: 08d8 71bd 10b0 c83d ee3e d53e afd2 ea3c
00000250: 7283 cd3e 9f4c 2c3e 62c9 f2bd d4db 963d
00000260: 8627 ba3d b25d e3bd 08c6 14bd 7d47 e7bd
00000270: d62a c9bd 0cec 853d 3162 db3d e8b3 cabd
00000280: eb2b 40bd 1ca4 10bd 0838 00bc 764e 5e3e
00000290: b8ca 633d 8932 f33e a2b6 91bd 62d0 24bd
000002a0: 82ad 2c3c efff 42be 689b 3b3e 5cf6 093e
000002b0: 4a9b 58bc 20d2 09be 7a44 c4bd b2da 593d
000002c0: e47d 98bd 5c4d 5e3d cdb2 9c3d 4a25 193f
000002d0: 84c4 913d 8605 edbd 9049 d63c 5a00 adbd
000002e0: 7859 463d 3477 69bd 0205 febe 34e1 a83d
000002f0: f749 d7bd a42d dcbd 1cff b8bd 91c9 60bc
00000300: 98a4 27bc 805f 9f3a a6ab 403d 08d4 8abd
00000310: acfd 8cbd b55f 55bf 0ef8 993d 3054 0cbd
00000320: fad0 e23d 4779 96bd 54d2 2dbe 14bf 823c
00000330: ebb6 3dbf e886 43bd 15ae fbbe aee9 b13d
00000340: 8d88 55bf a808 3a3d dd22 a7bd f4a3 1c3e
00000350: 3c83 44bf f343 2cbd 0fd6 1fbf ca90 8fbd
00000360: aa6d f7bd 843a a2bd e04e f23d b787 cc3c
00000370: d052 883c fd73 54bc 77ef 18be 70ef 4dbc
00000380: 25dc 90bc c4a2 50bd a92a 9cbd 6a6d 36bf
00000390: d6d1 f2bd 8ce1 b7be dc21 a73d 71fd 57bd
000003a0: 051c 6dbd 3670 e138 88c0 f93d 8b14 6c3d
000003b0: 5f2b d3bd 0b8d 66bd 2065 883c eb8e 68bd
000003c0: bc86 6bbd 470c 97bc 33eb 6dbd 0c6b 743d
000003d0: aa3a 1fbe fcd3 01bd 3c1d 17bd 6298 873d
000003e0: ecec cc3d 2ad2 afbd b86e 3abd 44c6 773d
000003f0: cc13 30bb e047 013d 5275 913d e072 323c
0.019753238 0.068052694 0.013794114 -0.19147623 0.024519233 0.57491666 0.06943163 0.05262862
0.037485406 -0.43957636 0.18723828 0.017196076 0.3672716 -0.036416173 0.3411546 -0.04939677
0.3882047 0.093446806 0.1644976 0.03399546 0.4109941 -0.24945244 0.17753786 0.009050351
0.085706145 -0.0020906925 -0.0018398566 0.053577866 -0.010400519 0.018589212 0.0063908515 -0.11297865
-0.016659835 -0.031586185 0.044771347 0.60803765 -0.084061265 0.38038778 0.027684346 0.042714197
0.03032937 -0.25778922 -0.06587153 -0.07166495 0.052893113 -0.26661143 0.07028447 0.08408531
-0.003982365 0.022346344 0.039677996 -0.31342605 -0.011279595 0.037355796 -0.060997456 -0.00904025
-0.03878978 -0.02064018 -0.2208439 0.06315713 -0.33507013 -0.037037626 0.026408447 -0.012698297
-0.08421599 -0.076768816 -0.12771326 0.24384154 -0.018836448 -0.22867851 0.02419971 0.09792356
0.080138475 -0.035552975 -0.13674556 -0.13852552 -0.06724913 0.026924286 0.07393406 0.0609473
1.2602389 -0.067181796 -0.30562285 0.067075014 1.263166 0.28497478 0.32697773 0.050562598
-0.03573373 0.04632421 0.008766237 0.10615006 0.044398695 -0.15922621 -0.10062743 -0.069774315
0.016152654 0.08474915 0.05644364 0.40183306 -0.09689085 0.8440292 -0.034841537 0.016670521
-0.01100154 0.05957257 -0.0041195145 0.0870347 -0.010353493 -0.009999051 -0.008060694 -0.19420251
-0.0566815 -0.05537134 -0.08190516 0.034385365 -0.06606327 0.046626642 -0.07489887 -0.003822664
-0.008982003 -0.011418298 -0.0038038131 -0.0657137 0.030631177 -0.0010615438 0.02194304 0.05392599
-0.1979698 0.074286595 -0.1538881 -0.042467687 -0.160236 0.24492624 0.10547525 -0.010195792
-0.058697224 -0.2556942 -0.045942847 -0.047136314 0.06817362 -0.027086662 0.07213796 -0.06356847
-0.059043914 0.09799206 0.41649574 0.028664915 0.40139347 0.16826104 -0.11854817 0.07366148
0.0908957 -0.11101855 -0.03632167 -0.11292932 -0.098226234 0.06539163 0.10712088 -0.09897596
-0.046916883 -0.035312757 -0.007825859 0.21709618 0.05561325 0.47499493 -0.071149126 -0.04023779
0.010539414 -0.19042943 0.18321002 0.13472885 -0.013220618 -0.13459063 -0.09583373 0.05318708
-0.07445887 0.054272994 0.07651291 0.59822524 0.071175605 -0.11573319 0.026158124 -0.08447333
0.048425168 -0.056998447 -0.49613196 0.08246079 -0.105121545 -0.10750893 -0.09033033 -0.013719932
-0.010232113 0.0012159199 0.047038697 -0.06778723 -0.068843216 -0.8334916 0.07518016 -0.034259975
0.11075015 -0.073473506 -0.16974765 0.015960254 -0.74107236 -0.04773608 -0.49156252 0.08687149
-0.83411485 0.04541841 -0.081609465 0.15296918 -0.7676275 -0.04205699 -0.62436 -0.07010038
-0.12081464 -0.07921317 0.118314505 0.024967058 0.01664105 -0.012967107 -0.14935099 -0.012569293
-0.017683098 -0.050936475 -0.07625324 -0.712607 -0.11856429 -0.35914266 0.08160755 -0.052731935
-0.05788805 0.00010749737 0.121949255 0.05763678 -0.10311007 -0.056286853 0.016649783 -0.056776922
-0.05750154 -0.018438471 -0.05808563 0.0596724 -0.15549722 -0.031696305 -0.036893114 0.066208616
0.10006127 -0.085850075 -0.045515746 0.060491815 -0.0026867269 0.031562686 0.07102455 0.010891646

layers.3.bias f4 [32]
00000000: f5a8 5f3d 4a62 a3be df9b 993c 177b 803e
00000010: 139a 22be a001 bdbd d55f 7d3c bb80 de3e
00000020: d9f5 4abe 3e4e 12bd 21f6 423e 4e0e 1d3e
00000030: 85e0 393e 3684 e23d 0b1a d4bd 5b42 923d
00000040: 7d11 0bbd f5ca cc3c 9112 c03e 315f 35be
00000050: 3ff6 a4bd a036 3fbe 8996 b53c efa6 6b3e
00000060: e670 813e eb0b 70bc a2a1 643e e20b 663e
00000070: e93a 6dbd ce9a b6bd 5254 3b3e 2f38 8cbd
0.05460449 -0.31910926 0.018751083 0.2509391 -0.15879087 -0.092288256 0.015464743 0.4345759
-0.19820346 -0.03571915 0.19039203 0.15337488 0.18152054 0.110603735 -0.1035653 0.071415626
-0.033952225 0.024999121 0.37514165 -0.17712094 -0.0805478 -0.18673182 0.022166507 0.23012899
0.25281447 -0.014651279 0.22327283 0.2246547 -0.05791751 -0.089162454 0.18293884 -0.06846654

layers.6.weight f4 [16, 32]
00000000: 3b1c e8be e77f 0ebf edd9 09be 3e60 ae3e
00000010: 8c0b a0be 9991 c2be 41ec ebbe e858 afbb
00000020: 4ed5 1ebf dcd4 b4bd 7ce6 9c3e 846c a53d
00000030: 8c17 38bb 21cb 09bf 5400 46be eeba a1be
00000040: cd66 0cbf 6033 04bf 11d2 dfbc da0a 78be
00000050: 1a83 4fbf 811a 87be 9e50 9fbe 9427 a63e
00000060: 7567 b63e 8bbb 15bf 15e4 be3d d066 913d
00000070: 77d8 823b 356e babe 189b 90bd 5cec 7dbe
00000080: 8e85 f53c 9b8e e83e bb6f df3e ed90 49be
00000090: 5829 9dbd 9fa0 f03e edda b73e 9e09 063e
000000a0: d396 163f 826b 983e cd59 61be a973 e6bd
000000b0: 9ab0 3dbe daf5 593c 9748 98bb bc0e ac3e
000000c0: 62ca ae3d 9997 b3bc 63cd 063e 008f cf3c
000000d0: 6a1c dc3e 1b2b b53e c8dd 603e 5f1f 74be
000000e0: 4599 5abe 5d61 97bd 3d08 bcbd 1a5a 4b3e
000000f0: ea5a ebbd 9d2a 743e db84 a3be a34d be3e
00000100: c604 9cbc 3ce0 063f 941a ab3e f240 fcbd
00000110: 6420 c7bc 187b d53e 7e21 a93e d492 493e
00000120: e441 4e3f fe01 213e 43c1 cbbd d015 d8bd
00000130: bf58 44be 1862 cd3d 1cd7 f2bb e1ee 9b3e
00000140: 39d3 583e 2a83 183d 2cba 4e3d 4e4b 223d
00000150: ccc2 d03d 1cb6 163f 4183 0e3e c420 0cbe
00000160: affb f5bd 62a1 f5bd 89ed 45be da8d 1e3e
00000170: 912e fabd 5dce 453e 9361 96be d10b f33e
00000180: 7fd0 7abd 7411 053f 5a23 013f 3e69 4cbe
00000190: 02df 5b3a d946 b63e dc27 c23e f2c7 453e
000001a0: 1bcf 053f 4c5a 543e 0665 3bbd 5463 173d
000001b0: 1b96 a5be ec02 1d3e 5046 d13d 63a9 cc3e
000001c0: 5560 e83d 5a42 233e 0341 573e 1e49 2ebd
000001d0: bac6 c83e 6119 d43e e5ca b13e 88de 83be
000001e0: 19f7 5abe 129f d1bc 88ab a5be ba48 eb3a
000001f0: fd09 083e b49b 753d cde4 bd3c ee0c f63e
00000200: 5df6 ffbd 4c0a 213f 1261 033f a395 2cbe
00000210: 0e25 4fbd 912d c93e ae59 953e 7163 003e
00000220: d2c4 f03e 3018 a13e 8386 11be 784e afbb
00000230: db01 a4be 2301 2b3e 55c9 343d 8e5b bb3e
00000240: 12de 333d f210 403e e66e 1e3e 0b59 d93c
00000250: 33f5 5d3e 4a26 df3e 51b8 733e e6f8 54be
00000260: f84a 60be 9fc7 ae3d 8128 64be ae36 f73d
00000270: f7ab 223d 5964 693e c609 78be e809 a73e
00000280: e16f aabe 1c89 1fbf 8d68 e73d 871c f03d
00000290: 6546 aabe be21 0cbf bc8e a8be 1a92 013e
000002a0: bd8a 1bbf 2a95 37be 8bed 7f3e fa90 623d
000002b0: d4f2 be3d cd64 9bbe b15d 87bc 23f6 09be
000002c0: b211 febe a7fc 88bd d41c 1f3e 0df5 96be
000002d0: b146 1abf 9f02 98be 5598 0cbe ba69 9a3e
000002e0: 933b 9f3e 3712 25bf 506e 573e c04a c13d
000002f0: a4ce 8bbd 0fc3 b6be 007a de3d b86f 7bbe
00000300: fd8e e3be 7f7a 19bf 01f2 c63d e0d6 ce3d
00000310: c740 54be f9a3 dabe 996e 4cbe 588e a63e
00000320: 3203 c0be 3b14 38be 60ae ab3e fc73 ae3e
00000330: 383d e7bd dee0 36be 9764 5ebe fa01 3cbe
00000340: 9c04 03bf ba64 2abe b1c7 fd3d 4c6a e4be
00000350: ceb0 2bbf 5424 acbe dcfa 3fbe d8d0 003e
00000360: 4c0e 713e e500 31bf b15a 633e c6de 8b3d
00000370: 98fc 03be 022f bbbe b1f5 023d 8089 96be
00000380: 35bf 60bd 7eba d53e e314 bd3e fbc4 34be
00000390: a578 be3c 9def 8c3e fc2e b83e 8346 073e
000003a0: fb78 253f d13d db3e ea1d acbd 2e88 45bd
000003b0: fac3 61be c2b4 003e 56bd 4f3c 90f1 bc3e
000003c0: 41e1 be3d 9aa5 173e 0561 273e c397 9dbd
000003d0: 8f30 a83e c19d 133f c6c4 673e 4138 b3bd
000003e0: bbda 3dbe 382d b73d be18 5bbe cc39 9f3d
000003f0: 9033 d2bd b824 cf3e 624c c6bd 1333 cf3e
-0.45334038 -0.55663913 -0.13462038 0.34057802 -0.3125881 -0.38001707 -0.46078685 -0.0053511746
-0.6204423 -0.08829662 0.30644596 0.08077338 -0.0028090207 -0.53825575 -0.19336063 -0.3158793
-0.5484436 -0.5164089 -0.027321847 -0.2422289 -0.8105942 -0.26387408 -0.31116194 0.3245207
0.35625806 -0.5848929 0.09320847 0.07099688 0.00399309 -0.36412206 -0.07060832 -0.24797195
0.02997091 0.454213 0.4363993 -0.19684191 -0.07673901 0.46997544 0.35909215 0.13089606
0.5882389 0.29769522 -0.22006913 -0.11252529 -0.185244 0.0133032445 -0.0046473253 0.3360499
0.08534695 -0.021922873 0.13164286 0.025336742 0.42990428 0.3538445 0.21959603 -0.23840092
-0.2134753 -0.073916174 -0.09181259 0.1985859 -0.1149195 0.2384438 -0.31937298 0.37168607
-0.019045245 0.52685905 0.33418715 -0.12317075 -0.024307437 0.41695476 0.33033365 0.19684917
0.8056929 0.15723416 -0.09948971 -0.105510354 -0.19174479 0.100284755 -0.007410897 0.30455688
0.21174325 0.037234463 0.050470516 0.039622597 0.101934046 0.58871627 0.13917257 -0.13684374
-0.120108955 -0.11993672 -0.19328894 0.154838 -0.12215913 0.19317003 -0.29371318 0.47469953
-0.061233994 0.51979756 0.5044457 -0.19962022 0.0008387418 0.35600927 0.37921035 0.19314554
0.5226914 0.2073757 -0.04575064 0.03695996 -0.32341084 0.15333146 0.10218489 0.39972982
0.11346499 0.1594328 0.21020894 -0.0425502 0.39214116 0.41425613 0.3472511 -0.25755715
-0.21383323 -0.025588546 -0.3235743 0.0017950751 0.1328506 0.059962943 0.02318039 0.4805674
-0.12498162 0.62906337 0.5131999 -0.16853957 -0.050572447 0.39292577 0.29169983 0.12537934
0.47025162 0.31463766 -0.14211468 -0.0053499304 -0.32032666 0.16699652 0.044137318 0.36593288
0.043912955 0.18756464 0.15471992 0.026531717 0.21675567 0.435839 0.2380078 -0.20798072
-0.21903598 0.085341685 -0.22281076 0.12070976 0.03971478 0.22792186 -0.24222478 0.32624745
-0.33288482 -0.6231859 0.11299238 0.11724191 -0.33256832 -0.54738986 -0.32921398 0.1265339
-0.6075857 -0.17927995 0.24992959 0.05531404 0.093236595 -0.30350342 -0.016524168 -0.134728
-0.49622875 -0.066888146 0.15538341 -0.29483834 -0.60264117 -0.296895 -0.13729985 0.30158788
0.3110014 -0.6448092 0.21038175 0.094380856 -0.06826523 -0.35695693 0.108631134 -0.24554336
-0.4444503 -0.5995254 0.09714127 0.10099578 -0.20727836 -0.42703226 -0.19964065 0.32530475
-0.37502438 -0.17976467 0.33531475 0.34072864 -0.112909734 -0.17859218 -0.2171806 -0.18360129
-0.5117891 -0.16639987 0.12391604 -0.44612348 -0.6706666 -0.33621466 -0.18748039 0.12579668
0.2354061 -0.6914199 0.22202565 0.068296 -0.12889326 -0.36559302 0.03197259 -0.2940178
-0.05486985 0.41743845 0.36929998 -0.17653267 0.023250887 0.2752656 0.35973346 0.13210492
0.64637727 0.428206 -0.08404143 -0.048225574 -0.22047415 0.12568954 0.012679419 0.36903048
0.093203075 0.14809266 0.16345604 -0.07694962 0.32849547 0.5766259 0.22633657 -0.08750964
-0.1854047 0.08944172 -0.21396157 0.07774696 -0.10263741 0.40457702 -0.096825376 0.40468654

layers.6.bias f4 [16]
00000000: aa27 1a3f 4574 833e b302 aa3d cee9 db3d
00000010: 0dd1 873e e0b7 d83e 2097 d93e d3fe a83d
00000020: c0dc a93e db5e de3e 419f e23e b8b7 9d3e
00000030: e5b2 b63e 208d 6f3e bad4 283f 6983 603e
0.6021677 0.25674644 0.08301296 0.10737954 0.2652668 0.42327785 0.42498112 0.08251729
0.3317623 0.43431744 0.44262126 0.3080423 0.3568336 0.23393679 0.65949595 0.21925129

layers.9.weight f4 [1, 16]
00000000: e770 953f 8692 aabe be51 03bf 8895 aabe
00000010: d32c c7be 3135 083f dc49 0a3f 82b9 cabe
00000020: 5288 8dbe ed82 483f f174 1c3f 50c2 0ebf
00000030: 081d 363f bc65 eabe 5720 8a3f 06ff 02bf
1.167508 -0.33314914 -0.51296604 -0.33317208 -0.38901386 0.53206164 0.5401895 -0.39594656
-0.27643067 0.78324777 0.6111594 -0.5576525 0.7113805 -0.45780742 1.0791119 -0.51170385
