models/Regression/kaon_2.pt (torch, 18437 bytes, 7 tensors)

layers.0.weight f4 [64, 19]
000000 6c 00 d1 bd 65 a3 50 be 78 08 b6 bc f6 fb ba bd
       -0.102051586 -0.2037483 -0.022220835 -0.09130089
000010 48 c0 4b be 0e 32 e8 3d 3b 99 07 3e 86 f4 b8 bd
       -0.19897568 0.11337672 0.13242047 -0.09031014
000020 1e 7d f1 bd bc 59 6c 3d d4 31 7d bd 69 a1 61 3e
       -0.11791442 0.057702765 -0.061815098 0.2203423
000030 6e 40 c0 bd 0b 46 67 be 2c fd 56 bd 3e 6a f6 bd
       -0.09387289 -0.22585313 -0.052487537 -0.12031983
000040 70 09 98 bd df 1e 62 be 0e 6a f7 3d 28 37 55 3f
       -0.07423675 -0.22082089 0.12080775 0.83287287
000050 65 09 6a bd 35 f7 b5 3b 23 bd 0a be 8e 98 b0 3e
       -0.057137866 0.005553151 -0.13548712 0.3449139
000060 75 45 a8 be 23 0e 63 bc 74 0e f0 3d 8a 4a 34 bd
       -0.32865492 -0.013858351 0.11721507 -0.0440164
000070 06 02 1d 3d 55 64 9a bf 24 9a bc 3b 20 73 1a be
       0.038332008 -1.2061869 0.0057556797 -0.15082979
000080 e9 64 4e bd 6c f5 39 bb 12 bf 04 3c 4b e6 39 3c
       -0.050389204 -0.0028375043 0.008102195 0.01134641
000090 c7 06 e3 bb 16 19 e3 bd 34 48 7c bd 1b 77 3d 3e
       -0.006928298 -0.11088769 -0.061592296 0.18502466
0000a0 6b 0f 4d be 1a 4e 4b 3e 87 f2 b1 3d c3 5c 27 be
       -0.20025413 0.19854012 0.086888365 -0.1634398
0000b0 f3 d9 68 3d 5c d7 48 be 23 99 86 3d c2 5e 41 3c
       0.056848478 -0.19613403 0.06572177 0.011802377
0000c0 a8 9f 6b 3d 7d 67 a9 3d 63 6f e9 3b 27 c6 00 be
       0.057525307 0.08271692 0.007123874 -0.12575589
0000d0 23 0b 13 be d7 21 b3 bd 2a 15 01 be e0 57 b2 3d
       -0.14359717 -0.08746689 -0.1260573 0.08708167
0000e0 96 67 a6 bd 70 6f 8e bd 50 69 3b bd ea ef b2 bd
       -0.08125226 -0.06954849 -0.04575473 -0.08737166
0000f0 1e e2 f7 3d c0 ef 6a 3b 4c cf 14 3d 19 44 40 be
       0.12103675 0.0035848469 0.036330506 -0.18775977
000100 5b c0 52 be 92 fc 90 bd b9 0f 55 3e 32 ca c0 bd
       -0.2058119 -0.07079424 0.20806779 -0.09413566
000110 ed 92 5a 3e a2 2b 8e 3d 68 92 36 be b6 96 dd 3d
       0.2134511 0.06941916 -0.17829287 0.108197615
000120 fc 78 f3 bd 60 18 c9 bd 48 0d 9e bd 59 68 01 be
       -0.1188831 -0.09819102 -0.07717377 -0.12637462
000130 e2 23 9a 3e ec 85 5d 3e cf 88 13 bd e9 d6 03 3d
       0.301055 0.21633118 -0.036019143 0.032187376
000140 16 02 d1 3d 66 39 69 3f 96 1d 5d 3f 8f ed 0b 3e
       0.10205476 0.9110321 0.8637327 0.1366484
000150 ef 3a 93 3d 85 c4 40 be 7b 7b 4d bd d1 55 78 bd
       0.07188975 -0.18824966 -0.05016659 -0.060628716
000160 db 5d 69 bd d5 2a 02 bc 34 1d c4 3b 74 02 7c 3a
       -0.056974273 -0.007944782 0.0059849266 0.00096134027
000170 94 64 3e 3e 61 c1 35 bd 8d 21 a0 bc 3e ca 0a 3d
       0.18593055 -0.044373874 -0.019547248 0.03388428
000180 1b 6d b0 3d 7f 17 a3 3b c2 0b b6 3d 08 94 ee bd
       0.0861456 0.004977166 0.088889614 -0.116493285
000190 53 42 23 bc dc 0a b2 bd 5f 82 5f 3e 7f aa 45 3e
       -0.009964543 -0.086934775 0.21827076 0.1930332
0001a0 a3 52 ff 3d f6 64 c3 bd 27 6e 75 bd c6 75 59 3d
       0.124669336 -0.09540741 -0.059919503 0.053090833
0001b0 82 d6 2f 3e 1d ed 3b be e9 bc cb bd a1 05 b9 3b
       0.17171672 -0.1835217 -0.09948141 0.005646423
0001c0 cb af 4c be 48 6a 50 bc dd 6e 23 c0 f7 11 2d be
       -0.19988935 -0.012720652 -2.5536416 -0.16901384
0001d0 75 60 29 3b 53 af 28 bf 5a db 08 3f eb 09 59 bf
       0.0025844846 -0.65892524 0.53459704 -0.8478076
0001e0 0f e2 0d bf 9e bd 9b 3b d5 34 19 bd 5a 1c 85 bc
       -0.55423063 0.0047528287 -0.0374039 -0.01624887
0001f0 10 d5 67 bf 20 21 4e 3d f9 ba bc 3c 9d 0f d3 bc
       -0.9055948 0.05032456 0.023038374 -0.02576428
000200 86 f4 e9 3b 43 3a 52 3c 1c 50 0d 3c 7e 25 e7 bc
       0.007139745 0.0128312735 0.008625057 -0.02821612
000210 6b f0 c1 3c 89 54 7d bd 8d 43 83 ba 34 96 cc ba
       0.02367421 -0.061848197 -0.0010014639 -0.0015608729
000220 b1 7c b8 3d 69 ba 25 3e c5 d2 cb bf 03 f4 c5 bf
       0.09008158 0.16184391 -1.5923697 -1.5465091
000230 90 1f c4 bc c3 8f bb bc b4 3c c5 3a 66 ba dc bf
       -0.023940831 -0.0228957 0.0015047998 -1.7244384
000240 01 59 39 bb ae c4 1b bc 12 5b 12 bc 85 28 16 3c
       -0.002828181 -0.009507341 -0.008932846 0.009164934
000250 e2 ce 6b 3c 65 1a 4b bc 4c a1 d8 3c 11 71 c1 b9
       0.014392586 -0.01239643 0.0264441 -0.0003689607
000260 94 4a 91 3f 6a 48 59 3c f2 f9 63 b9 26 7b 13 3e
       1.1350884 0.013261894 -0.00021741519 0.14402446
000270 99 03 2f 3f 60 13 4e 3d ed 4a 29 be 70 14 cb bc
       0.68364865 0.050311446 -0.16532488 -0.024790019
000280 9a 25 86 3c 51 b8 7e ba e7 e3 ce bf 87 0f 96 bc
       0.016375352 -0.00097167963 -1.61633 -0.01831795
000290 46 28 da 3c 89 cf 73 bb 74 62 93 3a cd 33 f0 3b
       0.026630532 -0.0037202558 0.0011244551 0.007330394
0002a0 f7 33 44 be 37 26 32 bd 15 20 1c 3b 4b 21 16 bf
       -0.19160448 -0.043493476 0.0023822833 -0.5864455
0002b0 9b 28 b7 bc b6 3b 8a 39 d7 c8 ee be d1 eb ce 3c
       -0.02235823 0.000263659 -0.46637604 0.02525893
0002c0 56 b9 bc bf a3 0a a6 bf 1f 93 94 3d e8 b5 41 3e
       -1.474406 -1.2971996 0.072546236 0.18917048
0002d0 a8 3d 2b bc 47 e1 0c bf fe 88 9b bd 7b 07 e8 bc
       -0.010451712 -0.55031246 -0.075944886 -0.02832388
0002e0 5b 5c 45 3c df 49 fa bb c7 4e 62 3c 0b e1 74 bc
       0.012045945 -0.0076382007 0.013812727 -0.014946233
0002f0 65 dd 6f bd b2 a1 0c 3c a7 cf b4 bf 4f 45 df 3c
       -0.058560748 0.008583473 -1.412587 0.027254729
000300 c8 10 89 3a d0 78 94 be 4a a5 d4 3f 6b 58 58 be
       0.0010457272 -0.28998423 1.6612942 -0.21127479
000310 ac 34 8a bd 01 f7 48 3c 51 82 8f 3d 5e 7d 3e 3c
       -0.067483276 0.012265922 0.07007278 0.01162657
000320 61 a9 27 bf bf 6e c0 bd 04 44 8d bc 01 70 05 3c
       -0.65492827 -0.09396123 -0.017244346 0.00814438
000330 eb 8f 93 3c 4d c2 f5 3b 8e 37 e9 bd 54 94 2e be
       0.018012961 0.007499969 -0.11387549 -0.1704877
000340 1c 2a 65 bd 6b 01 9a bb 7a 5e 4a 3e fe b7 b0 3e
       -0.05594836 -0.004699876 0.19762602 0.34515375
000350 a4 69 db 3e 7e 0c cd be db 8e b4 3e 39 a3 37 3f
       0.42854035 -0.40048593 0.3526524 0.71733433
000360 74 19 a1 3d f2 ce 6b bd d9 81 e9 bd 34 93 62 be
       0.07866183 -0.057570405 -0.114017196 -0.22126466
000370 4b b4 0a be 5c 87 ea 3d 88 d0 9d bd 6f a4 f4 3d
       -0.13545339 0.11451599 -0.0770579 0.11945426
000380 69 3d e9 bd 60 ba ec bd 87 5c b7 bd d9 b8 2b 3d
       -0.11388666 -0.11558986 -0.08953195 0.04192433
000390 d0 1f a6 bc 7b b8 54 3e 98 57 ab bc 5b c1 08 3e
       -0.020278841 0.20773499 -0.020915791 0.1335501
0003a0 27 a9 63 be dc d3 21 bd f1 ad 29 3e a3 be 3c be
       -0.22232495 -0.039508685 0.1657026 -0.18432097
0003b0 8e a0 ba bd 42 bc 95 3d 2b 58 45 be d8 f3 bc bc
       -0.091126546 0.07311298 -0.19271915 -0.023065493
0003c0 e8 5b cf bd 9e 69 a7 3d 74 b1 b4 bd dc 7b 1d be
       -0.101249516 0.08174442 -0.08822909 -0.1537928
0003d0 7a b2 ae bd 92 b1 ab 3d 31 95 1a 3e 2d a1 38 3e
       -0.085301355 0.08383478 0.15095975 0.18030234
0003e0 80 88 49 3b ff 6b 15 3e 11 9e 39 3e 00 18 9f b8
       0.0030751526 0.14591978 0.18126704 -7.586181e-05
0003f0 48 68 a4 bc 54 6c 79 3d 60 e4 91 bb d5 f3 44 3e
       -0.020069256 0.060894325 -0.0044522732 0.1923364

layers.0.bias f4 [64]
000000 a4 38 64 3d 05 71 00 bb 76 c0 2f 3d d4 3e 6d 3d
       0.05571808 -0.0019598615 0.042908154 0.057921246
000010 e9 c6 9b 3d 95 cf 4c be a6 9a 9c be 1d 5e 10 be
       0.076062985 -0.20001061 -0.30586737 -0.14098401
000020 b4 d1 ca 3d 0c f8 89 be 41 ff b6 be fc 2f b9 3d
       0.09903279 -0.26947057 -0.35741618 0.090423554
000030 63 f6 00 be 1f 4d 22 3e 4b 1b 5c be 48 7d a6 bd
       -0.12593989 0.15849732 -0.21494786 -0.08129364
000040 e6 14 b2 3d 09 7c 97 3d 32 b6 a9 3d b2 18 22 3e
       0.08695392 0.07396705 0.08286704 0.15829733
000050 72 8e a1 3d 9d ed f9 3d 2b a0 15 be 51 17 e3 bd
       0.078884974 0.12203524 -0.1461188 -0.110884316
000060 ee 84 c4 be da af bd 3d 4b 24 3a be 0a 04 c1 3d
       -0.38382667 0.09262057 -0.18177907 0.094245985
000070 b6 da 07 bd 3a c6 ac be 64 a2 7c 3d e4 78 1d be
       -0.033167563 -0.33744985 0.061678305 -0.15378147
000080 26 79 84 3d 1c da 52 bd cc 7a 06 3d fb 8c 56 be
       0.0646842 -0.051477537 0.032831952 -0.20952217
000090 c2 03 a3 be 7d de a0 bc bb 28 12 3e 5a e5 93 3d
       -0.31838804 -0.01963734 0.1427335 0.0722148
0000a0 7a c4 8c bd 23 3e 09 3e 50 00 5c bc 9e c8 0b be
       -0.068734124 0.1340261 -0.013427809 -0.13650748
0000b0 93 9d e2 3d 87 b8 75 3c ca 7b 83 bd f0 41 5f be
       0.11065211 0.014997608 -0.06420095 -0.21802497
0000c0 19 73 fe bd 54 08 ad 3b 38 b4 af be 51 ea 76 bc
       -0.12424297 0.005280534 -0.34317183 -0.015070514
0000d0 78 b4 3a bd 45 58 00 be de c1 80 be 4c 92 98 bd
       -0.045582265 -0.12533672 -0.2514791 -0.07449779
0000e0 de d5 39 3e 9c ca 29 3e f6 bd 1a 3d e0 f8 b1 3c
       0.1814799 0.16581196 0.037778817 0.021725118
0000f0 57 10 26 3d 19 04 0e 3d a8 5f 04 be 0f fb 05 be
       0.040542927 0.034671877 -0.12927115 -0.13084053

layers.3.weight f4 [32, 64]
000000 f8 10 f4 3c 75 e5 b1 3c 55 97 92 bc 26 43 8f 3d
       0.029793248 0.021715859 -0.017894426 0.069952294
000010 10 86 ec bd 8f cc 92 3d d2 28 83 3d ba f0 ec bf
       -0.11549008 0.07167923 0.0640427 -1.8510964
000020 35 01 85 be 69 44 8c 3d 12 fd b0 3c 4d 03 16 bf
       -0.25977483 0.06848986 0.021605048 -0.58598787
000030 68 6f 83 3c 38 6e 8a 3d cd 91 13 3d 2a df ea 3d
       0.016044334 0.06759304 0.03602772 0.114683464
000040 28 62 ab bc 8a cd 4e be d0 1e fa bc 66 c4 93 be
       -0.020920828 -0.20195594 -0.03053227 -0.28860778
000050 b3 ce a2 3d a7 ee 65 3c fb e9 ba 3c 39 86 12 be
       0.07949581 0.01403395 0.022816649 -0.14309014
000060 21 d8 a2 3d fe ad ed bd 5c 40 57 3d be b6 cf 3d
       0.079513796 -0.11605452 0.052551612 0.10142277
000070 3c 19 85 3d 02 7a 4f be 3c 53 1a bd f9 3f d0 bd
       0.06498954 -0.20261386 -0.037677035 -0.10168452
000080 10 76 50 bd 92 d0 b7 3d 40 d7 0c 3b 30 ce cd bd
       -0.050893843 0.089753285 0.0021490604 -0.10049093
000090 7e d8 9b 3c f3 b3 5f bd 7a b6 d3 3d 60 91 f4 bb
       0.01902413 -0.054614972 0.10337539 -0.007463619
0000a0 b5 ce 50 bf 24 78 d3 bd 70 5e 9f 3c 2c 40 5a bd
       -0.8156541 -0.103256494 0.019454211 -0.053283855
0000b0 6c 98 8d be 2d ef 27 3e ee 86 94 3e 80 e5 9e ba
       -0.2765535 0.16399832 0.29009193 -0.001212284
0000c0 30 a2 04 3d e8 3f 9a bd c7 15 2e be 83 5c 81 bf
       0.032381237 -0.075317204 -0.17000495 -1.0106357
0000d0 1f d1 83 be 6e 4b 98 3d e7 e7 09 3d 82 f8 8e bd
       -0.25745484 0.07436262 0.033668425 -0.06980993
0000e0 bc 23 75 bc d1 d2 2c be 4c 6a 8f 3d b6 d3 83 3d
       -0.014962133 -0.16877295 0.070026964 0.06436865
0000f0 c5 c5 45 3d 81 c7 6d 3b d5 12 b5 be 28 58 66 be
       0.04828431 0.0036282244 -0.3536593 -0.22494566
000100 8c c8 1f bd 98 0f 13 bd 3a 1e 54 3d 10 d7 d8 3c
       -0.039009616 -0.035903543 0.05178664 0.026469737
000110 63 b2 35 bd 94 52 97 bd d1 55 39 3e a2 e6 d3 3f
       -0.044359576 -0.073887974 0.18099143 1.6554759
000120 1c 79 50 bd d8 35 ee 3d 9a 6d bc 3d 46 52 5f bd
       -0.05089675 0.11631364 0.09200592 -0.05452182
000130 e4 21 5d bd e0 61 e4 bd 93 5c 26 3b b4 f6 94 3d
       -0.0539874 -0.11151481 0.0025384768 0.072736174
000140 a8 71 24 3d 60 5c 82 3d a0 bf ed 3d 9f c6 cb be
       0.040147454 0.063652754 0.11608815 -0.39799973
000150 01 99 05 bd 4d 6e 07 3e 6d 4f b2 b9 d8 7d 76 bd
       -0.03261662 0.1322567 -0.00034009982 -0.060178608
000160 eb 6a 08 bd a0 f1 bf bb 88 c4 ff 3d 7c 29 2a bd
       -0.03330509 -0.0058576614 0.12488657 -0.04154347
000170 c8 5e a4 3d ba 5b 04 3d 88 21 45 bd c5 dc e3 3c
       0.080258906 0.03231404 -0.04812768 0.027815232
000180 18 23 51 bd 00 d6 23 3d 28 3a bc bd b0 67 4b bd
       -0.05105886 0.03999901 -0.0919078 -0.04965943
000190 7a 5c 68 3c e9 9a d1 bd 00 97 c4 3b 3e 30 df bd
       0.014182204 -0.10234625 0.005999446 -0.10897873
0001a0 29 56 21 3f 82 29 c5 bd 60 11 5a bd 00 4a 3a 3d
       0.63022095 -0.096270576 -0.053239226 0.04548073
0001b0 fc 41 70 3d d2 4e cb bd e5 30 30 be e0 d7 56 3c
       0.058656678 -0.09927143 -0.17206152 0.013112992
0001c0 9e c8 66 bc 71 6f e0 bd 82 b2 3b bd ac 2c 51 3f
       -0.014085917 -0.10958756 -0.045824535 0.8170879
0001d0 f9 c7 26 3e 1a 54 b7 3d 6a e6 88 bc 28 07 d7 bc
       0.16287221 0.08951588 -0.016711432 -0.02624853
0001e0 b5 02 e7 3d fe 27 62 be 53 b9 94 3d e3 4e 1d be
       0.11279813 -0.22085568 0.0726191 -0.15362124
0001f0 72 c4 43 3e f1 bc f1 3e df ea cf bc c3 a0 bf 3e
       0.19117907 0.47214463 -0.02538055 0.3742734
000200 e8 b1 d8 3c 9c 8b 83 3c e8 b9 4d ba 08 4d 0b 3d
       0.02645202 0.016057782 -0.00078478316 0.03400901
000210 99 fc 48 3c c0 20 b1 3d e7 dc 9c 3d e9 e6 df 3f
       0.012267255 0.08648825 0.07659321 1.7492343
000220 d0 da 49 3e 69 8e 07 3e f6 81 93 3d 46 85 20 bd
       0.19712377 0.13237919 0.072025225 -0.0391896
000230 16 5e 8e bd 0c 32 12 bd 39 49 e0 3a 0e 02 99 3d
       -0.06951539 -0.03569226 0.0017111666 0.07471095
000240 fe 14 a5 bd 3a b8 b5 bc 26 75 c5 bd 3e 0e c0 be
       -0.080606446 -0.022182573 -0.09641485 -0.37510866
000250 ff 54 d2 3d b1 50 65 3d 53 04 df bc 6b 8c 2b bd
       0.10270118 0.055985156 -0.027223742 -0.04188196
000260 23 ba 21 3c 88 d6 ee 3d 8c d8 ea 3d 90 92 07 3d
       0.009871039 0.11662012 0.11467084 0.033098757
000270 fe c0 89 3d 4a 22 73 3c 50 40 eb 3d 39 3e 05 3b
       0.067262635 0.014839718 0.11486876 0.0020331277
000280 fe e4 c8 bd ac 62 de bd 9e c7 86 bd 40 d0 d2 bd
       -0.09809302 -0.10858664 -0.06581043 -0.10293627
000290 15 9c 88 3c 05 39 b1 bd f4 fa 05 3d 78 29 58 bd
       0.016675988 -0.08653454 0.03271003 -0.052773923
0002a0 07 19 87 3f 7c bb 63 3d ac db 1c bd da 83 84 3d
       1.0554513 0.05559872 -0.038295433 0.06470461
0002b0 b9 e3 de 3e 0d f2 36 bf 8e f3 7b be 76 03 ef bd
       0.43533114 -0.7146309 -0.24604627 -0.11670582
0002c0 de 5a ab 3b 7c dd de 3d b1 f4 b9 bc 0f 43 71 3f
       0.005229338 0.108820885 -0.022699686 0.9424295
0002d0 e5 9f a3 3d d8 3b 65 bd 9d 2d 55 bc b4 fb 35 3d
       0.07989482 -0.055965275 -0.013011363 0.044429496
0002e0 33 ea dc bb 90 65 88 3d b2 72 9d bd 67 d8 f4 be
       -0.006741786 0.066599965 -0.07687892 -0.47821352
0002f0 55 03 eb bd 27 60 02 3e 01 b5 00 bd 10 1e 11 3e
       -0.11475245 0.12731992 -0.03142262 0.14171624
000300 d4 08 bd bd 13 e2 06 bd 7b 36 cb bd be 71 ef 3d
       -0.092301995 -0.032930445 -0.09922501 0.116916165
000310 01 8b 36 bc e3 5c d4 3d 8b 8a b9 bd 89 af cb 3f
       -0.01114154 0.10369279 -0.09059628 1.5912944
000320 3a 7d 36 be 2d 9d 92 3e 4a bd 8b 39 41 d2 e1 bd
       -0.17821208 0.2863554 0.00026653177 -0.11026431
000330 90 b6 04 3c 78 fd 77 bd a6 b4 99 bc 52 d3 ce 3d
       0.008100167 -0.06054446 -0.018762898 0.100989
000340 a2 a8 88 bd 52 57 75 3e 12 10 b2 3d 7d 00 9a be
       -0.06672789 0.23959091 0.086944714 -0.30078498
000350 af 39 37 3d 32 0c 85 3c c4 82 d2 bc b3 b1 87 bc
       0.044732746 0.016241167 -0.02569712 -0.016564226
000360 94 54 1c bd 8c 18 60 bd 80 62 0f bd 0a 80 8b 3d
       -0.038166597 -0.05471091 -0.035006046 0.06811531
000370 27 16 11 bd 76 bf d6 bb fe 63 cd bd a3 de 0f ba
       -0.035421517 -0.0065535856 -0.100288376 -0.00054881925
000380 64 43 0e 3d 36 ab a7 3d 78 6d 87 3d 70 0b 8b 3d
       0.034732237 0.08186953 0.066126764 0.06789291
000390 72 38 90 3b ed 30 07 3f 70 bc cc bc e0 9a bf 3c
       0.00440126 0.5280903 -0.024992198 0.02338928
0003a0 a6 46 19 3f 70 8e fa bc a4 ee 31 bd 00 1a 53 ba
       0.59873426 -0.030585498 -0.043440476 -0.00080528855
0003b0 7a fa 59 be 87 11 fd 3c 48 4d 23 be 1e ab c2 bd
       -0.21286955 0.030892147 -0.15947449 -0.09505294
0003c0 d0 87 df bc 9e 89 e6 bd 22 3f e2 bc ae 46 26 3f
       -0.02728644 -0.11256717 -0.027617995 0.649516
0003d0 2b 6f 83 3d 2c bc 27 bd 97 eb 63 bb bc 6a 77 3d
       0.06417688 -0.04095094 -0.0034777874 0.060404524
0003e0 f6 1b a8 3d d8 98 c2 bd 11 ed 53 bd fa 05 5a bc
       0.08208458 -0.09501809 -0.051739756 -0.013307089
0003f0 6c 7b 0c 3e f8 56 a5 3e 34 e6 34 3d 27 bf b0 3e
       0.13718957 0.32292914 0.04416485 0.34520838

layers.3.bias f4 [32]
000000 da 87 18 3e 55 c2 5e be 9d 01 a1 3b cb bc 85 be
       0.14895573 -0.2175382 0.0049135224 -0.261206
000010 7f 44 e1 3b 6e 1e 27 be 0c f7 b0 3d 92 f8 86 3e
       0.0068746204 -0.16320202 0.086408705 0.2636152
000020 85 31 1e be 0e 51 bc bb 56 80 7f bb f8 f3 c1 bc
       -0.15448578 -0.005746967 -0.0038986406 -0.023675904
000030 70 90 22 be 3f aa 39 3e 7c f5 db 3e 11 c8 2e 3e
       -0.15875411 0.1813135 0.42960727 0.17068507
000040 d4 34 99 3d de a3 13 bd ad d4 4d 3e 4f c8 73 3c
       0.07480779 -0.036044948 0.2010066 0.0148793
000050 ab 37 03 3e ae 60 a4 3e fd c9 9f 3d 87 9d e8 bd
       0.12814204 0.3210501 0.07802198 -0.11358171
000060 de f2 86 be c6 91 75 be 20 e5 92 3d d2 92 ba be
       -0.26357168 -0.2398139 0.071726084 -0.3644014
000070 5c ad d0 3e dd 83 32 be 51 ef 0e 3e 04 fa 88 3e
       0.40757263 -0.17433114 0.1395848 0.26753247

layers.6.weight f4 [16, 32]
000000 47 50 c0 3d 9a 1b eb be bf 0c 8a be d6 9e 1d bf
       0.09390312 -0.45919496 -0.2696285 -0.6157049
000010 cf 92 25 3e bf ef aa be 0f be 6a bf 73 6c d8 bb
       0.16169284 -0.33386037 -0.91696256 -0.006604725
000020 2d 64 ef bd d1 12 a3 3a d9 06 b3 3e ba 15 d2 be
       -0.11689029 0.0012441521 0.34966162 -0.410322
000030 e4 05 8a be 21 b8 e5 3d b7 f7 a7 3e 25 c1 84 bf
       -0.2695762 0.112167604 0.3280618 -1.0371443
000040 41 d2 83 bf aa c4 12 bf 03 bd 3b bd 39 c6 99 3e
       -1.0298539 -0.57331336 -0.045834552 0.30034044
000050 b9 98 30 bf 18 d9 fc 3d fd eb 43 bf 16 3c f9 bb
       -0.68983036 0.12346095 -0.76531965 -0.0076060398
000060 a7 3e 30 be 20 8f b0 be 5e 27 bb 3d 6e 6f 49 bf
       -0.172114 -0.34484196 0.09138368 -0.78685653
000070 a9 f6 5c 3e dc 9a 34 be 23 cb 7a 3e 16 a5 3b 3d
       0.21578468 -0.17637199 0.24491553 0.045811735
000080 7f e3 d1 3d c6 c0 9d be cb 41 a6 be 1c a1 e6 be
       0.102484696 -0.30811137 -0.3247207 -0.45044792
000090 30 8b b8 3e c6 9b dc be 88 37 68 bf d4 d6 32 3d
       0.36043692 -0.43087596 -0.90709734 0.043661907
0000a0 74 a4 57 bd 4f 0d 81 3e e8 9a 19 3e 69 cb 29 bf
       -0.05264707 0.25205466 0.15000498 -0.66326004
0000b0 3c f5 8a be 13 38 15 3e 62 8b e6 3e 1b bc 7d bf
       -0.27140224 0.14572172 0.45028216 -0.9911515
0000c0 2d 2f 9c bf d1 ba 16 bf 6c d6 76 bd b1 cc 69 3e
       -1.2201897 -0.5887881 -0.060263082 0.2283199
0000d0 83 7a 2e bf 37 27 07 3e 24 ed 7e bf 09 53 f7 bd
       -0.6815569 0.13198553 -0.995806 -0.120763846
0000e0 00 5c 45 be e5 39 df be 4f c3 a0 3d f1 55 10 bf
       -0.19273376 -0.43598858 0.07849752 -0.56381136
0000f0 32 15 6a bd 94 97 5b bd 98 91 81 3e 33 55 eb 3d
       -0.05714912 -0.053611353 0.25306392 0.1149086
000100 47 90 9c be d1 65 96 3e d8 72 9c 3c a2 a9 eb 3e
       -0.30578825 0.29374555 0.01909773 0.46027857
000110 0f 3f aa be 7a 2b f1 3d 0e f7 bc 3e f3 0b 53 3e
       -0.33251235 0.117758706 0.36907238 0.20610027
000120 81 f0 42 3e b5 bc 63 be 7d 5b e4 be a7 a9 6b bc
       0.19037057 -0.22239955 -0.4460105 -0.01438371
000130 1f af 49 be bc e6 06 3e ac 0d c9 3e 7f 7d 98 3e
       -0.1969571 0.13173956 0.39268243 0.29783246
000140 40 11 18 3f 2f 54 c6 bc f2 1d aa bc c7 a3 b5 bd
       0.5940132 -0.024210064 -0.020766232 -0.08869129
000150 2b 3e 8e 3e 20 f0 2f 3f c8 33 93 3e b9 8a d9 be
       0.27781805 0.68725777 0.28750443 -0.4248865
000160 5e b7 8d be 8c 4d e0 be 0c 23 97 3e 00 e2 10 3f
       -0.2767896 -0.43809164 0.29518926 0.5659485
000170 2b 62 2f 3e f2 4a 70 3d 35 cb b2 3d 1b af ab 3e
       0.17127292 0.058665223 0.08730165 0.33532032
000180 b8 fe 55 be 55 62 60 3e 86 a8 26 3e 44 18 b6 3e
       -0.20897949 0.2191251 0.16275224 0.35565388
000190 28 62 67 be 85 56 18 3e 5d c7 f3 3e 48 e5 b8 3e
       -0.22596037 0.14876755 0.4761304 0.36112428
0001a0 ca 6e 63 3e 39 b4 1e be 52 d3 87 3c 46 c6 c4 bd
       0.22210231 -0.15498437 0.016580258 -0.0960813
0001b0 e4 ff fd bd 8a fc 81 3e b8 c8 c5 3e 01 e2 3c 3e
       -0.12402323 0.25387985 0.386297 0.18445589
0001c0 cc b1 c9 3e 0a 2b 40 3d 4e d3 aa 3b 7e 29 4b 3e
       0.3939346 0.046916045 0.0052131778 0.19840047
0001d0 4f 1a e7 3e e0 95 c1 3e 9c df a1 3e 56 04 f4 be
       0.4513726 0.37809658 0.31615913 -0.47659558
0001e0 c0 52 51 be 93 8b 3b be 80 8f 76 3e 7e 51 31 3f
       -0.20441723 -0.18314962 0.24078178 0.6926497
0001f0 c8 c0 0f 3e fc ad be bc 6f 9c e2 3c 64 1b c2 3e
       0.14038384 -0.023276322 0.027662484 0.37911522
000200 7d 4e 1c 3d b6 ca 1b be 0c fe 4a be 26 ca e0 be
       0.03816079 -0.15214047 -0.19823474 -0.43904227
000210 a3 4b 70 3e 29 fa 38 be a2 a0 4a bf 31 46 a8 3d
       0.23466353 -0.18064179 -0.79151356 0.08216513
000220 bd 03 86 be e0 04 87 3e 22 63 00 3e d7 d2 d9 be
       -0.26174727 0.26370907 0.12537816 -0.4254367
000230 25 f2 b1 be 58 54 03 3e 68 0d 81 3e 7e 9e 5a bf
       -0.34755054 0.12825143 0.2520554 -0.8539809
000240 7f 39 9a bf 7d d9 53 be e5 8c 19 3e 42 7f 0b 3d
       -1.2048796 -0.20688434 0.14995153 0.03405691
000250 8d 06 27 bf 55 33 38 bb 9c c5 6d bf be 27 64 bd
       -0.6524437 -0.0028106768 -0.9287965 -0.055701964
000260 b4 34 2a bd 0e 0a 62 be 7e fb 30 bd 1e c0 3b bf
       -0.041554168 -0.22074148 -0.04320859 -0.7334002
000270 a2 fd ca 3c 7d c9 40 be 50 8c 6e 3e 4d 61 95 3d
       0.024779145 -0.18826862 0.23295712 0.07293949
000280 f7 9e 70 3c 7d d6 a6 be 61 bc 79 be 06 77 26 bf
       0.014686338 -0.32585517 -0.24388267 -0.65025365
000290 db 22 80 3e 60 db bf be 16 ab 4c bf 16 52 38 3e
       0.25026593 -0.37472057 -0.79948556 0.18000063
0002a0 ce 82 77 be f1 90 87 3c 1e c1 fd 3d 93 71 18 bf
       -0.24170992 0.016548606 0.1239035 -0.595483
0002b0 32 75 d6 be 04 bd 5d 3e 1c e7 82 3e d3 25 80 bf
       -0.41886288 0.21654135 0.25566947 -1.0011543
0002c0 12 ca 98 bf 86 9e 03 bf a5 bf 77 3d f9 58 97 3e
       -1.1936667 -0.5141376 0.0604855 0.29560068
0002d0 19 80 48 bf 8f 10 90 3d ab 3f 82 bf c4 c8 6c 3c
       -0.7832046 0.07034408 -1.017568 0.014452163
0002e0 a0 7d 00 bd 0c 68 85 be c0 0e 8e 3d 4c a2 30 bf
       -0.031369805 -0.26055944 0.06936407 -0.68997645
0002f0 cb 5b 26 3e 71 f3 76 bd 53 55 9e 3e b3 ce 93 3d
       0.16245954 -0.060290758 0.30924472 0.07217159
000300 22 b3 79 bd 82 5a 3a bf 95 e7 00 bf 46 44 57 bf
       -0.06096185 -0.72794354 -0.50353366 -0.8408855
000310 8e d1 7e 3e ac 1a 05 bf dc 71 8a bf 91 5d fa 3d
       0.24884626 -0.51993823 -1.0815997 0.122248776
000320 c7 4e 76 be 54 74 52 3e 7c 41 97 3e a2 53 44 bf
       -0.24053489 0.20552188 0.29542148 -0.76690114
000330 fa 62 db be 46 86 02 3e 50 d5 68 3e 9b f2 7f bf
       -0.4284895 0.12746534 0.22737622 -0.9997956
000340 73 0a 9a bf c8 69 5d bf 37 14 af bd 7e 74 36 3e
       -1.2034439 -0.86489534 -0.085487776 0.17817876
000350 71 d7 6a bf 6a 92 b0 3d 7f b8 7b bf 3d 22 b6 bc
       -0.9173499 0.08621676 -0.98328394 -0.022233123
000360 2c 29 89 bc dc cb 0c be 4e a3 63 bc 72 d6 50 bf
       -0.016743265 -0.13749641 -0.013893915 -0.8157722
000370 27 71 e0 3d a6 91 13 3d 8d af 6b 3e ab ac 56 bd
       0.10959082 0.036027573 0.23016186 -0.052410763
000380 b1 11 8d be d4 87 59 3e c1 80 79 3e 8f e4 1d 3f
       -0.2755256 0.2124322 0.24365522 0.6167688
000390 4b 29 00 bf 83 9d 05 3e 32 f7 ed 3e 09 0a 60 3e
       -0.5006301 0.13048367 0.46477658 0.21878828
0003a0 93 63 de 3d b1 64 3a be b7 c5 89 be 32 0a 2d 3d
       0.10858836 -0.18202473 -0.26908657 0.04224605
0003b0 a3 ee c6 3d 4d ed 87 3e e7 cb b6 3e 1c 0a 3a 3e
       0.09713485 0.26548234 0.3570244 0.18167919
0003c0 59 98 ef 3e c9 7e 4e 3d 15 98 d8 3d cc 20 1c 3e
       0.4679592 0.05041388 0.10575882 0.15246886
0003d0 70 8a fa 3e aa e3 16 3f 93 0e 4f 3e aa e6 fc be
       0.48933744 0.5894114 0.20220403 -0.49394733
0003e0 d0 87 d3 be af 55 cd be bc 4c b6 3e 0f 94 29 3f
       -0.41314554 -0.40104434 0.3560542 0.66241544
0003f0 5c 8b 0e 3e e8 46 4e be 65 fa 1b 3e 18 f4 b4 3e
       0.13920349 -0.20144236 0.15232237 0.3534248

layers.6.bias f4 [16]
000000 c5 50 95 3e 3a 81 ae 3e c6 0e 79 3d 5e 4d 10 3d
       0.29163185 0.34082967 0.060805105 0.035230033
000010 14 47 d8 3e 82 c2 52 3e be a4 cb 3e 31 6b db 3d
       0.42241728 0.20582011 0.39774126 0.107138045
000020 2c 4f 2e 3d 89 11 10 3e a2 18 d5 3e 2a 3c c1 3d
       0.042555973 0.14069189 0.41620356 0.094353035
000030 ad 91 5f 3d 84 b7 8d 3e 4f 12 0c 3f b2 ca ca 3e
       0.054582287 0.27679074 0.54715437 0.3960777

layers.9.weight f4 [1, 16]
000000 f8 3e 81 3f 13 bb 90 3f ec b2 13 bf 0a f1 06 bf
       1.0097342 1.130709 -0.5769489 -0.52711546
000010 f8 83 64 3f 90 76 84 3f 46 49 ab 3f 42 6d df be
       0.8926387 1.0348682 1.3381736 -0.43638045
000020 e4 81 f4 be 60 ac cf be 3d ab 58 3f 9e 2b f9 be
       -0.4775535 -0.405612 0.8463629 -0.4866609
000030 0e 79 17 bf 31 fb 41 3f be d3 a7 3f a1 71 1e 3f
       -0.5916909 0.7577391 1.3111494 0.61892134
