models/Regression/proton_1.pt (torch, 18905 bytes, 7 tensors)

layers.0.weight f4 [64, 19]
000000 30 6d d8 bd 28 3b ef bc d0 44 29 be 52 34 00 be
       -0.10567701 -0.029203013 -0.16530156 -0.12519959
000010 7e 48 e6 3d 2c ee 74 3d c2 06 cf 3d d5 3d 52 be
       0.112442955 0.05979745 0.10108711 -0.205314
000020 10 8e d0 bd ba 0f f2 3d a8 d5 a3 bc 80 02 3b bc
       -0.10183346 0.11819406 -0.01999934 -0.01141417
000030 7e b1 2f be 14 20 0f 3d 52 3c fa 3d 10 53 fd bc
       -0.17157552 0.0349427 0.122185364 -0.030923396
000040 e7 40 fa bd 3a 5b cd 3d 24 4c 16 bd c7 97 18 bf
       -0.122194104 0.10027166 -0.036693707 -0.59606594
000050 c4 10 bf bc 15 5f 5d bd 82 09 0e bf 91 a9 63 3b
       -0.023323424 -0.054045755 -0.5548326 0.003473852
000060 f7 a4 a0 bf ff 97 92 bf 5d 29 8a 3d 9c 14 d5 bd
       -1.2550343 -1.1452636 0.06746171 -0.104043216
000070 14 46 7b be 7a 37 4a bf 1b 2d b7 bd 9c c9 b3 bd
       -0.24538451 -0.789909 -0.0894415 -0.08778688
000080 7b e9 0b 3d 4a c3 20 3d 39 70 fb 3c 22 52 f6 bc
       0.03415821 0.039248742 0.03069316 -0.03006846
000090 a5 1c 54 3e d0 f9 8f 3c 08 91 8b 3c 44 53 78 3d
       0.20714052 0.017575175 0.01703693 0.060626283
0000a0 dd 86 4b be 3c 7e 49 3d 98 0e 99 bc 08 3b 62 bd
       -0.19875665 0.049192652 -0.018683717 -0.055232078
0000b0 53 8f 2d be c7 37 27 3e f8 82 66 bd 4c e5 42 be
       -0.16949205 0.16329871 -0.056277245 -0.19032782
0000c0 52 07 91 bd e4 03 35 be 70 0f 09 bc e6 0a 10 be
       -0.07081474 -0.17677265 -0.008365497 -0.14066657
0000d0 f9 c2 f1 bd 23 02 01 be a4 76 45 bd 5a 57 f7 3d
       -0.11804766 -0.12598471 -0.048208848 0.12077208
0000e0 80 80 eb 3a 56 94 07 40 ef 75 ce bc 71 db 8f b9
       0.0017967373 2.1184287 -0.02520272 -0.00027438582
0000f0 c3 21 ff 3d a7 e6 d9 3f 21 56 19 3c 6c 8d fc 3d
       0.124576114 1.7023515 0.009358914 0.123316616
000100 71 11 14 3d e0 af ad 3d 14 a7 4f 3c 3b 1e 67 bf
       0.036149446 0.08480811 0.012674112 -0.90280503
000110 98 65 18 be 90 7c 25 bd 60 c0 4b 3a d8 b8 b3 3b
       -0.14882505 -0.040401995 0.00077725016 0.0054846816
000120 e3 9d 86 3b 05 c3 22 3c c1 2f d7 bc 36 60 7c bb
       0.004108177 0.009934192 -0.026267888 -0.0038509495
000130 2c f8 09 3d 80 5d 32 bd f2 ae e3 3d 3b 5e 21 be
       0.03368394 -0.0435462 0.111173525 -0.15758602
000140 29 ca 00 3e 99 cf 1c 3e 14 d8 48 3d c0 96 f3 bc
       0.12577118 0.15313567 0.049034193 -0.02973497
000150 ab b5 1c 3e b3 19 29 3e 9f 37 20 3e 8c 35 15 3d
       0.15303676 0.1651371 0.15646218 0.03642802
000160 7d 28 26 3e d9 3f 2b be 67 68 46 3e f2 e3 49 be
       0.16226383 -0.16723575 0.19375764 -0.1971586
000170 f4 37 14 bd 80 72 a2 3a 28 60 c7 3c cb 48 ca bf
       -0.036186174 0.0012393743 0.024337843 -1.5803465
000180 2f 53 00 3c a5 4b 72 ba f8 34 49 bf 8e 1b 70 bb
       0.0078323325 -0.00092428393 -0.7859645 -0.0036637518
000190 82 7c 35 bf c7 6c 66 bf ef 3b 85 bd 50 b7 38 3e
       -0.7089311 -0.9000973 -0.06505572 0.18038678
0001a0 d6 0c 82 bb ab 6a 85 bf 33 35 0d be 49 a6 a0 3d
       -0.0039688153 -1.0423177 -0.13789825 0.078442164
0001b0 98 32 f5 bb 95 d8 ac bc 05 ef 46 3c c5 2a 05 3b
       -0.007482838 -0.021099368 0.012141948 0.0020319682
0001c0 a9 a6 77 bc 91 7a a9 bb b8 37 63 be 39 92 88 be
       -0.0151154185 -0.0051720818 -0.22189224 -0.2667406
0001d0 b8 fe 1d bc 71 ad d5 3e 4c 8e 35 be 96 a1 82 3e
       -0.009643249 0.41733888 -0.17730063 0.25513905
0001e0 b0 25 aa 3e 2b 89 6e bc fa 73 a7 bd 7f f2 5a 3d
       0.33231878 -0.014559071 -0.08176418 0.05345392
0001f0 7f 7e cb bf 27 87 b7 3d cd 76 0a 3e f5 11 8f 3d
       -1.5897979 0.08961325 0.13521881 0.06985847
000200 f1 e2 00 3e 7f 1d 2c bb 5f a3 56 bc e6 13 8b 3e
       0.12586571 -0.0026262698 -0.013100474 0.2716362
000210 f7 dc 22 bd e4 7b 96 bd 1c bd 74 3d 38 44 11 be
       -0.03976151 -0.07347849 0.05975066 -0.1418618
000220 c4 c5 a8 bd 2b af 0c 3e f8 69 8f 3c 5a de 4a be
       -0.08240846 0.13738696 0.017506585 -0.19811383
000230 96 39 9c 3d 38 83 2b be 31 5e 4e 3e 80 5f 17 bd
       0.07628171 -0.16749275 0.20153119 -0.03695631
000240 90 0e 3d bc 31 e7 2c 3e b0 35 cb bc a0 1f cc bc
       -0.0115391165 0.16885068 -0.024805874 -0.024917424
000250 2a f0 29 be a4 4f 0b 3d a9 73 56 3e 58 34 00 be
       -0.16595522 0.034011498 0.20942558 -0.12519968
000260 b8 0c 93 3f 18 62 a0 bd b8 a1 9f ba 92 7d c6 be
       1.1488256 -0.0783121 -0.0012178933 -0.38767678
000270 83 ce 0d 40 50 8a a6 3c 15 21 bf bd 27 28 74 bd
       2.2157295 0.020329624 -0.09332482 -0.059608605
000280 a0 eb ee bd 26 6a 49 3c 41 00 4c bf 2c 96 c4 3d
       -0.11666036 0.012293374 -0.7968789 0.095989555
000290 1f 07 a1 3d ec 66 f8 3b d3 11 6a 3d 8e 0a ea 3b
       0.07862686 0.0075806286 0.057145905 0.0071423715
0002a0 ac 3d 6c 3d e2 18 ed bd 57 3e 27 bd f5 bf 89 3f
       0.057676002 -0.11577012 -0.040830936 1.0761706
0002b0 30 07 6a bd 91 e0 fd bc 31 b5 73 3c 86 e7 0d 3f
       -0.05713576 -0.03099087 0.014874742 0.554314
0002c0 d5 8e 04 3f cc 0f a0 3e 01 b7 eb bd 18 06 65 3b
       0.51780444 0.31262052 -0.115095146 0.003494626
0002d0 dc 29 18 bd bc 4e 0f bf 6f f8 31 be 7b 21 ce 3d
       -0.037149295 -0.55979514 -0.17379926 0.1006498
0002e0 83 b2 4d bd 52 3a 90 3d 6e 83 b5 3b f1 a0 98 3d
       -0.05021907 0.07042374 0.0055393493 0.07452572
0002f0 7e 0b d8 3d 9d 8c 35 bc c0 f7 cd bc 56 71 06 be
       0.10549067 -0.011080888 -0.02514255 -0.13129172
000300 9f f2 1e 3e 6d 76 5f be 9e 95 12 be db 69 21 3e
       0.1552224 -0.2182252 -0.14314887 0.15763037
000310 1e 2d 27 be de ba be 3d 74 c8 33 3d 60 ac 72 3c
       -0.16325805 0.09312986 0.04389234 0.014811605
000320 3c 13 1f 3d a4 b4 23 3d 78 7e ab 3c e6 fe 67 be
       0.038836703 0.039967194 0.020934328 -0.2265583
000330 9a 97 ff bd ea 4d 3c be 38 69 e5 3c e8 41 0f be
       -0.124800876 -0.18389097 0.028004274 -0.13989985
000340 b8 d4 94 3c 8f 37 d7 3d 28 d0 f9 3d 29 3c 87 3d
       0.018167838 0.10508644 0.12197906 0.066032715
000350 87 37 61 3b 97 fe 3e be dc b8 82 be 15 1d 17 be
       0.0034365372 -0.18651806 -0.25531662 -0.14757188
000360 1b fe 9b bd ad 95 7a bd 88 63 a2 3d 79 5f 40 bd
       -0.07616826 -0.0611779 0.0792914 -0.04696605
000370 56 cf ee 3d 49 46 38 be e9 d0 6f be 76 0f 2b 3e
       0.1166064 -0.17995562 -0.23419537 0.16705117
000380 e6 de 4c be 0d 52 18 bb b1 b1 20 be 68 1a 38 be
       -0.20006904 -0.0023242265 -0.15692784 -0.17978823
000390 af 10 86 3d f7 8e 40 bd 72 bd 29 3e fe 57 f8 3d
       0.06546151 -0.047011342 0.16576174 0.12126158
0003a0 e6 58 53 3e 86 bf 87 3d 84 e9 14 3e 0b b2 1d be
       0.20639381 0.06628327 0.14542204 -0.15399949
0003b0 3c 01 14 3e 83 04 49 be 53 42 2d bd a7 a9 41 3e
       0.14453596 -0.19630627 -0.04229958 0.18912373
0003c0 75 5c 1d 3b f7 57 ac bc 64 60 26 be a6 30 e2 bd
       0.0024011408 -0.021038039 -0.16247708 -0.11044435
0003d0 5b 3e 54 3e 44 4b 07 be dd 3f 26 3e 20 cc 1b bf
       0.20726912 -0.13212305 0.162353 -0.60858345
0003e0 a4 09 8a 3b de fb 04 b9 e9 a9 ee bd 06 0a 7d bc
       0.004212575 -0.00012682329 -0.116535015 -0.015444284
0003f0 7a d2 9e bf c3 ab 99 bf 7b 72 11 bd ee e9 e9 bb
       -1.2407982 -1.2005543 -0.035509568 -0.0071384823

layers.0.bias f4 [64]
000000 bc 01 c9 bd 07 21 4f 3d c9 11 65 be e2 4c f3 3d
       -0.09814784 0.050568607 -0.22370066 0.118798986
000010 e0 ab ca bd 4a bc 86 3e 04 13 24 3d 0d 2b 1c 3e
       -0.09896064 0.26315528 0.040057197 0.15250798
000020 5a 0e e2 bd 4e b4 0f bd 64 25 38 be 5f f0 98 bd
       -0.110378936 -0.03508406 -0.17983013 -0.07467722
000030 5a ac 2a 3e 71 76 71 3d d0 91 e8 3d c0 3c e4 bc
       0.1666731 0.058950845 0.113559365 -0.027861
000040 a8 6a 1e bd a0 e8 c9 3d c8 4b fb 3c d0 9e 3c be
       -0.038675934 0.09858823 0.030675784 -0.18419957
000050 fc 49 22 bd b6 d7 90 bd 65 ee d0 3c 4a f3 8c be
       -0.03962134 -0.070723936 0.0255043 -0.27529365
000060 80 a3 e5 3b 0e c7 5d be 10 74 ae bd f0 30 b1 bd
       0.007008016 -0.21657965 -0.08518231 -0.08651912
000070 d3 1f 0b be bf 7a 35 bd e7 7e e4 bd 0f 5f 5a 3e
       -0.13586359 -0.044306513 -0.11157017 0.21325324
000080 53 ac d2 bd 00 29 22 bd 22 e5 aa 3d f9 b5 5f bd
       -0.102867745 -0.039589882 0.08344485 -0.054616902
000090 0c 31 33 bd 42 03 11 be 4e ad a0 bd b1 c4 23 be
       -0.043747947 -0.14161399 -0.07845555 -0.15993
0000a0 d9 81 92 bd 7b 79 44 3e f7 2f c2 be ea 46 27 bd
       -0.07153673 0.19186966 -0.3792722 -0.040839113
0000b0 f0 99 28 3c c4 92 66 3d 39 dc 84 3d 30 89 bb bd
       0.010290608 0.05629231 0.06487317 -0.09157026
0000c0 22 e5 de 3d 1f de 90 be f5 ee 67 be 75 57 ba be
       0.10883547 -0.28294465 -0.22649749 -0.3639485
0000d0 72 17 cf 3d 59 c2 d3 bc 13 ff f8 bd d6 55 07 be
       0.10111894 -0.025849508 -0.121580265 -0.13216338
0000e0 57 b2 f4 3c 31 3a 30 3e b4 ef 4a 3e 8b e7 ea bd
       0.029870195 0.17209698 0.19818002 -0.114699446
0000f0 d3 41 0f be dc 34 c1 bd e2 5d 76 be c3 12 1b 3d
       -0.13989954 -0.0943391 -0.24059251 0.03785969

layers.3.weight f4 [32, 64]
000000 b0 6f 14 bc 40 7f 1b 3d 46 91 93 3d 58 c6 82 3e
       -0.0090598315 0.037963152 0.07205443 0.2554195
000010 ec 6c ed 3d 28 c1 dc 3e e9 3b 9b 3e 10 44 7f 3d
       0.11593041 0.43116117 0.30319145 0.06232077
000020 e1 90 36 3e 50 5a cf 3c e4 34 74 bd d3 3b ab 3d
       0.17828704 0.025311619 -0.059620753 0.0836102
000030 a9 7a d0 3b d8 64 51 be 82 19 75 be d0 d6 e7 bc
       0.0063622785 -0.20448625 -0.23935512 -0.028300673
000040 98 5f f3 bc f6 51 b1 3d 30 28 c5 3c 60 bc c2 3c
       -0.029708669 0.08658211 0.024067014 0.023771465
000050 43 b8 3c 3d 3e a2 10 3e fb 7d 67 be 47 8d da 3d
       0.046074163 0.1412439 -0.22606651 0.10671478
000060 d0 89 60 3d 5b 23 45 3e 00 e3 5c bb 22 ea e7 3d
       0.05481893 0.19251768 -0.0033704638 0.11323954
000070 fb 16 7c be c8 21 17 3d 80 31 ae 3b 28 6a 52 bd
       -0.24618141 0.03689745 0.0053159595 -0.05137077
000080 cc 5d 8e 3d e8 e0 c2 bd d8 bf fa bd b8 34 cf bd
       0.06951484 -0.09515554 -0.122436225 -0.10117477
000090 78 a5 b1 bc e4 dc b3 bc b4 95 ed 3d 3a 42 ea bd
       -0.021685347 -0.021955915 0.11600819 -0.11438413
0000a0 80 ac e7 3d 70 31 42 3d ab e7 3c 3b d4 fe 4d bd
       0.11312199 0.04741043 0.0028824608 -0.05029185
0000b0 f4 52 b4 bc fa fa f1 3d 32 22 d3 bd 98 a4 87 3c
       -0.022012211 0.11815448 -0.103092566 0.016557977
0000c0 c6 c7 b9 bd bd 7c 53 bd 00 7a d2 3c 9e f0 c6 3d
       -0.09071307 -0.05163263 0.02569294 0.09713863
0000d0 c0 df e4 bb 17 99 fe 3c 4f d4 a0 3c d5 82 5a bb
       -0.006984681 0.031078858 0.019632487 -0.0033342142
0000e0 d2 0d fd bd 27 9d e8 3c b0 df 96 be 5c 59 39 be
       -0.12356152 0.028395249 -0.29467535 -0.18100494
0000f0 8c 4c b5 3d 68 b2 c3 bc 4c 63 98 be 78 ba 07 3e
       0.08852491 -0.023888782 -0.29763258 0.13254726
000100 04 ce 6b bd b5 be 02 be d0 5e 1c 3d 42 93 8e 3d
       -0.05756952 -0.12768061 0.038176358 0.06961681
000110 e6 53 a8 3d 90 f1 94 bd 47 b6 43 3d 50 44 d2 3c
       0.08219127 -0.07272637 0.047781255 0.02566734
000120 3a 19 b8 bd 91 61 0a 3d 88 d2 36 3d 8a e5 d2 3d
       -0.089891866 0.033784453 0.044634372 0.10297687
000130 d0 08 53 bd 8e 6f 0d 3d bc 04 b6 bc ca 64 9c 3d
       -0.051522076 0.034530215 -0.022219054 0.076364115
000140 32 49 ff 3d 5d 35 5b 3e 40 87 4f 3d d1 b2 ca 3c
       0.12465133 0.21407075 0.050666094 0.02474347
000150 5f 15 03 3c 8a d4 c5 3c 99 7d 1a be 60 ed 25 3d
       0.008000701 0.024149198 -0.15086974 0.04050958
000160 52 bf bf 3d 96 81 93 be 2c bb 85 bd c4 df 8f 3d
       0.09362663 -0.28809804 -0.06529841 0.07025102
000170 f5 29 39 be c2 6b 29 be 60 14 22 bd e6 cd ef 3d
       -0.18082412 -0.16545013 -0.039570212 0.11709194
000180 8a 33 09 be c6 2a d5 bd 76 85 b8 3d 6f e3 e9 bb
       -0.13398567 -0.10408549 0.09009831 -0.007137708
000190 12 b8 e1 bd bc ea 53 3d fc a1 b9 3d e0 65 96 3d
       -0.11021437 0.051737532 0.09064099 0.0734365
0001a0 19 f5 45 bd 68 ca f0 bd ee 9c 8e 3d 13 c5 9d 39
       -0.048329446 -0.11757356 0.06963526 0.00030092205
0001b0 57 eb f5 bd 40 9f a9 3b e2 83 8b bd e0 da 70 3d
       -0.12007778 0.005176455 -0.06812264 0.058802485
0001c0 54 a2 00 bd 72 5f 33 bd 74 99 86 bd bc 0d 44 3b
       -0.03140481 -0.043792196 -0.065722376 0.0029915413
0001d0 36 09 89 bd 07 f0 0e bd b1 c6 e5 3c ea de 97 3c
       -0.0669121 -0.034896877 0.028048845 0.01853891
0001e0 fd bf b8 3e 71 be 56 3d 2d f4 38 3d 0a f3 dd 3d
       0.36083975 0.052427713 0.04515474 0.10837372
0001f0 1c cd 77 bd 20 5b 69 3d 66 ea 54 be 38 b3 6a be
       -0.060498342 0.05697167 -0.20792541 -0.22919929
000200 90 08 d3 3d d6 9f 75 bc 20 6c da bd cc f2 94 bc
       0.103043675 -0.014991721 -0.106651545 -0.01818218
000210 78 8a e2 bc d8 e9 2f 3f 15 2d f8 3e 24 b9 21 bd
       -0.027653918 0.6871619 0.48471895 -0.039483204
000220 ff 11 e5 3d ec 8a 59 3d 60 4c 64 3c d0 dd 71 3c
       0.11185073 0.053111 0.013934225 0.014762357
000230 96 40 b2 bd 70 c4 e2 3e ac e3 c0 3e c0 5d 32 bb
       -0.08703725 0.44290495 0.376737 -0.0027216524
000240 c0 60 5f bc 69 56 14 3d 10 26 01 bd 23 ca 90 bb
       -0.013633907 0.03621522 -0.03153044 -0.004418628
000250 50 c2 48 bd 95 fd bb 3c b0 4a c6 3d db 3c 7e 3d
       -0.049013436 0.022948066 0.09682214 0.062069755
000260 0e 8c c0 bd 7c 37 79 3e d0 00 10 bc 8e 09 fc 3d
       -0.09401713 0.24337572 -0.008789256 0.1230651
000270 3c 9c b2 be 98 c5 3e bd 30 4a 19 bd 50 59 e8 3d
       -0.34884822 -0.04657516 -0.037424266 0.1134516
000280 6d 65 3b 3f 7c df 8a 3d 00 8d de 3d 48 97 9a be
       0.7320164 0.067809075 0.10866737 -0.30193543
000290 14 e0 f3 3d ea 01 b7 3c bc fd 91 bd e8 eb cc bc
       0.11907974 0.02233978 -0.07128474 -0.025014833
0002a0 82 27 e7 bb 88 b9 44 bd f8 5e 8f 3c f3 19 41 3c
       -0.0070542702 -0.0480285 0.01750134 0.011785972
0002b0 ef 8a ab 3d ae 24 a8 bd 96 9b 90 3f bc 7c 01 3d
       0.08376109 -0.08210121 1.1297481 0.031613097
0002c0 d0 bc 2d 3d af f3 74 bb 78 35 ca 3d fc 61 0f be
       0.042416394 -0.0037376692 0.098734796 -0.14002222
0002d0 c6 f9 c9 bd cc fe 88 be 47 05 37 3c df 05 c4 3c
       -0.098620936 -0.26756895 0.011170692 0.02392858
0002e0 80 58 6e 3e e0 df 83 bc 7e 1b ce bd 3b 65 cd bc
       0.23275948 -0.016097963 -0.100638375 -0.025072685
0002f0 2c ec a5 3d 0a 94 95 bd d3 0c aa be 4a b2 2f 3e
       0.08101687 -0.07303627 -0.3321291 0.17157856
000300 ac cd c2 bd be 14 c8 bb 00 b4 e6 39 ac 2c 07 bf
       -0.09511885 -0.0061059883 0.0004400313 -0.5280254
000310 44 5a f9 bd 53 56 97 3e e0 28 91 3e c8 4b cf bc
       -0.1217542 0.29558048 0.28351498 -0.02530469
000320 81 1e 47 be 22 08 e4 bc b0 a2 b4 bd 78 79 4d bd
       -0.1944523 -0.02783591 -0.08820093 -0.05016467
000330 00 02 57 3d a7 0a bb 3e ee 3e b9 3e f6 45 a9 3d
       0.05249214 0.36531565 0.36180824 0.08265297
000340 ac f8 c7 bd bf 70 3f 3c a0 a8 d8 bd 52 1d 22 bc
       -0.09764227 0.011684596 -0.10579038 -0.009894686
000350 b8 6c d4 be 45 05 7f bd a3 b6 87 3e 37 99 6f bc
       -0.41489196 -0.062260885 0.26506528 -0.014623932
000360 00 d6 e5 3c d2 92 e0 3e 38 65 b9 3d 02 b0 eb 3d
       0.028056145 0.43862015 0.09052509 0.1150818
000370 3e fd 82 be b0 af 6d bb 88 ed b4 bd 14 0b 24 bd
       -0.25583833 -0.0036268048 -0.08834368 -0.040049627
000380 d9 c9 5e 3f b8 ab 64 bd 76 b2 80 bd 8c b4 c5 bd
       0.87026745 -0.055827826 -0.06284039 -0.09653577
000390 66 ec f4 3d 9a 58 83 bd a4 9a 3f bd 7c e0 28 bd
       0.11959152 -0.06413384 -0.046778336 -0.04122971
0003a0 4c be 09 3c ba 08 a8 3d 75 d9 0e 3b 73 f5 c2 ba
       0.008407187 0.082047895 0.0021797095 -0.0014874175
0003b0 1c 90 2d bc c0 af 5d 3d e2 0e 7c 3f dc 19 13 3d
       -0.01059344 0.054122686 0.9846021 0.035913333
0003c0 58 06 6e 3d 61 ad b1 3c 74 09 f9 bd 4f 61 f1 bd
       0.05811152 0.021689119 -0.12160006 -0.11786138
0003d0 a2 30 b2 bd cb 9c d4 bd bc 75 dd 3b 12 1e 14 3b
       -0.08700682 -0.103814684 0.00675842 0.002260093
0003e0 cc bf e5 3e b6 9a 71 bd ca 5c a3 bc f5 6d ff 3c
       0.44872892 -0.058985434 -0.019941706 0.031180361
0003f0 7e 1b f9 bd 94 2a 2c bd bd 7e b0 bd 39 2c 38 3d
       -0.12163447 -0.042032793 -0.086179234 0.04496405

layers.3.bias f4 [32]
000000 14 a4 e0 3d a8 c6 d1 3e 25 53 97 3d de f8 9a bc
       0.109687954 0.40971875 0.073889054 -0.018917497
000010 42 f1 38 be 4b 22 c0 bd 33 27 ea 3c f5 44 83 3d
       -0.18060783 -0.09381541 0.028583145 0.06409637
000020 a7 c4 a4 3d d8 f4 d3 3e 6c a2 05 3f 6e bd 77 bb
       0.08045321 0.41397738 0.5220096 -0.0037802118
000030 90 12 7c 3d 1c f9 4f 3e 02 37 88 bd 3a aa 47 3e
       0.06154114 0.20309871 -0.06651117 0.1949853
000040 96 40 e0 be 38 a1 8e 3d 1a 88 90 3e d1 06 40 3e
       -0.43799275 0.06964344 0.28228837 0.187526
000050 33 85 05 3e e2 3e d8 3e 42 d9 bc 3e 08 57 b7 bd
       0.13039093 0.42235476 0.36884505 -0.08952147
000060 60 32 63 3e 66 cd 03 be b3 70 32 3e e6 5f ac 3c
       0.22187185 -0.12871322 0.17425804 0.021041822
000070 2b 2e 54 3d 83 d5 8c be 56 65 8c be ce f9 45 3e
       0.05180184 -0.27506647 -0.27421063 0.19333574

layers.6.weight f4 [16, 32]
000000 e8 e2 88 bd 4a a9 88 3e 9f 41 3f bf a0 8a 7c bf
       -0.06683904 0.26691657 -0.74709505 -0.98649025
000010 a8 8c 34 bf fb 37 e5 be ac c3 0a bf bf 21 e0 be
       -0.70527124 -0.44769272 -0.5420482 -0.43775746
000020 d6 51 fa bd a8 f8 ff 3d 7b a8 5d 3e 41 dd f4 be
       -0.1222264 0.12498599 0.21646301 -0.47825053
000030 06 78 22 bf ba e6 0d be d6 57 c3 be 81 10 3d 3e
       -0.6346439 -0.13857546 -0.3815295 0.18463327
000040 36 94 3e be 57 67 f9 be 2c 5c 28 3e b7 7a 37 bd
       -0.18611225 -0.48711655 0.16441411 -0.044794764
000050 29 72 a2 3e 89 8e 5b 3e 8d ec 9f 3e eb 2d 2b bf
       0.31727722 0.21441092 0.3123516 -0.6686694
000060 cf 40 31 bc 8d d6 07 bf 1c 56 d7 be fd b8 a8 be
       -0.010818674 -0.53061754 -0.42057884 -0.32953635
000070 ce 93 99 bd 1a 19 c5 bd 05 73 29 bf f5 36 8f 3e
       -0.07498895 -0.09623928 -0.6619113 0.27971616
000080 9d 3e d8 3c 1b 6a da 3d b6 ae df 3d 87 ea 4c 3f
       0.026397044 0.10664769 0.10921995 0.8004536
000090 05 97 b5 3e c1 fd d9 3e a8 eb 4e bc 88 2a 02 be
       0.3546678 0.4257641 -0.012629427 -0.12711537
0000a0 90 11 c3 3b 5c 75 81 3e 57 c1 26 3e 09 18 2a 3d
       0.0059530213 0.2528485 0.16284691 0.041526828
0000b0 1c 29 1d 3e 98 e1 df 3d a5 e0 d2 3e 97 e5 4e be
       0.15347713 0.109317005 0.41187015 -0.20204769
0000c0 a0 7e bc be 4a b4 5d 3d 6f 50 93 be 48 1f 3d be
       -0.36815357 0.054127015 -0.28772303 -0.18468964
0000d0 d9 38 19 be 07 87 7b bc 28 db 9a be 2d f2 f7 3e
       -0.14963092 -0.015352017 -0.30245328 0.48426953
0000e0 fc 12 fa be 6e 6d 64 3e e5 8a 67 bd cf fa a8 3b
       -0.4884261 0.22307369 -0.056528945 0.005156852
0000f0 62 50 c3 bc 43 42 82 3d 4b 83 6e 3f 28 61 9f be
       -0.02384204 0.06360295 0.9316909 -0.31128812
000100 d0 9f 2f be eb c0 2b 3e 78 a3 0b bf d4 e7 51 bf
       -0.17150807 0.16772811 -0.5454631 -0.81994367
000110 34 56 1d bf d8 c7 c2 be 55 99 30 bf 36 10 ed be
       -0.6145966 -0.38043094 -0.68983966 -0.4630143
000120 02 0e 2f b8 d9 67 51 3e 48 a9 a1 3d 2a 15 cb be
       -4.1736297e-05 0.20449771 0.07893616 -0.39664584
000130 37 29 01 bf e8 b1 75 bd 57 eb af be 57 8e fa 3d
       -0.50453514 -0.059984118 -0.34359238 0.122341804
000140 ab b5 86 be b4 70 20 bf de 9a 98 3d b7 13 a2 3d
       -0.26310477 -0.6267197 0.074514136 0.079139166
000150 7b e3 51 3e c4 49 06 3d 1d d0 cb 3e e3 48 63 bf
       0.20496933 0.032785192 0.39807215 -0.8878309
000160 49 f4 22 be a7 0a 05 bf 1f 49 0b be 49 19 a0 be
       -0.159135 -0.5196938 -0.13602112 -0.3126929
000170 41 ce 82 be 98 86 49 bd e2 77 37 bf 62 d6 d7 3e
       -0.25547984 -0.049200624 -0.716673 0.4215575
000180 cb 49 99 bd 9e 07 2f 3e 99 87 30 bd 2e 9a 0f 3f
       -0.07484778 0.1709275 -0.043098066 0.56094635
000190 d7 76 96 3e 42 3a a4 3e b5 1c 36 3d 62 a6 92 ba
       0.29387543 0.32075697 0.04446097 -0.0011188502
0001a0 b6 bd be bc 94 47 25 3e b7 b8 0b 3e 15 11 48 3d
       -0.02328382 0.16140586 0.13644682 0.048844416
0001b0 6a b2 76 3e 17 ed 1a bd b8 3d c3 3e 7e 4d 98 bd
       0.24091497 -0.037823763 0.38133025 -0.074366555
0001c0 34 88 0a bf ff 6d c2 3b 91 21 79 be 4b a2 b5 be
       -0.5411408 0.0059335227 -0.24329211 -0.35475382
0001d0 ef 92 9d bd 2d 56 fc bc 6a 91 a7 be 61 04 03 3e
       -0.07694041 -0.03080281 -0.3272813 0.12794639
0001e0 18 ef 0d bf ad 33 9e 3e 75 23 51 3d e0 cd fc 3d
       -0.55442953 0.308988 0.051059205 0.12343955
0001f0 58 af 67 3e bf af 1f be d5 50 36 3f 0f 48 9d be
       0.22625482 -0.15594386 0.7121709 -0.3071904
000200 5e 44 f7 3c e5 e8 32 3d f9 63 38 3e 40 65 39 3f
       0.030183967 0.043679137 0.18006887 0.7242012
000210 89 1d b2 3e a1 05 76 3e b1 73 af bc 1b a5 ef bd
       0.3478816 0.24025585 -0.02141747 -0.11701413
000220 45 d6 2f 3d 68 d4 20 3b aa 05 ba 3c b7 fe 29 bd
       0.042928953 0.0024540666 0.022707779 -0.04150268
000230 35 e6 d7 3e f6 91 f8 3d 26 71 ac 3e c5 07 0e be
       0.42167822 0.12137215 0.33680075 -0.13870151
000240 ef 71 c4 be 13 d8 02 3e 50 e8 69 be 21 c1 9c bd
       -0.38368174 0.12777738 -0.22842526 -0.07654024
000250 0a 2a 16 be 3d 01 68 3d 92 51 da be 59 3b d1 3e
       -0.14664474 0.056641806 -0.42640358 0.4086559
000260 2d 13 88 bd ff 4d b1 3e 07 ae 2d 3e 7e 33 57 3d
       -0.066442825 0.3462982 0.16960917 0.05253934
000270 90 75 82 3e bf 88 1e bd a3 8c 4d 3f 92 a1 a0 be
       0.25480318 -0.03870463 0.8029272 -0.31373268
000280 26 6c 1a 3d 33 0c 77 3e ca 3c 15 3e 00 37 2b 3f
       0.037700795 0.24125747 0.1457397 0.668808
000290 34 6f 28 3e 2d 2e bb 3e 23 e0 0a bb 3e bd 1c 3d
       0.1644867 0.36558667 -0.0021190725 0.038266413
0002a0 c7 78 66 3d 0c 97 16 3d 93 e5 31 3d a5 4e d8 bc
       0.056267526 0.036765143 0.04343183 -0.026404688
0002b0 10 dc d0 3e a4 3c 16 3e 30 b1 14 3e 2b 61 07 be
       0.40792894 0.1467157 0.14520717 -0.1322066
0002c0 54 68 bc be 62 9f e2 bd 02 c2 95 be b3 bd 7a be
       -0.36798346 -0.11065556 -0.2924958 -0.24486427
0002d0 5d ec ed bd 52 ed 80 3d b4 91 44 be f7 f0 90 3e
       -0.11617348 0.06295265 -0.19196206 0.28308842
0002e0 d9 67 d6 be 0a 92 8e 3e 9d 36 75 3a 0a 4a 79 bd
       -0.41876104 0.27845794 0.00093541463 -0.060861625
0002f0 47 35 69 3e 76 ae 35 be 36 af 62 3f a6 96 3d be
       0.2277423 -0.17742333 0.885486 -0.18514499
000300 df 8c 55 be a2 fd 6a 3e 92 b3 52 be f0 b3 80 bf
       -0.2085452 0.22948316 -0.20576313 -1.0054913
000310 a5 5d 19 bf 10 9f 96 be 12 f1 9a be 4d fb 80 bb
       -0.59908515 -0.2941823 -0.30262047 -0.0039362074
000320 b7 93 95 be 24 18 2a 3c a8 0d 88 3e e5 01 28 be
       -0.2921426 0.010381732 0.2657292 -0.16406973
000330 ac 68 4d be 55 f9 15 3e 67 a8 d9 bc a6 c1 46 3e
       -0.2005946 0.14645894 -0.026569558 0.19409809
000340 6b 14 f4 ba a7 56 c1 be b9 02 85 3e fe e8 e0 bb
       -0.0018621808 -0.37761423 0.2597864 -0.0068637123
000350 25 1d 99 3e d0 55 80 3e 63 f5 fd 3e 02 9e 2e bf
       0.29905048 0.2506547 0.49601278 -0.6820985
000360 94 55 d9 3d 24 a4 28 bf f4 c1 cf 3d b1 25 39 be
       0.10612026 -0.6587546 0.101444155 -0.18080784
000370 b1 fe b6 be c6 aa 67 be f3 1f 08 bf 69 d2 22 3f
       -0.3574119 -0.22623739 -0.5317375 0.6360231
000380 e9 51 92 3d 21 92 3a 3e 6c d5 e1 bc bb 3c 1f 3f
       0.07144529 0.18219806 -0.027567588 0.6220204
000390 ec eb 9d 3e b3 75 02 3f 3c 24 11 bc f7 0e 92 3d
       0.30844057 0.50960845 -0.008858737 0.071317606
0003a0 3a 4a 1e bd e9 3b 36 3e 8b 52 7a 3d 44 53 ad 3d
       -0.038645007 0.17796291 0.061113875 0.08463147
0003b0 d6 e1 c3 3e f2 49 3c 3c 2c e0 a8 3e 99 5f 67 be
       0.38258237 0.011492239 0.3298353 -0.22595061
0003c0 7b f5 29 bf 98 bc 95 3d ac d2 41 be b1 71 31 be
       -0.663902 0.07311362 -0.18928021 -0.17328526
0003d0 b1 11 f7 bc 83 42 f2 3d 8b a1 5d be e0 69 10 3e
       -0.030159803 0.11829092 -0.21643655 0.14102888
0003e0 71 36 9f be 12 60 32 3e c8 bd 35 3d d0 81 04 be
       -0.31096223 0.1741946 0.044370443 -0.12940145
0003f0 e8 a7 bf bd cc 4e 39 be e7 92 26 3f 18 79 52 be
       -0.093581975 -0.18096465 0.65067905 -0.20554006

layers.6.bias f4 [16]
000000 e6 f0 e7 3e c7 cd ac 3e 50 b2 13 3f 76 fd 8c 3e
       0.45300978 0.33750746 0.5769396 0.27537125
000010 93 0d a4 3e 90 85 8a 3e e7 c9 96 3e f8 ae bc 3d
       0.32041606 0.27055025 0.29450914 0.0921306
000020 77 38 be 3e 97 9f db 3e 46 44 68 3e 1b 6f f5 3d
       0.37152454 0.42895195 0.22682294 0.11984082
000030 8d 70 8f 3e 73 2d 84 3e 62 6f 12 3f 30 b3 25 3e
       0.28015557 0.25815925 0.57201207 0.16181636

layers.9.weight f4 [1, 16]
000000 fe ce 83 3f 93 ee a6 be 3b b3 8e 3f 75 cb 16 bf
       1.0297544 -0.32603893 1.1148447 -0.589042
000010 85 4a b7 be 9d de 06 bf 9f bc 20 3f 8c 92 ee be
       -0.3579904 -0.5268343 0.6278781 -0.4659618
000020 84 f7 44 3f f8 21 1c 3f 64 6b 01 bf 56 08 a7 be
       0.7694018 0.6098933 -0.5055449 -0.32623547
000030 09 c7 7d be 68 19 19 bf 96 4a 94 3f 6c a8 99 be
       -0.24782957 -0.5980439 1.1585262 -0.30011308
