models/Regression/proton_2.pt (torch, 18905 bytes, 7 tensors)

layers.0.weight f4 [64, 19]
000000 84 f5 87 3e f7 da 98 3e b6 33 70 3b 9c 65 19 3e
       0.265545 0.29854557 0.0036651916 0.14980167
000010 a3 fa 7f 3e 49 7e df 3e 91 be b3 3e d2 c9 81 bc
       0.24997954 0.43651035 0.35106328 -0.015843306
000020 76 6c 05 be 8c 79 88 bd 11 fe 16 3f a6 c1 20 be
       -0.13029656 -0.06663808 0.58981425 -0.15698871
000030 68 72 bf bc d1 af 72 3d 85 b0 69 3e 19 51 73 bb
       -0.023369983 0.059249703 0.22821243 -0.0037127195
000040 e7 43 c1 3d 28 c8 14 be 5d d1 7a bd 0b e2 e2 3e
       0.094367795 -0.14529479 -0.06123482 0.44313082
000050 e2 f8 a4 be bd 35 94 3c fa 36 43 be dd c6 63 3d
       -0.32221133 0.01809203 -0.1906394 0.055609573
000060 7e 00 8e be 7a 6d f7 3c 80 a3 73 3d 08 ac 0f 3e
       -0.2773475 0.03020357 0.059482098 0.14030468
000070 55 85 a2 bd 8f b7 81 3e 07 8b 91 3d 50 24 0f be
       -0.07935587 0.25335357 0.071065955 -0.13978696
000080 89 cf a0 3d 23 a9 76 be 53 76 8c 3b fe 39 86 bd
       0.07852084 -0.24087958 0.0042865663 -0.0655403
000090 c0 8f 0a be c3 d3 a7 3d ac 30 f6 bd 1f 7f 38 3e
       -0.13531399 0.08194687 -0.12021002 0.18017243
0000a0 8d b5 56 be d8 8a 27 bd aa 33 31 be e9 ed 3f 3e
       -0.20967694 -0.040903896 -0.17304865 0.187431
0000b0 c1 2d 15 3e 25 7b 31 3e e8 d9 e9 3c b8 8d 47 bd
       0.14568235 0.17332132 0.028546289 -0.048719138
0000c0 c1 f0 26 3e 32 48 af bd 82 23 a0 3d c8 3d 0d be
       0.16302778 -0.08558692 0.078192726 -0.13793099
0000d0 9c 6e 09 3d e2 94 03 be 28 df ad bd cd 6f 0e 3e
       0.03355275 -0.12849763 -0.08489829 0.13909836
0000e0 bc 8b 03 bd c6 92 82 3e 82 17 cc 3c f1 3d 3d bc
       -0.032115683 0.25502604 0.024913553 -0.0115504125
0000f0 36 52 c0 be 7a 69 3c 3d e7 a5 4a bf 7e 82 b4 be
       -0.37562722 0.045999028 -0.79159397 -0.35255808
000100 5e 06 bf 3d 0a fe 41 3d 60 6c ff bd 2c c4 05 3e
       0.09327386 0.04736141 -0.12471843 0.13063115
000110 9d b6 ab bd 00 46 51 bd f7 d7 1e 3d f2 a3 c6 bd
       -0.0838444 -0.051092148 0.03878018 -0.09699239
000120 43 72 1f 3c 75 4d 6c 3d 93 90 b4 bc f5 d4 dd bd
       0.009731832 0.057691056 -0.022041595 -0.10831634
000130 1d 2a 2f bd 94 a9 77 bd cb 5a ed ba 90 03 9b 3d
       -0.04276477 -0.060464457 -0.0018108723 0.07569039
000140 84 1a 32 3b 11 59 e4 bf 11 1d d8 bf b6 3f 3c be
       0.002717645 -1.7839681 -1.688387 -0.18383679
000150 dc df 60 bc 51 f9 72 3b d9 0a 8e bf 4c 72 1a 3c
       -0.013725247 0.0037074874 -1.109706 0.009426665
000160 e8 9c 41 3d 21 b8 f8 3a 8b f7 2e ba 6d b2 49 3c
       0.047268778 0.0018975773 -0.000667446 0.012310606
000170 bf 5e eb ba 9a 26 9e ba c9 bd ac bb 0a 20 06 be
       -0.0017957314 -0.0012065948 -0.0052716476 -0.1309816
000180 f9 72 ae bd ab 6e 71 bd 26 56 5c be b2 3e 20 3e
       -0.08518023 -0.05894343 -0.21517238 0.15648916
000190 00 00 60 be 7a 1c ef bd 1a b4 1c be 52 f6 2f be
       -0.21875 -0.11675353 -0.15303078 -0.17183807
0001a0 de 6b 55 3e 5c 51 6b be d8 24 a5 3d 43 dd 92 3b
       0.2084193 -0.22980255 0.08063668 0.004481943
0001b0 0c cb 66 bd 5e db f6 3d 9d fa cc bb ab 3a 56 be
       -0.056345984 0.1205356 -0.0062554614 -0.20920818
0001c0 c9 91 33 be 46 27 48 3e 5c 69 b2 3d 2b 05 0e be
       -0.17536081 0.19546232 0.08711502 -0.13869159
0001d0 97 16 c6 3d 3a e8 04 be 19 a4 bc bd cc 27 51 be
       0.096722774 -0.12979212 -0.09210987 -0.20425338
0001e0 e5 08 8e bd a9 0f ac bd d2 80 b6 bc 37 6e f3 3c
       -0.0693529 -0.084014244 -0.022278223 0.02971564
0001f0 47 0a 0b 3e 75 79 29 3c 43 21 38 bd be d2 dd bd
       0.13578139 0.010343899 -0.044953596 -0.108312115
000200 53 12 d5 bc 75 a8 27 bd 51 a6 86 3d 06 e0 09 3e
       -0.026009714 -0.040932138 0.06574691 0.13464364
000210 e0 d2 b1 bd f1 f7 0a be 98 11 39 be 8c 67 0a 3d
       -0.08682799 -0.13571145 -0.18073118 0.033790156
000220 ba ae df bd f0 94 f0 bc fe 67 8e bd ad 54 59 3e
       -0.10921998 -0.029367894 -0.06953429 0.21223707
000230 87 b4 f8 bd 1a 00 28 be 5d 59 0d 3e d6 0e f5 3d
       -0.12143808 -0.16406289 0.1380362 0.1196572
000240 f0 c3 11 bc f7 d3 36 3e 42 63 92 bd 98 31 f0 3c
       -0.008896813 0.17854296 -0.07147838 0.029320523
000250 fe a8 cd bd 1c 39 61 3d 68 19 e3 3c 80 7c 95 bc
       -0.10041998 0.054986104 0.027722076 -0.018247843
000260 25 11 c4 3f 7b e0 b5 bc 50 a7 32 bb 28 c3 b5 be
       1.5317732 -0.022201767 -0.002726037 -0.35500455
000270 f8 e4 7c 3f 24 19 5c 3e e4 45 84 3d 1b 94 c9 bc
       0.9878688 0.21493965 0.06458643 -0.024606755
000280 9d 1f c1 3d f5 0d 0e 3d b2 d0 80 be bb e6 2f be
       0.09429858 0.03468128 -0.25159222 -0.1717786
000290 08 37 a0 3d 6d 15 99 3c 6e 3f fe 3a 6e 80 b0 b9
       0.078229964 0.018686974 0.0019397566 -0.00033665024
0002a0 65 c5 1d 3c 77 a7 81 bd 97 1f 6f bc 3b b2 1f 3e
       0.009629582 -0.063307695 -0.014594934 0.15595333
0002b0 54 f2 5a 3e 40 68 86 3e 26 98 2c 3e 3e f5 04 3e
       0.21381503 0.2625141 0.16854915 0.12984177
0002c0 16 f8 7d be 01 23 18 be f8 87 a0 bd 39 71 e3 3d
       -0.24801669 -0.14857103 -0.07838434 0.1110558
0002d0 0a a8 e8 3d f8 d1 60 3f a2 05 03 bd 99 74 8b bd
       0.11360176 0.87820387 -0.031987794 -0.068093486
0002e0 c4 59 02 be b5 14 03 3e 28 81 cb bd 7c ed 03 3e
       -0.12729555 0.12800868 -0.09936744 0.12883562
0002f0 75 f2 67 3c 08 cb 8c 3c 0d 8d 07 3e 88 1e 55 3e
       0.014156927 0.017186657 0.132374 0.20812428
000300 4c 2f 39 be fc 47 37 be ff ad a3 be 39 27 08 3f
       -0.18084449 -0.17898554 -0.31968686 0.5318485
000310 5a d2 32 3f 6b 77 32 3e 10 cd e4 3c 98 47 c6 bd
       0.6985222 0.17428367 0.027929813 -0.09681624
000320 f8 5d 7a 3f 8a fb 00 3e 1d 61 1f bc 4b c2 b3 3d
       0.97799635 0.12595955 -0.009727743 0.08777293
000330 2f 9e 0d be c3 f4 bd bc e5 49 98 3d b5 c2 6b 3d
       -0.13829874 -0.023188 0.07435969 0.057558734
000340 03 54 c2 3c 73 8c c3 bf 05 6d bc bd fa 68 99 bd
       0.0237217 -1.5277237 -0.09200481 -0.07490726
000350 94 a0 fa be be 32 99 3f 40 3e d8 3d 48 16 61 3e
       -0.48950636 1.196861 0.10558748 0.21981156
000360 40 1a 0b bd 16 01 f6 bd 08 69 1d be 43 d1 22 bf
       -0.03396058 -0.12011926 -0.15372097 -0.6360056
000370 6b 9f 2b bd a2 de 2f 3d d7 69 b3 3c be 84 04 3e
       -0.04190008 0.04293693 0.021901054 0.12941262
000380 6f 3d 50 3c 19 31 f1 3c 31 b1 f8 3d 80 c2 43 3d
       0.012709959 0.029442357 0.121431716 0.04779291
000390 fb 2a a6 bf 59 83 9a be ae fa 5e bd f6 96 5c bd
       -1.2981867 -0.30178335 -0.054438286 -0.053854905
0003a0 b4 75 56 be d3 80 bd be 23 78 8a be 95 90 30 3e
       -0.20943338 -0.37012348 -0.27044782 0.17242654
0003b0 aa 3f 59 3a 98 20 3b be 28 ba 81 bf ee 60 90 be
       0.000828738 -0.18274152 -1.0134935 -0.2819895
0003c0 a8 65 3e be 1d fa 11 3d 46 db ed 3c b0 08 97 3c
       -0.18593466 0.035638917 0.029035222 0.01843676
0003d0 4f 98 11 be 35 8b 4c 3e 3f 33 c9 bd ca b2 21 bf
       -0.14218257 0.19974978 -0.098242275 -0.63163435
0003e0 60 c1 4e 3c 68 8a d2 ba 04 4c 54 be 05 c2 fd 3b
       0.012619346 -0.0016062977 -0.20732123 0.007744076
0003f0 26 a2 b9 bf a7 f7 94 bf 0e ad 0c 3e 28 75 01 3d
       -1.4502609 -1.1638077 0.1373789 0.03160587

layers.0.bias f4 [64]
000000 90 06 81 be 18 e8 80 be 84 ae 2a bd 0d b6 8c ba
       -0.2520032 -0.25177073 -0.041670337 -0.0010735408
000010 a6 48 53 3d eb 27 2b 3e 9a 14 0a be 5a a3 bf 3d
       0.051582955 0.16714446 -0.13484421 0.09357329
000020 c2 d2 1e 3e 7b 3b 96 3d 20 4b 72 be d3 fc 90 be
       0.15510085 0.07335564 -0.2366147 -0.2831789
000030 3e e0 8f be 99 9f 02 be 2b 6a 83 be 5e 7b 87 3d
       -0.2810077 -0.12756194 -0.25666937 0.06615327
000040 fe f5 39 be 02 bf 73 be d5 5a db bd 62 61 df bd
       -0.18160245 -0.23803332 -0.10710684 -0.10907246
000050 00 da 4d 3a 17 0f 2f be 0f eb 5e 3e 2a 78 b9 bd
       0.0007852614 -0.170956 0.21769355 -0.090561226
000060 c3 d4 07 bd 7c 33 24 3d 22 66 05 3c 47 64 73 3c
       -0.03316189 0.04008816 0.008142026 0.014855451
000070 0d 91 0e 3e 54 d3 73 3d 1a fa 07 be 3b 31 92 be
       0.1392252 0.05952771 -0.13279 -0.28553185
000080 c2 36 43 3d 83 47 9d be a5 9f 1a bb 87 a3 10 3e
       0.047659643 -0.30718622 -0.002359369 0.1412488
000090 f6 f4 96 bd ae 2f 26 be 54 7d ce 3d 1d a5 f6 3d
       -0.07370941 -0.16229126 0.10082498 0.120432116
0000a0 96 82 d3 3d 5b 1b a1 bd ae 76 53 be 0a d0 d6 bd
       0.10327642 -0.07866546 -0.20650741 -0.10488899
0000b0 40 2e 26 bd df a8 9b 3d df 9b fe bd de 8e 3d 3e
       -0.04057145 0.07600569 -0.12432074 0.18511531
0000c0 a0 6d 91 3c dc 4e 37 be 55 4b 57 be f0 22 f5 bc
       0.017752469 -0.17901176 -0.2102483 -0.029923886
0000d0 26 66 47 be b5 4a c2 be 58 d5 8f bb bf e7 83 3e
       -0.1947256 -0.37947622 -0.004389446 0.25762746
0000e0 d8 c7 02 bd 46 5f 1f be 3c 00 61 3d b3 fc 67 3e
       -0.031928867 -0.15563688 0.054931864 0.22654991
0000f0 77 00 15 3e 6e f2 3e 3e ec 85 c0 bd b4 82 62 be
       0.14550959 0.18647167 -0.094005436 -0.22120172

layers.3.weight f4 [32, 64]
000000 ae 4f cf 3b 40 c9 db 3d 4e cb 8f 3d d9 2a 98 3d
       0.006326637 0.10731745 0.07021199 0.074300475
000010 bc 63 e7 3c ff 92 61 bd 1b 1e 0c 3e 30 c2 88 3c
       0.0282458 -0.055071827 0.1368336 0.016694158
000020 70 b6 b9 bc 4d 74 4f 3d a9 67 fe bd c8 09 25 3c
       -0.02267 0.050648022 -0.12422115 0.010073133
000030 f7 df 5c bd 8d f0 89 3e 92 d6 17 3c 50 5d 68 3d
       -0.053924527 0.26941338 0.009267466 0.056729615
000040 8d 2a 36 be 8a e8 bb 3d d2 42 77 3d 80 d4 5c bc
       -0.1778967 0.09175213 0.06036646 -0.013478398
000050 58 72 6a bd 99 a5 ca 3d 20 07 16 3c c1 bc 3e 3d
       -0.057237953 0.098948665 0.009156972 0.04656673
000060 87 e9 99 bd 10 88 9a 3c 63 e3 2a 3c 23 59 0c be
       -0.07515245 0.018863708 0.01043019 -0.13705878
000070 c2 0f e1 bc a4 2e 25 3d d8 e5 f7 bd 58 d9 77 3d
       -0.027473334 0.040327683 -0.12104386 0.06051001
000080 b9 7b cf 3c 06 61 02 bd ae 5f b4 bd 00 18 db 3b
       0.02532755 -0.03183081 -0.08807312 0.0066862106
000090 6e bc 39 3c f1 49 81 3d 1c 93 45 3e dc 7a 06 be
       0.011336429 0.06312931 0.19294399 -0.13132805
0000a0 05 18 09 be cc 11 ee bd 3c 71 16 bd 86 76 96 3d
       -0.13388069 -0.11624488 -0.036729082 0.07346825
0000b0 30 3b 30 be 08 97 a7 3d 25 b0 d2 bd 78 6a cc 3d
       -0.17210078 0.08183104 -0.10287503 0.09981245
0000c0 e9 b6 33 ba 49 5c 03 bc 52 35 dc bd 40 42 21 3d
       -0.0006855564 -0.008017608 -0.107523575 0.03936982
0000d0 22 d8 f2 bd 33 1e 34 3d 40 98 ae bd f3 d3 0c 3d
       -0.1185763 0.043974113 -0.08525133 0.034381818
0000e0 40 91 be bd 67 4e be bd 80 58 0f bc 0d e3 0a 3e
       -0.09305048 -0.09292298 -0.008749127 0.13563175
0000f0 ac bd a0 3d 31 5d 62 3d fc 79 99 3d c2 81 ec bd
       0.07848677 0.055264656 0.0749397 -0.11548187
000100 c3 c6 29 bc af 9a 67 bd 20 26 2b bd 5c 5c 46 bc
       -0.01036233 -0.056544002 -0.041784406 -0.012106981
000110 33 29 81 3e 91 21 7a 3d 0c 16 8d bd dc f5 07 bd
       0.25226745 0.061067168 -0.06888971 -0.033193454
000120 1c 83 41 3e dc aa 2d 3d 76 d0 5e be ad e4 a0 bd
       0.1889767 0.042399272 -0.21759209 -0.078561164
000130 87 7a 8c bd df 97 16 3f 1a 3f cf bc c4 ea 70 bd
       -0.06859308 0.58825487 -0.025298644 -0.05881764
000140 9e 0f 11 3e 42 ab f9 3c b8 17 9a be 74 15 d4 bd
       0.14166114 0.03047717 -0.3009622 -0.10355654
000150 3c 9d e5 3d ba 8f 19 bd 10 59 4a 3c 71 13 79 3b
       0.11211631 -0.037490584 0.012350336 0.0038005973
000160 13 4a 8d bc 5c 23 e0 3d b8 c9 57 bd a6 59 2c b9
       -0.017247235 0.10944244 -0.05268261 -0.00016436595
000170 eb c8 50 be fe 7f 91 3d 2c 6f 21 3d c4 7f 91 3d
       -0.20389144 0.07104491 0.039412662 0.071044475
000180 13 01 88 3c aa 41 17 3d 72 89 a1 3d 88 41 4c 3d
       0.016602075 0.036927857 0.07887544 0.049867183
000190 65 46 04 be 61 e9 14 3e f3 87 f7 3e 43 e4 68 be
       -0.12917478 0.14542152 0.4834591 -0.22743325
0001a0 b5 95 c6 be e0 ba ac be 4d a2 93 be fa e9 fb bd
       -0.38786092 -0.33736324 -0.28834763 -0.12300487
0001b0 e0 2b 66 3e 80 5e 8f 3c 7a e9 db 3b 97 bf 78 3d
       0.22477674 0.017501116 0.006711182 0.06072959
0001c0 97 da f4 bc 44 14 0c 3d 81 ad f0 bd c0 12 20 3d
       -0.029889388 0.034199014 -0.11751843 0.03908038
0001d0 94 a1 6d bd 4b af a2 3d ed b4 d5 bc 04 7e 9f 3e
       -0.05801542 0.07943591 -0.026087249 0.3115083
0001e0 21 4f a1 be 3a 95 fc bc fc 07 f1 bd a2 5f af 3e
       -0.31505683 -0.030832876 -0.11769101 0.3425265
0001f0 19 c1 07 3d 55 69 be be 95 27 cb 3d 7b ba 49 3d
       0.033143137 -0.37189737 0.09919659 0.049250107
000200 e0 16 11 3d 0b d0 92 3d 4c 11 7d bd fa 3c a6 3c
       0.035422206 0.07168587 -0.061784074 0.020292748
000210 5f 29 06 bf 74 21 e6 bd 89 b9 09 3e 84 0b 60 bd
       -0.5240688 -0.112368494 0.13449682 -0.054698482
000220 10 b2 d7 bd c8 d8 31 3d e0 52 4e 3d ec 4d a8 bd
       -0.105320096 0.04341963 0.050372005 -0.082179874
000230 98 9f 57 be 34 64 03 be 4f 0b 36 3d 30 ca 46 3d
       -0.21056974 -0.12831193 0.04444438 0.048532665
000240 77 44 bf be e0 c3 f7 3b 1c fc 7a bd f0 ea ea bc
       -0.37356922 0.007561192 -0.061275586 -0.02867648
000250 b0 ea 29 bd a7 90 88 bd 7a 48 95 3d 46 af 8d 3c
       -0.04148358 -0.06668215 0.072892144 0.017295491
000260 af 5b c9 bb 6a 0f d6 3d 27 e5 b0 bc bb 73 ca be
       -0.0061449627 0.10452159 -0.021593643 -0.3954142
000270 ec 5c a1 bc b6 cf f7 bd a4 94 d6 3d 00 98 2a 3c
       -0.019697629 -0.121001646 0.1047757 0.010412216
000280 17 5f 2b 3d d6 ec 82 be c1 be 8f 39 04 eb 94 3d
       0.04183873 -0.25571316 0.00027417208 0.07271388
000290 28 b4 e0 3c d3 84 d2 bc be 7b c9 be 84 56 2e be
       0.027429655 -0.025698101 -0.3935222 -0.1702519
0002a0 97 15 58 be d9 a6 8c bc 55 97 d0 3c 08 f3 1e 3d
       -0.21101986 -0.017169403 0.025462786 0.03880599
0002b0 0c aa 05 bf bc 28 ee 3d 78 ff f4 bd d9 13 9a 3d
       -0.52212596 0.11628863 -0.11962789 0.07523317
0002c0 b1 4b 58 be 9f 62 05 be c1 fb 40 3d 8c e2 1f bd
       -0.21122624 -0.13025902 0.04711509 -0.03903441
0002d0 d4 b5 23 3d db 17 b3 be b4 86 db bd f6 7c 03 bd
       0.039968327 -0.34979138 -0.10719052 -0.032101594
0002e0 58 6d f5 be 7a 43 97 bd 6a 71 a3 3d 04 72 3e be
       -0.47934985 -0.07385917 0.079806164 -0.18598181
0002f0 04 0a cb 3c f0 af 04 3d 24 fc 1b bd d9 45 d2 be
       0.02478505 0.03239435 -0.038082257 -0.41068915
000300 a7 f5 8b bd 5e 5a 72 bc 2c 62 3d bd 5b 8a ce 3d
       -0.06833964 -0.014792053 -0.046236202 0.10084983
000310 60 15 4c 3f ba 4c 5c bd 77 d2 8d bd d2 01 fa 3d
       0.79720116 -0.05378411 -0.069249086 0.122073784
000320 5f 39 9f 3d 70 28 5c 3d 68 e5 74 bd 4c 14 cb 3b
       0.077746145 0.0537495 -0.05978909 0.006197488
000330 5d 6c ac bc bc 63 de 3f 70 a0 7c bc 28 51 29 3d
       -0.021047765 1.7374187 -0.015419111 0.041337162
000340 05 f0 8e 3e 44 c6 69 bd 1b 41 90 3e f4 f2 0f bd
       0.27917495 -0.057073846 0.28174672 -0.035143808
000350 d8 a1 8b bc 7c 85 c4 3b dc 07 8a 3d 01 33 ef 3d
       -0.017044947 0.005997358 0.0673978 0.1167965
000360 ff 8b 8a bd c0 a9 70 3b 25 8d 5b 3d 07 f0 0c 3e
       -0.067649834 0.0036722273 0.053601403 0.13763438
000370 df 97 5d be a4 34 b4 3d 1a 8e a2 bd 82 30 59 bd
       -0.21639965 0.08799103 -0.0793726 -0.053024776
000380 4f b5 bb bc fb 3a 03 3e 28 2f d1 bb 74 74 7d 3d
       -0.022913603 0.12815468 -0.0063837953 0.061878636
000390 a2 7a 0e 3d 62 b4 b5 3d 7f bb ca 3e 0f e4 bd 3d
       0.03478492 0.08872296 0.39596173 0.09272014
0003a0 fe 2f 20 3f 12 21 08 bf fa 5a 7c be dc 66 d7 bd
       0.6257323 -0.5317546 -0.2464408 -0.10517666
0003b0 9a fa 2a 3f 6e 89 e7 3d a3 ba 04 bd 2a df 8e 3b
       0.6678864 0.113055095 -0.032404553 0.0043600993
0003c0 e2 85 a9 3c 10 03 17 bc 8b 14 75 bd 80 42 57 3b
       0.020693723 -0.009217039 -0.059834044 0.0032846034
0003d0 58 3d f9 bd b6 31 91 bc 3b 8d 38 bd 5d 20 dd 3d
       -0.121699035 -0.0177239 -0.045056563 0.107971884
0003e0 63 ae 89 bd 2a 7a ce 3d 40 9a cb 3d 40 12 1f 3f
       -0.06722715 0.10081895 0.0994153 0.6213722
0003f0 7e d8 f0 bd 4a 0c d4 3c e7 5b f0 bc 2c 6a 4a 3f
       -0.117600426 0.025884766 -0.029340697 0.79068255

layers.3.bias f4 [32]
000000 e7 fc ae 3e 70 36 d3 3d 6d 15 27 3e 4f 98 74 be
       0.34177324 0.103131175 0.16316767 -0.23886226
000010 3b a7 93 3e c4 d8 16 be 09 88 87 bd 84 0c 9b 3b
       0.28838524 -0.14731127 -0.066177435 0.0047317166
000020 85 4a a9 3e 1e fe 5b 3e da 56 91 bd 3e 18 17 3e
       0.33064666 0.21483657 -0.07096644 0.14755341
000030 3e eb 0f be ca 19 c1 3e 07 2b e3 bd 73 06 18 3e
       -0.14054582 0.37714988 -0.11092191 0.1484621
000040 0e 1b 6c be 1e 33 5d 3d ef fb 5c 3e b7 fe 22 3c
       -0.23057196 0.054003827 0.2158048 0.009948424
000050 f3 1a d3 bd 57 b5 08 be 5b e5 0a 3d a1 f7 42 3e
       -0.103078745 -0.13350426 0.033910137 0.19039775
000060 1f 50 82 3e 31 34 f2 3d 06 cb b5 3d 00 cc 52 be
       0.25451753 0.11826361 0.08876614 -0.20585632
000070 db 41 a8 3c e3 14 33 3e a8 9e d0 3d f4 a3 e2 3d
       0.020539215 0.17488436 0.10186511 0.11066428

layers.6.weight f4 [16, 32]
000000 ad 8f 81 3e 97 89 56 3d 02 06 9e 3e ec 41 c7 be
       0.25304928 0.05237731 0.3086396 -0.38917482
000010 bd d4 a5 3e 76 49 0d be dd 17 1b bf 2a 31 c6 bd
       0.3238887 -0.13797554 -0.6058329 -0.09677346
000020 64 f7 d0 3d 96 c0 84 3e f2 4e 7f be f9 be 56 3e
       0.10203436 0.2592818 -0.24932459 0.20971288
000030 37 32 83 bd a7 9b c0 3d 4f d4 d4 be 50 42 30 3f
       -0.06406062 0.09404688 -0.4156823 0.68851185
000040 4f bc 38 bf d5 39 fc bd 8e 49 f2 3d c8 8b 1e be
       -0.72162336 -0.12315718 0.11830436 -0.1548301
000050 fd 1b 02 be 91 10 28 be f9 fd 91 be b4 e4 80 3e
       -0.12705989 -0.1641257 -0.28514078 0.25174487
000060 22 5a ef 3e db 53 94 3d ff 74 ab 3e 3c 78 b0 be
       0.46748453 0.07242557 0.33487698 -0.34466732
000070 8c 46 73 be 64 34 10 3c 0b 6b a8 3e 91 82 75 3e
       -0.2375738 0.008801553 0.32894167 0.23975588
000080 21 22 0a 3e f8 d8 2f 3e 74 1e ac be da 88 9b 3e
       0.13489582 0.17172611 -0.33616984 0.30377847
000090 a8 bb 06 be aa a6 da bd cc 16 e9 3e 58 10 93 3e
       -0.13157523 -0.1067632 0.45525205 0.28723407
0000a0 0e 60 c3 3d df 3c b0 be db be 27 3e 8f 11 6e be
       0.09539805 -0.3442144 0.163814 -0.23248886
0000b0 35 0c 84 bc b2 fb 40 3e 87 d1 25 3c d9 bb 91 be
       -0.016119102 0.18846014 0.010120756 -0.2846363
0000c0 52 b9 27 3f a5 a6 5e 3e b6 6f f7 bd c5 e7 92 3e
       0.6551715 0.21743257 -0.12081854 0.2869245
0000d0 a8 6b 33 3e cb 01 38 bb 0b ee 60 bd 46 1a 95 3e
       0.17521536 -0.002807724 -0.054914515 0.29121608
0000e0 5b 85 a9 be 64 05 a4 3e da 0b ad be 8b 42 c0 3e
       -0.33109555 0.32035363 -0.33798105 0.37550768
0000f0 2b e9 69 3e 30 26 c3 be da 66 30 be 03 ce 1f be
       0.22842853 -0.38115072 -0.17226735 -0.15605931
000100 30 2f 44 3e 19 bb 88 be 4e 72 9d 3e ea 72 d1 be
       0.19158626 -0.26705244 0.3075127 -0.40907985
000110 c0 27 e3 3d bd 42 ad bc 6a 99 b1 be 52 68 95 be
       0.11091566 -0.021149987 -0.34687358 -0.29181153
000120 23 ea 29 3e 97 85 72 3d 2b ad a8 be 51 fc f5 3d
       0.16593222 0.059209432 -0.32944617 0.12011016
000130 43 49 ee be 63 5a cc 3d ed 59 12 bf 22 63 09 3f
       -0.4654027 0.099781774 -0.57168466 0.5366689
000140 38 73 2f bf 79 bd e9 bd f1 28 68 bd 36 1f 86 be
       -0.68535185 -0.11413092 -0.05667967 -0.26195687
000150 60 01 11 bd a0 47 05 bf cf 54 e0 be 66 0b 4b 3e
       -0.035401702 -0.52062416 -0.43814704 0.19828567
000160 b4 43 3c 3e 0e 38 6c 3c 28 7d fe 3e ff 2f df be
       0.18385202 0.014417661 0.49704862 -0.43591306
000170 c6 4e 88 be 68 56 8c bd 44 1a cc 3e f4 7d 99 3e
       -0.266226 -0.06852418 0.3986379 0.29978907
000180 bc 52 89 3d c3 7c 68 3e 65 95 c3 be 95 68 c4 3e
       0.067052335 0.22703843 -0.38199916 0.3836104
000190 f7 9f 77 be 8f 8b d4 bd 64 fd 90 3e f5 90 96 3e
       -0.24182115 -0.10378181 0.28318322 0.29407468
0001a0 da 4b 46 3d 7a 6f d4 be 30 fc 35 3e 04 77 af be
       0.04841218 -0.414913 0.17771983 -0.3427049
0001b0 54 a6 8d bd 01 5d 68 3d 55 a1 d0 bd f6 ca a9 be
       -0.0691649 0.05672932 -0.10187022 -0.3316266
0001c0 cb 92 0b 3f fb 64 a0 3d ba bc 1b be 3e db f3 3d
       0.54520863 0.078317605 -0.15208712 0.119070515
0001d0 16 52 97 3e 28 13 07 3d 9b 3e 5d bc db dc 5d 3e
       0.29554814 0.032977253 -0.013503696 0.21666281
0001e0 73 4b f2 be 87 9e 92 3e ac aa 95 be c4 7c 5f 3e
       -0.47323188 0.28636572 -0.29231775 0.21824938
0001f0 fe 48 a2 3e 5e 36 91 be 6b b7 4c be 69 96 37 be
       0.31696314 -0.2836179 -0.19991843 -0.1792847
000200 45 e4 49 be b0 a2 16 bd d1 40 66 3d a4 19 7a bd
       -0.19715984 -0.036776245 0.056214157 -0.06105961
000210 48 4c 50 bd dc e1 e3 bc 78 01 30 3e 04 3b ce bd
       -0.050853997 -0.02781766 0.1718806 -0.1006985
000220 f7 1c 54 be 93 00 e0 bc 55 13 66 be de 0c 83 bd
       -0.20714174 -0.027344024 -0.22468312 -0.063989386
000230 6b 5e 1c 3d 14 24 90 be 92 40 89 be 08 e1 f3 bd
       0.03817598 -0.28152525 -0.26807076 -0.11908156
000240 ff 12 35 be 71 80 19 be 31 4b 0c bd fc 6c 56 be
       -0.17683028 -0.14990403 -0.034251396 -0.20940012
000250 28 ef 6e bd 6a 5d 9e bd 62 2e 51 be e0 f1 df bd
       -0.058333546 -0.07732661 -0.2042785 -0.10934806
000260 aa 16 da bd 59 f8 5e 3a a0 6b 23 bd 8c 67 58 be
       -0.10648854 0.00085056346 -0.03989756 -0.2113325
000270 3d 8d 22 3e 61 26 ff 3d f7 46 0b be d6 be 2d be
       0.1587419 0.12458492 -0.1360129 -0.1696733
000280 06 3b 7e 3d 62 26 d2 3d 13 b3 54 be 13 e6 ef 3e
       0.062068008 0.10261227 -0.20771436 0.4685522
000290 8b 4b 9a be 72 22 3c 3d 58 ec 9a 3e b5 88 b8 3d
       -0.3013576 0.045931287 0.3025844 0.0901045
0002a0 fd e3 3c 3e d3 40 e2 be af 8f 8c 3e f2 d6 a5 be
       0.18446346 -0.44190082 0.27453372 -0.32390553
0002b0 22 f0 99 3d a5 f1 5c 3d 7f 48 b9 bd bf ff 9e be
       0.07516505 0.053941388 -0.09047031 -0.31054494
0002c0 31 b3 c7 3e a6 a6 49 3e 9b 98 c5 bd aa d5 66 3e
       0.390039 0.19692478 -0.09648248 0.22542444
0002d0 a9 01 ac 3e 20 f2 c8 3c 14 f3 77 bd 04 46 25 3e
       0.33595017 0.024529517 -0.06053455 0.1613999
0002e0 7c 2c e4 be 5f b3 c9 3e db 3e 9a be 64 ec 9f 3e
       -0.4456519 0.39394662 -0.3012608 0.3123504
0002f0 19 e7 4a 3e 2e a7 7f bd 86 64 1d be fd 71 e3 bd
       0.1981472 -0.062415294 -0.15370378 -0.11105726
000300 45 aa ca 3d d1 0a 3f be d5 94 bb 3d 54 7c f3 be
       0.098957576 -0.1865647 0.09159247 -0.47555792
000310 12 84 f4 bc 57 4c 2a be f9 3b 19 bf 30 b4 1b be
       -0.029848132 -0.16630684 -0.59857136 -0.15205455
000320 82 d3 78 3d c3 68 8e 3d c9 db 74 be 2d fd b3 3d
       0.060748585 0.069535755 -0.23911966 0.08788524
000330 e4 28 14 bf 28 3a 15 3e c9 80 5c bf 79 14 fa 3e
       -0.57874894 0.14572966 -0.8613401 0.48843744
000340 c4 f4 16 bf f9 24 94 bd e2 aa 6a bd ca 11 2d bd
       -0.5896723 -0.072336145 -0.057291873 -0.042253293
000350 98 77 5a bb 54 12 25 bf 4d 66 2b bf 06 b1 eb 3d
       -0.0033335444 -0.6448109 -0.66952974 0.11508374
000360 b6 59 30 3e b7 b3 28 3c 67 56 b5 3e 48 c1 f5 be
       0.17221722 0.010296754 0.35417482 -0.47999024
000370 c7 1d 41 be 3a 09 07 bd 6a 14 0f 3f f4 23 a5 3e
       -0.18859015 -0.032967784 0.55890524 0.32253993
000380 c2 de 54 3e e6 00 e4 3d cb 3d 87 be 72 a0 0c 3f
       0.207881 0.11132984 -0.26414332 0.5493232
000390 9f 5e 44 be 48 fb 91 bd 34 c8 0f 3f 92 2f c5 3d
       -0.1917672 -0.07128006 0.5616486 0.09628214
0003a0 36 1a 6f 3e bd 33 9a be d0 b8 d6 3e aa b8 a1 be
       0.23349842 -0.30117598 0.41937876 -0.315862
0003b0 42 e7 93 3d 6e ce 2e 3e b0 5b dc 3d 5c 7f d0 be
       0.07221843 0.17070934 0.107596755 -0.40722167
0003c0 0d 74 4a 3f e0 9c 78 3e 54 39 0e bb 93 73 4b 3e
       0.7908333 0.24278593 -0.002170165 0.19868307
0003d0 7c 07 2d 3e 67 f9 0d be c1 e2 db 3c ef 7c 54 3e
       0.16897386 -0.1386467 0.026841523 0.20750783
0003e0 4b d3 9a be 57 37 67 3e fd b7 b9 be 56 20 83 3e
       -0.3023933 0.22579704 -0.36273184 0.25610608
0003f0 cc 79 98 3e d3 d7 99 be 01 c3 4a be 8e c5 c5 bd
       0.29780424 -0.30047473 -0.1980095 -0.09656821

layers.6.bias f4 [16]
000000 60 1f a2 3e 86 72 81 3e f7 91 9d 3e d8 6e ae 3e
       0.31664562 0.25282687 0.30775425 0.34068942
000010 de 93 7c bd b4 56 ab 3e b4 ed d1 3e 04 89 36 3e
       -0.061664455 0.33464587 0.41001666 0.17825705
000020 5a e3 93 3e 05 e8 a9 3e 3b dd 7b 3e 57 d4 ae 3e
       0.28884393 0.3318483 0.24596111 0.34146377
000030 ef 50 3e 3e a7 20 dc 3e 4b cc 80 3e df 8d b4 3e
       0.18585561 0.42993662 0.25155863 0.3526449

layers.9.weight f4 [1, 16]
000000 ab 34 07 3f 27 22 f3 be 4d 51 4c 3f b4 d1 13 bf
       0.5281474 -0.47486994 0.79811555 -0.57741857
000010 cd de 1f 3e b0 0d f0 be 0a fe 87 3f 27 f5 8a be
       0.15612336 -0.46885443 1.0624402 -0.2714016
000020 2a 14 fe 3e e3 e9 22 bf d4 8f 08 bf 18 80 64 3f
       0.4962476 -0.6363813 -0.53344464 0.89257956
000030 83 5e 55 be cf 01 18 3f 59 e6 0e bf 57 2a 06 bf
       -0.20836835 0.5937776 -0.5582023 -0.52408355
