models/Ensemble/antipion_0.pt (torch, 73195 bytes, 28 tensors)

models.524287.layers.0.weight f4 [64, 19]
000000 23 e1 5e 3e fc 8c 48 be 48 ed ba 3c 2d 1e 41 3e
       0.2176557 -0.19585031 0.022818223 0.18859167
000010 54 da bc bd 79 11 22 3e 65 a1 39 3e 72 4c 94 bd
       -0.0922133 0.15826978 0.18127973 -0.07241143
000020 0b 51 4d 3e 1e 3e eb bd c1 f4 38 3e 88 d2 e1 bc
       0.20050447 -0.11486457 0.18062116 -0.02756621
000030 12 68 df 3d de 90 f8 3d 76 dd fc bd ed d3 24 be
       0.10908522 0.12137006 -0.12346928 -0.16096468
000040 0d 77 4d 3e ad 55 27 3e 90 aa 16 be 78 6d 33 40
       0.20064946 0.16341276 -0.14713502 2.8035564
000050 6a da 8c 3e 31 43 51 3a 0e 0c f2 bd da 7a 3a 3f
       0.27510387 0.00079827296 -0.118187055 0.72843707
000060 11 f0 16 bd bc cc de bd 91 47 04 3d db 41 24 3d
       -0.03685004 -0.10878894 0.032294814 0.040101867
000070 34 19 83 3c 78 29 a1 be 3d 1a ec bd 42 78 af bd
       0.016003229 -0.3147695 -0.11528442 -0.08567859
000080 09 ee b7 bc e7 88 0c 3d 31 fb 5c 3a 95 c6 bd bd
       -0.022452371 0.034310248 0.00084297644 -0.09266392
000090 33 7e a0 bd b7 1d 1f bd b8 6c 47 3e 49 d8 74 3e
       -0.078365706 -0.038846698 0.19475067 0.23910631
0000a0 66 47 36 be b3 5e 5b bd c6 08 1d be 44 5d 1c 3e
       -0.17800674 -0.05355711 -0.15335378 0.15269953
0000b0 63 c9 21 3e 22 e3 e7 bc 71 5d 68 be 2e 53 58 be
       0.15799479 -0.028306548 -0.22691895 -0.2112548
0000c0 07 be 13 be cd 4c 2b be 24 0c 12 3e fa 28 03 be
       -0.14427958 -0.16728516 0.14262444 -0.128086
0000d0 7c 63 51 3e 5a 0b 6f bd 68 a9 4f 3e b1 ff 6a 3e
       0.20448107 -0.058360435 0.20279467 0.22949101
0000e0 17 17 24 3e 4a de 5b be 57 2e 54 3e 16 dc a5 3d
       0.16024433 -0.21471515 0.20720802 0.08098619
0000f0 36 ea a6 bd 4a 0a d8 3d 6a a4 9d 3d 5f 81 40 3e
       -0.08150141 0.105488375 0.07697375 0.18799351
000100 e7 bb 3a 3e 2b 10 57 3e 50 7c 3b 3c 19 3a 66 3e
       0.18235742 0.21002261 0.011443213 0.224831
000110 0a fa e4 3d f4 8b 54 be 00 a4 56 be 76 16 8f 3d
       0.11180504 -0.20756513 -0.20960999 0.06986706
000120 fe 95 ca bd 88 d2 e7 3c c3 2b 1b 3e c0 a4 10 3c
       -0.0989189 0.028298631 0.15153413 0.008828342
000130 ce 58 4e 3d 01 7f bd 3e 6e 9c 49 be bf 36 ac 3e
       0.05037766 0.3701096 -0.1968858 0.33635518
000140 a8 23 91 3e 2b fb f0 be 30 be 47 be 12 83 67 bd
       0.28347516 -0.47066626 -0.19506145 -0.056521483
000150 8f d0 e4 bc 60 fa 22 3e 4d 73 86 bf 79 a8 35 be
       -0.02793148 0.15915823 -1.0503937 -0.17740048
000160 75 6d 68 3d 84 20 00 3e d0 ea ee 3d 25 63 6e 3a
       0.05674501 0.12512404 0.11665881 0.0009093753
000170 fe c7 96 3d e6 91 3c 3e 24 fc da 3c 70 7c f1 3e
       0.07362364 0.18415031 0.026731558 0.4716525
000180 37 46 53 3d 1f 73 b5 3d 66 69 90 bc 8f d8 2b 3d
       0.051580634 0.08859848 -0.017628383 0.041954573
000190 99 f0 82 3e 77 a1 99 3e c5 d4 67 3e a4 57 ae bd
       0.25574186 0.30006 0.22639759 -0.0851281
0001a0 d4 52 52 bc 03 5c 46 be 90 1d b3 3c c0 46 68 3e
       -0.012837131 -0.19371037 0.021864682 0.22683239
0001b0 79 aa 14 3e d8 2b 84 3e 17 bc 10 bd a3 b7 4b be
       0.14518155 0.258147 -0.035335626 -0.1989427
0001c0 bf c6 72 3d c4 46 39 be a9 3c 5b 3e 40 f3 9e bc
       0.05927157 -0.18093401 0.21409859 -0.0194031
0001d0 c8 f2 45 be 0f 75 39 3e 84 2a 59 bd c1 92 14 3e
       -0.19330895 0.1811106 -0.05301906 0.14509107
0001e0 44 04 1c be e2 ba d5 3d ce 4e d2 3d e4 9e 51 3d
       -0.15236002 0.10436036 0.10268937 0.05117692
0001f0 2b e2 0b be c0 3e db 3b 83 f2 1a 3e 2e 95 ec 3d
       -0.13660495 0.00669083 0.15131573 0.11551891
000200 ec 3e c0 bd ac 8e d3 bd 76 05 e8 3d 7e 8e e9 3d
       -0.093870014 -0.10329947 0.113291666 0.11404131
000210 82 25 f0 bd 51 f1 42 3e 2f a7 49 be 0a e9 d8 3d
       -0.11725904 0.19037367 -0.19692682 0.10591324
000220 8d a7 2c be c2 7e 5f be ad b9 32 3e b8 4f 27 bd
       -0.1686079 -0.21825698 0.17453642 -0.04084751
000230 75 45 3c be bf de 58 3e 0e c4 c1 3d 27 e2 61 3e
       -0.18385871 0.21178721 0.094612226 0.22058927
000240 bc 67 37 be 99 bc 0b 3e bd 53 3a 3e 9c 5f 44 3d
       -0.17910665 0.13646163 0.18196006 0.047942743
000250 98 90 96 bd 50 ad 56 bd 0c 5f 23 3d 0d f5 35 3e
       -0.07351798 -0.052411377 0.039885566 0.1776926
000260 bd c6 70 bd 88 84 31 3e 15 6b 92 3d 0a 18 1b be
       -0.05878328 0.17335713 0.071493305 -0.15145889
000270 29 3b be 3f d5 5b 92 be 52 bf 3a be e6 b5 1f 3e
       1.4861804 -0.28585687 -0.18237045 0.15596732
000280 43 da cb 3d a9 c6 6f 3d a4 c5 87 bf 12 1c de bd
       0.099537395 0.058539066 -1.060719 -0.10845198
000290 70 bd 41 be e4 49 f7 bc ac 4f ec bd 55 f5 9e bc
       -0.18919921 -0.030186601 -0.11538634 -0.019404093
0002a0 0e 13 dd ba eb e8 0c bd e7 ba 0b bd 61 c2 2a 3e
       -0.0016866641 -0.034401815 -0.03411379 0.16675712
0002b0 da bc 73 be 2b 3c 1f be fa 4a ba 3e c6 14 13 3e
       -0.2380251 -0.15550296 0.36385328 0.14363393
0002c0 b1 09 73 be c3 72 a6 be 5a 29 f3 3d 28 71 c5 3d
       -0.23734166 -0.3250943 0.118731216 0.096407235
0002d0 78 76 8a bd e5 81 50 bf 81 e0 01 be e7 37 dc 3d
       -0.06760877 -0.81448203 -0.12683298 0.1075285
0002e0 3e d0 9f 3c 0f 47 86 3c 25 14 1a 3c 42 2e fb 3c
       0.019508477 0.016391305 0.009404217 0.030661706
0002f0 07 44 9a 3d 75 5e 74 be ac 7d 16 3d 12 57 db 3d
       0.075325064 -0.23864157 0.036740944 0.10709967
000300 b8 93 ab bc 44 ec 60 3d a2 7a 55 be 46 25 ec 3d
       -0.020944461 0.05491282 -0.20847562 0.11530547
000310 c5 7d 05 3e 02 2d af bd f8 01 7e bd bd 38 45 3e
       0.13036259 -0.085535064 -0.062013596 0.19259925
000320 67 6b 0d 3e b6 36 d0 bd 58 02 86 bd 34 c8 6e 3d
       0.13810502 -0.10166685 -0.06543416 0.058296397
000330 38 5f 2d bd dc 61 ee bd 44 5c b6 bd a5 f3 18 3e
       -0.042327136 -0.11639759 -0.08904317 0.14936693
000340 d6 28 95 3d f0 10 c1 bf 02 63 84 bb ba 07 0a b9
       0.072831795 -1.5083294 -0.004040123 -0.00013163584
000350 34 49 8e bd 55 75 d1 be 77 33 4f bf 24 55 23 bf
       -0.06947556 -0.4090983 -0.80937904 -0.6380179
000360 49 dc fd 3d b2 c2 b4 3e c2 d3 eb bc 55 bc 5a bf
       0.12395532 0.3530479 -0.028787497 -0.8544362
000370 fa 04 31 be 51 bf fc bc 26 31 c5 bc d0 8e 96 3c
       -0.17287055 -0.030852946 -0.024071287 0.018378645
000380 3f 02 8d 39 34 57 77 3b 5a fb 37 3c 5c be 89 3d
       0.0002689529 0.0037741186 0.0112293605 0.06725761
000390 d0 36 1f 40 69 91 07 3e 1a 6a b1 38 7d e3 f4 3d
       2.4877205 0.13239063 8.459781e-05 0.119574524
0003a0 1a 92 8b 3f 28 fd af bb c5 97 eb bd b1 c8 5c 3c
       1.0903962 -0.0053707547 -0.11503557 0.013475583
0003b0 cd 7a 6b bd 5b 19 aa 39 34 89 64 bf b0 a3 f3 3d
       -0.05749016 0.00032443818 -0.89271855 0.11896455
0003c0 9a 5c 37 bc 30 95 05 3a 88 e8 4d 3d 83 f8 8d b8
       -0.0111915115 0.0005095778 0.050270587 -6.769693e-05
0003d0 a0 42 1a 3d ab 17 47 3d 08 c6 d7 3d a2 12 c0 bd
       0.037661195 0.048606556 0.10535818 -0.09378554
0003e0 09 70 64 3e 71 5e 3d 3e 57 83 2b 3e 0a ce 4a be
       0.22308363 0.18493058 0.16749321 -0.1980516
0003f0 bd 32 5b 3e d4 76 18 3d 4b a2 32 3e 60 5b 98 3c
       0.21406074 0.0372227 0.17444722 0.018598258

models.524287.layers.0.bias f4 [64]
000000 22 15 95 3d 28 f1 8d 3d 10 ad 02 be e2 3e cb 3d
       0.072794214 0.069307625 -0.1276133 0.09924103
000010 e9 7d 8d be 63 1b 50 bd 0c 62 99 bd 31 89 49 3e
       -0.27635124 -0.050807368 -0.07489404 0.1968124
000020 bc 4f 00 3e ba 2b 3c be ac 4d 09 bd 8f ff b6 be
       0.12530416 -0.18376055 -0.03352134 -0.3574185
000030 b8 ca 8c be bc b1 12 3d 99 47 8d be e8 b7 c9 bd
       -0.27498412 0.035814032 -0.27593687 -0.098495305
000040 e0 79 ae bb 51 3b d6 be 39 d4 4b be c4 9d 17 be
       -0.005324587 -0.4184213 -0.19905175 -0.14806277
000050 cc 23 06 be bb 93 36 3e f4 23 09 3d 5c 03 95 3d
       -0.13099593 0.17829792 0.033481553 0.072760314
000060 4e a5 d6 be bb 51 d9 bd c5 17 08 3e 90 2a 65 bc
       -0.41922992 -0.10611292 0.13290317 -0.0139871985
000070 15 87 f3 bd 2a f9 18 be f3 81 79 be b8 a2 54 3e
       -0.11890999 -0.14938799 -0.24365978 0.20765197
000080 ed 0e b6 be a3 cc 99 be 2c 43 47 3d 09 23 40 3e
       -0.35558262 -0.30038938 0.048648044 0.18763365
000090 a8 3b b7 bc 8e 65 f1 ba d1 10 92 be 6c f7 8f 3d
       -0.022367314 -0.0018417106 -0.28528455 0.07029614
0000a0 33 48 37 3e ec f0 09 3d b2 73 cb bd 56 75 90 3d
       0.17898636 0.033677027 -0.099341765 0.0705363
0000b0 83 63 02 3e 75 5f 14 3e 65 be 27 be f8 39 df 3c
       0.12733273 0.14489539 -0.16381223 0.027249321
0000c0 50 aa 28 bd 42 91 83 be 70 1b c9 bd b1 a6 fb bd
       -0.041178048 -0.2569676 -0.098196864 -0.12287653
0000d0 f9 88 ea bd e4 8a 9f bd 28 6c 9f be 54 91 35 be
       -0.11451907 -0.07790163 -0.31137204 -0.1773122
0000e0 b0 30 60 be ff 5c 29 3e da ac 7e bc d0 06 c6 bd
       -0.21893573 0.16539381 -0.015544141 -0.09669268
0000f0 98 15 17 be e2 c9 9d 3d 7a 54 17 be 17 5f 36 bc
       -0.14754331 0.07704522 -0.14778319 -0.01113107

models.524287.layers.3.weight f4 [32, 64]
000000 60 7b f8 3b ed e3 e0 be c2 b1 f6 bd 94 e7 03 bd
       0.007583067 -0.43923894 -0.12045623 -0.032203272
000010 cd f0 a6 bc 09 2b 6e bd b4 74 cb 3d 64 86 6c 3d
       -0.020378495 -0.05814651 0.09934369 0.057745352
000020 10 d9 a0 be 72 75 ba bd 4e d6 8a bd bc 46 bb be
       -0.31415606 -0.09104432 -0.067791566 -0.36577404
000030 f7 74 41 be 2e 4b 80 bd 8e 53 71 bc 50 ff 4b bd
       -0.18892275 -0.062643394 -0.014729394 -0.04980403
000040 10 d8 f8 3c d0 98 c5 bc 8f 47 c7 3c e4 09 3f bd
       0.030376464 -0.024120718 0.024326114 -0.04664029
000050 b0 b9 1a 3c 38 2a 2c 3d 60 42 36 be 17 7a 10 be
       0.009443685 0.04203245 -0.17798758 -0.14109074
000060 3a eb f8 3d 10 41 17 3c f3 74 04 3b 26 63 d5 3d
       0.12154241 0.009231821 0.0020211309 0.10419302
000070 ba be 05 3f 40 9a 03 bb f2 18 10 be f4 d4 01 bf
       0.5224415 -0.0020080954 -0.14072016 -0.50715566
000080 43 c3 11 bd 1f 5c 76 be 08 94 83 bc 76 2a d7 3d
       -0.035586607 -0.24058579 -0.016061798 0.10506146
000090 80 2e 33 3d 4e 40 81 3f 53 06 57 bd 75 e8 db be
       0.043745518 1.0097749 -0.052496266 -0.42950788
0000a0 40 79 67 bc 4f 8e ba 3d d0 33 c8 bd 3c 08 7b bd
       -0.014128029 0.091091745 -0.097755075 -0.06128715
0000b0 88 70 9e bd 40 c5 8c 3b 2c 7f 29 3e 98 0a d1 3d
       -0.077363074 0.004295975 0.16552418 0.10207099
0000c0 60 56 51 3d 8a f6 1e bf 8a 84 08 3f 8d 4c 18 bf
       0.051107764 -0.6209494 0.5332724 -0.5949181
0000d0 29 7c 83 3d 61 ba 37 3d 83 42 ea bc 6e 67 9c bd
       0.06420166 0.04485548 -0.028596168 -0.07636915
0000e0 48 56 8a 3c 71 22 12 bf 8e b0 f2 bd 50 3e 02 3c
       0.016886845 -0.57083803 -0.118500814 0.007949427
0000f0 88 ff 19 bd d8 78 b0 bd 80 11 76 3d da 60 af be
       -0.03759721 -0.08616799 0.060075283 -0.3425358
000100 ee c4 8f bd 2b 6d c4 bd 10 80 0e 3c fc 2a a3 bd
       -0.07019983 -0.09591135 0.008697525 -0.07967183
000110 af dd dd 3c bd b3 d2 3d 00 96 08 3c 62 a3 f1 3d
       0.027083246 0.102881886 0.008336544 0.11798741
000120 b3 45 17 bd 3a 60 b7 3d 90 b9 af bd a5 73 8d be
       -0.036931705 0.08953901 -0.08580315 -0.27627292
000130 ab 25 07 be b2 fe be bd b9 e0 25 3e 0e d3 b5 bd
       -0.13197963 -0.09325923 0.16199006 -0.08878146
000140 60 96 f1 3c 3c e0 cf 3c c5 3b a6 3d ba fb ef 3d
       0.02949065 0.025375478 0.08116869 0.11717935
000150 e4 8c d8 3d b4 a5 6b bd bc 72 5d be d4 4c bd bd
       0.10573748 -0.057531074 -0.21625799 -0.092431694
000160 0b 44 c5 bc 56 71 b0 bd 5b 58 3a 3e 96 3e 94 3d
       -0.024080297 -0.08615367 0.18197767 0.072385
000170 27 4b 36 3e c0 37 9f bb c0 6c 14 be 5a f3 bf bd
       0.17802106 -0.004858941 -0.1449461 -0.093725875
000180 cf 5e 4a 3e a1 bd 0a be 10 67 2f bc 54 66 77 3d
       0.19762729 -0.135489 -0.010705724 0.060400322
000190 40 26 b9 3b 74 72 23 3f 83 00 20 be e9 d4 8b bd
       0.0056503117 0.63846517 -0.15625195 -0.06827719
0001a0 10 19 4e 3d a0 af 54 3b c4 c6 1d 3d e6 a2 bc bd
       0.05031687 0.0032453313 0.038519636 -0.09210758
0001b0 9a 1d c3 3d bc 6d ca 3d c8 ca da bd 70 03 c4 bc
       0.095271304 0.098842114 -0.10683209 -0.02392742
0001c0 9a c6 98 3d 65 0b 87 be 41 70 10 3e 53 a7 77 be
       0.07459755 -0.2637588 0.14105321 -0.24184923
0001d0 70 7c 96 3b 6d 8e 5e 3d 31 5e c1 bd b0 a6 f7 3c
       0.004592471 0.054335047 -0.09441794 0.03023085
0001e0 e6 24 b7 3d 45 b5 8e bc ec 43 76 3d 40 32 ca bb
       0.08942585 -0.01742042 0.06012337 -0.006170541
0001f0 fa eb a2 3d 08 48 58 3d cf de 85 bd 17 34 c1 bd
       0.07955165 0.05280307 -0.06536638 -0.094337635
000200 e0 c6 00 bd a8 e3 cd bd 0c 65 f6 bd a0 0f 5a bd
       -0.031439662 -0.100531876 -0.12030992 -0.053237557
000210 6f df 8a 3d 36 35 c1 bd f0 9d 23 bc 20 77 16 bd
       0.06780898 -0.09433977 -0.009986386 -0.0367347
000220 f3 f4 f2 3a 45 d5 6b 3c 7e e5 c5 bd 01 c3 12 3e
       0.0018536135 0.014394109 -0.09662913 0.143322
000230 e0 cb e9 3c 60 a5 fc bc 5f 9a 9b bc 5e 89 86 bd
       0.028539598 -0.030840576 -0.018994508 -0.065691695
000240 16 94 d2 3d a0 4c 3f bc 1c e5 19 bd 80 94 d8 3a
       0.102821514 -0.011675984 -0.03757201 0.0016523749
000250 e2 28 aa 3d 7e 78 de bd af 8e 24 3d c6 bb 01 3d
       0.08308579 -0.10862826 0.040175136 0.031673215
000260 82 c4 08 bd 48 c0 b5 bc 78 34 87 3d 2e 2e f4 3d
       -0.03339053 -0.022186413 0.066018045 0.119228706
000270 87 94 20 bf 08 76 4c bd 0d e0 b2 3b 59 7f 16 bd
       -0.62726635 -0.04991725 0.005458838 -0.036742542
000280 36 c4 f4 3b e8 0a 50 bd d2 ff 88 bd 8e 2c d0 3d
       0.007469679 -0.05079165 -0.06689419 0.10164748
000290 e0 d0 32 3d 93 59 76 bf 42 a1 8e 3b da 97 88 bd
       0.04365623 -0.9623043 0.0043527195 -0.066695884
0002a0 a0 6d 92 bb 09 3c 08 bc 58 4e 90 3c 98 07 be 3c
       -0.0044686347 -0.008315095 0.017615482 0.02319698
0002b0 40 4d 57 bd 14 16 ed bd 2c 1f 87 be 34 ef 77 bd
       -0.052563906 -0.11576477 -0.2639097 -0.060530856
0002c0 74 e0 7f 3d 65 d9 1c 3d d5 ac 7f be ff 25 54 3d
       0.062469915 0.03829326 -0.24968274 0.05179405
0002d0 44 f7 a2 3d ab 08 02 3d 07 22 8b 3d e4 26 a7 3d
       0.079573184 0.031746548 0.067935996 0.08161715
0002e0 e2 af 39 bd 60 12 a4 3c 60 c3 92 bd 72 ca 9a bd
       -0.04533375 0.020028293 -0.07166171 -0.07558145
0002f0 70 1a c1 3c 6c 4b 83 bd 04 9c 15 bd a0 b4 99 bc
       0.023572177 -0.0641087 -0.03652574 -0.018762887
000300 42 76 b9 bd a9 e6 c5 be 00 15 aa ba 40 22 df bd
       -0.09055759 -0.38652542 -0.0012976229 -0.108952045
000310 35 17 c9 3c 57 fb ca bd 00 6f d5 bc 12 76 81 3d
       0.024547199 -0.099112205 -0.026053905 0.06321348
000320 95 64 f4 bd 5c da 64 3d 40 55 e2 bb de 21 c9 3d
       -0.11933247 0.055872306 -0.0069071352 0.09820913
000330 3e 86 36 be 60 86 31 3c 63 05 f4 bd 6c bd fd bd
       -0.17824647 0.01083526 -0.1191509 -0.12389645
000340 40 e0 95 3c 9a 59 82 be a5 c1 50 be 30 86 da bd
       0.018295407 -0.25458986 -0.2038637 -0.106701255
000350 40 fe 03 bc 58 98 68 3d 2c 17 57 bd 16 c0 f6 bc
       -0.008056223 0.05678591 -0.052512333 -0.03012089
000360 67 ee 40 bd d0 e8 8a bc b7 8e dc bd 38 c3 cb 3c
       -0.04710236 -0.016956717 -0.10769408 0.024873361
000370 12 6b 0e 3e 0a 3d eb 3d ce 39 88 bb 45 d0 e6 be
       0.13908032 0.11486252 -0.0041572815 -0.45080772
000380 0f 46 43 3c 0b 21 35 bb 38 64 61 3d a2 fa a2 3d
       0.011918559 -0.0027638103 0.055027217 0.07957961
000390 64 52 1a 3d b4 c6 8c bf 18 0b 43 bd 8e 0f 7b bd
       0.03767623 -1.0998139 -0.047618 -0.06129413
0003a0 88 d2 c0 bd 63 29 a4 be 2c e6 1f 3d d4 f3 6a 3d
       -0.09415156 -0.32062826 0.03903787 0.05736144
0003b0 70 bd 5d 3d bc dd d7 bd 2d 25 e5 3e 00 b4 3b bc
       0.05413574 -0.10540339 0.44754925 -0.01145649
0003c0 d4 45 6f 3d 8d 0e 9c 3e 8c 4f fc be 70 2d 16 3e
       0.058416203 0.3047985 -0.4927944 0.1466577
0003d0 f1 c2 9c be f5 a6 b5 3e fc 86 8a 3c 48 4d 07 3d
       -0.30617478 0.3547894 0.016910069 0.033032686
0003e0 0c 2c ca bd 32 e6 2a bf ce 30 fa 3d f8 a6 cf bc
       -0.098716825 -0.667575 0.1221634 -0.025348172
0003f0 e8 77 85 bc 38 14 d3 bc 56 db be 3c d1 08 04 bf
       -0.016292527 -0.025766477 0.023297947 -0.5157595

models.524287.layers.3.bias f4 [32]
000000 47 75 20 3e 9b 5f 06 3f 0a 4e 56 3e 42 90 b5 be
       0.15669738 0.5248963 0.20928207 -0.35461622
000010 55 78 f3 3c 64 a6 1a bd 4a 0d 32 3e 40 18 fb 3e
       0.029720465 -0.03775634 0.17387882 0.4904194
000020 32 91 ba bd 53 51 8d 3e d9 21 50 bd f7 33 93 3c
       -0.09109725 0.27601108 -0.05081353 0.017969115
000030 4d 01 65 3d 65 c1 5f bc 81 b3 1c 3e e7 af de be
       0.055909444 -0.013656949 0.1530285 -0.43493578
000040 03 2b 12 3f 31 92 67 3e 64 c4 c0 3d cf 72 92 3e
       0.5709688 0.22614361 0.094124585 0.28603217
000050 0c 91 47 be cb 0e 6c 3e 78 54 94 3d b4 b8 61 3d
       -0.19488925 0.23052518 0.07242674 0.055107787
000060 1b ea ee 3d bc f5 3e 3e 85 ea 3a 3e 29 6f d4 3c
       0.11665746 0.18648428 0.18253525 0.025931912
000070 06 a5 90 3d 62 5d c7 bb c9 d9 a4 3e f2 4d 6a 3e
       0.07062726 -0.00608413 0.32197407 0.22881296

models.524287.layers.6.weight f4 [16, 32]
000000 f7 31 2e bf 2d 09 02 3c 9e c3 b9 3d c1 0c 3d bd
       -0.6804499 0.007936758 0.09070514 -0.04615474
000010 33 83 b2 bc c0 93 d2 bd 79 ec fb 3d de 08 af 3d
       -0.021791076 -0.10282087 0.12300963 0.08546613
000020 3e bf 18 be 49 13 a4 3d cf 65 39 3e 7f 58 91 bd
       -0.14916703 0.08011491 0.18105243 -0.070969574
000030 fe d4 4e bf ed 27 dc bd 0f cb 14 3d 67 90 ac be
       -0.8079375 -0.10749803 0.036326464 -0.3370392
000040 56 bc 26 3e b9 5e 67 3e d8 6a 40 bc 52 bb 3a bf
       0.16282782 0.22594728 -0.011744224 -0.7294208
000050 7d 67 e4 3d d2 6f 2c bf 82 8a 24 bd 94 a4 92 be
       0.11152551 -0.67358124 -0.040171154 -0.28641188
000060 40 64 e1 3c 37 82 45 bf 7a 24 6a bf d4 06 de be
       0.027513623 -0.7715182 -0.9146191 -0.43364584
000070 d9 03 f9 3d 15 38 80 bf b7 9a 93 3d 88 37 4e bf
       0.12158937 -1.0017115 0.07207244 -0.80553484
000080 6f 76 09 bf b8 64 6f 3e 32 98 3a 3e 8e 56 f1 bc
       -0.5369634 0.23378265 0.1822212 -0.029460218
000090 ee db 42 3d f9 e5 07 3e 02 ef 15 3e 9f d3 3a 3e
       0.047573023 0.13271321 0.14641955 0.1824479
0000a0 5e c0 0d bc 58 df 02 3c d4 2b 3c 3e 84 d2 b4 3d
       -0.008651821 0.00798782 0.18376094 0.08829215
0000b0 11 ae c8 be 64 32 12 3e 0e a3 b5 3c 91 a3 c4 be
       -0.39195302 0.14277035 0.022172477 -0.3840604
0000c0 28 54 78 3e 46 17 9b 3d b9 67 c5 3c b4 10 c7 be
       0.24250853 0.075727984 0.02409731 -0.3887993
0000d0 73 34 41 be 3f 9f 18 bf 55 fa b5 3d 1b 01 ac be
       -0.18867664 -0.5961799 0.08885638 -0.33594593
0000e0 0e 23 19 be 16 9c fc bd a1 de 4f be ff 6e df be
       -0.14954779 -0.123344585 -0.2029977 -0.4363937
0000f0 68 84 b0 3c ba 47 ed be af 5a 59 3e e5 2f d1 be
       0.021547511 -0.46343786 0.21226 -0.40856853
000100 ea 0d 04 bf dd 0a 56 3e da e6 a4 3c 48 a3 08 3d
       -0.5158373 0.20902582 0.02012961 0.033358842
000110 e0 ed 87 3b 4b 96 ea bd ea 20 18 3e a8 4e 1b 3e
       0.00414823 -0.11454447 0.14856306 0.15166724
000120 70 14 7e 3e 64 87 aa 3d 52 4f 65 3e be 1d 16 3e
       0.24812484 0.08326605 0.2239354 0.14659783
000130 c6 e4 b2 be fd 46 64 3e a1 0a 62 3e b8 bf 05 bf
       -0.34940165 0.22292705 0.22074367 -0.52245665
000140 fe 99 dc 3d 32 dd 14 3e 34 4e 75 3b ce 4f 9a be
       0.10771559 0.14537504 0.0037430646 -0.3013901
000150 9d a7 dd 3d b7 42 0f bf ae 9e d0 3b 50 bf d0 be
       0.10822985 -0.55961174 0.0063665723 -0.4077096
000160 23 95 95 3d cf f4 12 bd 9b 69 99 be f7 87 1a bf
       0.07303836 -0.035878 -0.29963383 -0.60363716
000170 00 37 ec 3c e8 c5 cb be 49 49 54 3e 3a 13 8c be
       0.02883482 -0.39799428 0.20731081 -0.2735842
000180 1e 36 0e bf b9 93 32 3e 44 da ef 3d 97 3c 15 be
       -0.55551326 0.17439164 0.11711553 -0.14573894
000190 22 52 9d bc 15 9b e5 3b 8f ab b0 3d ee 8d f9 3d
       -0.019204203 0.0070070126 0.08626472 0.12185274
0001a0 09 2d 2b 3d b1 fd 05 bd 62 70 77 3e 69 12 d5 bb
       0.041790996 -0.032712642 0.24163964 -0.006502439
0001b0 fd 2a 3f be 65 2b 98 bc 31 fb c3 3d 96 d0 ab be
       -0.18668742 -0.01857538 0.09569395 -0.33557576
0001c0 3e fa 4c 3e 4d 78 c0 3d 76 5f 81 3d 56 54 88 be
       0.20017335 0.093979456 0.06317036 -0.26626843
0001d0 e9 79 4d be e1 9e 00 bf 67 09 ae 3d 39 f4 8e be
       -0.20066036 -0.5024243 0.08497887 -0.27920702
0001e0 0c a9 26 bc 90 c9 bb be 34 f6 e4 bd 0e c8 d9 be
       -0.01017214 -0.36677217 -0.11179772 -0.42535442
0001f0 2a b7 20 be 6a 48 09 bf 10 18 d2 3d ed e3 f0 be
       -0.15694872 -0.5362612 0.10258496 -0.47048894
000200 47 3b 1e bf 4e 84 98 3d 0d 3f d4 3d ec a9 b9 bb
       -0.618092 0.0744711 0.103635885 -0.005666008
000210 e4 3f c5 bd c9 71 b6 bd d0 59 f2 3c cb 5b 39 3e
       -0.09631327 -0.089084215 0.029583842 0.18101422
000220 94 6e 4c 3b 99 ca 32 3e f0 4b aa 3c 12 02 fb 3d
       0.003119384 0.17460097 0.020788163 0.12256254
000230 0b d0 27 bf ed 84 94 bd c8 cb 9a 3d aa bc c0 be
       -0.65551823 -0.07251916 0.075583994 -0.3764394
000240 f5 5f 46 3c 1e b4 85 3e 54 35 2e be 36 5b 1e bf
       0.012107839 0.2611398 -0.1701253 -0.61857927
000250 a2 7e 3b 3e 4a 56 58 bf 68 13 43 bc 44 68 8a be
       0.18310025 -0.84506667 -0.011906482 -0.27032673
000260 42 b3 12 bd 37 dc 2e bf 41 11 38 bf fb 26 09 bf
       -0.035815485 -0.6830477 -0.7190133 -0.53575104
000270 13 ae 28 bd 7b df 40 bf 3d 41 5b 3e 07 67 5d bf
       -0.041181635 -0.75341004 0.21411605 -0.8648533
000280 70 11 b4 3e 28 33 19 3e df 9f 02 be a7 df 14 bf
       0.35169554 0.14960921 -0.12756298 -0.58153766
000290 83 27 2f be 0b f1 8c be 55 26 30 bd 49 10 26 3e
       -0.17104916 -0.2752765 -0.043005306 0.1621715
0002a0 5d eb a5 be 94 77 95 3e c4 63 d7 be ef fe 11 be
       -0.3240613 0.29192793 -0.42068303 -0.14257406
0002b0 b6 4f 0c 3e a0 1b 94 be 59 74 ff bd e3 b8 27 3f
       0.13702282 -0.28927326 -0.124733634 0.6551649
0002c0 7e 4f 9c 3d 77 1d 8e 3d 88 7b 95 bd f1 6a e6 3d
       0.076323494 0.06939214 -0.07298952 0.11250866
0002d0 9c 76 11 be 59 36 0f 3f 6a 74 28 be 26 4a b8 3e
       -0.14205402 0.559423 -0.16450658 0.3599407
0002e0 00 6b 91 be 1a 40 5e 3d fb c3 01 3e 6d 22 04 3f
       -0.28401947 0.05426035 0.12672417 0.5161503
0002f0 a2 68 26 be 26 32 44 3c 52 57 66 3e dd 8e 04 3e
       -0.16250852 0.011974847 0.22494248 0.12945123
000300 db 5c 55 bf 6d c9 18 3e e3 33 bc 3a 09 1d 84 bd
       -0.8334481 0.14920588 0.0014358725 -0.064508505
000310 71 94 2a bd 1e b7 f0 3c 82 49 1d 3d 02 e3 5c bc
       -0.04164547 0.029384192 0.03840018 -0.013481857
000320 4c 3e 02 be b9 98 02 bc 8e c7 eb 3d 1a f9 81 bd
       -0.12719077 -0.007970982 0.115126714 -0.063463405
000330 2a 9a 05 bf 8d 40 59 be e6 56 a5 3d 48 59 73 be
       -0.5218836 -0.2121603 0.08073215 -0.23764527
000340 0c c2 4a 3e 32 0b 65 3e be d9 c3 3d 9d a3 c1 be
       0.19800586 0.22367552 0.095630154 -0.3782014
000350 70 fc e8 bd b1 98 3b bf a2 bd 31 bd d2 9b 4a be
       -0.11376274 -0.73279864 -0.04339374 -0.19786003
000360 67 9a 32 be ce d1 d5 be 84 c0 0c bf 03 31 00 bf
       -0.17441712 -0.4176163 -0.54981256 -0.50074786
000370 57 8a 15 3e b1 9d 4c bf 1d 51 2d 3e f6 6e 30 bf
       0.14603554 -0.7992812 0.16925474 -0.6891931
000380 f3 aa 00 bf fe 06 2c 3e d8 37 1e 3d 3a 36 80 3c
       -0.5026085 0.16799542 0.038627476 0.015650857
000390 e2 57 e3 bd 8a f2 b1 bd 33 d3 bf bd a5 f3 28 3e
       -0.11100747 -0.08688839 -0.09366455 0.16499193
0003a0 a3 ea 8a 3d 7d d3 06 3e d9 59 2e 3e f4 e2 92 bd
       0.06783035 0.13166614 0.17026462 -0.07172194
0003b0 23 1f 8f be ea 83 47 3d d4 85 3e bc 11 85 d8 be
       -0.27953443 0.048709787 -0.011628587 -0.42289022
0003c0 cd ba 16 bc 9d c1 83 3d 26 c7 92 3d b7 02 aa be
       -0.00919981 0.06433413 0.07166891 -0.33205196
0003d0 25 05 e6 bd 6f 60 27 bf 6d 8e d3 3c 83 f8 ca be
       -0.1123145 -0.6538152 0.02582475 -0.39642724
0003e0 50 ac 32 3d b9 d8 e4 bd b8 f0 e1 be c9 1b c0 be
       0.04362136 -0.11174149 -0.44128966 -0.37521198
0003f0 ef f8 fd 3c 76 ff fe be 0e e0 07 3e 91 25 f2 be
       0.03100249 -0.49804276 0.13269064 -0.47294286

models.524287.layers.6.bias f4 [16]
000000 3c 43 1f 3f 41 17 c1 3e ec 25 e9 3e 42 1b fd 3e
       0.62211967 0.37713054 0.45536745 0.4943486
000010 60 0b 17 3f 6f ba 6a 3e 31 76 08 3f 11 0d 17 3f
       0.5900173 0.22922681 0.53305346 0.5900431
000020 92 fd da 3e bf 13 07 3f 66 44 c5 3e 13 38 8e 3e
       0.42771584 0.52764505 0.38528746 0.27777156
000030 9d 30 7e 3e ab 32 3c 3e 39 ba 43 3e 49 70 6b 3d
       0.24823232 0.18378703 0.19114007 0.05748013

models.524287.layers.9.weight f4 [1, 16]
000000 79 15 3e 3f b5 32 ca 3e c3 74 b2 3e 2e 4a 06 3f
       0.74251515 0.3949181 0.34854707 0.5245694
000010 38 cf 37 3f 76 83 0b bf ca d5 5f 3f 75 06 1f 3f
       0.71800566 -0.5449747 0.8743559 0.6211923
000020 74 3c d5 3e fb d3 cc 3e c5 c2 10 3f 6f a6 e8 be
       0.41647685 0.40005478 0.56547195 -0.4543948
000030 01 c5 27 bf 5d 8d e0 be 6d 46 e5 be f9 bd 1b bf
       -0.6553498 -0.43857852 -0.44780293 -0.6083675

models.524263.layers.0.weight f4 [64, 17]
000000 c7 25 32 be 85 4d 54 be 10 9e ef bc f8 00 40 3d
       -0.17397223 -0.20732696 -0.029250175 0.046875924
000010 e6 2d 3d 3e c8 c8 3d be 30 50 78 bd 4e 3d 0e 3e
       0.1847454 -0.18533623 -0.060623348 0.13890573
000020 48 95 92 bd 90 9a 87 3c 98 cd a7 3d 6a 6f 57 3e
       -0.071573794 0.016553193 0.08193511 0.21038595
000030 a0 75 d4 3d a8 b4 06 be 8b 3f 05 be 08 ea 99 bd
       0.10373998 -0.13154852 -0.13012521 -0.07515341
000040 49 af 3f be 07 51 1e be 4c a0 34 3c f1 2a 51 bb
       -0.1871921 -0.15460597 0.011024546 -0.0031916464
000050 08 6b 8a 3f da 6e 31 3f c4 ae d9 3b 12 22 21 3e
       1.0813913 0.6930977 0.006643148 0.15735653
000060 fa 6b 80 3d 84 98 21 bf 56 37 a0 bd ee bc ba 3c
       0.06270595 -0.63123345 -0.078230545 0.022795167
000070 2f 96 0c 39 a5 15 39 3c eb b1 04 bc ea 17 38 bd
       0.00013407388 0.011296664 -0.00809906 -0.04494468
000080 b3 29 a7 3d 22 f4 0d bc 36 32 49 3e b0 9c 55 bd
       0.0816225 -0.008664163 0.1964806 -0.052151382
000090 82 68 a4 bd 98 df 15 be 0e 54 2d 3e 98 6b dd 3d
       -0.08027746 -0.14636075 0.16926596 0.108115375
0000a0 80 b3 c8 3a 77 95 04 be 58 0e 3e 3e 40 f4 58 3d
       0.0015312284 -0.12947641 0.18560159 0.05296731
0000b0 5c 77 b7 3d 78 23 4b 3d 36 8c 5f 3e c0 66 20 be
       0.08958313 0.049594373 0.2183083 -0.15664196
0000c0 86 5b b8 bd c0 e1 0f be 00 ef 5d 3d d6 97 77 be
       -0.09001832 -0.1405096 0.054183006 -0.24179015
0000d0 de 88 6e 3e f0 cb 12 bc 38 25 88 bc 8b 01 f2 bd
       0.23294398 -0.008959755 -0.01661931 -0.118167005
0000e0 20 2f 67 bd 14 5e 58 bd 62 54 04 be 26 4d 10 3e
       -0.056441426 -0.052824095 -0.12922814 0.1409193
0000f0 ac e3 fb 3d 60 86 5f bd 78 38 39 bd 3b e1 5c be
       0.12299284 -0.05457151 -0.04521987 -0.21570294
000100 a4 40 23 be b2 d3 1a be 6f cb 03 be ee 06 29 be
       -0.15942627 -0.15119818 -0.12870573 -0.1650655
000110 5b c9 0e c0 00 a1 e5 3c c9 a9 e9 ba 96 fb 5d 3e
       -2.2310398 0.028030872 -0.0017827089 0.21678004
000120 48 d9 94 3d 59 05 a0 bc 56 b0 7b 3d 3b b8 2a bc
       0.072680056 -0.0195338 0.061447464 -0.0104199005
000130 0b af 4c bf 0d d3 84 bd 11 81 78 3d e2 fe 36 3b
       -0.79954594 -0.06485567 0.060669962 0.0027922918
000140 73 21 ab 3c 6c 05 bb bb 8d cb 1a bd 47 6b b4 ba
       0.020889973 -0.0057074334 -0.037791777 -0.0013764881
000150 50 f9 40 bd cf c4 b0 be ab b3 7a 3e c0 65 eb 3d
       -0.047112763 -0.34525153 0.244826 0.11494017
000160 0b 33 9d 3e be 8f 3c 3e d2 f2 05 be 8c 9d 89 3e
       0.30703005 0.18414208 -0.1308091 0.2687801
000170 24 d4 3d be 56 3d 40 bf 8a 33 38 be b6 69 e6 3d
       -0.18537956 -0.7509359 -0.1798841 0.112506315
000180 e7 b0 4e 3b 02 b3 d0 3d dc a5 91 bd 29 2e 3b be
       0.0031538547 0.10190393 -0.07111713 -0.18279327
000190 47 f6 0d 3e bb 54 c4 3d 9c a7 60 be 2a d0 0f 3e
       0.13863479 0.095864736 -0.21938938 0.14044252
0001a0 ca a8 a1 bd 97 52 18 be 6c 2c 19 3e 08 57 88 bd
       -0.07893522 -0.14875256 0.14958352 -0.06657225
0001b0 9a bb 31 be 08 39 7c 3d e2 92 bb bd de 4e 21 3e
       -0.1735672 0.061577827 -0.09158875 0.15752742
0001c0 00 61 73 3b 32 a4 13 be 69 a0 21 be 48 2c 78 be
       0.0037136674 -0.14418104 -0.15783848 -0.24235642
0001d0 60 2e 9c bc 8c 85 d9 3d 9c c0 73 3e df 89 07 40
       -0.019065082 0.10621175 0.23803943 2.11779
0001e0 1a 8f 9d bc 77 a4 7b bc 15 ed 51 3e b7 5d 10 3e
       -0.019233275 -0.015359036 0.20500596 0.1409825
0001f0 2c 28 07 3e 72 cb 08 3e 29 92 aa 3d 6d 16 3f 3f
       0.13198918 0.13358858 0.08328659 0.74643594
000200 03 a4 ff bc 36 3d af bd 9a 10 06 3d ee d2 fe bc
       -0.031206137 -0.08556597 0.032730676 -0.031106438
000210 f3 07 82 3b e4 b9 f9 bd 1f 7c f3 3d fb 3f 48 3c
       0.003968233 -0.12193659 0.118889086 0.012222285
000220 a8 55 35 be 64 06 3a 3e f6 c1 b9 bd 52 b2 cc bd
       -0.17708457 0.181665 -0.09070198 -0.099949494
000230 80 91 83 3d c4 40 8e 3d 8e e8 40 3e 80 f2 27 be
       0.06424236 0.06945947 0.18838713 -0.164011
000240 14 85 00 bd 47 69 70 be 70 53 30 3e ec d6 d0 3d
       -0.031376913 -0.2347766 0.17219329 0.10197243
000250 5c 0f 06 bd 5a 6e 07 be 7b 63 74 be 54 bf 23 be
       -0.03272949 -0.1322569 -0.23866074 -0.15990955
000260 04 23 8a 3d 2e 34 94 bd ba 62 3b 3e 80 bf 87 ba
       0.0674496 -0.07236515 0.1829938 -0.0010356754
000270 0a e4 6f 3e 7e ee c2 bd 4c ee 1c 3e 96 b0 02 be
       0.23426834 -0.09518145 0.15325278 -0.12762675
000280 56 65 05 be 20 bb fe 3c 14 ca 92 3d ad f4 25 be
       -0.13026938 0.031095088 0.071674496 -0.16206618
000290 60 db 3b 3d 6a ae 6a 3e 94 2c 00 be e0 1f 65 bd
       0.04586351 0.22918096 -0.12517005 -0.0559386
0002a0 e6 79 49 3e f0 ac d0 bd ba 00 07 3f b6 3c 27 3d
       0.19675407 -0.10189235 0.52735484 0.040829383
0002b0 b5 e9 44 bc 84 22 44 bf 8f 73 0e bf d9 42 fc bd
       -0.012018611 -0.76615167 -0.5564508 -0.12317438
0002c0 90 9b ee 3d 18 ef 0e be 17 21 c8 3e 18 35 9c bc
       0.11650765 -0.13958395 0.39087746 -0.019068286
0002d0 88 59 08 3e 57 ad 2f bc 22 40 28 be cb 79 5b 3c
       0.13315403 -0.01072248 -0.16430715 0.013395737
0002e0 c2 cf 74 3c b0 af e6 3d b7 12 38 3e aa 0e 94 3f
       0.014942111 0.112639785 0.17975889 1.1566975
0002f0 88 52 80 3c af fe ac bb 0c 6e 8b bc 13 66 12 bc
       0.015664354 -0.005279384 -0.017020248 -0.008935469
000300 eb 9b 44 3c bd 23 89 3b c4 f8 1b bb 7f de 92 3f
       0.012000064 0.0041851685 -0.00237994 1.147415
000310 98 f9 0b 3c 9e 10 db ba 7d 74 1b bd 32 03 a7 bc
       0.0085433945 -0.0016713326 -0.03795289 -0.020387266
000320 c0 72 4c 3b 34 57 14 3d 98 3d 18 bd 69 9b 44 3c
       0.0031196326 0.036215976 -0.037168115 0.011999943
000330 19 bc 6e be c0 2d 4a 3c 76 7b 5d 3e a4 77 f9 3d
       -0.23313941 0.012340009 0.21629128 0.12181023
000340 c9 31 50 be 50 e3 f6 3d 10 75 00 bc 78 d8 82 bc
       -0.20331492 0.12055075 -0.00784041 -0.015972361
000350 6a 9b 6d 3e a2 07 17 3e f6 a4 60 3e 90 0e b6 3c
       0.23203817 0.14749005 0.21937928 0.02222374
000360 42 04 14 be 8b 0c 71 be 14 cd 6c bd 42 34 24 be
       -0.14454749 -0.23539941 -0.057812765 -0.1603556
000370 72 26 16 be e0 35 a3 3d a2 da 24 3d 06 08 2d be
       -0.14663103 0.0796926 0.040247567 -0.16897592
000380 56 8d 4f 3d 25 c1 e2 3d f0 1d 5e 3e 7d 3a 2c be
       0.050671898 0.11071996 0.21691108 -0.16819187
000390 ce e7 78 be ca ad 4d be 3d e2 42 3e c7 97 b4 3c
       -0.24307176 -0.20085827 0.19031616 0.02204503
0003a0 61 bd a1 3c d3 f7 ad bd b2 c2 4e bd fd 51 e5 3d
       0.019743623 -0.08494534 -0.050478645 0.11197279
0003b0 61 00 10 3e 74 19 04 bd 1b 65 a7 bf 65 91 d2 3a
       0.14062645 -0.032250836 -1.307773 0.001606506
0003c0 33 b0 10 ba 66 fb 81 bf 0e f0 e4 be 09 60 60 3d
       -0.000551942 -1.0154846 -0.44714397 0.054779086
0003d0 1e ec f4 3d 4f 7d c9 3c f1 f9 3e bf 7f 42 81 bd
       0.11959098 0.024595885 -0.7460013 -0.06311511
0003e0 5e 0c fa bb 0a ed bc bb 5e 3b 92 3c 3f a2 00 3b
       -0.007630869 -0.005765562 0.017850574 0.0019627956
0003f0 e3 45 0f 3d fc 5b 93 3b 38 01 45 3a 69 ed 0f 40
       0.03497876 0.0044970494 0.0007515135 2.2488654

models.524263.layers.0.bias f4 [64]
000000 c4 88 05 bd 55 52 95 3c 18 7b 4a 3e 21 e7 39 be
       -0.032601133 0.018227736 0.19773519 -0.18154575
000010 de b6 eb bd 1a 56 7a be 30 d0 58 be d8 8b f4 3d
       -0.115094885 -0.24446908 -0.21173167 0.119407356
000020 24 08 8a 3d c0 99 6a 3b af 9e d5 bd 42 f1 3d be
       0.06739834 0.0035797209 -0.10430657 -0.18549064
000030 00 9b a8 bd 49 ee 50 bd e7 f7 fb bd d4 dc 3b be
       -0.08232689 -0.051008496 -0.12303143 -0.18345958
000040 cf 93 10 3e c0 4f 4b bd 10 d8 b6 3c 06 34 32 3e
       0.14118885 -0.049636602 0.022319824 0.17402658
000050 c4 15 38 3e 0f ba 8f bd 3a fb 51 be 76 92 38 3e
       0.17977053 -0.0701791 -0.20505992 0.1802462
000060 03 3d 16 be 7a 65 49 3e 4b 0c 84 bd 80 13 2d bb
       -0.14671712 0.19667616 -0.06447657 -0.0026409328
000070 3c b7 18 3c df 10 03 bd 82 ce 3e 3e 73 d7 80 bd
       0.00932103 -0.03199851 0.18633464 -0.06291094
000080 6c 41 2f 3e a0 51 01 bd 70 30 36 3e 3c b2 41 3e
       0.171148 -0.031571984 0.17791915 0.18915647
000090 4e 80 4a 3e ba ec 09 3e 75 01 05 3e fa 3f 9c bd
       0.19775507 0.1346921 0.12988837 -0.0762939
0000a0 18 08 53 be 11 06 1f 3e c7 93 71 be 27 cb 3b be
       -0.20608556 0.15529658 -0.23591529 -0.18339215
0000b0 dc ed 22 3e 20 e8 27 bd 1c 14 8e bd 70 1b dc 3d
       0.15911049 -0.040992856 -0.06937429 0.10747421
0000c0 8f 61 4e be 0e 42 0b be a0 fb 46 be b0 52 4a 3e
       -0.20154403 -0.13599417 -0.19431925 0.19758105
0000d0 f1 b0 29 be 86 ee 9d bd d8 bb 6c 3e 12 fd e5 bd
       -0.16571404 -0.0771151 0.23118532 -0.1122991
0000e0 82 6c 56 be 31 4e 56 be 28 ca 73 3d 65 56 5c 3d
       -0.2093983 -0.20928265 0.059518963 0.05379333
0000f0 78 e1 86 be 3f ac c8 3d a2 1d 5e 3d 2c ce ad be
       -0.26343894 0.09798478 0.05422748 -0.3394636

models.524263.layers.3.weight f4 [32, 64]
000000 78 27 a7 bd 5b a5 5d 3c 8e 52 83 3d ca 1d e2 bd
       -0.08161825 0.013528193 0.064122304 -0.11040838
000010 ac fa c0 be f1 10 55 3d 90 f7 4a bc 0f 43 13 3e
       -0.37691247 0.05201811 -0.012388125 0.1438105
000020 ac 85 21 bd b0 ea 27 bc 99 5a ae bd cd d3 36 be
       -0.03943412 -0.010248825 -0.08513374 -0.17854233
000030 88 69 f2 bc e6 ab c9 bd 74 1c 36 3e eb 5f dc 3d
       -0.029591337 -0.0984724 0.17784292 0.107604824
000040 25 79 c1 bd 48 3a 8b 3d 87 3a 9e be 14 cd 7d bd
       -0.094469346 0.06798226 -0.30904028 -0.061963156
000050 b0 a7 1f 3c b4 d4 c2 bd 60 6f dc bd b5 2f 7f 3d
       0.00974457 -0.09513226 -0.107634306 0.062301356
000060 26 f3 ac bd a0 65 cc 3d f2 0b 05 3d 7a a7 f7 3d
       -0.084448144 0.09980321 0.032482095 0.120924905
000070 e1 e3 c2 bc 54 ac eb 3d 00 62 c2 bc db 79 07 3c
       -0.023790302 0.11507478 -0.02372837 0.008268799
000080 a9 c1 0d 3b e0 b3 4d 3d f0 07 65 bd 4c d9 96 bd
       0.0021630323 0.05022037 -0.055915773 -0.07365665
000090 88 9d 81 3d e1 e0 7a bd 87 d3 48 3d 4a d1 b2 3d
       0.06328875 -0.061249617 0.049029853 0.08731325
0000a0 cd 8d 6a bd 4a 45 cf bd 49 d5 df 3c e4 47 91 bd
       -0.057264138 -0.10120638 0.027323382 -0.0709379
0000b0 01 49 80 bd 9e df a9 bd 28 bf ee 3c ea 4f 91 3d
       -0.062639244 -0.08294605 0.029143885 0.070953205
0000c0 10 2d 2b bd 04 9c 24 bd 10 d2 79 bd a4 16 ca bd
       -0.04179102 -0.04018785 -0.060991347 -0.098675996
0000d0 67 66 81 be 90 b1 da 3d 08 cd f3 bc c2 2a 4d 3e
       -0.2527344 0.106783986 -0.029760852 0.20035842
0000e0 d4 b5 84 3c f3 70 1f be 18 b2 83 3d 72 74 90 3d
       0.016199984 -0.1557043 0.06430453 0.0705346
0000f0 91 f9 ce 3b 93 c9 d4 bc f5 e5 d3 3b 1e 2e 32 bd
       0.0063163717 -0.025975024 0.006466622 -0.043501012
000100 14 48 9c 3d 84 e7 48 bc 20 4a 51 3d 58 4c 0f 3d
       0.07630935 -0.012262229 0.05109608 0.034984916
000110 64 8b a3 be 30 ba bb bd 08 f6 b2 3c 57 11 fb 3b
       -0.31942284 -0.09166372 0.021845832 0.007661979
000120 06 a1 84 3d c0 c0 49 3b 87 b1 57 3d f9 38 17 3f
       0.06476025 0.0030785054 0.052659538 0.5907131
000130 52 95 8a 3d b5 48 e4 bd 11 f3 11 bf 55 67 b3 3d
       0.06766762 -0.1114668 -0.57011515 0.087599434
000140 cc 66 82 bd 8c 33 a7 3d 1c e9 83 bd 8a b3 b4 bd
       -0.06367263 0.08164129 -0.064409465 -0.08823307
000150 10 94 d1 bd 96 fa 9a bd 7f 8b 0e be 56 cb 73 3e
       -0.10233319 -0.07567327 -0.13920401 0.23808035
000160 ec 42 7e 3d 3e 39 c7 bd 2a b6 3b bd 50 6e f6 3d
       0.06207554 -0.09727715 -0.045828022 0.12032759
000170 ea db 9c be 03 b6 51 3d 04 62 4c bd 09 6e ef 3d
       -0.3063653 0.05119897 -0.049898162 0.116909094
000180 12 11 3c 3d 10 44 57 3d 38 14 60 3d 90 76 cb 3d
       0.045914717 0.052555144 0.054706782 0.099347234
000190 42 f8 de bd ae 4d 12 3d 1a 18 08 be 14 b6 4c 3d
       -0.10887195 0.035718612 -0.13290444 0.04997833
0001a0 80 45 b1 be 11 ce 82 3e f3 36 72 bd d8 d6 49 3d
       -0.34623337 0.2554784 -0.059134435 0.049277157
0001b0 c3 9f be 3d 9c 0d 58 bd 5c a3 f9 3d 7e 35 29 bf
       0.09307816 -0.052747354 0.121893615 -0.6609725
0001c0 00 7c 9f 3b 76 0e b7 bd 33 59 4a be 8e 60 b9 3d
       0.004867077 -0.08938305 -0.1976059 0.090516195
0001d0 3a b7 f3 3e 2e 80 c3 3d 58 79 ca bc fa 7a 34 3e
       0.47600728 0.09545933 -0.024716064 0.17625037
0001e0 98 0a 50 be de 31 90 be 18 35 5d bd d0 16 cc 3c
       -0.20316541 -0.28163046 -0.054005712 0.024913222
0001f0 14 a9 ec 3d fd a1 a9 bb be 2e f6 bd bb 20 4f bd
       0.115556866 -0.005176781 -0.12020634 -0.050568324
000200 20 df 80 bd 84 30 b0 bd 3e 22 91 bd dc 19 1d 3d
       -0.06292558 -0.086030036 -0.07086609 0.03835474
000210 8d 49 70 be 19 01 d1 bd 10 cc af 3c 0c 14 81 3d
       -0.23465557 -0.102052875 0.02145961 0.06302652
000220 10 bc 00 bc 02 53 c4 3d cb 3d 32 3d e4 4a f1 3e
       -0.007857338 0.09586145 0.04351596 0.4712745
000230 2e 8f 91 3d 8e e3 a8 bc 53 df 18 bf 63 cf 3a 3c
       0.071073875 -0.020616319 -0.59715766 0.011401984
000240 80 f4 7b bd fa c6 be 3d a7 4e 82 bb 5e a0 85 3d
       -0.06151247 0.093152955 -0.0039766612 0.06524728
000250 50 45 45 3d 1a e6 89 bc 2c 8f e2 bd 58 ad 59 3e
       0.048161805 -0.016833354 -0.11062464 0.21257532
000260 5a 9c d8 bd 00 b3 99 bc c0 a5 af 3d a0 da dd 3c
       -0.10576697 -0.018762112 0.08576536 0.027081788
000270 6c e9 74 3d 39 7d 28 bc 60 e0 b5 3c d3 67 97 3d
       0.05979292 -0.010283762 0.022201717 0.0739285
000280 0d 0b 06 3e 00 ba 1d bb 98 35 bc bc f0 81 23 bd
       0.13090153 -0.0024067163 -0.022974774 -0.03991884
000290 a0 6b a2 3b c9 cf 91 bd ec c0 3c 3d e6 93 ef 3d
       0.0049566776 -0.0711971 0.046082422 0.11698131
0002a0 c3 79 ba be 41 80 80 3e 49 4d 85 bd 06 9b 93 3d
       -0.36421022 0.2509785 -0.065088816 0.07207303
0002b0 b9 18 49 3c 21 19 bd 3c e0 ee 08 bc 09 7b 07 bf
       0.012273961 0.023083271 -0.0083577335 -0.5292211
0002c0 a2 0e 99 3d 50 99 ba bc 5c 0c 83 bd 60 89 a9 3d
       0.07473494 -0.022778183 -0.06398842 0.08278155
0002d0 3d fa 94 3e e4 8d 06 bd 38 2d de bd 9c 4b 4d 3d
       0.29097167 -0.03285016 -0.108484685 0.050120935
0002e0 66 21 9a bc c0 fa 3b bd d0 26 66 3c 45 a1 83 3d
       -0.018814754 -0.04589343 0.01404734 0.06427244
0002f0 49 c7 0e bb ce 65 bd ba 50 f0 ea 3d 59 29 26 bd
       -0.0021786264 -0.0014449896 0.11471617 -0.040566776
000300 da 28 af bd b2 84 b2 be 1c f9 36 3d 80 97 45 3c
       -0.08552714 -0.34866863 0.044671163 0.012060046
000310 a4 1e 2a be 8a 92 2a 3b 0c 40 56 3d 41 a1 18 3b
       -0.16613251 0.0026027285 0.052307174 0.0023289474
000320 40 c6 57 3c 6a b9 e7 3d 09 3c ad 3c 1d a1 dc 3e
       0.013169825 0.11314662 0.021146791 0.4309167
000330 28 8c 10 bd 2a 61 8f bd 73 32 27 bf 90 0e 45 be
       -0.035289913 -0.070009544 -0.65311354 -0.19243836
000340 7b e7 65 bd 60 19 df bc e5 0e 08 bd 30 3a 90 3c
       -0.05612896 -0.02723378 -0.03321733 0.017605871
000350 ae 54 dc 3d b8 31 e6 bd 15 94 56 bd 30 8f 11 3f
       0.10758339 -0.11239952 -0.052387316 0.5685911
000360 c0 69 d0 bd 7a 25 8c 3d 61 0d bc 3c 88 75 80 3c
       -0.1017642 0.068430856 0.022955598 0.015681043
000370 35 f9 13 3e b5 02 a0 3d b0 7e 60 3d 1f 35 65 bc
       0.14450534 0.07813016 0.05480832 -0.013989716
000380 30 3b 04 be 10 41 16 bc c8 5a 6a bd ea c0 b4 bd
       -0.12913203 -0.009170786 -0.057215482 -0.08825858
000390 b4 2b 44 bd ab 95 74 bd 47 b5 fa 3d 4e 02 d6 bd
       -0.04789324 -0.059713047 0.12241607 -0.10449658
0003a0 cb 2c cc be 43 54 5c 3e 51 7c 54 be e0 67 ec bd
       -0.39877924 0.21516518 -0.20750548 -0.1154325
0003b0 8b a7 ea 3d 2f 41 9d 3c a4 da a5 3d 98 d8 23 bf
       0.114577375 0.019196121 0.08098343 -0.6400237
0003c0 1c 22 80 3d ec 7c ba bd 88 68 11 bd a4 53 ab bd
       0.06256506 -0.09105858 -0.03550008 -0.083655626
0003d0 95 0c e3 3d 50 ea 32 3c d4 a6 57 bd 6d 73 d1 3d
       0.11086384 0.010920122 -0.052649334 0.10227094
0003e0 b5 86 89 bd 28 b8 9b ba 66 a5 b1 bd d0 44 c3 3c
       -0.067151465 -0.0011880444 -0.086741254 0.023836523
0003f0 59 e2 88 bd dd 40 59 bc bd 52 90 bc 56 b2 04 3c
       -0.066837974 -0.0132600935 -0.017617578 0.008099159

models.524263.layers.3.bias f4 [32]
000000 1b fb 39 3e 67 0e 32 be fb a9 37 3d 80 2f 80 3d
       0.18162195 -0.17388307 0.04483984 0.0625906
000010 59 db 3e be 45 36 89 bd 78 ae 92 3e c1 3f fb 3c
       -0.18638362 -0.06699804 0.28648734 0.030670049
000020 fb 38 8a bd 98 2f 05 bd ac 61 7a 3e 69 2b 16 be
       -0.067491494 -0.032516092 0.24451321 -0.14664997
000030 6b a9 cc 3d 06 56 37 be fc 0f 95 3d 10 b1 05 be
       0.099932514 -0.17903909 0.072784394 -0.13055825
000040 3b c3 43 be 86 af 17 3e 27 95 94 3e e6 c5 07 bd
       -0.19117443 0.1481305 0.29020044 -0.033147715
000050 ee 2e 99 3c 5a 7f ad 3d 96 d8 b1 3d 9e 8c 89 3d
       0.018699136 0.08471556 0.086838886 0.06716274
000060 cf 2f 11 3e 88 95 9c bd 48 52 6b 3e ca 9f ea 3d
       0.14178394 -0.07645708 0.22980607 0.114562586
000070 f6 83 9a bd 3a b5 e9 3d fd 73 54 3c c8 6e 08 be
       -0.07544701 0.11411519 0.012967107 -0.1332351

models.524263.layers.6.weight f4 [16, 32]
000000 eb 4f 38 3d f9 43 9f 3e 9f ae d4 3d 96 97 95 3e
       0.04499809 0.31106547 0.10384869 0.29217213
000010 c2 83 77 3e 58 0f 9d 3d 4c b6 0c bd 3f 5d d0 3d
       0.24171355 0.07668942 -0.03435354 0.10174035
000020 c8 7b 74 3e 1b 86 76 be f1 b0 f3 3d f2 92 27 3e
       0.23875344 -0.24074595 0.11898983 0.16364649
000030 87 8d be bb 8d 02 87 3e ff c5 61 be 2c e8 8f be
       -0.005815211 0.26369134 -0.22048186 -0.2810682
000040 9d 71 9f be d0 59 4c 3e 7e 12 d6 bd 33 3c c4 3e
       -0.31141368 0.19956136 -0.10452746 0.38327178
000050 07 65 de 3d 8d e3 99 3d ef 43 49 be 82 9e 66 3e
       0.10859113 0.07514105 -0.19654821 0.22521403
000060 2c e0 6e 3e 91 da 1b 3d d9 42 1a bb ea 1d ee 3d
       0.23327702 0.038050238 -0.002353838 0.116267994
000070 26 30 dd 3d a8 d9 8a 3c 0a 05 8b be d9 8a 56 3e
       0.10800199 0.01694949 -0.27152282 0.20951404
000080 97 ad 1d be ff ff 99 3e d8 65 3f 3e b4 e0 d8 3d
       -0.1539825 0.30078122 0.18691194 0.10589734
000090 9f 68 0e 3e 66 1b 32 3e 72 c7 e7 3d 9d 9a 5f 3e
       0.13907097 0.17393264 0.11317338 0.21836324
0000a0 33 73 ec 3e b6 22 20 be 09 2d 54 bc f4 39 c7 3d
       0.4618164 -0.15638241 -0.01295019 0.097278506
0000b0 08 9b da bd e8 e0 da 3e 36 cf 2e be 96 c5 74 be
       -0.10674101 0.42749715 -0.17071232 -0.23903498
0000c0 96 9d dc be 99 26 75 3d 5b 29 70 bd a1 4b 01 3e
       -0.4308898 0.059851263 -0.05863319 0.12626506
0000d0 5d 19 f0 bc 48 79 1e 3e 1a a1 d5 bd da 4c 72 3e
       -0.02930897 0.15475953 -0.10431118 0.23662129
0000e0 a4 39 84 3e 18 7c a3 3d ea c1 0a bd e9 49 0d 3e
       0.25825226 0.079826534 -0.033876337 0.13797726
0000f0 ca 5c 49 bd 23 e9 03 3e b0 9f 2a be 43 93 4a 3e
       -0.049160756 0.12881903 -0.16662478 0.19782738
000100 cf 62 f0 bd 0d 7a ac 3e 08 91 c9 3d 7b a4 cc 3e
       -0.11737596 0.33686867 0.09842116 0.3996924
000110 40 9d 76 3e 55 70 8e 3e 35 58 b8 bc 94 89 9e 3e
       0.24083424 0.27820078 -0.022502998 0.3096434
000120 e1 37 07 3f 9f b4 25 be eb a1 46 3d 1e bc e3 3e
       0.5281964 -0.16182183 0.04849426 0.4447946
000130 34 09 e3 bc ed 98 ef 3e db 9d b6 bd 85 eb 9e be
       -0.02771435 0.4679636 -0.08916827 -0.31039062
000140 9d 90 d0 be bf 34 9b 3d 62 1d 85 bc 13 a8 be 3e
       -0.4073533 0.0757842 -0.016249362 0.37237605
000150 66 0d 40 3e ca 0e a4 3e b6 5d 5a be a9 de 84 3e
       0.18755111 0.32042533 -0.2132481 0.25951126
000160 48 b1 80 3e 55 51 53 3e 5e 15 8f 3d a1 df 81 bc
       0.25135255 0.20636494 0.06986497 -0.015853705
000170 c9 a0 23 3d 09 bb 8d 3d 07 4d 9f be d1 38 91 3e
       0.03994826 0.0692044 -0.31113455 0.2836366
000180 8f e0 80 3e 60 4b 85 be d9 a0 9d be f7 ec 89 be
       0.25171325 -0.2603407 -0.3078678 -0.26938602
000190 2f 81 37 be 1b 65 8b be cf b9 28 3e 4e 2d 53 be
       -0.17920373 -0.27225575 0.1647713 -0.20622751
0001a0 aa 48 d4 be 87 a3 71 bc f3 4c 36 3e cd fb 86 be
       -0.41461688 -0.014748461 0.17802791 -0.26363984
0001b0 87 22 48 3e 26 70 b1 be a9 49 ae 3d f5 95 14 3e
       0.19544421 -0.34655875 0.08510143 0.14510329
0001c0 b5 b9 8d 3e 7c 3b 46 3d 57 a1 84 3e 5d 5b 90 bd
       0.27680746 0.048396572 0.25904343 -0.07048676
0001d0 91 5c 36 be a5 02 39 3e 95 01 94 be 8e d4 20 3e
       -0.17808749 0.18067415 -0.28907457 0.15706083
0001e0 64 03 72 3d ac 28 39 be 1c 76 45 3e 27 af 2b bd
       0.059085265 -0.18081921 0.19283336 -0.041915085
0001f0 46 eb 3f bd b9 e0 1f 3e 62 df a4 3e d0 06 63 be
       -0.046855234 0.15613069 0.32201678 -0.22170568
000200 ce 50 00 3e 5e 8f c7 be 81 11 9b be f9 41 de be
       0.12530825 -0.38976568 -0.30286792 -0.43409708
000210 9f b6 3b be 8b 51 3c be 35 01 2b 3c 31 db 9e bd
       -0.18331383 -0.18390481 0.0104372995 -0.07756651
000220 ab 93 cb be 9c 87 22 3e fc a6 46 3e 6b 05 da be
       -0.397611 0.15872043 0.19399637 -0.4258226
000230 4d 76 89 3e 63 45 b0 be 2f 6e 0e 3e 64 1e e7 3d
       0.2684807 -0.34427938 0.13909219 0.112850934
000240 13 d4 4d bc 42 00 d1 3d d5 17 9b 3e b8 52 a1 be
       -0.012562769 0.10205127 0.3029162 -0.31508422
000250 e7 c2 a1 bd c2 0a 86 3e cf 98 ad be 28 8f 71 3e
       -0.07898503 0.26180083 -0.33905646 0.23589766
000260 4a 0a b7 3e 51 00 0e be ec 9d 38 3e c1 9d 04 bc
       0.35750037 -0.13867308 0.18028992 -0.008094252
000270 ef 42 2e 3d 93 dd 5b 3e 6c ab d0 3e bf 42 81 bd
       0.0425443 0.21471243 0.40755785 -0.06311559
000280 7b 1b 37 be 10 5c df 3e 99 b4 aa bb dc dd 6b 3e
       -0.17881577 0.43624926 -0.005209517 0.23033851
000290 dc 95 a6 3e 31 db 63 3e cf 8b e2 3c 40 2b 42 3e
       0.3253621 0.22251584 0.027654557 0.18961811
0002a0 c2 e8 07 3f 15 66 4d be db 2b d8 3c 74 9e 3e 3e
       0.53089535 -0.20058472 0.0263881 0.18615133
0002b0 7d c7 f2 bd ee 12 b4 3e 9b 1d e7 bd 64 aa 26 be
       -0.118544556 0.35170692 -0.11284944 -0.16275936
0002c0 cf fa 8b be c0 fa e0 bd 70 43 31 3b 99 97 4a 3e
       -0.2733979 -0.10985327 0.0027048253 0.19784392
0002d0 26 f0 1d 3e 12 14 6d 3d 71 87 84 be 5e f7 cb 3b
       0.1542364 0.05788047 -0.25884584 0.006224557
0002e0 c4 63 30 3d 28 f1 b5 3d 50 f9 83 bc 8e 25 d6 3d
       0.043063894 0.088838875 -0.016110092 0.10456382
0002f0 b3 7f f1 3c fa e9 8f bb 64 c6 4b bd f8 91 56 3d
       0.029479837 -0.004391906 -0.049749747 0.0523853
000300 04 3e 99 3d af 4f 24 3f 5c 82 6e 3d b7 d7 ff 3e
       0.07482532 0.6418409 0.05822979 0.49969265
000310 bb 3c 15 3e 73 d9 98 3e 00 ea ac 3d a8 43 25 3e
       0.14573948 0.298534 0.084430695 0.1613909
000320 26 4f a3 3e 16 83 ab be 5a 1f 44 3e 08 4d 92 3e
       0.31896323 -0.33498448 0.19152585 0.28574395
000330 7e 30 b8 be 08 1b 6c 3e 41 e8 19 be 15 5d cd be
       -0.35974497 0.23057187 -0.15030004 -0.40110078
000340 fa 1f e3 be 19 6e 03 3e 10 0e 3a be 21 f5 d9 3e
       -0.44360334 0.12834968 -0.18169427 0.4256983
000350 03 d6 0f 3e 78 26 58 3e dc 0e f0 bd e9 d2 ce 3d
       0.14046483 0.21108425 -0.11721584 0.10098822
000360 ed 32 e4 3d 5b 6e 50 3d 57 9c 20 3d b0 24 5a 3e
       0.11142526 0.050886493 0.039211597 0.21303058
000370 35 31 ae 3d e9 27 9d 3d 2b 72 f6 bc fa 30 5d 3e
       0.08505479 0.07673628 -0.030083736 0.21600714
000380 df 70 12 be 0f 28 99 3e 7f d6 f0 3d 08 10 9a 3e
       -0.1430087 0.29913375 0.11759662 0.30090356
000390 6a a6 95 3d e9 d2 57 3e de ff e2 3c c6 4c 39 3e
       0.073071316 0.2107655 0.027709898 0.18095693
0003a0 c2 71 f0 3e 59 d0 60 be be 92 cd bd 6c 94 9a 3e
       0.4696179 -0.21954478 -0.100377545 0.30191362
0003b0 06 3e 75 be b0 ea 12 3f df 04 27 be 58 75 9a be
       -0.23949441 0.57389355 -0.16310452 -0.3016765
0003c0 06 28 26 bf cc 57 bf bc c9 4f c0 bd c3 09 a2 3e
       -0.6490482 -0.023357294 -0.09390218 0.31648073
0003d0 8f 1b 40 3d 5e cb 16 3e 0d d7 a6 bd 50 2d 5a 3e
       0.046901282 0.14726016 -0.081464864 0.21306348
0003e0 49 82 d6 bc 0f 66 2c 3e 23 30 a2 3d 40 1f fe 3c
       -0.026185172 0.16835807 0.079193376 0.03102076
0003f0 a2 43 f9 bb d0 c6 13 3d 5a 33 fc bd 71 be 9e 3d
       -0.0076069394 0.036078274 -0.12314482 0.077511676

models.524263.layers.6.bias f4 [16]
000000 ee a6 75 be d6 37 66 be 9b b8 9f be a4 0c 54 3e
       -0.2398946 -0.22482237 -0.3119553 0.20707947
000010 7b e9 97 3e fb a7 02 3e 38 28 45 be cb ac 40 be
       0.2967032 0.12759392 -0.19253623 -0.18815915
000020 b5 db 8e be 30 0a 8c 3e e9 60 59 3e f0 a9 e7 3e
       -0.27901998 0.27351522 0.21228375 0.4524684
000030 1b 9e 93 3e 03 b1 3c bd 5c be 9c 3e 11 92 90 3e
       0.28831562 -0.04606725 0.30613983 0.2823644

models.524263.layers.9.weight f4 [1, 16]
000000 72 26 d8 be d9 35 c8 be fd 06 77 be c4 04 c0 3e
       -0.4221683 -0.39103583 -0.2412376 0.37503636
000010 5b 31 96 3e 31 06 b8 be 47 d1 8d be 8a aa b7 be
       0.2933453 -0.35942224 -0.27698728 -0.35872298
000020 8b d6 a0 be ec 13 b1 3e 7c c5 c7 3e 1f 64 8c bf
       -0.31413683 0.34585512 0.39017856 -1.0968055
000030 ba d9 d2 3e aa d5 d1 be 51 42 ec 3e 09 a4 ac 3e
       0.41181737 -0.40983325 0.46144345 0.337189
