models/Ensemble/antipion_1.pt (torch, 73195 bytes, 28 tensors)

models.524287.layers.0.weight f4 [64, 19]
-1.262174 0.60850537 -0.015044116 -0.041333824 -0.48727822 -0.32019725 -0.37561223 0.07262293
0.236058 -0.077147044 -0.93320024 -0.22302069 -0.03705303 0.06285104 -0.07411818 -0.00083543884
-0.14627846 -0.040013704 0.07043594 -0.17449576 -0.018266633 0.09171601 -0.11531164 0.04563485
0.1291505 -0.06992939 -0.09337336 0.08367284 0.041862532 0.079047546 0.08578609 -0.09854151
0.04368408 0.022565022 -0.091962025 -0.13052967 0.07252745 -0.1764169 -0.13487932 -0.04203175
-0.06179385 -0.22233368 0.22766864 -0.19354302 -0.28930733 -0.22427072 0.16849296 -0.0807429
-0.05304879 0.19331677 0.08138898 0.0010146336 0.008318975 -0.006822073 -0.060248684 0.23620269
0.033193745 0.1514694 -0.15543857 0.06320663 0.22310998 -0.22702958 0.03881459 0.17718555
-0.09258346 0.11691637 0.0033182502 -0.01863575 -0.20646554 0.0582747 0.036238804 -0.03261791
-0.11807225 0.15799592 -0.13246977 0.21946685 0.065247044 0.031822905 0.0061558187 0.19297065
-0.09730004 0.05980669 -0.08957316 0.1977206 -0.14484005 0.025883302 0.11487447 0.15891309
-0.14983088 0.004061118 0.06754832 -0.16742319 0.20100127 -0.10951931 0.10986687 -0.18518399
0.032695457 -0.14916053 -0.15128052 -0.22105229 -0.07385051 -0.16847518 -0.072099656 0.1662132
0.036100343 -0.14551508 -0.09515287 0.009968087 0.12851636 -0.1343092 -0.17599818 -0.18865894
-0.17790669 -0.12737921 2.4576063 0.21419007 0.002065325 0.006885761 -0.002881187 -0.50881183
-0.23755588 0.026327323 -0.055078227 -0.022034004 0.8323017 -0.022089573 -0.031348888 0.008695568
0.022686414 0.008416948 -0.058547553 -0.0013675358 -0.05056974 -0.74181086 -0.7525072 0.025328359
-0.6058024 -0.21655749 -0.21905243 -0.6199177 0.10998336 -0.038834296 -0.100199655 0.74350435
0.063116044 0.0060657063 -0.0130413165 0.08458904 0.0066928803 0.15934506 0.14623801 0.008463605
1.8177592 0.046928763 -0.0024741967 -0.11430465 -0.37093624 -0.35613418 -0.062072232 -0.033854485
0.025862645 0.010089242 1.0665338 0.10091478 0.0046538343 0.0035110386 -0.13260905 0.0052476893
0.054765206 -0.25784004 0.2320431 -0.06820229 -0.028010622 0.04052545 -0.15972117 0.041217104
0.10322337 -0.048754305 0.05753149 -0.13920945 -0.17954625 -0.19673178 0.13644667 0.113055214
0.074943885 -0.08172102 -0.19051722 -0.07190432 -0.08288315 0.009826526 0.009687409 0.102593675
-0.17234163 -0.022209346 -0.014941305 0.15795554 0.20592819 -0.21731815 0.115829304 0.1669514
0.046950802 -0.22669956 -0.18596481 0.028561756 0.16729434 -0.22361809 0.12333821 0.09598823
-0.12158486 -1.3087685 -0.42573217 -0.0015189901 -0.30345228 -0.13807608 -0.9885786 -0.9335871
-0.09454191 -0.038132098 -0.021901254 -0.12505405 0.029271813 0.10919791 -0.03329212 0.06254602
0.0064543206 -0.0021568048 -0.07073371 -0.007970573 -0.9529604 -0.41371042 -0.00094206893 -0.16421701
-0.62928426 0.29723746 0.06881583 -0.010017849 0.015903018 -0.001755044 1.0130745 -0.008545127
0.022984106 0.011468177 0.039329007 0.0022479729 0.0039679324 0.054788146 -0.01146473 -0.048074678
-0.01791501 0.15316539 0.024942175 -0.107414596 -0.005438596 0.07062961 -0.024079502 0.1180519
00000000: eb8e a1bf 02c7 1b3f 997b 76bc a84d 29bd
00000010: 887c f9be e5f0 a3be 3f50 c0be 55bb 943d
00000020: 30b9 713e 45ff 9dbd 36e6 6ebf 895f 64be
00000030: ebc4 17bd 0cb8 803d 46cb 97bd 5a01 5bba
00000040: 05ca 15be 69e5 23bd b840 903d 04af 32be
00000050: e8a3 95bc 9ad5 bb3d 8228 ecbd 9ceb 3a3d
00000060: 0740 043e 2437 8fbd 883a bfbd aa5c ab3d
00000070: 0c78 2b3d aee3 a13d 9eb0 af3d 22d0 c9bd
00000080: 14ee 323d 48da b83c 9656 bcbd 92a9 05be
00000090: 4689 943d a2a6 34be ce1d 0abe 7c29 2cbd
000000a0: 8c1b 7dbd 71ab 63be f821 693e 2430 46be
000000b0: 1720 94be 39a7 65be 6b89 2c3e 895c a5bd
000000c0: b049 59bd d5f4 453e 44af a63d 74fd 843a
000000d0: 4f4c 083c b28b dfbb 53c7 76bd 1edf 713e
000000e0: 2af6 073d cb1a 1b3e 4a2b 1fbe 7a72 813d
000000f0: f176 643e 717a 68be 0cfc 1e3d 2170 353e
00000100: 669c bdbd da71 ef3d 0077 593b 00aa 98bc
00000110: b46b 53be 74b1 6e3d 246f 143d 5c9a 05bd
00000120: ddcf f1bd afc9 213e 28a6 07be ebbb 603e
00000130: 3ea0 853d bc58 023d c0b6 c93b 199a 453e
00000140: 3e45 c7bd dcf7 743d 2272 b7bd 4577 4a3e
00000150: f350 14be 3809 d43c 4e43 eb3d 1dba 223e
00000160: 446d 19be 2013 853b c656 8a3d fc70 2bbe
00000170: 47d3 4d3e a94b e0bd e201 e13d dfa0 3dbe
00000180: aceb 053d 8abd 18be 48e9 1abe 885b 62be
00000190: f03e 97bd c284 2cbe fca8 93bd cb33 2a3e
000001a0: f4dd 133d e801 15be 82df c2bd 3051 233c
000001b0: cb99 033e 5a88 09be de38 34be cf2f 41be
000001c0: 2c2d 36be b26f 02be 6c49 1d40 a454 5b3e
000001d0: 675a 073b f3a1 e13b 4cd2 3cbb 7e41 02bf
000001e0: d941 73be 66ac d73c b599 61bd a880 b4bc
000001f0: b911 553f 31f5 b4bc b167 00bd db77 0e3c
00000200: dcd8 b93c 3de7 093c 8fcf 6fbd e33e b3ba
00000210: 3722 4fbd 51e7 3dbf 50a4 40bf 6b7d cf3c
00000220: de15 1bbf 3fc1 5dbe 484f 60be edb2 1ebf
00000230: f53e e13d b610 1fbd 7a35 cdbd 4d56 3e3f
00000240: fc42 813d d5c2 c63b 3fab 55bc 053d ad3d
00000250: f34f db3b 5a2b 233e 6bbf 153e efaa 0a3c
00000260: 55ac e83f 6038 403d 2226 22bb 8e18 eabd
00000270: 5beb bdbe 3857 b6be 743f 7ebd 00ab 0abd
00000280: e6dd d33c 594d 253c 2e84 883f 68ac ce3d
00000290: 317f 983b 7419 663b abca 07be cff4 ab3b
000002a0: 7b51 603d 9c03 84be b59c 6d3e a4ad 8bbd
000002b0: 8876 e5bc 04fe 253d f28d 23be 44d3 283d
000002c0: c666 d33d 98b2 47bd 24a6 6b3d ec8c 0ebe
000002d0: f9da 37be 0e74 49be adb8 0b3e 7e89 e73d
000002e0: 2e7c 993d 5a5d a7bd f216 43be 9242 93bd
000002f0: a4be a9bd 70ff 203c f0b7 1e3c a21c d23d
00000300: 537a 30be 60f0 b5bc 60cc 74bc 19bf 213e
00000310: d7de 523e a688 5ebe ea37 ed3d 4ff5 2a3e
00000320: 7c4f 403d ee23 68be 8f6d 3ebe 58fa e93c
00000330: 354f 2b3e 24fc 64be be98 fc3d 7a95 c43d
00000340: 7c01 f9bd ba85 a7bf 91f9 d9be da18 c7ba
00000350: 195e 9bbe d163 0dbe 7d13 7dbf 90ff 6ebf
00000360: 309f c1bd 6730 1cbd 426a b3bc 2b0e 00be
00000370: 71cb ef3c 27a3 df3d 515d 08bd 2118 803d
00000380: c47e d33b 2e59 0dbb d6dc 90bd 0297 02bc
00000390: 36f5 73bf dad1 d3be 2df5 76ba 8128 28be
000003a0: c618 21bf 822f 983e 50ef 8c3d e721 24bc
000003b0: 0c47 823c 8109 e6ba 6dac 813f dc00 0cbc
000003c0: 2a49 bc3c 05e5 3b3c 7417 213d ba52 133b
000003d0: 6e05 823b 8969 603d 90d6 3bbc f4e9 44bd
000003e0: 80c2 92bc 63d7 1c3e 8853 cc3c 2ffc dbbd
000003f0: 4036 b2bb 42a6 903d 6042 c5bc 32c5 f13d

models.524287.layers.0.bias f4 [64]
0.06977482 -0.03158228 -0.16264197 -0.15042247 -0.081503734 -0.15743558 -0.22448786 -0.24698596
0.12491903 -0.10724772 -0.13697517 -0.21644454 -0.18384309 0.0022704154 0.22385775 -0.028856374
-0.04169989 -0.05481473 -0.11819047 -0.37149715 -0.11040533 -0.019202353 -0.10172834 0.08996617
-0.16399744 0.007416308 0.002223906 0.0431789 -0.14295952 -0.1799609 -0.00751473 -0.24127482
0.19270088 -0.3169412 0.038541928 -0.22890201 -0.26538396 0.21455653 0.12077312 -0.3323879
-0.050215624 -0.12975758 0.051108524 -0.067585446 -0.17172341 0.1594774 -0.15069388 -0.09375973
0.07383479 -0.026688162 -0.019895092 0.0576991 -0.07091903 -0.12739405 -0.26294342 -0.11894206
0.070504546 0.07071603 0.20425813 -0.07459617 0.08342148 0.056868836 -0.12053689 0.07316533
00000000: 1ae6 8e3d 6c5c 01bd 9e8b 26be 5908 1abe
00000010: 6eeb a6bd cb36 21be 25e0 65be e3e9 7cbe
00000020: 8cd5 ff3d b1a4 dbbd 3843 0cbe a3a3 5dbe
00000030: 5d41 3cbe 40cb 143b f73a 653e 3464 ecbc
00000040: 81cd 2abd 6985 60bd d80d f2bd e034 bebe
00000050: 311c e2bd 414e 9dbc f356 d0bd 2f40 b83d
00000060: f2ee 27be 8004 f33b f4be 113b 5cdc 303d
00000070: fb63 12be ac47 38be 203e f6bb bf10 77be
00000080: 6153 453e 1e46 a2be 24de 1d3d 4a65 6abe
00000090: 68e0 87be b5b4 5b3e e657 f73d bf2e aabe
000000a0: e6ae 4dbd 2cdf 04be 2c57 513d 3d6a 8abd
000000b0: 43d8 2fbe 0b4e 233e 7f4f 1abe 1a05 c0bd
000000c0: b236 973d 22a1 dabc 08fb a2bc e455 6c3d
000000d0: ff3d 91bd 9673 02be 85a0 86be e597 f3bd
000000e0: b064 903d 91d3 903d 0b29 513e e0c5 98bd
000000f0: e2d8 aa3d 4cef 683d 0cdc f6bd b4d7 953d

models.524287.layers.3.weight f4 [32, 64]
0.08165248 -0.06520738 -0.09510014 0.08279966 -0.08383502 -0.0021203458 -0.013445176 0.040773172
-0.117316194 0.05438301 0.028608352 0.08900709 -0.6762775 -0.092465356 0.02228108 -0.18043534
0.09182086 0.07133585 -0.0060106353 0.0047126967 -0.48962796 0.014548344 -0.046312146 0.07087034
-0.00088374317 -0.003028527 -0.25476 -0.07207315 0.09687891 0.015096754 -0.023791894 -0.09245841
-0.028437927 0.0042064786 -0.09714955 0.09001008 -0.053357553 -0.019330114 -0.11915745 -0.017229905
-0.00040851528 0.015940994 0.09115149 0.02684777 -0.002848947 -0.115828335 0.058532488 -0.04068866
0.21422458 0.067024305 -0.08212936 -0.061283633 -0.092527814 -0.05107471 -0.3327228 0.04496195
0.014553142 -0.66258293 0.087309524 0.0026426613 -0.10469121 0.11988747 -0.027646068 -0.034474116
-0.093972646 0.07095796 0.03803043 0.073901236 0.024784386 0.0074513853 0.30967388 0.14973731
0.19265917 -0.08267261 -0.09659587 -0.30786717 -0.025314473 -0.06847902 0.095793515 0.18969434
-0.25566593 0.0030062622 0.004101109 0.012490507 0.05164793 0.011674327 -0.07524898 -0.01013275
0.07776584 0.021161452 0.07568791 -0.100286275 -0.4753837 0.059011087 0.11300774 -0.02735864
0.06790578 -0.049205266 -0.01322028 0.061756954 -0.06178407 -0.081052765 -0.06640555 -0.027131207
-0.87887746 -0.06864241 -0.09873371 -0.17114574 -0.08381787 -0.07287593 -0.4661932 -0.34601498
-0.66472065 -0.43625805 -0.01518476 0.03812912 -0.4996646 -0.024455823 0.6530497 -0.050366387
0.00078181614 0.56886905 -0.07130019 -0.033931702 -0.028040916 0.09441851 -0.17938466 -0.717801
0.07864275 0.031581253 -0.12993741 -0.0677484 0.029671252 0.09380728 0.14692582 0.0755198
-0.027694015 0.023220345 0.06384018 -0.319159 0.076007545 -0.11846943 0.053845942 0.06894128
-0.43286496 -0.120150566 0.0041537853 0.018549118 0.05088516 0.14364289 0.0539094 -0.022218866
0.07074764 0.082656875 -0.13408205 0.017137915 -0.44307733 0.10108197 -0.116397515 -0.07183556
0.032979652 0.06502106 0.106454745 0.12448144 0.10921903 0.03657934 -0.04752606 0.060217917
-0.69617194 0.056167558 0.07561925 -0.10524665 0.08926185 0.08167471 -0.85194963 -0.5512618
-0.61678475 -0.097824454 -0.046245784 0.08457446 -0.4051258 0.10940253 0.33435974 0.10675154
-0.16948844 0.3327576 0.020471007 -0.023723498 -0.074609816 -0.06958401 -0.21505879 -0.25816932
0.06580065 0.113223344 0.0068978905 0.009726077 0.08822927 0.06690015 0.06622048 0.025486546
-0.20471953 -0.0036828965 0.12249251 0.12715676 -0.5220063 0.0365486 -0.06383613 -0.2065581
0.14158057 0.17318536 -0.0276424 0.0052878163 -0.37436685 -0.063483976 0.018967465 0.09247361
-0.06313078 -0.08912566 -0.17891407 0.048196763 -0.04013975 -0.013146296 0.015404299 0.005186457
0.02814135 0.02982884 0.04401903 -0.034433156 -0.031130692 0.035337836 0.083375484 0.03300507
0.11309186 0.021527782 0.061386615 -0.021958265 -0.029948791 0.0581861 0.16185363 0.30219892
0.1758037 0.01191988 -0.060122117 -0.006343469 0.050384976 -0.042639755 -0.39474443 0.0007524146
0.1600112 -0.47880304 -0.124920666 0.07140729 0.08547169 -0.06170556 -0.26074466 0.21077973
00000000: 6a39 a73d 728b 85bd ddc3 c2bd de92 a93d
00000010: b2b1 abbd 80f5 0abb 2849 5cbc c501 273d
00000020: 7943 f0bd b8c0 5e3d 105c ea3c 5949 b63d
00000030: 8620 2dbf 7a5e bdbd d086 b63c 0bc4 38be
00000040: 930c bc3d 8818 923d ddf4 c4bb f76c 9a3b
00000050: 84b0 fabe 2d5c 6e3c ceb1 3dbd 7824 913d
00000060: 00ab 67ba 407a 46bb e76f 82be 169b 93bd
00000070: 7368 c63d 6058 773c 38e7 c2bc d65a bdbd
00000080: a8f6 e8bc 80d6 893b 58f6 c6bd 3457 b83d
00000090: 738d 5abd 305a 9ebc d208 f4bd bb25 8dbc
000000a0: fe2d d6b9 b096 823c a2ad ba3d dbef db3c
000000b0: 66b5 3abb 6837 edbd c3bf 6f3d 27a9 26bd
000000c0: b05d 5b3e 0a44 893d 7033 a8bd 8c04 7bbd
000000d0: 397f bdbd b733 51bd a55a aabe 062a 383d
000000e0: 4d70 6e3c 099f 29bf 56cf b23d 8030 2d3b
000000f0: 5868 d6bd 9087 f53d 027a e2bc bb34 0dbd
00000100: bb74 c0bd 6852 913d ccc5 1b3d 8859 973d
00000110: a008 cb3c c02a f43b 938d 9e3e bd54 193e
00000120: 7248 453e 4250 a9bd 0ed4 c5bd c4a0 9dbe
00000130: 4c60 cfbc ba3e 8cbd 642f c43d 3c3f 423e
00000140: a5e6 82be b604 453b 9962 863b fca4 4c3c
00000150: c88c 533d ad45 3f3c 231c 9abd d503 26bc
00000160: b243 9f3d c85a ad3c 4302 9b3d e462 cdbd
00000170: 7e65 f3be 9cb5 713d 9a70 e73d 3a1f e0bc
00000180: 3012 8b3d 768b 49bd e099 58bc dcf4 7c3d
00000190: 4b11 7dbd fefe a5bd a2ff 87bd 4442 debc
000001a0: 1dfe 60bf 6494 8cbd e634 cabd d440 2fbe
000001b0: b4a8 abbd fa3f 95bd e0b0 eebe e028 b1be
000001c0: 222b 2abf 375d dfbe 80c9 78bc 482d 1c3d
000001d0: 0ad4 ffbe 9457 c8bc 442e 273f fc4c 4ebd
000001e0: cbf2 4c3a 67a1 113f d605 92bd f8fb 0abd
000001f0: 10b6 e5bc 7e5e c13d 9db0 37be cec1 37bf
00000200: 730f a13d 585b 013d 500e 05be acbf 8abd
00000210: 2011 f33c 081e c03d b973 163e 20aa 9a3d
00000220: 8fde e2bc 9838 be3c a4be 823d cf68 a3be
00000230: d8a9 9b3d 1aa0 f2bd 908d 5c3d 1631 8d3d
00000240: 7aa0 ddbe 8011 f6bd 7a1c 883b 52f4 973c
00000250: f56c 503d 1f17 133e 1ad0 5c3d 5704 b6bc
00000260: 24e4 903d 0248 a93d ce4c 09be d064 8c3c
00000270: 08db e2be 1004 cf3d d261 eebd 861e 93bd
00000280: ac15 073d c329 853d f204 da3d 20f0 fe3d
00000290: 3aae df3d 38d4 153d b0aa 42bd 10a7 763d
000002a0: 5338 32bf f40f 663d 44de 9a3d 8e8b d7bd
000002b0: ebce b63d 1245 a73d 5f19 5abf 7e1f 0dbf
000002c0: 9be5 1dbf 3058 c8bd 386c 3dbd 6035 ad3d
000002d0: a66c cfbe 6f0e e03d 3331 ab3e 8da0 da3d
000002e0: 618e 2dbe 345f aa3e d0b2 a73c c857 c2bc
000002f0: 08cd 98bd 1082 8ebd 5f38 5cbe c52e 84be
00000300: 7ec2 863d a4e1 e73d b307 e23b 205a 1f3c
00000310: 8cb1 b43d f202 893d 9a9e 873d 29c9 d03c
00000320: ffa1 51be c05c 71bb 5add fa3d 6235 023e
00000330: 34a2 05bf fcb3 153d 84bc 82bd f783 53be
00000340: 7ffa 103e 8157 313e 5072 e2bc 6b45 ad3b
00000350: 03ad bfbe e303 82bd a861 9b3c ce62 bd3d
00000360: b64a 81bd 8487 b6bd 4035 37be f869 453d
00000370: 9469 24bd 9063 57bc 5062 7c3c 28f3 a93b
00000380: b088 e63c 9d5b f43c 4c4d 343d c809 0dbd
00000390: cb05 ffbc 68be 103d c4c0 aa3d 5330 073d
000003a0: b59c e73d 085b b03c 8870 7b3d d2e1 b3bc
000003b0: 2b57 f5bc 8c54 6e3d f5bc 253e d1b9 9a3e
000003c0: e305 343e 9a4b 433c 9c42 76bd e0dc cfbb
000003d0: 7a60 4e3d 06a7 2ebd f11b cabe b03d 453a
000003e0: fad9 233e ac25 f5be 68d6 ffbd fc3d 923d
000003f0: c80b af3d f8be 7cbd 5380 85be a4d6 573e

models.524287.layers.3.bias f4 [32]
0.02694352 0.2715987 0.058542788 0.13348725 -0.30099145 0.30851516 0.12997025 0.17751704
-0.5531497 0.25652188 0.1854601 0.0048225154 0.34686092 0.4463606 0.22776577 0.0809425
0.13965817 0.029464947 0.31130588 0.10850301 -0.1752673 0.5202996 0.09864789 0.16730298
0.256999 0.109025516 0.076014444 0.33263993 -0.16400714 0.5265325 0.041098375 -0.12173829
00000000: a8b8 dc3c fc0e 8b3e 90ca 6f3d e2b0 083e
00000010: 8d1b 9abe b3f5 9d3e ec16 053e 07c7 353e
00000020: 389b 0dbf d656 833e 41e9 3d3e 3106 9e3b
00000030: c197 b13e 6089 e43e 6e3b 693e 2ec5 a53d
00000040: 8d02 0f3e 7960 f13c 7c63 9f3e d336 de3d
00000050: 4579 33be 5b32 053f e807 ca3d 7951 2b3e
00000060: 5f95 833e c548 df3d 76ad 9b3d c84f aa3e
00000070: 7df1 27be d5ca 063f c556 283d ed51 f9bd

models.524287.layers.6.weight f4 [16, 32]
-0.0080100205 -0.5671207 -0.34324956 -0.011009787 0.26969683 -0.28608584 0.057801466 -0.3279022
-0.42459702 -0.6599907 -0.16171783 0.019185867 0.11262553 0.21346065 0.15068026 -0.1364244
0.16511339 0.030348968 -0.1079234 0.31257546 -0.3988248 0.172076 0.12241003 0.06356771
0.22463016 0.05035479 0.055981066 0.25888038 0.13868092 0.17394574 -0.16081066 0.23849282
0.09465662 -0.33606058 -0.8254391 -0.06899067 0.13980392 -0.80707866 -0.08224982 -0.7017732
-0.41415575 -0.84179306 -0.7045846 -0.06345855 0.13051611 0.13971326 0.11716843 -0.65474004
0.27342147 0.033515647 -0.24795774 0.09127463 -0.25936967 0.038666643 -0.07250222 0.16108204
0.10333485 -0.10334427 -0.0066908575 0.12923124 -0.09233203 0.106978424 -0.10377046 -0.013337241
-0.23326719 0.54567426 0.052681703 -0.4145983 -0.3904369 -0.032445736 -0.25183135 0.09740579
-0.045111626 0.36862236 0.06555935 -0.22150153 0.09820092 0.34004334 -0.026831962 0.31317386
0.36249697 -0.43641955 0.26309058 -0.3267374 0.30056965 0.19439116 -0.25574374 -0.16639277
0.18156426 -0.17335407 -0.1465074 0.10154176 -0.5286066 -0.0005906311 0.1914519 -0.4280618
-0.15931483 0.54962516 0.05527229 -0.39657867 -0.16112915 0.123870164 -0.02809774 -0.0030448898
-0.27839366 0.3141589 0.14325443 -0.31366628 0.11886786 0.4295861 -0.050814297 0.11714562
0.20417148 -0.47963068 0.3236863 -0.21773827 0.3494311 0.23009045 -0.09380707 -0.21982053
0.10629118 -0.28611428 -0.16365112 0.22722502 -0.43871388 0.17194301 0.30387554 -0.30397984
0.12727715 -0.5198514 -0.46822026 0.16068713 0.12289872 -0.4474814 0.22620969 -0.3368635
-0.40746272 -0.7991765 -0.33520332 -0.06700096 0.08542901 0.24968378 0.07145748 -0.3953177
0.18853451 -0.0370146 -0.18973775 0.22423823 -0.36186698 0.18046232 0.007992596 0.0009741894
0.16506372 0.0454188 -0.012328393 0.16815388 -0.00536861 0.11830797 -0.024229957 0.124220595
-0.2685803 0.5423551 0.2265658 -0.06697492 -0.0053510303 -0.11180699 -0.24221164 -0.098126754
0.61842126 0.43653342 0.034509562 0.010911451 -0.093050696 0.19072336 -0.24364665 0.0925632
0.097425856 -0.5699666 0.21147417 -0.19270422 0.08625263 0.0122708995 -0.05464164 -0.31284901
-0.07225477 0.04704163 -0.124751575 -0.057083152 -0.33192322 0.04894683 0.6336494 -0.07793915
-0.11633736 0.623288 -0.12517507 -0.32950214 -0.636131 -0.019493854 -0.08338602 0.153502
-0.012121755 0.3552734 0.14512268 -0.05718756 0.11635025 0.19667515 -0.14076224 0.12602013
0.20904249 -0.55410427 0.322569 -0.12476292 0.3804758 0.050146863 -0.16528025 -0.12331417
0.04465827 -0.13453679 -0.08274771 0.017389119 -0.43376148 0.089342594 0.44109857 -0.3589192
-0.16556709 0.5111926 0.012874155 -0.28888163 -0.40747917 0.044424117 -0.09654595 0.021744914
0.19720693 0.45759514 0.15870081 -0.237645 0.15903983 0.28470123 -0.14664716 0.25560722
0.17450254 -0.5637722 0.24682719 -0.17887539 0.15756325 0.05339403 0.03898108 -0.1823868
0.05427028 -0.23783188 -0.1570339 0.1794203 -0.41944277 0.15467581 0.17698947 -0.2963125
00000000: 763c 03bc d22e 11bf 68be afbe 6562 34bc
00000010: b415 8a3e d879 92be 3bc1 6c3d cce2 a7be
00000020: c864 d9be 27f5 28bf 5c99 25be ae2b 9d3c
00000030: 37a8 e63d 6e95 5a3e ed4b 1a3e d7b2 0bbe
00000040: 7c13 293e 669e f83c f206 ddbd e409 a03e
00000050: c432 ccbe b134 303e 1cb2 fa3d ca2f 823d
00000060: 7305 663e d340 4e3d 674c 653d f88b 843e
00000070: 5f02 0e3e d51e 323e 8dab 24be 7637 743e
00000080: 54db c13d 2210 acbe fa4f 53bf fb4a 8dbd
00000090: c228 0f3e b59c 4ebf 9872 a8bd 69a7 33bf
000000a0: 390c d4be c07f 57bf a85f 34bf 8ef6 81bd
000000b0: 04a6 053e fe10 0f3e 00f6 ef3d 0b9d 27bf
000000c0: e6fd 8b3e b447 093d a2e8 7dbe 31ee ba3d
000000d0: 1acc 84be ea60 1e3d 0b7c 94bd b1f2 243e
000000e0: 39a1 d33d 29a6 d3bd fb3e dbbb 3255 043e
000000f0: 9318 bdbd 8117 db3d 9b85 d4bd 7184 5abc
00000100: 98dd 6ebe 4fb1 0b3f c5c8 573d 3a46 d4be
00000110: 58e7 c7be d2e5 04bd 0af0 80be b07c c73d
00000120: f8c6 38bd 12bc bc3e fb43 863d 4cd1 62be
00000130: 901d c93d 291a ae3e b4ce dbbc 5358 a03e
00000140: 3499 b93e 6272 dfbe cfb3 863e 204a a7be
00000150: 44e4 993e 7a0e 473e d8f0 82be de62 2abe
00000160: fbeb 393e bb83 31be 0906 16be 20f5 cf3d
00000170: c352 07bf 95d4 1aba f80b 443e eb2a dbbe
00000180: 6d23 23be 3cb4 0c3f 3265 623d 5c0c cbbe
00000190: 0aff 24be a4af fd3d 3b2d e6bc c68c 47bb
000001a0: 9d89 8ebe 6fd9 a03e 4ab1 123e de98 a0be
000001b0: fe70 f33d b6f2 db3e a722 50bd 0bea ef3d
000001c0: 5412 513e 2792 f5be 36ba a53e c8f6 5ebe
000001d0: a2e8 b23e d59c 6b3e ec1d c0bd a218 61be
000001e0: 31af d93d 927d 92be 2994 27be adad 683e
000001f0: 1b9f e0be d411 303e 9395 9b3e 3fa3 9bbe
00000200: f154 023e fb14 05bf 91ba efbe 2b8b 243e
00000210: 53b2 fb3d 481c e5be 83a3 673e 5f79 acbe
00000220: f49e d0be d596 4cbf c59f abbe cd37 89bd
00000230: 68f5 ae3d 1bad 7f3e 4d58 923d 1567 cabe
00000240: 310f 413e 9f9c 17bd 9d4a 42be b59e 653e
00000250: a146 b9be 1dcb 383e 61f3 023c be60 7f3a
00000260: 7706 293e 1009 3a3d 07fd 49bc 8830 2c3e
00000270: 2aeb afbb 734b f23d e77d c6bc 5e67 fe3d
00000280: 5b83 89be c9d7 0a3f dd00 683e 262a 89bd
00000290: b257 afbb 10fb e4bd 5406 78be aef6 c8bd
000002a0: db50 1e3f 4f81 df3e e659 0d3d f1c5 323c
000002b0: 5d91 bebd fc4c 433e 827e 79be c691 bd3d
000002c0: 3587 c73d 55e9 11bf af8c 583e 4154 45be
000002d0: 38a5 b03d e20b 493c eacf 5fbd bf2d a0be
000002e0: 4ffa 93bd b9ae 403d c17d ffbd 06d0 69bd
000002f0: d7f1 a9be 797c 483d d936 223f 909e 9fbd
00000300: 4842 eebd cd8f 1f3f e52d 00be 81b4 a8be
00000310: 7bd9 22bf 93b1 9fbc 4ac6 aabd a12f 1d3e
00000320: 539a 46bc 65e6 b53e 0a9b 143e 813d 6abd
00000330: 0a49 ee3d 3665 493e fa23 10be 6c0b 013e
00000340: 3c0f 563e c7d9 0dbf c427 a53e b483 ffbd
00000350: b9cd c23e cc66 4d3d 3a3f 29be 248c fcbd
00000360: 97eb 363d 03c4 09be a277 a9bd a073 8e3c
00000370: fc15 debe 40f9 b63d acd7 e13e 42c4 b7be
00000380: 6b8a 29be 85dd 023f 1fee 523c 4be8 93be
00000390: 1ca1 d0be 10f6 353d e2b9 c5bd 6422 b23c
000003a0: 9df0 493e e949 ea3e 7782 223e 3659 73be
000003b0: 56db 223e 5cc4 913e ac2a 16be f3de 823e
000003c0: cbb0 323e 6053 10bf 44c0 7c3e 1c2b 37be
000003d0: 4358 213e b3b3 5a3d a0aa 1f3d 9bc3 3abe
000003e0: 834a 5e3d 338a 73be 7fcd 20be f5b9 373e
000003f0: 34c1 d6be 5663 1e3e ba3c 353e 46b6 97be

models.524287.layers.6.bias f4 [16]
0.3708867 0.69370276 0.2213727 0.08627941 0.37577492 0.24760295 0.2510517 0.21093659
-0.17785387 -0.2920337 0.46020287 0.44982645 0.13299027 0.57596236 0.5678995 0.15433839
00000000: dde4 bd3e 8196 313f 86af 623e 42b3 b03d
00000010: 9265 c03e a18b 7d3e d989 803e c3ff 573e
00000020: 531f 36be 7185 95be b69f eb3e a74f e63e
00000030: 9a2e 083e 4572 133f dd61 113f e20a 1e3e

models.524287.layers.9.weight f4 [1, 16]
0.4576972 0.9483032 -0.47845885 -0.36736378 0.6006372 -0.82572687 -0.5281209 -0.43378145
0.45507795 -0.45670804 0.65214825 0.47538954 -0.541621 0.3163491 0.42801365 -0.5017334
00000000: 4a57 ea3e 00c4 723f 8ff8 f4be 1b17 bcbe
00000010: 5cc3 193f d662 53bf ee32 07bf 9a18 debe
00000020: faff e83e a3d5 e9be 30f3 263f 4266 f33e
00000030: ada7 0abf 82f8 a13e 9b24 db3e 9a71 00bf

models.524263.layers.0.weight f4 [64, 17]
-0.5429493 -0.0065669394 -0.009571989 -0.8053498 -1.0223501 0.0027759273 0.005778538 -0.15979993
0.027334616 0.07238394 0.099169664 0.01594149 0.014403577 -0.0078077354 -0.027125271 0.12629652
0.063238114 0.73050034 -0.20597792 -0.17884444 -0.26891613 -0.5561376 0.14335111 -0.19462563
0.18211888 0.5479924 0.025080433 -0.06609823 -0.13868389 0.11186146 0.006068399 0.22591293
-0.027807452 -0.06860552 -0.030784443 0.056871206 -0.00680919 0.030244589 -0.028120726 -0.05821748
-0.15916234 -0.10169986 -0.13012946 0.22292846 0.05669427 -0.10176729 0.023787916 -0.0685215
-0.0748276 -0.16410726 0.20434675 -1.8695163 0.05656052 -0.0070674308 0.2525503 0.29892093
0.102708995 0.040594026 0.038301315 -0.9377399 -0.14043692 -0.033476554 0.040839523 0.0723202
-0.0059402464 0.047724374 -0.00072164804 0.02897695 -0.19627777 0.06611037 0.15385029 0.0667336
-0.13012373 0.07168421 -0.08614944 -0.17989129 0.16110498 -0.21526763 -0.18481861 -0.03414589
-0.22706509 -0.076770484 -0.07057613 0.10356945 -0.15375161 -0.14870505 0.08655688 0.21166104
0.07168713 0.1886394 0.14261484 0.2184748 -0.19454142 -0.08656581 -0.0693126 -0.0442165
0.045571357 -0.0038886964 -0.14057179 -0.098667115 0.06631109 -0.1882441 0.2342706 -0.16042118
-0.09622282 0.03355527 -0.20636813 -0.08976814 -0.067943156 -0.06286806 -0.037184566 0.061805755
0.024951011 0.1998103 -0.21347578 -0.17969716 -0.0030347407 0.096553504 0.10429317 -0.7442494
-0.1916182 -0.116315484 -0.38053188 -0.57444423 -0.1035236 -0.14793418 -0.2739168 -0.6149019
0.05714825 -0.10869681 -0.15743728 0.10344576 -0.0066190413 0.024944028 0.18964107 -0.020997085
0.0093488395 -0.23022866 -0.05416286 -0.09074116 -0.13873926 0.022832215 -0.1851093 -0.12923867
-0.047009528 0.18275788 0.16437969 -0.24230932 -0.18745402 -0.18313983 0.19712016 0.20195758
0.17604285 -0.15754959 -0.20693338 -0.09959075 -0.099191666 -0.023912147 0.083735734 -0.067772254
0.23111477 -0.18835713 0.08203834 -0.20556131 -0.16651191 0.09569663 -0.23409945 -0.16333096
-0.17123395 0.14940226 0.2000206 0.12640232 -0.09844412 0.19776988 -0.00069556845 0.20635396
0.20278151 -0.2402611 0.26119736 -0.033411376 -0.16545153 -0.14053679 -0.09787757 -0.0026669828
-0.18183918 0.14957522 0.0015299004 0.030174762 0.05143279 -0.18047822 -0.21364477 -0.101851195
-0.21251051 -0.11007841 0.034366757 -0.13159275 -0.20142595 0.12034145 -0.009122297 -0.0809986
-0.18934786 0.04986304 0.2055425 -0.04900174 -1.3142787 -0.02517287 -6.963758e-05 -0.87123215
-0.57840705 -0.12216752 -0.061508924 0.012157548 -0.8505923 0.03682054 0.055771284 0.0009286567
0.0057550343 0.0018687034 0.028604351 -0.0019778155 -0.0068823444 -0.14222178 0.030593097 -0.0011546165
0.056738585 -0.15381299 -0.22016779 0.1491619 -0.10528454 0.02733332 0.05521682 0.154987
0.046802074 0.10371745 -0.20290855 0.04066935 0.06007722 -0.0726535 -0.053389758 0.13558847
-0.077760115 0.20293048 -0.17863536 0.23689276 -0.12005311 0.22625113 0.109864205 -0.10451475
-0.106160134 0.1099045 -0.13217144 -0.13487881 -0.04030408 0.14274189 0.0213269 -2.1838968
00000000: bafe 0abf 7b2f d7bb d5d3 1cbc 682b 4ebf
00000010: 5edc 82bf 55ec 353b e459 bd3b 98a2 23be
00000020: d8ec df3c 083e 943d 7719 cb3d ba97 823c
00000030: fbfc 6b3c 08d8 ffbb d135 debc e053 013e
00000040: fc82 813d 1202 3b3f e0eb 52be ff22 37be
00000050: 60af 89be 095f 0ebf a2ca 123e f14b 47be
00000060: 5f7d 3a3e 3b49 0c3f 7b75 cd3c 825e 87bd
00000070: 2603 0ebe 9f17 e53d 6cd9 c63b b855 673e
00000080: 74cc e3bc 0d81 8cbd a82f fcbc c8f1 683d
00000090: a01f dfbb 80c3 f73c 705d e6bc 7475 6ebd
000000a0: 74fb 22be 0448 d0bd a840 05be 5c47 643e
000000b0: 4038 683d 5e6b d0bd e0de c23c 0055 8cbd
000000c0: 363f 99bd bc0b 28be 4640 513e 4f4c efbf
000000d0: 01ac 673d e895 e7bb 464e 813e 2a0c 993e
000000e0: 1859 d23d ec45 263d d7e1 1c3d b90f 70bf
000000f0: b2ce 0fbe b61e 09bd 5847 273d 9d1c 943d
00000100: 66a6 c2bb a27a 433d fb2c 3dba 1261 ed3c
00000110: 0afd 48be e064 873d ee8a 1d3e a0ab 883d
00000120: 283f 05be 2ccf 923d 1e6f b0bd 6c35 38be
00000130: b4f8 243e 1e6f 5cbe 1741 3dbe 90dc 0bbd
00000140: c083 68be d839 9dbd 388a 90bd 381c d43d
00000150: 1071 1dbe 2346 18be bc44 b13d acbd 583e
00000160: b4d0 923d b02a 413e a009 123e dcb7 5f3e
00000170: de35 47be 6a49 b1bd c4f3 8dbd 5c1c 35bd
00000180: 08a9 3a3d 80d9 7ebb 0df2 0fbe fc11 cabd
00000190: 1cce 873d 10c3 40be a2e4 6f3e 7345 24be
000001a0: 7810 c5bd 4071 093d 2b52 53be 5cd8 b7bd
000001b0: c825 8bbd f8c0 80bd d84e 18bd 0828 7d3d
000001c0: 1066 cc3c 129b 4c3e 6599 5abe 8802 38be
000001d0: 80e2 46bb d8bd c53d a897 d53d 2187 3ebf
000001e0: 9037 44be d036 eebd 13d5 c2be c70e 13bf
000001f0: 2e04 d4bd 0f7c 17be d33e 8cbe 366a 1dbf
00000200: 4914 6a3d 6f9c debd 3d37 21be 5fdb d33d
00000210: 8be4 d8bb 6b57 cc3c 4531 423e 1402 acbc
00000220: e02b 193c 10c1 6bbe e0d9 5dbd 80d6 b9bd
00000230: aa11 0ebe a00a bb3c 4b8d 3dbe 2457 04be
00000240: 108d 40bd e224 3b3e 2653 283e ef1f 78be
00000250: f2f3 3fbe 0289 3bbe ded9 493e f8cd 4e3e
00000260: 9444 343e ae54 21be 58e6 53be 3cf6 cbbd
00000270: 0025 cbbd 68e3 c3bc a47d ab3d 2ecc 8abd
00000280: 5aa9 6c3e b1e0 40be b803 a83d aa7e 52be
00000290: 1982 2abe 98fc c33d c4b7 6fbe 3b40 27be
000002a0: f457 2fbe e8fc 183e 33d2 4c3e 9c6f 013e
000002b0: 129d c9bd 3084 4a3e cf56 36ba 744e 533e
000002c0: f5a5 4f3e 0107 76be a9bb 853e 5eda 08bd
000002d0: 206c 29be e0e8 0fbe 0974 c8bd 8cc8 2ebb
000002e0: 0d34 3abe 3f2a 193e f086 c83a 1031 f73c
000002f0: 30ab 523d 48cf 38be b2c5 5abe 5c97 d0bd
00000300: 5b9c 59be ca70 e1bd 28c4 0c3d 40c0 06be
00000310: 9b42 4ebe 9475 f63d b075 15bc 98e2 a5bd
00000320: 68e4 41be 303d 4c3d bc79 523e 0cb6 48bd
00000330: 493a a8bf 5637 cebc 640a 92b8 1209 5fbf
00000340: 7c12 14bf f732 fabd c8f0 7bbd 7430 473c
00000350: 6bc0 59bf 22d1 163d 6e70 643d 1971 733a
00000360: ba94 bc3b 48ef f43a ac53 ea3c 3d9e 01bb
00000370: 4a85 e1bb 96a2 11be 609e fa3c 8056 97ba
00000380: b866 683d 2781 1dbe aa73 61be e6bd 183e
00000390: 6c9f d7bd 20ea df3c 082b 623d eab4 1e3e
000003a0: 88b3 3f3d d069 d43d 42c7 4fbe e894 263d
000003b0: 8813 763d 5ccb 94bd 38af 5abd b4d7 0a3e
000003c0: b240 9fbd 02cd 4f3e 30ec 36be 0494 723e
000003d0: 68de f5bd 60ae 673e 7c00 e13d d40b d6bd
000003e0: 7c6a d9bd 9c15 e13d f357 07be ac1d 0abe
000003f0: e415 25bd ee2a 123e c0b5 ae3c f7c4 0bc0

models.524263.layers.0.bias f4 [64]
0.09576103 -0.39645898 0.056147814 -0.2606225 -0.16804272 0.10745475 -0.15519443 -0.19104595
-0.19167171 -0.15810642 -0.003562835 -0.10902481 -0.23067771 0.07431996 0.015301824 -0.09527837
-0.023192463 -0.016626254 0.09910641 0.08007174 0.10389655 -0.20000015 -0.16427001 -0.10703886
-0.16303335 -0.12532921 0.09694496 -0.0061094533 -0.021489382 -0.077635825 0.021805644 -0.074037924
0.034273148 -0.2062414 -0.2341338 -0.18656455 0.013525264 -0.40021706 -0.098322846 -0.07158163
0.034698755 -0.20607291 0.14993018 -0.016522199 0.030000746 -0.38903138 -0.32305092 0.037113935
0.20386693 0.07404036 0.108139545 -0.14371881 -0.11811584 -0.032102756 0.11549553 -0.15564099
-0.11880959 -0.18273337 0.11980767 0.05373612 -0.20506346 -0.10576444 -0.23602395 -0.005337596
00000000: 5c1e c43d acfc cabe 40fb 653d 5070 85be
00000010: 6413 2cbe 3c11 dc3d 4aeb 1ebe 8da1 43be
00000020: 9745 44be a6e6 21be 747e 69bb 6648 dfbd
00000030: c736 6cbe 1035 983d 80b4 7a3c 4e21 c3bd
00000040: 1ffe bdbc c833 88bc 4df8 ca3d a7fc a33d
00000050: b7c7 d43d d7cc 4cbe 6636 28be 3137 dbbd
00000060: 37f2 26be 4d56 00be 148b c63d cf31 c8bb
00000070: 800a b0bc 88ff 9ebd c0a1 b23c 32a1 97bd
00000080: 0062 0c3d f230 53be c5c0 6fbe c70a 3fbe
00000090: 1299 5d3c 40e9 ccbe 7d5d c9bd 6499 92bd
000000a0: 4820 0e3d c704 53be 4c87 193e 9059 87bc
000000b0: 20c4 f53c 1f2f c7be ee66 a5be c804 183d
000000c0: 7ec2 503e 79a2 973d 4478 dd3d 062b 13be
000000d0: b8e6 f1bd 2e7e 03bd ec88 ec3d 5a60 1fbe
000000e0: 7152 f3bd 751e 3bbe b95d f53d 681a 5c3d
000000f0: 28fc 51be 079b d8bd 43b0 71be 00e7 aebb

models.524263.layers.3.weight f4 [32, 64]
-0.13313955 -0.13931468 0.014414847 -0.1784334 -0.03234555 0.09795137 0.11570677 0.064476974
0.06696741 -0.104443744 -0.025104728 0.079191625 -0.25927106 0.025804877 -0.085166425 -0.13906933
-0.074009374 -0.06417625 0.08074304 0.17564611 0.036723655 0.1336502 -0.12448999 0.075575754
-0.18769427 -0.12610371 -0.10248352 0.023690326 -0.05200441 0.035230026 -0.07422194 -0.055440806
0.10338108 -0.04043203 0.042114887 -0.07369905 0.3729633 -0.05213464 0.045218226 0.30865592
0.059768997 0.098899156 0.0681341 -0.050464436 -0.0421547 0.032978088 -0.08455319 0.112959534
0.060981303 0.19968401 0.0038851947 0.07900185 -0.02592931 -0.31856635 0.08410886 -0.060145915
0.027767476 -0.27674544 -0.30598557 -0.099853694 -0.24208175 0.07805288 -0.12248437 0.099322915
-0.066325106 0.017808264 0.08340989 -0.061429333 0.103936896 0.11391629 -0.09614818 -0.08558529
0.002959326 0.049356937 -0.022623308 -0.034570143 0.38867164 0.03328578 0.12078941 -0.25318873
0.050819892 0.11581607 -0.06607184 -0.09738563 0.01731818 -0.052965652 -0.10706042 0.028679928
-0.1109898 0.022529963 0.11785825 -0.04918193 0.0427451 0.16411142 -0.10060488 -0.067472726
-0.016302973 -0.16915366 -0.006387602 -0.030774135 -0.52388513 0.20512377 0.01755542 -0.25621995
0.30845052 -0.07692918 -0.039683506 0.11528474 -0.082816884 -0.10265727 0.011634376 0.09902044
-0.05200383 0.22837915 -0.016868904 0.1043242 0.072402574 0.03521871 -0.06574662 -0.111055166
0.11565285 0.36318853 0.3392293 -0.08516011 0.19137841 -0.041715242 -0.03902775 -0.032647207
0.061876144 -0.014306607 0.0022615194 0.056969896 -0.010538653 -0.10822651 0.013454318 0.05798621
0.021686524 0.011827543 -0.021186074 -0.12318933 -0.68893874 -0.070900336 -0.048466116 -0.057223577
0.012828452 0.017414048 -0.016095161 0.08330136 -0.045189958 -0.12028038 0.017905891 0.07373066
-0.105079375 0.03764746 -0.096674584 -0.021895206 0.08152698 -0.14789677 -0.013221994 0.117604695
0.062970236 0.0033834204 0.13382573 0.120361105 0.35931084 0.03868233 0.097359255 -0.07465807
-0.10944711 0.019453302 -0.07347779 0.038960278 -0.040792182 -0.14164671 -0.01167467 0.038002715
-0.0020766407 -0.13188417 0.008745357 -0.090323225 0.03192954 0.093356006 0.0045815706 -0.03023696
-0.14956841 -0.5888276 -0.55926865 -0.013191387 -0.5586109 0.079771824 0.061232194 0.093375504
-0.0065073697 -0.07705758 -0.09783238 0.039456498 -0.10046479 0.047754854 0.07265425 -0.07972895
0.043216348 -0.08564639 -0.029949531 0.08863829 0.43412066 -0.021055982 0.045379847 -0.3433917
0.02326061 0.021455511 -0.008870671 -0.17477693 -0.13451388 -0.12880005 0.053782493 -0.0023095354
-0.047290146 0.03135134 -0.06860948 0.12102198 -0.058224007 0.11536514 -0.11719689 0.040338833
-0.09256147 -0.18417878 0.042289164 -0.015269882 -0.29852378 0.04591547 0.048034776 -0.32500935
0.23100899 -0.09789389 0.024273545 0.01356633 -0.043080315 0.053358693 0.017738746 0.043973193
0.034811273 0.16482966 -0.06835498 0.009350755 0.09308107 0.06356914 0.08758436 0.00055733323
0.06934816 0.28655213 0.3476103 0.045060128 0.20790969 -0.0058988975 0.07825643 -0.097994894
00000000: bc55 08be 82a8 0ebe 402c 6c3c 3fb7 36be
00000010: c47c 04bd ba9a c83d acf7 ec3d 810c 843d
00000020: 3626 893d 9ae6 d5bd 6ea8 cdbc 382f a23d
00000030: 2dbf 84be c064 d33c bc6b aebd 3168 0ebe
00000040: 3a92 97bd d66e 83bd 9b5c a53d 93dc 333e
00000050: 8b6b 163d 99db 083e 9cf4 febd 76c7 9a3d
00000060: ed32 40be 5521 01be e1e2 d1bd 3712 c23c
00000070: 9402 55bd 5c4d 103d ac01 98bd e615 63bd
00000080: 76b9 d33d 0e9c 25bd a980 2c3d 87ef 96bd
00000090: 0cf5 be3e 228b 55bd bf36 393d 2608 9e3e
000000a0: 56d0 743d a48b ca3d e489 8b3d ccb3 4ebd
000000b0: 68aa 2cbd 0814 073d 392a adbd 5457 e73d
000000c0: 88c7 793d f779 4c3e c09e 7e3b b9cb a13d
000000d0: b469 d4bc 211b a3be 4441 ac3d 905b 76bd
000000e0: 9e78 e33c 94b1 8dbe 24aa 9cbe 1880 ccbd
000000f0: 47e4 77be 30da 9f3d 16d9 fabd d069 cb3d
00000100: 75d5 87bd a3e2 913c ced2 aa3d 539d 7bbd
00000110: dedc d43d f24c e93d 56e9 c4bd 5747 afbd
00000120: 40f1 413b 802a 4a3d 8454 b9bc 6c99 0dbd
00000130: f8ff c63e ac56 083d 7060 f73d f4a1 81be
00000140: 8528 503d fa30 ed3d ac50 87bd 1e72 c7bd
00000150: dbde 8d3c 83f2 58bd 7e42 dbbd 2bf2 ea3c
00000160: 9f4e e3bd c290 b83c ab5f f13d fe72 49bd
00000170: 7c15 2f3d d30c 283e ee09 cebd 242f 8abd
00000180: d08d 85bc 9e36 2dbe 174f d1bb 0a1a fcbc
00000190: 561d 06bf f70b 523e 62d0 8f3c 432f 83be
000001a0: 3aed 9d3e 0c8d 9dbd 2c8b 22bd 681a ec3d
000001b0: e69b a9bd fa3d d2bd 1c9e 3e3c 3acb ca3d
000001c0: f801 55bd 39dc 693e a830 8abc eda7 d53d
000001d0: cd47 943d 7e41 103d 2aa6 86bd e470 e3bd
000001e0: 67db ec3d d9f3 b93e 76af ad3e 6c68 aebd
000001f0: b4f8 433e 9add 2abd 90db 1fbd 14b9 05bd
00000200: d771 7d3d 4266 6abc 0036 143b 4459 693d
00000210: 50aa 2cbc dca5 ddbd 806f 5c3c f382 6d3d
00000220: f0a7 b13c 50c8 413c 6b8e adbc b04a fcbd
00000230: 4a5e 30bf 3234 91bd 6884 46bd 4563 6abd
00000240: 6d2e 523c e8a7 8e3c 00da 83bc e799 aa3d
00000250: 1b19 39bd 8f55 f6bd 60af 923c 1a00 973d
00000260: db33 d7bd 3934 1a3d 53fd c5bd 935d b3bc
00000270: 9ef7 a63d 4072 17be 10a1 58bc bbda f03d
00000280: 8af6 803d 60bc 5d3b 9d09 093e e27f f63d
00000290: 97f7 b73e 5d71 1e3d 4a64 c73d 55e6 98bd
000002a0: ce25 e0bd 885c 9f3c 867b 96bd d094 1f3d
000002b0: b415 27bd d60b 11be 1d47 3fbc bca8 1b3d
000002c0: 4018 08bb a50c 07be b048 0f3c 62fb b8bd
000002d0: 8dc8 023d 6f31 bf3d 0021 963b 80b3 f7bc
000002e0: 7628 19be 68bd 16bf 3b2c 0fbf b020 58bc
000002f0: 2001 0fbf 695f a33d 9cce 7a3d a83b bf3d
00000300: c63b d5bb 5dd0 9dbd 585c c8bd 239d 213d
00000310: 7cc0 cdbd 989a 433d c0cb 943d ef48 a3bd
00000320: a003 313d 6067 afbd b858 f5bc fe87 b53d
00000330: 1045 de3e 987d acbc 38e0 393d 09d1 afbe
00000340: 098d be3c 78c3 af3c 4a56 11bc b9f8 32be
00000350: 02be 09be 29e4 03be 084b 5c3d 935b 17bb
00000360: 50b3 41bd 436a 003d 2183 8cbd 5fda f73d
00000370: 4c7c 6ebd 8f44 ec3d ec04 f0bd 553a 253d
00000380: de90 bdbd 5d99 3cbe 6737 2d3d 872e 7abc
00000390: 1cd8 98be dc11 3c3d 1dc0 443d a067 a6be
000003a0: 9f8d 6c3e 987c c8bd 50d9 c63c 5045 5e3c
000003b0: fc74 30bd a58e 5a3d d950 913c 3c1d 343d
000003c0: 4496 0e3d 1bc9 283e b2fd 8bbd e933 193c
000003d0: 4aa1 be3d 8a30 823d 6e5f b33d 001a 123a
000003e0: 6806 8e3d f6b6 923e faf9 b13e f890 383d
000003f0: 47e6 543e 8a4b c1bb e844 a03d 8cb1 c8bd

models.524263.layers.3.bias f4 [32]
0.0023095442 0.115248434 0.04420719 0.03612242 -0.004359764 -0.037313092 0.11421524 -0.093297675
0.088751845 -0.044250917 0.33146557 -0.06874369 0.08048906 0.0380281 0.10412275 0.15831392
0.26606002 0.20672417 0.28836188 0.0764599 -0.093303695 0.18249507 -0.04018994 0.017289206
-0.03405996 -0.086060956 0.17034926 0.2838965 0.030396143 0.14379857 -0.09531496 -0.10993188
00000000: b95b 173b 5f07 ec3d 9912 353d 1af5 133d
00000010: 5adc 8ebb 9dd5 18bd aee9 e93d da12 bfbd
00000020: 87c3 b53d 7340 35bd dbb5 a93e 7ec9 8cbd
00000030: 73d7 a43d 5ac3 1b3d 4f3e d53d 0b1d 223e
00000040: 0539 883e 80af 533e 2ba4 933e 0297 9c3d
00000050: 0216 bfbd fddf 3a3e 359e 24bd 18a2 8d3c
00000060: 7582 0bbd ba40 b0bd 0970 2e3e e25a 913e
00000070: 5501 f93c ef3f 133e 7d34 c3bd f723 e1bd

models.524263.layers.6.weight f4 [16, 32]
0.42007622 -0.10683486 -0.060162485 -0.07096403 0.3586072 0.04528808 -0.08867581 0.07765447
0.14170372 0.34479883 -0.2692846 0.08947165 0.15148386 0.29651085 -0.038445856 -0.12435131
-0.11265409 -0.00019563694 0.1586432 -0.116454564 0.2654892 -0.03384067 0.29797956 0.16964257
0.17793214 0.32477105 -0.0828413 -0.0740379 -0.2533315 0.08912554 0.081552975 0.0906512
-0.15432051 0.20712017 -0.29568854 0.054798104 -0.34921074 -0.32900754 0.16843916 -0.100363836
0.21859995 -0.3055743 0.12179448 -0.3927022 0.22858801 -0.47261935 0.04236949 0.05830432
-0.061979655 0.07808264 0.3094405 0.03281058 -0.22127613 0.09206615 -0.31239465 -0.24842566
-0.24557573 -0.120413035 0.2622397 0.021459373 0.20570005 0.14758609 0.06516111 -0.3227655
-0.19268668 -0.1839565 -0.24214359 -0.16426715 -0.3790719 0.0581741 -0.05821973 0.10541232
-0.29069436 -0.15959354 0.33101916 0.44957644 -0.52566624 -0.16983525 -0.08572857 0.0046742954
0.2956968 -0.2222325 -0.2892884 -0.2543168 -0.19131878 -0.21296361 0.023657437 -0.023429455
-0.35035476 -0.22597995 -0.16579813 0.12038572 -0.19012626 -0.31252292 0.054135926 0.64671844
0.4079957 -0.07596384 0.10997085 -0.07133214 0.2754214 0.1478309 -0.14772855 0.17740308
-0.013079527 0.07041227 -0.28081456 0.28434983 0.015553447 0.20840082 -0.05236265 0.065061115
-0.14636415 0.16917536 0.08318593 -0.19752206 0.28042963 -0.11346743 0.21691284 0.0031625794
-0.02668841 0.36950862 -0.17226176 0.13557522 -0.06259698 0.14411663 0.07522546 -0.3561197
-0.16977392 -0.15334047 0.015998708 0.2201049 -0.13163236 -0.18118675 0.12111275 0.21507542
-0.08519185 -0.069624424 0.12866263 -0.06831676 0.09953412 0.1162587 -0.09045305 -0.18897545
-0.09240642 -0.03052576 -0.06643139 -0.052990094 -0.04662007 0.0052635893 0.003207274 -0.04513148
-0.0068955077 -0.080669865 -0.14291258 -0.028005796 -0.18976457 0.07105619 -0.0021267873 -0.15566115
0.16767323 -0.08945575 -0.06534649 -0.16754507 0.3067171 0.035727024 -0.24216528 0.28940815
-0.105734065 0.11655379 -0.24848299 0.531401 0.059929095 0.36832482 -0.05121082 -0.07910893
-0.07546515 0.0072049173 0.07296088 -0.29164118 0.22616321 0.061126523 0.28839028 0.07814524
0.24718271 0.3021775 -0.05105775 -0.134188 -0.36747143 0.09700042 0.089534424 0.14277661
0.2364669 -0.16935435 0.13644515 -0.03516421 0.45047915 0.16347635 -0.12590116 0.16453135
0.059114274 0.19181584 -0.1727435 0.22061591 0.064950086 0.25403464 0.018921062 -0.023540538
-0.2335496 -0.0074809217 0.11978585 -0.15598157 0.23496716 0.06707457 0.34304193 0.100473195
0.17558779 0.2207509 -0.12817906 0.14995341 -0.15570141 0.10620315 -0.04760504 -0.026635418
0.30129758 -0.19916904 -0.0037779962 -0.12137922 0.31669956 0.14386044 -0.20778273 0.26914382
0.037392877 0.045921672 -0.26469615 0.30781603 0.1758957 0.30645984 0.06304316 -0.091578364
-0.26266685 0.1672226 0.12900718 -0.16361709 0.1954414 -0.041670814 0.14834456 0.2334
0.1039539 0.3179753 -0.10304376 0.15283164 -0.22520274 0.09641861 -0.027798742 -0.18023685
00000000: 3b14 d73e 3ccc dabd f06c 76bd 9755 91bd
00000010: 5d9b b73e fe7f 393d aa9b b5bd 4f09 9f3d
00000020: c81a 113e 7989 b03e acdf 89be ea3c b73d
00000030: 961e 1b3e 45d0 973e 6779 1dbd e6ab febd
00000040: 30b7 e6bd e423 4db9 5d73 223e bb7f eebd
00000050: 33ee 873e 849c 0abd c790 983e c8b6 2d3e
00000060: d833 363e 6448 a63e b3a8 a9bd 2fa1 97bd
00000070: abb4 81be 7387 b63d 3f05 a73d 56a7 b93d
00000080: 3206 1ebe 4f17 543e 7d64 97be fa73 603d
00000090: c0cb b2be ad73 a8be 517b 2c3e 8e8b cdbd
000000a0: aad8 5f3e 3c74 9cbe 626f f93d 4310 c9be
000000b0: fa12 6a3e 2afb f1be a18b 2d3d 83d0 6e3d
000000c0: 61de 7dbd cbe9 9f3d fc6e 9e3e 6364 063d
000000d0: 3696 62be 2d8d bc3d 31f2 9fbe 4c63 7ebe
000000e0: 3478 7bbe 1c9b f6bd 4844 863e 91cb af3c
000000f0: 09a3 523e cf20 173e 3073 853d 8541 a5be
00000100: a84f 45be 185f 3cbe 7df4 77be a635 28be
00000110: b615 c2be f747 6e3d d077 6ebd 6ae2 d73d
00000120: e4d5 94be 7d6c 23be 587b a93e e22e e63e
00000130: 1092 06bf 4be9 2dbe 7692 afbd d52a 993b
00000140: 9265 973e eb90 63be 9c1d 94be d035 82be
00000150: 12e9 43be 2213 5abe 3ecd c13c 21ef bfbc
00000160: b361 b3be 4a67 67be fcc6 29be ca8c f63d
00000170: 75b0 42be 0103 a0be a2bd 5d3d 578f 253f
00000180: d0e4 d03e ee92 9bbd 6638 e13d 9616 92bd
00000190: 0904 8d3e fc60 173e 2746 17be 27a9 353e
000001a0: 834b 56bc 4f34 903d edc6 8fbe 4d96 913e
000001b0: e3d3 7e3c 0667 553e 387a 56bd c33e 853d
000001c0: 7ce0 15be 4e3c 2d3e 635d aa3d 3943 4abe
000001d0: 7994 8f3e 9d61 e8bd 661e 5e3e 4743 4f3b
000001e0: a7a1 dabc 3c30 bd3e 6365 30be 3bd4 0a3e
000001f0: d832 80bd 4f93 133e ce0f 9a3d 5255 b6be
00000200: 37d9 2dbe 4905 1dbe b90f 833c 2e63 613e
00000210: a2ca 06be 0589 39be f609 f83d bb3c 5c3e
00000220: 1179 aebd 4097 8ebd 23c0 033e a8e9 8bbd
00000230: 8bd8 cb3d 0b19 ee3d 733f b9bd c882 41be
00000240: 943f bdbd 2911 fabc 2e0d 88bd 240c 59bd
00000250: b0f4 3ebd 307a ac3b 2131 523b c9db 38bd
00000260: b6f3 e1bb 3e36 a5bd ad57 12be 696c e5bc
00000270: a551 42be e885 913d 9261 0bbb a365 1fbe
00000280: 88b2 2b3e 9434 b7bd 61d4 85bd ef90 2bbe
00000290: 060a 9d3e 8056 123d 2dfa 77be 4e2d 943e
000002a0: 1a8b d8bd c1b3 ee3d 5372 7ebe e509 083f
000002b0: 3678 753d 1295 bc3e 70c2 51bd dd03 a2bd
000002c0: 798d 9abd 3a17 ec3b 846c 953d fe51 95be
000002d0: 5497 673e ce5f 7a3d e4a7 933e 9d0a a03d
000002e0: 771d 7d3e 02b7 9a3e ee21 51bd 9468 09be
000002f0: 3725 bcbe 28a8 c63d d35d b73d 0834 123e
00000300: 6124 723e 3a6b 2dbe 47b8 0b3e 5908 10bd
00000310: 34a5 e63e 5866 273e 3cec 00be e87a 283e
00000320: cf21 723d 5f6b 443e ace3 30be 23e9 613e
00000330: 8d04 853d d410 823e 5800 9b3c 16d8 c0bc
00000340: a027 6fbe 8522 f5bb 4952 f53d a2b9 1fbe
00000350: 3b9b 703e 645e 893d 31a3 af3e e4c4 cd3d
00000360: 49cd 333e 860c 623e 5f41 03be 638d 193e
00000370: 3170 1fbe 0981 d93d 81fd 42bd 8532 dabc
00000380: ad43 9a3e f8f2 4bbe 4298 77bb ab95 f8bd
00000390: 7226 a23e 2750 133e ffc4 54be 38cd 893e
000003a0: 4629 193d 5d18 3c3d 4186 87be 109a 9d3e
000003b0: 011e 343e 4ee8 9c3e c61c 813d 708d bbbd
000003c0: 457c 86be 673c 2b3e 751a 043e 3d8b 27be
000003d0: ca21 483e 04af 2abd a3e7 173e 6900 6f3e
000003e0: c8e5 d43d a9cd a23e 9b08 d3bd e67f 1c3e
000003f0: 8c9b 66be 1f77 c53d 30ba e3bc 0290 38be

models.524263.layers.6.bias f4 [16]
-0.05425398 0.25509277 0.20038205 0.0026610882 -0.12219398 0.061103363 -0.0013387902 -0.07507978
0.18257421 -0.11836067 0.2118629 -0.030075768 0.25730604 0.24728498 0.40746948 0.059145633
00000000: 6c39 5ebd 859b 823e f430 4d3e a765 2e3b
00000010: d640 fabd 8547 7a3d 587a afba 6dc3 99bd
00000020: bcf4 3a3e 1467 f2bd 97f2 583e 7561 f6bc
00000030: 9ebd 833e 4638 7d3e d79f d03e b142 723d

models.524263.layers.9.weight f4 [1, 16]
-0.37143058 0.40067956 -0.7221771 -0.29421705 -0.15736565 -0.5384326 -0.2508461 -0.3471569
-0.65890586 -0.36526152 0.32186684 -0.49775958 0.3963507 0.31999752 0.37015262 -0.29894826
00000000: 262c bebe df25 cd3e 99e0 38bf 9ea3 96be
00000010: 7624 21be b8d6 09bf e66e 80be 8dbe b1be
00000020: 0eae 28bf 8f03 bbbe bbcb a43e 58da febe
00000030: 7bee ca3e b7d6 a33e a584 bd3e bf0f 99be

models.524281.layers.0.weight f4 [64, 17]
-0.0712785 -0.052233055 -0.15283579 0.0079648495 0.021356821 0.22162065 0.10866213 0.13835567
-0.086374536 -0.16977298 -0.0017869025 -0.16415115 -0.047103897 -0.075404495 0.11601779 -0.11476649
0.20259115 -0.22942886 -0.027129382 0.02162522 0.09436512 -0.22306539 -0.049859196 0.08449629
-0.024347827 -0.20771366 0.113280445 -0.17966557 0.17590594 0.049064428 -0.056260854 0.22941077
0.061432213 -0.20092788 -0.09326932 -0.10470572 0.16914159 -0.18747772 -0.0080099255 -0.022461593
-0.10219531 0.086352706 0.03492847 0.04013461 0.0029306859 0.1566064 0.065690875 -0.17632091
-0.13618699 0.14556867 0.033817798 0.58045053 -0.19754133 -0.41608465 0.13817716 -0.18565054
0.15178612 -0.082234114 0.0062566795 1.070736 0.17931324 0.036059394 -0.042821273 -0.074599415
0.006180623 0.13503402 -0.0458766 -0.07124696 -0.31514698 0.35550165 0.43810233 -0.241709
-0.074809864 -0.0492913 0.20943944 -0.13352789 -0.27801248 -0.23773146 0.1112967 -0.20602034
0.067418434 0.013013138 -0.11885432 -0.13133171 0.14290327 -0.20461619 0.3101387 0.031196369
0.12674828 0.33565247 -0.08830803 -0.04121295 -0.03580762 -0.77812904 0.07020445 0.0033721484
0.06573955 0.06762828 -0.0037791429 -0.03266186 0.09441248 0.1754904 -0.20001233 0.087734826
0.40312493 -0.2932761 -0.64082193 -0.08776732 0.14742678 -0.040033005 -0.37801522 -0.17983325
0.14641625 0.023010088 0.22908913 0.023838988 0.15524355 0.14026742 0.07534909 -0.38417673
-0.5229476 0.6478256 -0.336233 -0.15582764 -0.05469307 0.18050973 -0.22317374 -0.39387834
0.08277884 -0.02583315 -0.22236349 -0.18607935 0.00386619 -0.028342035 -0.052600984 0.2398611
0.28004637 0.06404467 0.016225124 0.035848334 0.09312917 -0.30704296 0.07912149 -0.06608958
-0.5858605 -0.052889045 0.0941925 0.08180236 -0.08151978 0.059458524 0.18487917 0.11033831
0.211326 0.05261603 -0.19378334 -0.19993514 -0.05196689 -0.005523622 0.12679061 -0.21746565
-0.22073057 0.081106395 -0.16245936 0.18285084 0.016621709 0.100311965 -0.09724672 0.03331217
-0.20086151 -0.1420939 0.1746045 -0.13498534 -0.06631787 -0.12493331 0.096010506 0.19478568
0.038461417 -0.13549504 0.17541522 -0.10492097 0.19640496 0.1766747 0.20916688 -0.16186865
0.095321774 0.15525568 0.22172704 -0.277434 -0.402317 1.1421578 0.079835735 0.0070718364
0.13810034 0.1857747 -0.13689871 -0.99899566 -0.09964629 -0.11163553 -0.115278326 -0.11687517
-0.0043466836 0.010248125 -0.035057046 -0.014202592 0.31755745 -0.36949918 -0.41352662 0.30931827
0.28015873 0.13020076 -0.052680288 -0.08656199 0.9935013 -0.03160779 -0.10539871 -0.01595593
0.061531376 0.0030438511 0.15672962 0.01897201 0.032128476 -0.19020286 -0.020262867 0.111312926
0.06860882 -0.125889 0.17284396 0.15099967 -0.1433304 -0.12770462 -0.055982918 -0.07692991
-0.0897889 -0.21985425 -0.19232519 0.06574419 0.05065787 0.07918045 0.35580134 0.043260742
-0.015516481 0.23495747 0.18142775 -0.0050908015 0.012351041 -0.009726571 1.0369669 -0.06198701
0.05395388 0.031648885 0.06292965 0.0032104584 0.052892685 -0.039088894 -0.037190296 0.13471422
00000000: 76fa 91bd 54f2 55bd fc80 1cbe 007f 023c
00000010: 80f4 ae3c 86f0 623e 408a de3d 1cad 0d3e
00000020: 22e5 b0bd f8d8 2dbe 8036 eaba 3d17 28be
00000030: 04f0 40bd ac6d 9abd bc9a ed3d b20a ebbd
00000040: 0e74 4f3e 66ef 6abe 703e debc 6027 b13c
00000050: 8042 c13d 416b 64be 2839 4cbd 640c ad3d
00000060: 1875 c7bc e4b2 54be 94ff e73d 40fa 37be
00000070: b020 343e c8f7 483d c871 66bd a8ea 6a3e
00000080: 58a0 7b3d 0ac0 4dbe fc03 bfbd f46f d6bd
00000090: 7433 2d3e 29fa 3fbe 103c 03bc 6001 b8bc
000000a0: c64b d1bd b0d9 b03d 2811 0f3d 3064 243d
000000b0: c010 403b 6e5d 203e f088 863d 788d 34be
000000c0: 9a74 0bbe f40f 153e 8884 0a3d 6898 143f
000000d0: 4648 4abe 0c09 d5be 507e 0d3e 2d1b 3ebe
000000e0: d26d 1b3e 5c6a a8bd d504 cd3b e10d 893f
000000f0: e49d 373e 04b3 133d 5c65 2fbd 94c7 98bd
00000100: d386 ca3b 5c46 0a3e 1ae9 3bbd ede9 91bd
00000110: f25a a1be 5004 b63e f34e e03e 9082 77be
00000120: ea35 99bd ade5 49bd 4b77 563e 89bb 08be
00000130: a757 8ebe e06f 73be 86ef e33d fff6 52be
00000140: ad12 8a3d 0f35 553c e569 f3bd d27b 06be
00000150: 3c55 123e e886 51be 80ca 9e3e 878f ff3c
00000160: 4dca 013e a4da ab3e d7da b4bd e9ce 28bd
00000170: 03ab 12bd 7733 47bf 5ac7 8f3d 43ff 5c3b
00000180: 75a2 863d b280 8a3d 7fab 77bb 71c8 05bd
00000190: 555b c13d c1b3 333e 08d0 4cbe 51ae b33d
000001a0: 6466 ce3e 4928 96be e80c 24bf 5abf b3bd
000001b0: 0cf7 163e a6f9 23bd 368b c1be 3526 38be
000001c0: 24ee 153e a77f bc3c 5796 6a3e fb49 c33c
000001d0: 2af8 1e3e 43a2 0f3e a050 9a3d d0b2 c4be
000001e0: e5df 05bf e6d7 253f bb26 acbe 4891 1fbe
000001f0: d705 60bd 8bd7 383e a887 64be 6caa c9be
00000200: f487 a93d 0ba0 d3bc 41b3 63be 968b 3ebe
00000210: e85f 7d3b 8e2d e8bc 2174 57bd 269e 753e
00000220: 3d62 8f3e da29 833d 8dea 843c b4d5 123d
00000230: 82ba be3d bc34 9dbe 730a a23d f959 87bd
00000240: f4fa 15bf 2fa2 58bd ffe7 c03d ff87 a73d
00000250: d8f3 a6bd c88a 733d f750 3d3e 0df9 e13d
00000260: d865 583e e883 573d 246f 46be ccbb 4cbe
00000270: 3cdb 54bd 80ff b4bb 66d5 013e 51af 5ebe
00000280: 3207 62be 1c1b a63d bf5b 26be 403d 3b3e
00000290: 402a 883c 5c70 cd3d 4a29 c7bd 5872 083d
000002a0: a4ae 4dbe 1081 11be 86cb 323e 9939 0abe
000002b0: aad1 87bd 09dd ffbd 28a1 c43d e675 473e
000002c0: b889 1d3d 36bf 0abe 0ca0 333e cee0 d6bd
000002d0: 621e 493e 36ea 343e d82f 563e e5c0 25be
000002e0: 1038 c33d 58fb 1e3e 6a0c 633e d40b 8ebe
000002f0: 7efc cdbe 3a32 923f eb80 a33d ddba e73b
00000300: 2d6a 0d3e b93b 3e3e 2d2f 0cbe 2ebe 7fbf
00000310: 5b13 ccbd 2ba1 e4bd 0b17 ecbd 405c efbd
00000320: a06e 8ebb c0e7 273c fa97 0fbd fdb1 68bc
00000330: e496 a23e ff2e bdbe c3b9 d3be f75e 9e3e
00000340: f770 8f3e 5953 053e 49c7 57bd 6a47 b1bd
00000350: 1a56 7e3f 2c77 01bd 47db d7bd 03b6 82bc
00000360: 5308 7c3d 597b 473b bb7d 203e 306b 9b3c
00000370: 2699 033d 8ac4 42be 50fe a5bc 08f8 e33d
00000380: c882 8c3d 0ce9 00be 02fe 303e a89f 1a3e
00000390: 34c5 12be 00c5 02be 584e 65bd 6e8d 9dbd
000003a0: 3ee3 b7bd 7921 61be e5f0 44be e4a4 863d
000003b0: a07e 4f3d 5c29 a23d 982b b63e 2d32 313d
000003c0: d738 7ebc b198 703e 32c8 393e bdd0 a6bb
000003d0: 055c 4a3c 325c 1fbc 55bb 843f 17e6 7dbd
000003e0: befe 5c3d 43a2 013d 43e1 803d 8e66 523b
000003f0: 00a6 583d ad1b 20bd da54 18bd 86f2 093e
