models/Ensemble/kaon_2.pt (torch, 71267 bytes, 28 tensors)

models.524287.layers.0.weight f4 [64, 19]
000000 11 75 85 3d 3a 2e d2 3d 9a 82 de 3d c1 29 4c 3e
       0.06516469 0.10262723 0.10864754 0.19937803
000010 9f dc 34 3e 23 e3 e5 3d f2 64 6b be 64 08 1c 3d
       0.17662285 0.112249635 -0.22987726 0.03809394
000020 26 db 40 3e 6a c1 21 be 53 fd b3 3d ae 88 ff 3c
       0.18833598 -0.15796438 0.08788552 0.031193104
000030 a8 23 e2 bd b7 fe 8c 3c da e4 4e 3e 2f 1b 71 bd
       -0.11041957 0.017211301 0.20204487 -0.058863815
000040 86 a0 6d 3c 92 6e 5c be ae 89 0b 3e a8 0e 99 bc
       0.014503604 -0.21526554 0.1362674 -0.018683746
000050 8f 98 2e be 20 ca 58 be 5b 5e 3f 3e 48 4b 2c be
       -0.17050384 -0.21170855 0.18688338 -0.16825593
000060 f1 8f 07 3e 35 b6 3a be a8 8d f3 3c 95 78 11 be
       0.13238503 -0.18233569 0.029730633 -0.14206155
000070 57 16 13 3e d0 84 62 be 19 9d 34 3e d7 78 66 3e
       0.1436399 -0.22120976 0.17638053 0.22507034
000080 a6 99 0c be db e3 43 be ab 7a 45 be ce b4 f9 3d
       -0.13730487 -0.19129889 -0.19285075 0.12192689
000090 27 5c 27 3e e8 72 01 bd 8f 17 0e 3f 87 4c 79 3f
       0.16343747 -0.031603724 0.555047 0.97382396
0000a0 d9 25 d2 bd 55 a5 8c 3d 0a b4 ae 3c a1 3d fd bd
       -0.10261125 0.06867472 0.021326084 -0.123652704
0000b0 19 ac 15 be b1 5a f4 bb 94 dc 52 3e bf 89 0f 3e
       -0.14616431 -0.0074571003 0.20591956 0.1401739
0000c0 7e 2f 1e bf 75 c0 9c bc 94 a5 cc bd 0d 0d 00 bd
       -0.6179122 -0.01913474 -0.09992519 -0.031262446
0000d0 0c 41 c0 3b 92 3d c2 3b 98 f4 76 3d d9 62 44 be
       0.005867129 0.00592775 0.060291857 -0.19178332
0000e0 6c cb 4d 3e ac 89 97 bd 36 f1 b3 bc 4b 6a 2a be
       0.2009713 -0.07399306 -0.021965604 -0.1664211
0000f0 7c 00 00 bf 9d e5 66 3f a0 5e f3 be 5a 6b 80 be
       -0.5000074 0.9019411 -0.4753313 -0.25081903
000100 86 f4 8e bd 0c 28 63 be 51 7f c4 bc b7 59 13 bf
       -0.06980233 -0.22183245 -0.02398649 -0.5755877
000110 0c 02 33 3e 1e d7 61 bd d8 f1 ac bd 76 cf 80 3d
       0.1748125 -0.055136792 -0.084445655 0.0628957
000120 c4 22 cc 3b 35 a0 2c 3e bf e0 8e 3d 84 52 2f be
       0.0062297303 0.16857989 0.06976461 -0.17121321
000130 de 43 d7 bd fa 59 04 be 63 15 3c be 17 1c 15 3e
       -0.105109915 -0.12924948 -0.18367533 0.14561497
000140 b5 34 2f 3e b9 ec 3f 3e 60 ad df bc 6a ea 19 be
       0.1710995 0.18742646 -0.027304351 -0.15030828
000150 7f 34 3f 3e 3c 31 d0 bd ae 53 b9 3d 3e 25 82 bd
       0.1867237 -0.10165641 0.09049164 -0.0635476
000160 46 4c 9d 3d 87 0e 53 3e 3e 39 92 3d e0 9b 5a bd
       0.07680564 0.2061101 0.07139824 -0.05337131
000170 05 5b 4a be 60 c8 0c bd 9e be 80 3d 00 c1 34 be
       -0.19761284 -0.03437078 0.06286357 -0.17651749
000180 0c a2 05 bd 70 c6 b9 bd 4d f7 2a be ca ba e2 3d
       -0.032625243 -0.09071052 -0.166959 0.110707834
000190 89 bd 0a 3e 18 60 92 bd 51 7e 53 3e ba 8c 82 bd
       0.13548864 -0.07147235 0.20653655 -0.06374498
0001a0 c0 34 7d bd d1 6b f8 bd 84 0c 3c be 90 c8 7d bc
       -0.061817884 -0.12129939 -0.1836415 -0.015489712
0001b0 99 02 4e 3e 06 e1 9c 3d b5 b8 da bd 7a ac 88 3d
       0.20118178 0.07660107 -0.10679761 0.06673522
0001c0 10 03 f7 bc ac fa 0b be 5f 90 1d 3e e7 5f 19 3e
       -0.030152828 -0.13669842 0.15387104 0.1497799
0001d0 02 76 e7 3d a4 a6 19 bd c0 5b 8b bb de d9 b6 bd
       0.11301805 -0.037512437 -0.004252881 -0.089282736
0001e0 40 10 b4 bb d4 8d 66 be 00 cb 82 3a fe a0 4a be
       -0.005495101 -0.2251504 0.0009978712 -0.19787976
0001f0 a4 04 4d be b8 60 a3 3c d9 d4 12 3e fb e7 41 3e
       -0.20021302 0.01994358 0.14339007 0.1893615
000200 97 1f e9 bd 1e cf 21 be 3a c7 14 be e6 82 ef 3d
       -0.113829784 -0.15801665 -0.14529124 0.11694889
000210 f3 cb 1c 3e 2e c0 d8 bd e8 82 1d bd 72 7c b0 3d
       0.15312175 -0.1058353 -0.03845492 0.08617486
000220 1d 69 27 3e b0 6b 6a bc be b4 ba 3d 0f 10 49 be
       0.16348691 -0.014307901 0.09116505 -0.19635032
000230 b2 25 e5 3d 33 5d 0b 3e 7e 0b 3a be bc 9e 78 3d
       0.111888304 0.13609771 -0.18168446 0.060698256
000240 03 50 5a 3e 24 2c 1c be 92 f5 8c 3d c0 d2 c0 bc
       0.21319585 -0.15251213 0.06882776 -0.023537993
000250 d6 00 4b be 34 39 1d be a0 be 75 bc 9d 53 47 3e
       -0.19824538 -0.15353853 -0.014999062 0.1946549
000260 83 6f b7 bf 33 bd 02 3f b6 8d 1c 3b fe 8d 37 3c
       -1.4330906 0.51069945 0.0023888177 0.011203287
000270 34 00 75 bf 51 ad 14 3f da 4e 16 3f 52 4e 36 3d
       -0.95703435 0.5807696 0.5871407 0.044508286
000280 57 f7 ca 3c 77 9b 6f bd 89 73 d5 3e 04 68 a6 bd
       0.024776144 -0.058497872 0.4168971 -0.08125308
000290 fd 57 0f bb c8 a5 fc bc 6d a3 9d 3c ab f6 38 bc
       -0.0021872513 -0.03084077 0.019242967 -0.011289279
0002a0 18 39 df ba cc 11 71 bd 6d 1e 36 3d 4f 4a dc 3e
       -0.0017030565 -0.058854863 0.04446261 0.43025443
0002b0 98 a5 69 bd 9d 8e 9f b9 4d 31 ae be 9e 90 b4 3e
       -0.057042688 -0.00030433098 -0.3402199 0.35266584
0002c0 e6 7e 8c bf c0 1d 65 bf 4b f6 9b bd 55 09 88 bd
       -1.0976226 -0.8949852 -0.07615336 -0.06642405
0002d0 ec 1a d5 3b b4 01 bd be 84 39 48 3c 56 c0 5b 3d
       0.0065034535 -0.36915362 0.012220744 0.053650223
0002e0 ff 9f a4 bc 81 05 c1 3c d5 41 62 3c c6 2c 23 be
       -0.020095823 0.023562195 0.013809641 -0.15935048
0002f0 f8 e7 f7 bd 76 69 35 3d 20 df 2c be ca 20 d0 3d
       -0.121047914 0.04429003 -0.1688199 0.10162504
000300 cc 7e 31 bd a3 39 44 3e f0 2e bb bd 8a 2c 58 be
       -0.043333814 0.19162612 -0.09139812 -0.2111074
000310 22 24 de 3d 35 7e 2f 3e 34 26 52 3d fd 8a 24 3e
       0.108467355 0.17137988 0.051305965 0.16068645
000320 b8 a3 14 bd e0 8c 00 3c 09 44 5c be 38 c2 54 bd
       -0.036288947 0.007846087 -0.21510328 -0.051943034
000330 56 37 8a 3d 60 d2 a1 bd 8b 67 1a 3e a3 23 15 3e
       0.06748836 -0.07901454 0.15078561 0.14564376
000340 11 8e 46 be f0 89 57 3c f6 37 21 be 76 e0 37 be
       -0.19390132 0.013155445 -0.15744004 -0.17956719
000350 65 29 1a 3e d0 8d 9d bc 6f 6b 5a 3e 44 62 b2 bd
       0.15054853 -0.01923266 0.21330045 -0.08710149
000360 d8 40 ce bc 84 86 56 3d 0c 9c 00 bd 4e d3 f1 3d
       -0.025177404 0.052374378 -0.031398818 0.11807881
000370 46 c6 01 be 63 6b 60 3e 21 9c 56 3e 34 8b 5a 3d
       -0.12673292 0.21915965 0.20957996 0.05335541
000380 08 1b 8b bd de d0 a8 3d d6 ab a4 3d 41 e9 04 3e
       -0.06792265 0.08242963 0.080405876 0.12979604
000390 18 ba 6c bf 4c 28 16 3e 36 8d a2 ba 4f f6 b6 3d
       -0.92471457 0.1466381 -0.0012401703 0.089336984
0003a0 e5 d2 53 3e 8e 45 7f bf 86 9e 3c bf 17 f4 be 3d
       0.20685919 -0.9971551 -0.7367939 0.093239
0003b0 d7 05 ea bd f4 8e d2 ba fc 24 9e bf 4d 7a 4f 3d
       -0.11426895 -0.0016064332 -1.2355037 0.050653744
0003c0 65 65 a4 bd e8 7a 10 3c 87 75 86 3c 9a a0 35 3c
       -0.08027152 0.008818366 0.016413463 0.011085654
0003d0 bc f3 ce bb 6d 7d f1 bb 65 cb e8 3c 33 c0 1b bf
       -0.0063156765 -0.0073696882 0.028417299 -0.6084015
0003e0 a7 fc 92 bf 4e 91 2c 3e 2d 10 98 3c 62 01 91 bf
       -1.1483353 0.16852304 0.0185624 -1.1328547
0003f0 ba 41 87 bd 1d 48 b7 3e d2 00 65 3d 1f e3 be 3d
       -0.06604333 0.35797206 0.055908985 0.09320664

models.524287.layers.0.bias f4 [64]
000000 77 87 9b bd f2 f0 ab 3d 9a ac 13 be c7 e9 31 be
       -0.07594197 0.08395566 -0.14421311 -0.17374335
000010 a5 17 4d 3e 40 69 36 bc 88 04 dc bc 90 14 1c 3c
       0.20028551 -0.011133492 -0.02685763 0.009526387
000020 af cd 70 be 3b 2f a3 be ba 1c 3e be bb 3f 3e 3e
       -0.23515962 -0.3187197 -0.18565646 0.18578999
000030 44 ce 48 3d 7d 47 fc bc e1 72 2a 3e 0d 18 79 be
       0.049024835 -0.030795807 0.16645385 -0.24325581
000040 2f 83 13 be 88 61 28 be 38 f1 d4 3d ee c1 58 3c
       -0.14405511 -0.16443455 0.10397571 0.01322983
000050 4c ec 8d be 90 4c dd bc 3c eb 3a 3e cf aa 26 be
       -0.27719343 -0.027014047 0.18253797 -0.16276096
000060 8a 49 8d 3d 40 7f 67 3c b9 e4 24 3e ce e9 12 3e
       0.06898792 0.01412946 0.16102876 0.14347002
000070 26 8f bc 3d 83 b8 a0 be 53 5c 12 be d3 54 08 3e
       0.09206991 -0.3139077 -0.14293031 0.13313608
000080 0b 4d 48 3e b3 29 b4 bd ba 8e 29 bd d8 03 e5 bd
       0.1956064 -0.08797016 -0.04139588 -0.11182374
000090 30 87 42 bc 2c a7 00 3d 00 19 d7 bc e0 a2 ad bd
       -0.0118730515 0.031409428 -0.026257038 -0.084783316
0000a0 e0 88 74 3c 5c 30 28 3d 88 ca 9a bd b8 70 02 bd
       0.014925212 0.041061744 -0.07558161 -0.03184578
0000b0 f0 9b 9a 3d b6 d7 f1 3d 46 f8 9e 3d 88 e5 ae 3d
       0.07549274 0.11808722 0.07762198 0.08539873
0000c0 d0 3c 32 bc 42 d9 ae be 9d 43 b7 3d d0 0b a2 be
       -0.010878757 -0.3415013 0.08948443 -0.31649637
0000d0 f5 37 bb 3d 04 f2 23 3d 71 2d 19 be 05 b8 69 be
       0.09141532 0.040025726 -0.14958741 -0.22824104
0000e0 16 6e 74 be 02 3e ca 3d 2f 44 00 3e 9b 4c 22 be
       -0.2387012 0.09875108 0.1252601 -0.15849535
0000f0 a3 f0 48 3e 25 c9 4b be 42 7c e3 3d 8c e1 0d 3b
       0.19623046 -0.1990095 0.11107685 0.002164933

models.524287.layers.3.weight f4 [32, 64]
000000 65 e8 60 bd 0a 2d f5 bd cb 16 9d bd 6b fe da 3c
       -0.05490913 -0.11971481 -0.07670363 0.026732644
000010 d0 25 d1 3d f4 5d 78 bd da 2b c2 3d d8 8f 80 bc
       0.1021229 -0.060636476 0.0948102 -0.01569359
000020 68 89 25 bd 4c 7c 69 be ba d0 ae bd 62 d0 d8 3d
       -0.040414244 -0.22801322 -0.08535905 0.10586621
000030 ed bf ab be a5 99 67 be 24 fb 55 bd 49 84 91 3d
       -0.33544865 -0.22617204 -0.05224146 0.071053095
000040 d4 a8 e9 bd b6 9c 13 be 10 7e 11 bd b5 a4 4d bf
       -0.114091545 -0.14415249 -0.035520613 -0.8032945
000050 1b f3 ca 3e ed 63 ec 3c 36 5a 03 3e c2 06 9c bd
       0.396386 0.028856242 0.12827381 -0.076184765
000060 d6 f5 b2 bd b0 57 4c bc 8a a3 aa 3d 74 5e 05 3e
       -0.08738296 -0.012472078 0.08331974 0.13024312
000070 20 5e 1d 3d 26 3a 15 bf af a7 8b bd 44 a6 e7 3d
       0.038419843 -0.5829185 -0.068190925 0.113110095
000080 f6 f8 80 3d 99 ca f1 3d 9a 53 8b 3d b7 8d 68 3d
       0.062974855 0.118062206 0.06803055 0.056775775
000090 3c e0 1a bd f8 8f d8 bc f8 f4 93 3c 25 d7 c9 3c
       -0.037811503 -0.026435837 0.018061146 0.024638722
0000a0 10 a5 28 bc e0 50 cf 3c 02 9d dd 3d 9c 4d b3 3d
       -0.01029326 0.025307119 0.108209625 0.08755037
0000b0 cd cf 8f bc 80 3a 6b 3b a4 70 2f 3d 08 4e 4b 3d
       -0.017555142 0.0035893023 0.04283203 0.049634963
0000c0 b0 85 21 3d 16 7e ce 39 25 92 3d bc e2 92 8a bd
       0.039434135 0.00039385323 -0.011570488 -0.06766297
0000d0 da fe 4f bd 2a 8b 84 3d 81 e9 36 bd df 36 6c 3e
       -0.050780155 0.06471856 -0.04465628 0.23067807
0000e0 03 46 00 be 51 44 da bc b4 72 2e bd 66 19 df 3d
       -0.12526707 -0.026643904 -0.04258986 0.10893516
0000f0 c5 09 0e be ce a9 97 3d 5c 2e ac 3d f5 c3 ac be
       -0.13870914 0.074054345 0.0840728 -0.33743253
000100 53 d8 e3 bd 38 17 49 bd 13 d7 b2 bd 88 40 11 bd
       -0.11125245 -0.04909441 -0.087324284 -0.035461932
000110 c4 01 d0 3d 00 af 00 bd 60 53 9b 3d 40 60 be 3d
       0.10156587 -0.031416893 0.07584262 0.09295702
000120 d7 90 9e bc 3d 66 e3 be 48 09 7d 3d 3c 41 08 bd
       -0.019356174 -0.4441394 0.06177643 -0.033265337
000130 09 56 d0 3e ae 90 a1 b8 a8 55 92 3c e6 98 20 3e
       0.4069064 -7.704027e-05 0.01786311 0.15683326
000140 f6 09 86 bd 91 a7 54 bb b9 bd b1 3d fc 11 77 bf
       -0.06544869 -0.003244851 0.08678765 -0.96511817
000150 64 00 c0 3e 12 aa ba 3c b4 1a a2 bd 70 77 a3 bc
       0.37500298 0.022786174 -0.079152495 -0.019954413
000160 f8 1f f3 3c ac 7d d4 bd a0 b4 88 bd b2 49 df 3d
       0.02967833 -0.103755325 -0.066750765 0.10902728
000170 c0 a3 6e bc 80 49 12 bf 40 f3 46 bd bc 89 98 bd
       -0.014565408 -0.571434 -0.048571825 -0.07448146
000180 d8 36 c0 bd 9f 76 ad bc 09 a5 a8 bd f5 ad 07 bc
       -0.093854606 -0.021174727 -0.08234603 -0.008281221
000190 c0 39 98 3b 18 72 80 3d c4 a2 fa 3d 40 2f af 3e
       0.004645556 0.06271762 0.12238076 0.34215736
0001a0 38 9b eb 3c cc b7 34 bd 48 22 8f bd 20 c3 57 bc
       0.028760538 -0.044120595 -0.069889605 -0.01316908
0001b0 04 cf 29 bd fc 7c a9 3d 74 66 b7 bd 54 7b 5f 3c
       -0.04145719 0.08275792 -0.08955088 0.013640244
0001c0 34 86 c6 3d 79 35 c5 3d 93 74 97 3c 74 89 f2 3d
       0.09693566 0.0962934 0.018488204 0.11842623
0001d0 25 c7 8f bd f8 4f b4 3c ef 51 17 bf d7 08 9e 3d
       -0.07020406 0.022010788 -0.59109396 0.0771653
0001e0 36 ad 00 bd f6 0b a1 3d 42 f9 9e bd 1b 54 0f 3b
       -0.031415187 0.078636095 -0.07762386 0.00218702
0001f0 6b 5b fe 3b b8 9d 20 3d 14 16 7a 3d 72 9b 74 bb
       0.0077623627 0.039212912 0.06105621 -0.0037324098
000200 86 b3 74 3d fe 97 d7 3d 77 85 41 bd cb 8c c2 3c
       0.05974152 0.10527037 -0.047246423 0.023748776
000210 82 0f 9a bd 7e 14 92 bd ac 93 0b bd 28 41 cf 3d
       -0.07522489 -0.07132815 -0.034076378 0.101198494
000220 34 75 79 be b8 2b c4 3d e4 15 d7 3d 78 69 4d bd
       -0.24361116 0.09578651 0.10502222 -0.05014941
000230 bb 7c 83 bf ca 40 96 bc b8 4a 85 bc 74 43 1b 3e
       -1.027244 -0.01834144 -0.01627098 0.1516245
000240 30 5c 22 bd f5 82 50 bd ad c6 d4 3d a9 da b9 3e
       -0.039638698 -0.05090614 0.10389457 0.36299637
000250 b9 bc 4e be 39 e9 c8 be 00 d2 97 3d a0 34 2e 3d
       -0.2018918 -0.39240435 0.07413101 0.042530656
000260 00 cd fc bb fc 72 b9 bd 08 0b d1 3d fe 24 ba bc
       -0.0077148676 -0.09055135 0.10207182 -0.022722717
000270 6c 3c e8 bd 50 31 17 3e 78 7f 77 bd 60 e4 f3 bb
       -0.113396496 0.14764905 -0.060424298 -0.007442996
000280 94 bf cd 3d 70 93 da bd 91 06 8c be 60 45 d4 3c
       0.10046306 -0.10672653 -0.2734876 0.025911987
000290 d0 38 2b 3d 04 45 47 bd 08 0a 5d bd 0d 8c 30 bf
       0.041802227 -0.048649803 -0.053964645 -0.689637
0002a0 e0 43 37 3d 01 33 72 bd 74 68 9a bd ac cc 8f 3d
       0.044742465 -0.059130672 -0.07539454 0.0702146
0002b0 bc c7 e6 bd 38 a5 6f bd d8 37 af bd a8 9f f8 bd
       -0.11268565 -0.058507174 -0.08555573 -0.12139827
0002c0 ba 8d fd bd 35 f6 ce 3d c4 4f 92 bc dc 1c 81 3d
       -0.12380548 0.10105554 -0.0178603 0.063043326
0002d0 de 06 07 3e 40 df 2e 3c 80 e7 4f 3e 8e 92 ab 3d
       0.13186213 0.010673344 0.20303154 0.083775625
0002e0 43 b9 08 3d b4 bf 13 bf 88 05 49 3d 4e 62 9a bd
       0.033379804 -0.5771439 0.04907754 -0.075382814
0002f0 8a b4 00 bd 38 d5 97 3d 00 f4 55 ba 52 e5 32 bf
       -0.031422175 0.07413715 -0.0008161664 -0.69881165
000300 ea eb 48 bd 40 07 4e 3d 54 bf ef bc a1 e8 44 3c
       -0.04905311 0.050299883 -0.029266037 0.012018354
000310 e4 4f 9c 3d 30 72 7b 3c 84 0d a9 3d 60 6c e1 bd
       0.076324254 0.015347049 0.08254531 -0.11006999
000320 0d 12 b9 3c f8 5b 61 be ec c9 cc 3d 88 7b fe bc
       0.022591615 -0.2200774 0.09999451 -0.031064764
000330 45 5f 0f 3e 58 34 a6 3b fc 7b 9b bd c2 45 4a 3e
       0.14001186 0.005072158 -0.075920075 0.19753173
000340 62 2e cc 3d 51 93 9d bd bc d7 c1 bc 08 57 27 bf
       0.09969784 -0.07694114 -0.02366244 -0.65367174
000350 c0 a9 01 3e 16 2a 4c be 32 b0 d3 ba 40 8a 2c 3b
       0.1266241 -0.1993793 -0.0016150533 0.002632752
000360 96 93 ae 3d 10 9a a8 3d 16 e5 9e 3d b9 46 f6 bd
       0.085242435 0.0823251 0.077585384 -0.12025208
000370 ae bf 99 bd 98 48 04 bf c8 c7 82 bc 20 f1 ba bc
       -0.07507263 -0.5167327 -0.015964404 -0.022820055
000380 c8 ec 71 3d 8f 54 c1 bc 4f f4 93 3c 1d 66 58 bd
       0.059063703 -0.023599891 0.018060831 -0.052831758
000390 1e 65 c4 bd cc 8e 8b bd 10 c9 fa 3d 53 af c4 3e
       -0.09589599 -0.06814346 0.12245381 0.38415012
0003a0 88 2e a2 bc 00 53 35 bd 62 a8 b9 3d 5c 2f 5b bd
       -0.019797578 -0.044268608 0.090653196 -0.053511962
0003b0 c0 1f ec 3d 74 90 a4 bd 48 f6 da bd d0 fb 60 3c
       0.11529493 -0.08035365 -0.10691506 0.013731912
0003c0 68 e4 59 3d 88 26 c1 3d 46 0f 01 bd 79 bd f9 bd
       0.05319634 0.094311774 -0.031508707 -0.12194342
0003d0 e3 c0 8e bc 60 73 81 3b 0a e0 3f be 40 65 1f be
       -0.01742596 0.0039505213 -0.18737808 -0.15565968
0003e0 2d 94 a0 39 2e 5b b4 3d 28 4d be 3d d2 04 d4 bd
       0.00030627978 0.08806454 0.0929206 -0.10352482
0003f0 14 c7 08 3e 82 db 82 3d 30 c7 85 3d b7 73 3b bd
       0.13357192 0.06389524 0.065321326 -0.04576465

models.524287.layers.3.bias f4 [32]
000000 fd 04 8d bd 7d 75 cd 3d 06 2c 3f 3e 17 af 76 3c
       -0.06885717 0.10032175 0.18669137 0.015056393
000010 2a 62 29 be c2 c5 e0 3d d2 18 04 3c 11 41 27 be
       -0.16541353 0.10975219 0.008062558 -0.16333415
000020 d1 07 cf bd 29 13 64 bd d1 72 a1 3c 88 d7 9e 3e
       -0.10108913 -0.055682335 0.019708069 0.31023812
000030 7e b0 c5 bd 00 ee 9e bd ea 66 67 3e 4e 02 91 3c
       -0.09652804 -0.07760239 0.22597852 0.017701294
000040 df 0d 2d be 7b 55 01 3e 8b 8c b1 3e 15 00 94 3e
       -0.16899823 0.12630264 0.34677538 0.28906313
000050 d3 28 be 3e de a9 72 be cb 9e 1e be 15 c0 4c 3e
       0.3714052 -0.23697612 -0.15490262 0.19995148
000060 a4 00 0d 3f ac 47 c7 ba 9b e6 4a be fd 39 74 be
       0.550791 -0.0015203855 -0.19814532 -0.23850246
000070 23 4f c3 3d f6 36 62 be 3d aa 03 3e c7 94 eb be
       0.095365785 -0.22091278 0.1285791 -0.46011946

models.524287.layers.6.weight f4 [16, 32]
000000 19 1d 8d 3e 44 9b 0b 3f 52 7f 37 be ed f6 e0 3e
       0.27561262 0.5453379 -0.17919663 0.4393839
000010 0a 1f 11 3d c8 73 25 3e ab f0 c7 3e c6 ac 0e 3f
       0.03542999 0.16157448 0.39050803 0.5573238
000020 54 e6 d5 bc 02 b9 dc be f6 dc 61 3e 6a 70 2a 3d
       -0.026110806 -0.431099 0.22056946 0.041611113
000030 e9 1e ef 3d e6 65 07 3d 8a 23 e1 3e b6 ab cb 3d
       0.116758175 0.033056162 0.43972427 0.09944861
000040 6b d9 a3 3d d4 06 c8 3e 35 e3 eb 3b 96 bb 92 3e
       0.080004536 0.3906771 0.007198716 0.28658742
000050 ae 51 38 be 33 84 e0 3c a8 d2 1c be 37 5d 6e 3f
       -0.17999908 0.027406787 -0.15314734 0.93110985
000060 a4 33 69 bc dd fd 85 bd a0 d6 f6 3d d4 d1 c3 3c
       -0.0142335035 -0.06542561 0.12052655 0.023903765
000070 a9 60 87 bd b2 09 60 3d 5f 75 9a 3d 8e 3d e4 3e
       -0.06610233 0.054696746 0.07541918 0.44578212
000080 14 c6 d6 3e 0e ce 31 3f cd 2e 8f be c9 d4 b5 3e
       0.41947997 0.6945504 -0.27965394 0.35513905
000090 a9 5f 01 bc 48 b3 6f 3e 8e 3b ee 3e a8 71 c4 3e
       -0.007896342 0.23408234 0.46529812 0.38367963
0000a0 1a d5 7c 3d d1 0d 5d be 92 b0 40 3e c0 f0 91 bc
       0.061726667 -0.21587302 0.18817356 -0.017814994
0000b0 a9 6c 49 3d 6b 47 c6 bc e4 c9 95 3e 31 3c 7e 3e
       0.049175892 -0.024203977 0.29255593 0.24827649
0000c0 c6 2e 1e 3e d3 b6 14 3f 6e 65 99 3d 04 fd ad 3e
       0.1544753 0.5809147 0.07490049 0.33982098
0000d0 75 9f 55 be 61 27 93 3e 45 e6 62 3e 83 18 91 3f
       -0.2086161 0.2874098 0.22158153 1.1335605
0000e0 05 d3 63 bd 37 9c 9c bd 96 f3 d4 3b de 61 d2 bc
       -0.055621166 -0.07646983 0.0064987643 -0.025681432
0000f0 41 bf e2 3d 31 81 24 3e c6 c5 73 3e 0b 2d 18 3f
       0.11071635 0.16064908 0.23805913 0.5944373
000100 1b dd 8e 3e ca 7d 8a 3e 0c 24 05 be 78 00 3e 3d
       0.27903065 0.27049094 -0.13002032 0.046387166
000110 34 76 70 3e ae 9d e7 bc 05 02 6f 3e f3 68 9f 3e
       0.23482591 -0.02827343 0.23340614 0.31134757
000120 a6 4d ed 3d 22 ee 0e 3e eb 70 f0 3c 47 cd 4c 3e
       0.11587076 0.13958028 0.029350718 0.20000182
000130 1f 15 2e 3e 56 f8 e5 3c 7f 13 a8 bd 85 1d f6 3d
       0.17000245 0.028072517 -0.082068436 0.12017349
000140 c4 e5 3e 3e 8c 53 58 3e 20 e8 66 3e 51 8f ae bd
       0.18642336 0.2112562 0.22549486 -0.08523429
000150 c4 1e bf bb 93 15 93 3e c8 ed 59 3d 49 2d 03 be
       -0.005832525 0.28727397 0.05320528 -0.12810244
000160 9c 18 01 bf 7d 3a f5 3d 0a af 2c 3e c3 65 34 3e
       -0.50428176 0.119740464 0.16863647 0.17616944
000170 14 36 e8 3d 6a 7c e4 3d 19 2f 08 bd 29 4c f9 3e
       0.113384396 0.111565426 -0.03324804 0.48690918
000180 86 e0 5f be c3 42 d8 be 58 63 22 3f 87 b1 cf be
       -0.21862993 -0.42238435 0.63432837 -0.4056513
000190 65 c6 e0 bd f5 ac 49 bf aa 29 99 be e5 29 38 bf
       -0.10975341 -0.78779536 -0.299146 -0.71938926
0001a0 84 c4 fa bd 4d a0 cb 3d 07 c2 bc bd ea 06 70 3e
       -0.12244514 0.09942684 -0.09216695 0.23440138
0001b0 3e 0d ae be c1 8e 95 be ea 02 c6 be 5a 8f 23 be
       -0.33994478 -0.29210475 -0.38674098 -0.15972653
0001c0 bd 87 6a be 56 a4 d5 bd ea 09 bf 3e 3e 19 00 bf
       -0.22903343 -0.10431735 0.3731225 -0.50038517
0001d0 b4 5d 0f 3f 4a a4 0a bf b3 39 8a be d7 ff 44 bf
       0.56002355 -0.54156935 -0.26997146 -0.7695288
0001e0 c6 37 dd 3e 68 c3 ef bd 75 6c b4 be c2 ad a1 be
       0.43206614 -0.11707193 -0.35238996 -0.3157788
0001f0 31 a0 e6 be c1 52 fc be 61 71 52 bf 97 9c 4c bf
       -0.4504409 -0.49281886 -0.8220425 -0.7992644
000200 fa 15 4c 3e 04 86 21 3f 6f 9d 28 be f2 bf 81 3e
       0.19930258 0.63095117 -0.16466306 0.25341755
000210 eb 1c d5 3d b0 81 95 3e f2 76 65 3e 63 ab 0d 3f
       0.10405906 0.29200506 0.22408655 0.5533964
000220 65 fe 58 3e 5b 6f 03 bf cb b9 d9 3d af 7b b0 3d
       0.21190794 -0.5134179 0.1063114 0.08617341
000230 a9 b6 c1 3b 43 03 48 3d 24 be d5 3e 2c 98 3a 3e
       0.0059116674 0.048831236 0.41746628 0.18222111
000240 5d 08 2c 3d ce a4 fb 3e c6 6f 9e 3c 8f 93 4f 3e
       0.042000163 0.49149173 0.019340407 0.20271133
000250 0c bb d5 bd 65 e5 28 3c 3d 07 a6 3d a2 f2 8a 3f
       -0.10436067 0.010308598 0.08106849 1.0855296
000260 a2 c7 0c 3d 04 5d 07 3b 1f 5f 1a bd 45 d2 70 bc
       0.034370072 0.0020654807 -0.03768837 -0.01469857
000270 d0 30 4f bd 05 bc cd 3d 9d a1 e4 bb 44 b8 0f 3f
       -0.05058366 0.100456275 -0.0069772736 0.5614054
000280 cf d4 db 3e a2 0d 91 3e 9d f7 3f be f1 87 61 3d
       0.42935798 0.28330714 -0.187468 0.055061284
000290 7c 29 93 3e e2 91 b9 bd 7c b8 98 3e 20 36 d0 3e
       0.28742588 -0.09061028 0.2982825 0.40666294
0002a0 2c fa 87 3e ff 03 1a 3e 47 80 a6 bd 15 32 6e 3e
       0.26558053 0.15040587 -0.08129936 0.23261292
0002b0 5a 47 a3 3d 0e 16 d4 bb d4 2d b1 3b 39 8e 80 3d
       0.079725936 -0.0064723557 0.0054070745 0.06277127
0002c0 5d f0 27 3e 12 29 a0 3d fa f5 13 3e dc 06 7f bc
       0.16400285 0.078203335 0.14449301 -0.0155656
0002d0 5d fa dd bd 99 d5 a8 3e 74 5f 3d 3e 58 4b 23 bd
       -0.10838769 0.32975462 0.18493444 -0.039866775
0002e0 ca 65 f4 be e1 0a 05 3e 06 18 07 bb e3 7d 05 3e
       -0.4773391 0.12992431 -0.0020613684 0.13036303
0002f0 cc 81 88 b9 07 56 61 3e 06 58 72 bd 91 fa 33 3f
       -0.00026036648 0.22005473 -0.059165977 0.7030421
000300 00 69 91 3e e1 5f 10 3f 41 0a 20 bf e7 f2 fd 3e
       0.2840042 0.563963 -0.62515646 0.49599382
000310 7d 5e ba 3d a9 70 0a 3e e4 f2 f8 3e 96 0e 6c 3e
       0.091000535 0.13519539 0.4862281 0.23052439
000320 f4 12 80 be 22 61 0b be aa a8 c2 bd 53 28 0d bf
       -0.2501446 -0.13611272 -0.09504826 -0.55139655
000330 f8 9c 33 bc b2 1e 35 be 80 3d 13 3f e6 c8 8b 3e
       -0.010962717 -0.1768749 0.57515717 0.2730171
000340 d3 fa 67 bd 8f b2 f5 3e d2 24 d6 be a6 cc d0 3e
       -0.05663569 0.47987792 -0.41824967 0.40781134
000350 95 f3 bb be ec b0 9c be 83 53 0c 3e 50 2f 53 3f
       -0.36709276 -0.3060373 0.13703732 0.8249407
000360 8b 74 ab 3e 48 89 a0 bd dc fb 0e 3e 0e 28 66 be
       0.33487353 -0.07838684 0.13963264 -0.22476217
000370 76 07 64 3d 52 3d 10 3e f8 67 f2 3d c0 4a 91 be
       0.055671178 0.14085892 0.11836237 -0.28377342
000380 1f e1 c6 3e c9 89 a2 3e d9 38 e1 bd fc a7 8b 3e
       0.3884363 0.31745747 -0.10997171 0.272766
000390 e3 2c 37 3e 99 10 dc bc 6b 40 e6 3e a2 5e 68 3e
       0.17888217 -0.026863383 0.44971022 0.2269235
0003a0 9b 0e 14 3e 34 4e 02 3d 25 d0 ce bd 8a 00 c1 3d
       0.14458697 0.03181286 -0.10098294 0.09423931
0003b0 c5 8a 0b 3e 6d 08 c9 3d 0d 41 37 3c 44 74 83 3d
       0.13627155 0.0981606 0.011184943 0.0641866
0003c0 a7 43 21 3e da 67 fd bd 4b b5 d2 3d 0d 3c ed 3c
       0.15748464 -0.12373324 0.10288485 0.028959299
0003d0 77 94 07 be 7b 1d 83 3e 36 a2 79 3c 76 0f 02 be
       -0.13240229 0.2560843 0.015236428 -0.1270121
0003e0 1d 55 d2 be ba be c7 3d 0e bc 4e 3d 6a 3f 40 3c
       -0.4108056 0.09753175 0.05047231 0.011733869
0003f0 91 a7 e4 bd 8b 5f 5c bd f1 33 b4 bd 7e 7e f7 3e
       -0.11164773 -0.053802054 -0.087989695 0.48338693

models.524287.layers.6.bias f4 [16]
000000 f3 af a0 3d 66 9c b9 3d 0b 46 70 be 5a a1 30 3f
       0.0784606 0.09063034 -0.2346422 0.689962
000010 fb ec a1 bc 0e c9 22 be df 5e c5 3d 32 2b 2d bd
       -0.019766321 -0.15897009 0.09637236 -0.042277522
000020 d8 92 4e 3e 83 35 d0 3d cd c5 2a 3c f1 70 8b 3d
       0.20173204 0.101664566 0.010423136 0.06808651
000030 71 c9 49 bd 17 16 61 3e 7a 23 81 3d d5 fb 19 3f
       -0.049264375 0.21981083 0.06305595 0.6014989

models.524287.layers.9.weight f4 [1, 16]
000000 46 59 26 bf 58 8e c3 be 53 98 84 be f5 36 87 3f
       -0.6497997 -0.38194537 -0.25897464 1.0563647
000010 f8 8b 18 bf fb 13 86 be f4 66 30 bf df 3d df be
       -0.59588575 -0.2618712 -0.68907094 -0.4360189
000020 94 8d 2b bf e7 9c 15 bf ea 57 c2 be c5 04 a5 be
       -0.67012906 -0.5844254 -0.37957698 -0.322302
000030 65 b4 d4 be 50 05 ff be 47 7b 77 be 8e b2 aa 3f
       -0.4154388 -0.4980874 -0.2416812 1.333574

models.524263.layers.0.weight f4 [64, 17]
000000 b6 81 45 3f 87 95 0c 3e 03 76 9d ba 60 9b 07 3f
       0.7715105 0.13728915 -0.001201332 0.5297146
000010 07 a9 22 3f ad 89 97 bd 6c aa fe 3c b4 f2 1a bd
       0.63539165 -0.073993064 0.031087123 -0.037829116
000020 3f ce 58 bf cd f2 8c bc 78 87 90 3d 43 d2 7e ba
       -0.84689707 -0.01720562 0.070570886 -0.00097206625
000030 c5 03 04 3d 3c ab 34 ba c5 16 19 bd 18 62 9a 3e
       0.032230157 -0.0006891971 -0.03737523 0.30152965
000040 91 04 90 ba 20 07 84 3d 7c 36 04 3e 30 29 bb 3c
       -0.0010987689 0.064466715 0.12911409 0.022846788
000050 dc 49 34 3e e0 4d 9f 3c 08 03 15 bd 30 1d eb bd
       0.176063 0.019446313 -0.036379844 -0.114801764
000060 79 6e 2d be b4 45 23 bd b0 d1 e3 3c b6 78 34 3e
       -0.16936673 -0.039861396 0.027809948 0.17624173
000070 cc 50 88 bd e0 76 55 3e 56 eb 4b be 70 7b 64 bd
       -0.06656036 0.20846128 -0.19913992 -0.05578178
000080 3c d4 15 be 18 c3 15 3e 9c f1 9e bd bc 67 48 bd
       -0.14631742 0.14625204 -0.07760927 -0.048927054
000090 28 f2 18 be 76 56 46 be f8 b2 c5 3d 14 c9 6e be
       -0.14936125 -0.1936892 0.09653276 -0.23318893
0000a0 83 e2 6b be 00 9e 07 bb 9e 25 6a be fc 80 ba bd
       -0.23035626 -0.002069354 -0.22865912 -0.09106633
0000b0 68 c9 75 3d 32 41 5b 3e 0e ff 44 be a0 09 23 bd
       0.06000653 0.21411589 -0.1923792 -0.0398041
0000c0 e8 99 c6 bc 5c 56 29 3e b7 55 45 be c3 6f fa bd
       -0.02424331 0.1653685 -0.19270979 -0.12228348
0000d0 10 fc d5 3d 76 e3 ef bd 3b 93 3c be fc 37 59 3e
       0.10448468 -0.117133066 -0.18415539 0.21212763
0000e0 0c d0 a3 3d 98 f2 57 bd 16 05 35 3e ac b8 a3 3d
       0.07998666 -0.05272159 0.17677721 0.07994208
0000f0 2c f2 16 3e 8a 64 4f 3e 58 12 de 3d a4 5d f3 3d
       0.14740819 0.20253196 0.108433425 0.11883095
000100 4a 9e 57 be 8c 9b a2 3d 32 fe 90 bd 12 82 49 3e
       -0.21056476 0.079398245 -0.07079734 0.19678524
000110 b2 64 1d be b0 52 a1 3d a4 eb 3a be a0 be ba 3d
       -0.15370443 0.078770995 -0.18253952 0.0911839
000120 ac d4 2f be 20 a9 28 3d 38 6c 0e be 43 70 14 be
       -0.17170972 0.041176915 -0.1390847 -0.1449595
000130 00 e1 10 be 80 4b 33 bb 62 e7 b5 bd 89 63 72 be
       -0.1414833 -0.0027358234 -0.088820234 -0.23670782
000140 e3 1c 32 be 64 c9 2e bd c0 96 99 bd 98 a5 aa bd
       -0.17393832 -0.04267253 -0.074994564 -0.08332366
000150 d0 37 cb bd 90 93 56 3e e8 1a 2a 3d 94 b6 01 3e
       -0.09922755 0.20954728 0.041529566 0.12667304
000160 7e 9f 04 be 04 27 68 3e 92 8c 56 be ea 60 4f 3e
       -0.12951466 0.22671133 -0.20952061 0.20251814
000170 90 94 63 bc f4 f5 c0 3d 38 c4 26 be 6c c9 2e 3e
       -0.0138904005 0.09421912 -0.16285789 0.17069024
000180 ee ea b5 bd 2c 15 5f 3e a8 5a ca bd 37 93 72 be
       -0.088827 0.2178542 -0.098805726 -0.2368897
000190 be 2e 18 be 19 3b 51 be 60 f9 6c 3c 1c 09 2a bd
       -0.1486158 -0.204327 0.0144637525 -0.041512594
0001a0 64 24 91 3d a9 d2 38 be 20 45 a5 3c 6c 3a 43 be
       0.07087019 -0.1804911 0.020174563 -0.19065255
0001b0 54 77 af 3d 8c 5a 73 bd c0 2c ca bc 30 07 1c bc
       0.08567682 -0.059412524 -0.024679542 -0.009523198
0001c0 ac 75 40 be c0 14 bb bd 00 d4 21 39 ef 67 01 be
       -0.18794888 -0.09134817 0.00015433133 -0.12637304
0001d0 c0 2a 79 3c e8 14 21 3d 34 70 a2 3d cb 28 cf 3f
       0.015207946 0.03932658 0.07931557 1.6184324
0001e0 a8 c1 40 3e db ba cd 3a a5 d3 b6 3b 1c 8e 79 3e
       0.18823874 0.0015695946 0.005579429 0.24370617
0001f0 7c b4 bb 3c ef b8 ce 3d ef 67 6f bc 77 37 92 3f
       0.02291321 0.10093867 -0.014612182 1.1423177
000200 45 cc ca bd 8c ce 61 3c ef 59 83 3b 8f 8d 65 3d
       -0.099022426 0.013782155 0.0040085237 0.056043204
000210 06 d4 56 bc 9d f8 d6 3c 74 27 c2 b9 fa 9f bd bb
       -0.013112074 0.026241595 -0.00037031958 -0.005786893
000220 7a bd 12 bd 5f 69 a0 bc 54 51 52 3c 32 ec d0 3c
       -0.03582523 -0.019581495 0.012836773 0.025503252
000230 4e 6a 36 3e 9a 53 28 3d 57 00 fb bd 56 6d ab 3d
       0.1781399 0.041095354 -0.12255924 0.083704636
000240 a3 7f 3e bd 5d 2e fa bd a5 81 d6 bc e6 df a8 3d
       -0.046508443 -0.12215874 -0.026184866 0.0824583
000250 25 af 08 3e 8f 03 8a bd 45 2b 1a 3d b6 ab 6e be
       0.13348062 -0.0673896 0.03763892 -0.2330769
000260 1a 90 09 be 20 d8 e7 be 08 1d c4 3c 06 cd a3 3b
       -0.13433877 -0.45282078 0.023939624 0.004998806
000270 95 8e 64 be 7e 26 5e bd 4c 61 91 3d a8 a0 21 3d
       -0.22320016 -0.054235928 0.07098636 0.039459854
000280 71 64 27 bd 3d 27 c5 bf a5 9b ea bc 70 9b 8d bc
       -0.040867273 -1.54026 -0.02863867 -0.017286032
000290 77 6f b9 3c 84 8c 46 bc 74 3e aa 3b 8f a4 3b 3c
       0.022636158 -0.0121184625 0.0051954333 0.011452808
0002a0 cd 2f 34 bd 2d b4 62 bc 10 3f cf 3c 4d cf 0f be
       -0.0439909 -0.013836903 0.025298625 -0.14043923
0002b0 22 e3 e0 bd 8a 11 84 bd f8 cd 69 3d 3d f0 f3 bd
       -0.10980822 -0.06448658 0.057081193 -0.11911056
0002c0 18 f5 b4 3d 40 5e 76 3c bf 6b f1 bd f0 a4 26 3e
       0.088358104 0.015037119 -0.11788129 0.16273856
0002d0 4e 77 5c 3e 90 73 30 bd 19 2a 64 be 76 d0 0a be
       0.21529886 -0.04307896 -0.22281684 -0.13556084
0002e0 4c 50 30 be 8a 14 a1 bd a1 f9 54 be c9 c0 dc bf
       -0.17218131 -0.07865246 -0.20798351 -1.7246333
0002f0 5f 91 8c 3c 66 79 34 ba 2c 41 66 bf 40 8f 2f bf
       0.017159162 -0.0006884545 -0.89943194 -0.6857796
000300 fe 84 80 bc fd b0 89 3d 78 26 d0 3b b3 e3 82 bf
       -0.015688416 0.06723211 0.006352242 -1.0225738
000310 55 81 a6 bc bc 3e 07 3c 15 68 bc bb 06 6d 06 bc
       -0.020325342 0.008254703 -0.005749712 -0.008204704
000320 d3 fa 08 3c 4f 7e 4c bb f9 58 8f bc 70 53 aa bc
       0.008360582 -0.0031203215 -0.01749848 -0.02079174
000330 58 d1 3d bf 92 97 e5 3c f8 4d 5c be b4 b2 78 be
       -0.7414756 0.028026376 -0.21514118 -0.2428692
000340 b2 04 8f be 65 85 41 3c 06 17 6d 3d e9 64 32 3e
       -0.2793327 0.011811589 0.057883285 0.17421307
000350 24 09 d9 be c9 e5 00 be ee 77 97 bd 05 2a 0b 3d
       -0.42389786 -0.12587656 -0.07395922 0.03397562
000360 6f e8 82 3c c6 59 37 3b 05 36 0c be 13 35 c5 3e
       0.015979974 0.0027977093 -0.13692482 0.38517055
000370 47 b7 1a 3e c0 96 d3 bb dc 98 9f 3d ea e3 1f 3e
       0.15108977 -0.00645718 0.077928275 0.15614286
000380 34 36 76 3e e4 4a ee bd de 6d 60 3e 4c 2e 04 3e
       0.24044114 -0.11635378 0.21916911 0.12908286
000390 32 aa 9a bd 55 87 f1 bd 8c e9 e8 bd 00 28 8b b9
       -0.075519934 -0.11793391 -0.113726705 -0.00026541948
0003a0 c6 e1 5c 3e b8 58 22 3d 75 c3 29 be b0 c1 c4 bc
       0.215705 0.03963539 -0.16578467 -0.024018139
0003b0 2c 81 9f 3d e0 df 13 be 3b 07 0c c0 0d 64 d4 be
       0.077883095 -0.1444087 -2.1879413 -0.41482583
0003c0 4d 86 3f 38 e9 0b 2a 3e e6 ba 0f bd 5c 01 4b 3d
       4.5663026e-05 0.16606106 -0.03509035 0.049561843
0003d0 c4 29 65 bd 21 19 6a bc d2 54 89 bf 39 d5 86 3d
       -0.055948034 -0.014288218 -1.072901 0.06583638
0003e0 b1 97 8e bd 14 20 d3 ba 47 59 18 bc d8 ff 30 3b
       -0.069625266 -0.0016107582 -0.009298629 0.0027007964
0003f0 13 5c d1 3c 0b d9 f7 3c d6 14 b3 3b e8 c2 72 be
       0.0255566 0.030254861 0.0054651303 -0.23707163

models.524263.layers.0.bias f4 [64]
000000 18 3e c9 bd c8 32 0d be 18 60 10 3e 0c 3e d2 3d
       -0.098262966 -0.13788903 0.14099157 0.10265741
000010 3c a3 2c 3e 34 1b a6 3d 80 7f ce 3b fa f6 37 3e
       0.16859144 0.08110657 0.0063018203 0.17965308
000020 43 a8 f2 ba e2 05 27 be 2a 9d a9 bd 45 21 56 3d
       -0.0018513281 -0.16310838 -0.0828193 0.052277822
000030 4c 7c c6 be 8c db 9e 3d e1 f9 a4 bd 53 ca e7 bb
       -0.38766706 0.07756719 -0.08055473 -0.0070736795
000040 2e 90 bf 3d f1 1e 89 be 88 74 68 be b0 65 c8 bc
       0.09353672 -0.2678142 -0.22700703 -0.02446255
000050 20 86 43 3c d4 a5 08 bd 52 4e 13 3e d9 f8 01 be
       0.011933833 -0.03336127 0.14385346 -0.12692584
000060 e9 98 8c 3d a0 8d 82 3b 74 53 9f 3d 1c e4 80 bd
       0.06865103 0.003984168 0.07779589 -0.062935084
000070 64 6a 9d bc 90 39 6e 3e c0 f8 c1 be 5a b3 65 be
       -0.01921577 0.23264146 -0.37885094 -0.22431698
000080 8f 21 3f 3e 04 7a 86 be 54 0d 61 3e 78 0d 54 3d
       0.18665145 -0.26264966 0.2197774 0.051770657
000090 14 61 18 3d 0a d8 8e 3d b6 80 45 3e 1c d4 6b be
       0.037201956 0.069748 0.1928738 -0.23030132
0000a0 a8 fd 35 be e5 64 50 be 44 ca de 3d f2 72 41 3e
       -0.17772543 -0.20350988 0.10878423 0.18891504
0000b0 2e b7 3a 3e d0 e1 97 be 14 f3 2f 3e a3 57 61 be
       0.1823394 -0.2966447 0.1718257 -0.22006087
0000c0 56 ef 28 be 21 59 90 be 54 e6 4b 3e 96 0b 80 be
       -0.1649755 -0.28193 0.19912082 -0.2500884
0000d0 27 3d 7a 3d ee e5 21 3e 54 26 33 bd 74 82 48 3e
       0.061093476 0.15810367 -0.043737724 0.19581014
0000e0 90 ae 70 bd dd 26 46 bd 74 a3 1d be 21 70 0b be
       -0.058760226 -0.048376907 -0.15394384 -0.13616993
0000f0 c8 b8 a2 bc be ad 70 3e 4e 3a 6d be 00 dc 82 be
       -0.019863501 0.23503777 -0.23166773 -0.25558472

models.524263.layers.3.weight f4 [32, 64]
000000 70 1f 8e 3d 28 11 a3 3d 50 db 77 3c 28 f2 a6 bc
       0.0693959 0.07962257 0.015127972 -0.020379141
000010 2a 76 99 3d da f7 d2 bd 48 0b 97 bd be 1c 58 bd
       0.07493241 -0.1030118 -0.073751986 -0.052761786
000020 98 c5 06 3e 1d cc 3a 3f 38 a5 9e bc e1 99 cf 3e
       0.13161314 0.729677 -0.019365892 0.40547088
000030 e3 dd 66 bc 0e 1a 89 bd dd d3 a2 bd 99 26 0b 3e
       -0.014090988 -0.06694423 -0.07950566 0.13588943
000040 4a ce 1a 3d 70 d4 0f 3c f9 50 87 3e cc d3 21 3d
       0.03779439 0.008778676 0.26428965 0.039508626
000050 80 18 0b bd 78 f6 a1 bd f0 d9 7d bd 8e e1 31 3e
       -0.033958912 -0.07908338 -0.06197542 0.17371199
000060 f0 61 3a bd 96 f8 9f 3d e4 b3 b4 3d b8 60 e5 3c
       -0.045503557 0.07811086 0.08823374 0.02800022
000070 f6 ea d5 3d f8 95 d0 bd 55 e1 9d be a0 6d c9 3c
       0.10445206 -0.10184854 -0.30835977 0.024588406
000080 e6 42 29 3d 12 96 81 3c d4 d8 03 bd c0 20 a2 bd
       0.041323565 0.01581863 -0.032189205 -0.07916403
000090 ef 83 d0 ba 79 f2 3b 3e 4a 75 e6 3d 36 61 c1 bd
       -0.001590846 0.18354215 0.1125284 -0.0944237
0000a0 84 63 e7 bd 9a ce d8 3d a8 fc 9d bd 72 e1 ce 3e
       -0.11298278 0.10586281 -0.07714206 0.40406376
0000b0 58 e1 8e bc 36 43 33 3e 9a 55 f8 bd b8 38 06 bd
       -0.017441437 0.17506108 -0.12125702 -0.032768935
0000c0 8c 31 5b bd 77 56 fc bd 00 9d 68 3b 38 31 e0 3c
       -0.05351405 -0.12321179 0.003549397 0.02736722
0000d0 d8 5c 85 3c 19 e2 9e 3c 3c e6 43 3d 66 0b ab bd
       0.016279623 0.019394921 0.04782699 -0.083517835
0000e0 0c a6 e2 bd 57 c2 c3 bd 3c 28 89 3c 04 e6 43 3d
       -0.11066827 -0.09558552 0.016742818 0.047826782
0000f0 38 3f b8 3d 20 4f 23 bd c8 89 6c bd 4b ee 44 3d
       0.08996433 -0.03987038 -0.057748586 0.048078816
000100 fc c3 00 3e a6 c0 be bd 80 6b 9e bd 40 c5 45 3c
       0.12574762 -0.093140885 -0.07735348 0.012070954
000110 80 37 16 3c 32 4a 84 bd 50 52 a7 bc 53 95 76 3e
       0.009168506 -0.06459464 -0.020424992 0.240804
000120 83 db 58 bd ee 6e f4 be fe cc 9c 3d 01 21 7a bf
       -0.052943718 -0.47740883 0.07656287 -0.9770661
000130 eb 3a 5b bc ee 7c c9 bd 6d 07 d8 be de bf 18 be
       -0.013380746 -0.098382816 -0.42193165 -0.14916942
000140 30 02 61 3c 26 59 2e 3d 66 70 1d be 76 f3 9b 3d
       0.013733432 0.042565487 -0.15374908 0.07614796
000150 0a 57 ea bd e8 09 cf 3d 90 44 74 bd e5 b5 cf 3c
       -0.11442383 0.10109311 -0.0596357 0.025355289
000160 56 05 47 bd d0 ed 6d 3c 9a 50 ca bd 10 f1 82 bd
       -0.048589073 0.014522031 -0.09878655 -0.06393635
000170 03 04 09 bd c0 c8 12 bb 2b 67 08 3e 8c da ef 3d
       -0.03345109 -0.0022397488 0.13320605 0.117116064
000180 3e de d7 3c e8 1c 9e bd c0 50 7f 3c b1 5b 39 3d
       0.02635109 -0.07720357 0.015583217 0.04525346
000190 0d 9e 3c be 5c 89 17 bf f0 73 30 bd 17 17 6c bd
       -0.18419667 -0.5919397 -0.043079317 -0.057639208
0001a0 63 68 88 3d 9e 06 92 bd c6 68 db 3d f9 c9 40 bf
       0.06660535 -0.071301684 0.10713343 -0.75308186
0001b0 80 a3 aa 3c 9a 6c ad bd 51 9d 64 3d 68 5d af bd
       0.020829916 -0.0846798 0.05581409 -0.08562738
0001c0 e8 55 be 3d 87 c1 b6 bd ce 45 9a bd 6c c5 a1 bc
       0.09293729 -0.08923631 -0.075328454 -0.019747458
0001d0 77 d4 02 3a 71 67 52 3d 80 b5 18 bb e0 c9 8f 3c
       0.0004990766 0.05136818 -0.0023301542 0.017552316
0001e0 78 06 2f bd b9 63 6b 3d 71 d4 74 bd e0 43 92 bd
       -0.04273078 0.05746815 -0.059772912 -0.071418524
0001f0 90 54 ae 3d 92 db c5 3d 6a 76 d9 bd ed 6d 9d bc
       0.08512223 0.0966102 -0.10618289 -0.019217456
000200 83 0a 67 3e 3a de f8 3d a0 a4 66 3c ac 78 16 3d
       0.22562604 0.12151761 0.014077336 0.036736175
000210 96 10 d7 3d 20 df 69 3d 2c ed bd bd 89 ab 8e be
       0.105012104 0.057097554 -0.092737526 -0.27865246
000220 b8 a7 2d bc 9e 18 10 3f 8a 1b fc bd 9c 64 1a 3f
       -0.010599069 0.5628756 -0.1230994 0.6030977
000230 9a 29 82 3d 0c 4e 59 bd c8 7d 71 bd 9b 2d a5 3d
       0.06355591 -0.053052947 -0.058957845 0.08065339
000240 e1 2f cf 3b e4 08 cf bd 59 09 33 3e a4 7d 01 bd
       0.0063228463 -0.101091176 0.17484035 -0.03161396
000250 04 f9 4e bd be fa b4 bd f8 9b 25 3d be bb 8a 3d
       -0.05053045 -0.08836888 0.040431947 0.0677409
000260 31 0a e9 3c 00 3b f4 ba f2 22 e8 bd 5c 8c 61 bd
       0.028447242 -0.0018633306 -0.1133479 -0.055065498
000270 55 ee 94 3d 5c 30 61 bd 32 47 e4 be c2 9f 85 3d
       0.07272021 -0.05497776 -0.44585568 0.06524612
000280 db d4 4a 3d 37 43 1e bc 60 d4 ce 3c 28 d4 68 bd
       0.0495194 -0.00965958 0.025247753 -0.056842953
000290 06 35 31 bd 0c 5f 92 3c 68 3b a4 3c 08 97 00 bd
       -0.043263458 0.017867588 0.020047858 -0.031394035
0002a0 4e dc 9b 3d 04 25 15 3d b0 c9 bb 3c ae b2 db 3e
       0.07610379 0.036412254 0.02292332 0.4290976
0002b0 58 1d c4 bd 7a 93 4f 3e 25 44 30 bd 68 ea dc 3c
       -0.095759094 0.20271102 -0.043033738 0.026967242
0002c0 34 f7 16 bd c3 c8 80 be 26 93 d3 bd 4a 43 ac 3b
       -0.036856845 -0.2515317 -0.10330801 0.005257045
0002d0 83 13 01 3d 93 8d 6f bd f8 4b 85 bc e4 63 f1 3d
       0.03151275 -0.058484625 -0.016271576 0.11786631
0002e0 82 0d b3 3d 7e ae a6 3d 66 a5 75 bc 4c 0f 87 bd
       0.08742811 0.081387505 -0.014993047 -0.065947145
0002f0 c4 a2 38 3d 26 53 a4 3d 2c 66 dc bd b2 7c 73 bd
       0.0450771 0.08023672 -0.10761675 -0.05944509
000300 55 f0 0d bc 14 9d 46 3d 16 8e 84 3d 30 ca 27 3d
       -0.008663257 0.048489645 0.06472413 0.040964305
000310 ca 3b 99 bd 48 5d 7d bd 78 52 7b 3d d1 30 cc bd
       -0.07482107 -0.061856538 0.061357945 -0.099702485
000320 f2 79 ed bd 81 66 23 3e b4 21 99 3d 09 b4 a8 3e
       -0.11595525 0.15957071 0.074771315 0.32949856
000330 06 d9 52 3d b2 d3 fd 3d d6 6a 0f 3f c0 c3 fc 3c
       0.0514765 0.12393893 0.56022394 0.03085506
000340 39 68 0e be ae 6a 14 3e 45 6e be 3d e0 8f 4a bd
       -0.13906945 0.1449382 0.09298376 -0.049453616
000350 40 62 1f bd 38 9b e5 3d 6a 18 b9 bd 19 46 3e be
       -0.038912058 0.11211246 -0.0903786 -0.18581428
000360 a1 12 03 3e c6 32 c3 bd 80 28 9c 3c 28 af b2 bd
       0.12800075 -0.09531169 0.01906228 -0.08724815
000370 97 e2 4a 3c f0 dd 80 bc e5 92 97 3b 00 6c 93 bd
       0.012383125 -0.015730828 0.0046256655 -0.07198334
000380 2d a4 bc bd 56 20 9c 3b 00 e4 50 bd c0 c5 c3 3c
       -0.092110015 0.004764597 -0.050998688 0.023898005
000390 f2 bc 9e 3e be 24 5d 3e a8 9c 7a bd e0 06 6e bd
       0.3100353 0.21596047 -0.061184555 -0.058112025
0003a0 60 ca 2b 3d e0 09 9e bc fc 97 98 3d d7 6e 14 3d
       0.041941047 -0.019291818 0.07450864 0.036238518
0003b0 62 be b1 bd 6c ea ef 3d f8 0c 4f 3d a6 a5 fc bd
       -0.08678891 0.11714634 0.050549477 -0.123362824
0003c0 be 33 f3 3d 30 71 ea 3d 28 35 4e bd 87 74 43 bd
       0.118751034 0.1144737 -0.050343663 -0.04771855
0003d0 94 38 e7 3d e8 64 90 3d 3a fb c0 bd 9e 9b f3 3d
       0.11290088 0.07050496 -0.09422918 0.11894916
0003e0 d4 1e 63 bd ee 6a d4 bb ef 41 dd bd 37 2c 5c bd
       -0.055449322 -0.0064824736 -0.108035915 -0.053753104
0003f0 88 f2 a4 bd b8 a7 85 bc 52 98 86 bd fd cf 9e bc
       -0.08054072 -0.016315326 -0.065720215 -0.019386286

models.524263.layers.3.bias f4 [32]
000000 86 b5 b8 3d c6 4a bc 3d 66 e4 25 3e ef 8c 4f 3e
       0.09018998 0.091939494 0.16200408 0.20268606
000010 43 86 83 be c2 46 16 be b7 6a 1b 3e 0d 9f d7 3d
       -0.2568837 -0.1467543 0.15177427 0.105283834
000020 09 3e 82 3d cb 8a aa bd 44 7d 03 3e 9e 6d ba be
       0.063594885 -0.08327254 0.12840754 -0.36411756
000030 e3 c3 1e 3e 02 29 75 3e 5a c9 c5 3d d8 a1 54 3e
       0.15504412 0.23941424 0.096575454 0.20764863
000040 9e c1 44 3e 87 9b db be fd 00 da be c5 5d 93 be
       0.19214484 -0.42892095 -0.4257888 -0.28782478
000050 14 cf 33 3e 4a 51 ff 3d 9e 63 03 3e 01 e8 fc bd
       0.17559463 0.124666765 0.1283097 -0.12348939
000060 77 64 0f be 39 85 86 3e 5d 50 1b be e0 1e ac be
       -0.14003168 0.26273516 -0.15167375 -0.33617306
000070 c1 a6 93 be ca 87 89 3e 1e e8 1e be 13 79 95 3d
       -0.2883816 0.2686141 -0.15518233 0.07298484

models.524263.layers.6.weight f4 [16, 32]
000000 db 91 71 3e 1d 73 b6 3e 06 42 79 be ca 68 79 be
       0.23590796 0.356347 -0.24341592 -0.2435638
000010 90 e7 2c bf 3a 86 ea 3d f5 7f a8 bd e6 fa 33 be
       -0.67540836 0.11451383 -0.08227531 -0.17576179
000020 66 7b 42 be 69 f9 c9 3d 67 8f 93 be 62 f2 b5 be
       -0.18992385 0.09862024 -0.28820345 -0.35536486
000030 ba 37 15 be b4 60 90 3c 68 8c 18 bd 56 90 df 3d
       -0.14572039 0.017624237 -0.037243277 0.10916202
000040 e4 ce ff 3d 3d 9d a6 be 28 0a cd be b4 32 ef be
       0.12490633 -0.32541838 -0.4004681 -0.4671837
000050 33 bb 67 3e 63 34 a7 be c1 4b ad bd 94 85 c2 bd
       0.22630005 -0.32657155 -0.084617145 -0.09498134
000060 40 0a b0 3e 30 f2 d9 3e 90 56 6d be dc f8 23 bf
       0.3438282 0.42567587 -0.23177552 -0.64051604
000070 e7 bb e9 be 55 f5 d5 bd a4 0e b4 3d fc d4 a3 be
       -0.4565117 -0.10447184 0.08791855 -0.31998432
000080 d9 4a f7 3d 39 30 38 3e 7f 2e 62 be 4a fd 1d bf
       0.12074823 0.17987145 -0.2208805 -0.61714613
000090 f4 e0 63 bf c5 96 0b bf 6d b8 01 be 3d 59 86 be
       -0.89015126 -0.5452693 -0.12668009 -0.26239958
0000a0 2f 75 d7 be 59 04 07 be 2f 89 10 bf 08 ed ba be
       -0.4208159 -0.13185252 -0.56459326 -0.36508965
0000b0 28 44 be be 84 bc a6 3d 42 83 10 be a0 46 35 3e
       -0.37161374 0.08141425 -0.14112571 0.17702723
0000c0 98 11 85 bc 89 1a 61 bf be df 60 bf 29 34 34 bf
       -0.01624374 -0.87931114 -0.87841403 -0.7039209
0000d0 7d 19 bf 3e e5 33 f0 be 53 2b 01 3d db e5 8e be
       0.37324134 -0.46914592 0.031535458 -0.2790974
0000e0 18 aa ad 3e ac d8 b0 3e 0c 9a a1 be 24 77 35 bf
       0.33918834 0.34540308 -0.3156284 -0.7088492
0000f0 e4 47 2e bf 8e 0d 60 3e c9 24 98 be d5 35 f9 be
       -0.68078446 0.2188017 -0.29715565 -0.48673883
000100 e9 73 79 3e 1d f0 94 bd d7 d6 4d 3e e5 e3 05 bc
       0.24360622 -0.072723605 0.20101486 -0.00817201
000110 09 37 fb 3e 9d 0d 37 3d cb 88 6f bd 45 8e 4d 3e
       0.49065426 0.044690717 -0.058480065 0.20073803
000120 75 8f 8f 3e 89 c4 28 3c 3d de 54 bd 65 59 0a 3f
       0.28039137 0.010300764 -0.051969755 0.54042655
000130 4e 73 2d 3e 78 87 41 bd 22 8e 1c 3f 25 2a a9 3b
       0.16938516 -0.047248334 0.6115438 0.0051624947
000140 00 ab ad 3e fc 37 40 3f a1 47 f1 3e 2c 55 9b 3e
       0.33919525 0.75085425 0.4712496 0.30338418
000150 ac 8b 05 be 05 e4 11 3c 70 af 26 3e ba ad 1c 3d
       -0.13041562 0.008904462 0.16277862 0.038251616
000160 b6 4b fb bd 68 09 a2 be be 3f 96 be a2 12 04 3f
       -0.122703 -0.316478 -0.29345506 0.5159093
000170 99 04 ce 3e 58 26 ce bd 10 56 4b be 68 a8 42 3d
       0.40237883 -0.10065907 -0.19857049 0.047523886
000180 6d 60 2f 3e d8 fa 8f 3e cf df 59 be fd 79 21 bf
       0.17126627 0.28121066 -0.21276782 -0.63076764
000190 a8 ce 61 bf 3b 89 c0 be 71 33 06 be 26 42 a7 be
       -0.8820596 -0.376047 -0.13105561 -0.32667655
0001a0 55 4a ba be 3d 09 ca be 9d 50 1c bf c7 2c 87 be
       -0.36384836 -0.39460173 -0.61060506 -0.2640135
0001b0 9f 5a 9a be 09 73 a2 3d 89 37 e5 bd 5a 00 93 3e
       -0.30147263 0.079320975 -0.11192233 0.28711206
0001c0 f6 e7 e2 bd 1b 16 1d bf 1c 33 33 bf 62 76 28 bf
       -0.11079399 -0.61361855 -0.6999986 -0.6580564
0001d0 0c 20 9c 3e e6 d2 ac be 68 24 39 be e8 57 33 be
       0.304932 -0.33754653 -0.18080294 -0.17514002
0001e0 c4 97 30 3e 85 21 b9 3e 4a 0a 03 3d 9a f4 30 bf
       0.17245394 0.36158386 0.031992234 -0.6912323
0001f0 ab 12 6a bf aa 0f 72 3e 25 e0 be bd 24 1a 1c bf
       -0.91434735 0.23638788 -0.09320096 -0.6097739
000200 3b 46 43 3e bb a9 45 bc 92 7e 8b 3c 8b d1 96 bc
       0.1906976 -0.012064393 0.017028127 -0.018410465
000210 c3 bd 50 bd 33 d6 1d 3e 10 15 f8 bc 4c c9 2c bd
       -0.05096222 0.15413742 -0.03028348 -0.04218416
000220 34 f4 1a 3f 84 99 5b 3e 31 55 9d 3c d4 1d 88 bd
       0.60528874 0.2144528 0.019205661 -0.06646314
000230 ce 13 8d bd 5f ea 00 3d c8 e3 18 3f 9f 15 ab be
       -0.06888543 0.031473514 0.59722567 -0.33414933
000240 0a 31 0b 3f af e1 45 3e 4c 38 d8 3c b3 be 35 bc
       0.543717 0.19324373 0.026394032 -0.0110928295
000250 78 a7 19 bf ef 54 52 3c b0 71 c4 3d 35 ac c3 bd
       -0.6002116 0.012837633 0.09591997 -0.0955433
000260 f4 81 4f be 1a c6 0d bf 4d b2 fc be b9 73 b5 3d
       -0.20264417 -0.55380404 -0.49354783 0.08859963
000270 5d e8 9a 3c c9 ec 12 bf 35 c2 e2 be aa e4 04 bd
       0.018909628 -0.57392555 -0.44288793 -0.032444634
000280 ca 9d f1 3c a1 ee aa 3d 72 0c 6f 3d fa a0 3e bd
       0.029494185 0.08346296 0.05836148 -0.046540238
000290 5d 80 8b 3e 09 bc 1d 3e e5 64 78 3e 94 20 8b 3e
       0.2724637 0.15403761 0.24257238 0.27173293
0002a0 51 fe eb 3e 03 d3 b5 3d da 53 66 bd 2d 75 15 3f
       0.46092466 0.08878138 -0.05623231 0.5838192
0002b0 72 1b 1e 3e c7 dc ea 3c ee f1 0b 3f 41 7d 62 be
       0.15440157 0.028669728 0.5466603 -0.22118093
0002c0 3b ba 34 3f b5 04 58 3f 30 2f 2b 3f cd 53 c8 3e
       0.70596665 0.8438218 0.6686888 0.39126435
0002d0 5c 91 5e be f0 27 8b 3d c6 f9 19 3e 91 6a 18 3e
       -0.21735138 0.06794727 0.15036687 0.14884402
0002e0 67 da b2 bd bc f9 d3 be dd 2b e3 be bc 50 3d 3f
       -0.08733063 -0.4140147 -0.44369403 0.73951316
0002f0 0a 96 f9 3e d3 7a c4 be 92 31 07 bf 00 50 d2 3c
       0.48747283 -0.38374957 -0.52810013 0.025672913
000300 06 0b 84 bc 12 6d a5 bd 1a 34 2a 3e 05 2c 74 bd
       -0.016118538 -0.08077444 0.16621438 -0.059612293
000310 ce 4f 12 3f af 97 7a 3e 4a 61 f3 3d 6a ab ff 3d
       0.5715302 0.24471925 0.11883791 0.124838665
000320 8e 13 f2 3e 4e 6c ee 3c ad 29 27 3d fd ce a8 3e
       0.47280544 0.029104378 0.04081123 0.3297042
000330 c8 c0 94 bb 38 d7 b8 3d 07 ce 29 3f 46 4d 1f be
       -0.004539583 0.09025425 0.6633 -0.15556821
000340 1c ae 24 3f 1a 91 71 3f ad 02 2c 3f be 91 8a 3e
       0.6432817 0.9436203 0.6719158 0.27064317
000350 ff bb 91 be 52 cc 39 3e f1 60 57 3d 76 7f 67 3e
       -0.28463742 0.18144348 0.052582685 0.22607216
000360 d0 9b 23 be a3 1a 89 be a6 d0 97 be 45 20 2f 3f
       -0.15977407 -0.26778135 -0.29651374 0.68408614
000370 d2 52 28 3e 8b 8c 14 be 54 0b c6 be 72 c2 d8 bd
       0.16437843 -0.14506738 -0.38680518 -0.105839625
000380 3d f6 53 3e 42 11 6e bd 41 ba 05 3e 58 ee 15 3c
       0.20699401 -0.058121927 0.13059331 0.009151064
000390 02 ea e5 3e 6e 20 bb 3d c9 7d 66 3d 1f b0 ca 3d
       0.44905096 0.09137045 0.0562723 0.09896874
0003a0 16 b7 c1 3e c3 ed be 3d 68 7e 00 bd 69 59 15 3f
       0.37834996 0.09322693 -0.03137055 0.58339554
0003b0 58 0a e7 3d 56 5d d5 3c 9a 72 31 3f 31 4c 70 3d
       0.1128127 0.026045483 0.69315493 0.05866641
0003c0 6f 63 d5 3e d3 68 35 3f 22 1c 38 3f 58 45 c8 3d
       0.41677424 0.70863074 0.7191793 0.09778851
0003d0 21 05 3b be da c9 04 3e ed 05 f9 3d 8c 42 49 3e
       -0.18263675 0.12967625 0.121593334 0.19654292
0003e0 20 3c 94 be ca fe 6f be b8 03 98 be 7c 85 17 3f
       -0.28952122 -0.23437038 -0.29690337 0.59188056
0003f0 41 fc 96 3e a5 39 5b be cb 00 6e be 55 24 12 3d
       0.2948933 -0.21408708 -0.2324249 0.03567918

models.524263.layers.6.bias f4 [16]
000000 d4 36 5b 3e 44 60 be 3e bb 8f 39 3e 43 96 b7 3e
       0.21407634 0.3718282 0.18121235 0.35856828
000010 ac 6e 8e 3e eb 17 ab 3e 55 e6 58 3e 26 31 09 3e
       0.2781881 0.33416685 0.21181615 0.13397655
000020 3f a8 60 3e 96 da bf 3e da ce 86 3e 67 30 67 3e
       0.21939181 0.37471455 0.2632969 0.22577058
000030 b8 f7 a9 3d f5 35 c2 3d e8 d2 92 3e 54 21 c2 3d
       0.08299202 0.09482948 0.28676534 0.09479013

models.524263.layers.9.weight f4 [1, 16]
000000 32 d4 38 3f 31 eb 74 3f f8 48 f9 be ad 60 3f 3f
       0.72198784 0.95671374 -0.48688483 0.7475689
000010 4c f2 35 bf 20 e4 d9 be 82 cb fd be 34 65 23 bf
       -0.7107284 -0.42556858 -0.49569327 -0.638263
000020 5c 39 20 bf f4 26 55 3f 16 21 18 bf 16 16 27 3f
       -0.62587523 0.8326256 -0.59425485 0.65268075
000030 c8 93 05 bf af b0 ca be 8b 2e 2c 3f 92 a8 c7 be
       -0.5217862 -0.39587924 0.6725852 -0.38995796
