models/Ensemble/kaon_0.pt (torch, 71267 bytes, 28 tensors)

models.524287.layers.0.weight f4 [64, 19]
000000 24 34 66 bf 18 87 3d bf 13 86 58 3b 0e 1d 0d bc
       -0.8992331 -0.7403426 0.00330389 -0.008612884
000010 25 67 8f bf d6 16 e6 3e 4c c9 f5 3e 98 16 0d 3d
       -1.1203352 0.44939297 0.4800514 0.034445375
000020 42 e3 0c 3e 7c d9 d6 3c 5c 26 9f 3f dd cc 06 be
       0.13758567 0.026226752 1.2433581 -0.13164087
000030 9a 08 30 bb 4a db 12 39 bc 29 0d 3d 9c 86 39 bc
       -0.0026860596 0.00014005337 0.03446363 -0.011323597
000040 67 e0 1c 3d b9 28 a4 3c b6 16 3e 3d 21 15 0c 3f
       0.038299944 0.02003895 0.046408378 0.5471974
000050 8f c7 df bd b7 96 f2 3a ae 68 a9 be f3 f4 eb 3e
       -0.10926735 0.0018508051 -0.33087677 0.4608532
000060 0c 48 93 bf 3d e7 8f bf d6 e3 fa bc 9d c4 63 bb
       -1.1506362 -1.1242443 -0.030626219 -0.0034754642
000070 11 17 82 3c b2 c2 88 bf 91 9e b9 3c 6c 75 e0 3c
       0.01588014 -1.0684416 0.022658618 0.027399741
000080 78 43 3f bc 90 68 ac bb 79 7d 86 3c ff 98 5b 3c
       -0.011673801 -0.0052614883 0.016417252 0.013403176
000090 ba 7f ab 3c 1f fb 7e bd 85 7d 2d 3e da 91 30 be
       0.020934928 -0.062251206 0.16942413 -0.17243138
0000a0 9c 2d 55 bd ff 51 66 3e c0 77 38 3b a4 34 82 bd
       -0.05204545 0.22492217 0.0028147548 -0.06357697
0000b0 db 93 50 3e 9a 10 b8 3d f2 1c 17 be 5e 1d bc 3d
       0.20368902 0.089875415 -0.14757136 0.09185289
0000c0 a4 62 20 3d b3 bc 27 3e 90 75 ec bc 80 c2 7a bd
       0.03915657 0.16380577 -0.028864652 -0.061220646
0000d0 44 48 72 3d c0 85 ad bd 61 3a 2a 3e 9c 85 38 3d
       0.05915095 -0.084727764 0.16623832 0.045049295
0000e0 7e ec 85 3d 40 dc 5e bc 03 8b 3a 3e e4 d1 07 3d
       0.06539248 -0.013602316 0.18217091 0.03315915
0000f0 80 a1 23 bb c0 fd fd bb 00 09 5d 3b 8f da 1e 3e
       -0.0024968088 -0.0077511966 0.0033727288 0.15513061
000100 a8 1d e4 3c c0 4a 0d bd fb 30 ff bd ae 7a 0a be
       0.027846172 -0.034495115 -0.12460514 -0.13523361
000110 69 60 ee bd d7 fa d9 bd a3 cf 28 be 50 52 5a bd
       -0.116394825 -0.10643547 -0.16485457 -0.053301156
000120 7c 75 64 be ad be 57 be 18 46 be bd 9a 6b a2 3d
       -0.22310442 -0.21068831 -0.09290713 0.079306796
000130 9b d7 45 be 47 e0 e6 bd d4 af c3 bd 3a 48 38 be
       -0.19320528 -0.11273246 -0.09555021 -0.17996302
000140 fe c5 65 3d 6d 81 15 3d b3 fe 72 be 71 fe a4 3e
       0.056097023 0.036500383 -0.23729973 0.32225373
000150 43 75 a4 bd e5 ad 94 bd 72 18 06 be f5 00 64 be
       -0.080301784 -0.0725973 -0.13095263 -0.2226599
000160 b6 98 bf bd 04 05 85 be 22 cc 25 be 13 b3 0e 39
       -0.09355299 -0.2598039 -0.16191152 0.00013608886
000170 95 2e 4f 3e b2 e0 e0 3d a1 58 b0 be f7 3f 19 3e
       0.20232613 0.10980357 -0.34442618 0.14965807
000180 ae 4c db 3d 38 7a 28 bd 92 b3 c9 3d 00 48 54 bc
       0.10707985 -0.041132182 0.098487034 -0.012956619
000190 94 c1 0f be ba 05 1a be a0 16 fd bb 20 c9 f1 bd
       -0.14038688 -0.15041247 -0.0077236444 -0.1180594
0001a0 63 ad 3f be 00 60 24 ba ac 92 7b bd 2f f9 10 3e
       -0.18718486 -0.00062704086 -0.061419174 0.14157556
0001b0 32 69 a8 3d f5 c3 36 3e 3d a7 31 be 38 ed 9c 3c
       0.082231894 0.17848189 -0.17348953 0.019156083
0001c0 36 3c ae bd df 80 4b 3e 4a 47 98 3d 7a da d9 3d
       -0.08507578 0.19873379 0.07435472 0.10637374
0001d0 30 07 32 bd 68 1d b2 bc 96 90 2e be 9b 9d 07 3e
       -0.043463886 -0.021742538 -0.17047343 0.13243715
0001e0 4b 82 3c 3e da f4 5a be 00 3c d1 bb a4 13 53 bd
       0.18409078 -0.21382466 -0.0063853264 -0.051532403
0001f0 a6 c5 a6 bd 4c 70 b5 bd 5f d9 0f 3e 00 ea c1 39
       -0.08143167 -0.088593096 0.14047764 0.00036986172
000200 e8 33 68 bd 4a 4e fe bd 2e 90 fe 3d 80 86 e1 3b
       -0.056690127 -0.12417276 0.12429844 0.0068824887
000210 8c c0 36 be 64 e3 24 3d c0 f9 89 bb fe 5a a9 3d
       -0.17846888 0.04025592 -0.0042106807 0.082693085
000220 d4 09 05 be 81 4e 5e 3e 30 68 84 3c 8d 9e 68 3e
       -0.1299203 0.21709634 0.016162962 0.22716732
000230 0b 14 1d 3e 00 10 20 be 00 a5 57 bc b6 08 50 be
       0.15339677 -0.15631104 -0.013161898 -0.20315823
000240 e6 f4 a7 3d 84 c7 39 bd 5d a1 5c 3e fe 3e dc 3d
       0.082010075 -0.04535629 0.2154593 0.10754202
000250 98 49 e1 bd 96 be 9b 3d 59 03 e5 bd c0 8d 73 3b
       -0.11000365 0.07604711 -0.11182279 0.0037163347
000260 b9 09 35 3e b0 d3 58 be 3c 97 21 bd e0 09 92 bc
       0.1767949 -0.21174502 -0.03945087 -0.017826974
000270 aa e2 15 be 54 ec 1e bd 91 9d 3b be 50 42 31 3c
       -0.14637247 -0.0387996 -0.18321826 0.010819033
000280 78 a8 f8 3c 88 7f 2e be 0d 29 47 3e 65 23 5f 3e
       0.03035377 -0.17040837 0.19449253 0.21790846
000290 e6 8f 34 be 2a 9f 93 3d 86 aa bb bd f8 5b b6 bc
       -0.17633018 0.072080925 -0.09163384 -0.022260651
0002a0 90 ed 9c bd 90 a8 0a bc f4 c9 11 3d 73 fc 9d bf
       -0.07662499 -0.00846304 0.035592988 -1.2342666
0002b0 65 60 28 bf a7 88 06 3b f3 24 32 bf 03 2f 41 3e
       -0.65772086 0.0020528228 -0.6958763 0.1886559
0002c0 57 dc 4a bf 1e 0d 60 bf 32 e7 8e 3d a7 b4 1d 3e
       -0.7924246 -0.87520015 0.06977691 0.15400945
0002d0 21 27 a0 3c d1 d7 09 3f 03 51 e5 bd 1d 08 97 bd
       0.019549908 0.53844935 -0.111970924 -0.07374594
0002e0 67 6c 62 bd 4f 42 b6 bc db 73 fd 3b 91 3d 02 be
       -0.05527916 -0.022248415 0.0077347583 -0.12718798
0002f0 5e 89 e8 3d 0b be 10 bd 80 15 06 40 09 83 a6 3e
       0.11354326 -0.03533749 2.0950623 0.32521847
000300 f7 17 cb ba 2f 64 80 3e 1e 21 25 3d fd 7c b7 3e
       -0.0015494813 0.25076434 0.040314786 0.35837546
000310 57 37 53 3e c8 76 f1 bc a7 fb e2 ba 15 98 a1 ba
       0.20626579 -0.029475585 -0.001731743 -0.0012328649
000320 43 d2 1a bf 8a 49 0b 3d 4c 22 34 bd 45 d9 af bd
       -0.60477084 0.03400568 -0.04397802 -0.08586363
000330 66 99 8b 3d 25 23 4c 3b ee 12 99 3d 24 48 87 3d
       0.06816368 0.0031148877 0.07474314 0.066055566
000340 7e dd c5 3c 14 c6 6d 3f f4 77 08 3f 1f f0 97 3d
       0.024153467 0.9288037 0.53308034 0.07418846
000350 c7 46 c7 3c 6c d2 59 3f a0 56 19 be 68 1c 01 bf
       0.024325741 0.85086703 -0.14974451 -0.5043397
000360 6c 4b 80 3c b6 f2 c5 bd d1 32 bd 3a 88 96 c3 bf
       0.015660964 -0.09665434 0.00144347 -1.5280313
000370 2e 59 d7 3d 90 36 80 bd 07 23 a8 3c 99 3f 18 3d
       0.105150566 -0.06260407 0.020524515 0.037170026
000380 97 33 bd bb 2f 89 2e bb 6d 67 25 3e 55 72 90 3d
       -0.0057739723 -0.002663206 0.16152735 0.07053057
000390 a8 e4 2e bf 66 aa 43 3e 60 d3 83 be 50 b8 26 3c
       -0.6831765 0.1910797 -0.25747204 0.010175779
0003a0 be 84 eb 3e b8 6e 76 3e a3 ca b6 3d 62 41 09 be
       0.45999712 0.24065673 0.08925369 -0.13403848
0003b0 d1 6f 60 3d 78 ee 65 bd a4 ec 0c be 18 e1 10 bd
       0.054794136 -0.056135625 -0.13762146 -0.035370916
0003c0 7a 38 2a 3d b3 54 06 be bd 5f 31 be 1a 3c cb 39
       0.041557766 -0.13118248 -0.17321678 0.00038763956
0003d0 11 22 81 be 50 3a ef 3d 42 b1 f7 bd c8 17 f7 3e
       -0.25221303 0.11681044 -0.12094356 0.4826033
0003e0 62 55 87 3d 72 3f 63 39 26 66 0f be 0d 44 e6 3f
       0.06608082 0.00021672042 -0.1400381 1.7989517
0003f0 58 9c 59 bf 14 79 03 bf 70 9b 2d bc 68 3f d7 bc
       -0.85004187 -0.51356626 -0.010596141 -0.026275352

models.524287.layers.0.bias f4 [64]
000000 1c f8 81 bd 05 55 66 bd f8 78 c8 3c a3 9f 03 3e
       -0.06346151 -0.056233425 0.024471745 0.12853865
000010 e7 2b 20 3d d0 fd e7 bc ac 38 a6 bd 6f b3 d6 bd
       0.03910437 -0.02831927 -0.08116278 -0.10483443
000020 45 50 27 3e 2d bc cc bc 51 44 4f 3d 3e ba c8 3d
       0.16339214 -0.024992073 0.05060226 0.09801148
000030 30 fd fd bd a7 10 78 bd c7 3a a5 be 58 72 29 3c
       -0.12401807 -0.060562756 -0.32271406 0.010342203
000040 98 b4 f0 bc 3f a7 12 3e bb 0d 19 3d 0a ae 02 be
       -0.029382989 0.14321612 0.03736661 -0.12761703
000050 38 88 5b 3c 71 b0 25 3e 97 5f 59 be ec 5a 0c 3e
       0.013399176 0.16180588 -0.21227871 0.13706559
000060 26 ef e1 3d 99 7b ef bd b3 e3 77 3d dd 5c b0 3a
       0.11031942 -0.11693496 0.060519885 0.001345541
000070 22 b7 be be 2c 66 d2 3d 7c f5 48 be 3d de 70 be
       -0.37249094 0.10273394 -0.19624895 -0.23522277
000080 30 32 92 bc c6 27 ce bd 77 6c 16 3e ab 05 e1 bc
       -0.017846197 -0.1006618 0.14689814 -0.027468523
000090 dc 8d 71 3d 44 9c 2d be 72 0e 94 3c 74 26 6c be
       0.05897318 -0.16954142 0.018073294 -0.23061544
0000a0 e4 10 1d 3d 4c 75 2c be 13 c8 62 be fe 14 ab 3d
       0.038346186 -0.1684162 -0.22146635 0.08353613
0000b0 8f 80 c0 be f8 c5 06 be 66 f5 a5 bd 44 e9 ae bd
       -0.37598082 -0.13161457 -0.08103447 -0.08540586
0000c0 ed c4 63 be 5a a5 b7 bd 98 7c 3e be ce 4d 41 3c
       -0.2224309 -0.08967085 -0.18602216 0.011798335
0000d0 66 dc 7e bd fb 04 d0 bb 3c d1 42 3d 82 19 48 be
       -0.062221907 -0.00634825 0.047562823 -0.1954098
0000e0 ba 85 1d be 59 4d 4f be 91 0d 79 be 23 b1 68 be
       -0.15383044 -0.2024435 -0.24321581 -0.22723822
0000f0 c5 a5 07 be a8 42 21 be 38 3f a3 bd c9 d1 3d be
       -0.1324683 -0.15748084 -0.079710424 -0.18537058

models.524287.layers.3.weight f4 [32, 64]
000000 35 98 7c 3e 23 08 13 bf 90 40 79 bc b8 7d d0 bc
       0.24667437 -0.5743429 -0.015213147 -0.025450572
000010 3d 23 40 bd 16 76 d7 bd 64 7a 3c bd 18 8e 15 3d
       -0.046908606 -0.1052057 -0.04601516 0.036512464
000020 b4 7d 88 bd 7f 34 ea be 80 7a e6 3c 7b a9 d5 bd
       -0.06664601 -0.45743176 0.028134584 -0.104327165
000030 ac 12 b4 3d 59 06 c1 bd 77 53 23 3d da 51 fb bd
       0.08792624 -0.09425039 0.03987452 -0.12271471
000040 c2 cb fe 3d dc aa e4 3d 1a de f3 be 60 66 88 be
       0.124412075 0.11165401 -0.47630388 -0.26640606
000050 52 86 65 be 1e e0 24 3d c1 1f 57 be 1e 22 2d 3e
       -0.2241452 0.040252797 -0.21008207 0.16907546
000060 1b b6 31 bd 96 83 b1 bd 45 77 ee be f5 6e 66 3d
       -0.04338656 -0.08667676 -0.4657537 0.05625816
000070 b1 42 75 bd 32 2e c2 bf 42 45 7b 3d dd 3d 8d 3d
       -0.059878055 -1.5170348 0.061345346 0.06896565
000080 9c ce 71 bd 43 ab ea bd 30 fa 65 3d 28 95 2e bd
       -0.05903493 -0.11458447 0.0561468 -0.042622715
000090 b6 c0 92 3d 44 96 14 3d 7b f1 d8 3c 41 af 80 be
       0.07165663 0.036276117 0.026482334 -0.25133708
0000a0 40 cc f8 3b fa 53 b3 bc aa 3f bb 3d 68 95 0b be
       0.007592708 -0.02189063 0.09143002 -0.13631213
0000b0 2f 72 90 be ec c2 e3 bd d2 e3 ca bd 5c b2 33 bd
       -0.28212115 -0.11121163 -0.099067345 -0.04387127
0000c0 d6 cf db 3d 10 b5 7e 3d 66 9d c9 3d f2 e3 17 3d
       0.10733001 0.062184393 0.098444745 0.03708262
0000d0 55 9c 8d ba a4 f0 11 3e 0a 7c b7 bd bc 08 08 3d
       -0.0010804037 0.14251953 -0.089592054 0.033211455
0000e0 46 f2 11 bf eb fc 46 be 9f 43 8e 3c 45 d5 eb 3d
       -0.57010305 -0.19432418 0.017366229 0.11515287
0000f0 86 e1 9c be 02 31 87 be 1e dd 89 bd 78 29 d1 bd
       -0.3064081 -0.26404577 -0.06731628 -0.10212988
000100 49 bf 54 be aa 2e 8e 3e dc 53 8c bd f0 44 27 bd
       -0.20776094 0.27769977 -0.068519324 -0.04083723
000110 be 3d bc bd d4 2e 13 3d 10 5f f7 bd 08 f3 d2 3d
       -0.09191464 0.03593333 -0.120786786 0.10300261
000120 2e 2a fb 3d 05 8e dc 3b 36 d6 91 bc 86 46 7c 3d
       0.122639045 0.0067307972 -0.017802339 0.061590694
000130 48 46 83 bd 4e f8 dd 3e c6 03 ff bc 97 8e 9e bd
       -0.064098895 0.43353504 -0.031129729 -0.077420406
000140 6e 19 c9 bd 64 a4 66 bd f8 98 0a 3c 39 93 25 3d
       -0.098193035 -0.05630912 0.008459322 0.040423606
000150 71 d1 a1 b8 16 d2 6f be f7 ad c0 3c 45 8e 3b 3e
       -7.71609e-05 -0.23419985 0.023520453 0.1831599
000160 85 30 fe 3d fe db 9a 3d cb 08 39 3f 62 f9 17 be
       0.12411598 0.075614914 0.7227904 -0.14841226
000170 ba 85 7f bc 8c 03 0e 3f fb ef 9f bd a1 b9 22 3e
       -0.015595848 0.5547416 -0.078094445 0.15891124
000180 da 59 a2 bd b0 ee c6 3d 40 35 e5 bd da 08 89 bd
       -0.07927294 0.09713495 -0.11191797 -0.066911414
000190 8c 4f 4b 3d dc 88 d0 bd 5f 60 1b bd 7b 01 15 3e
       0.04963641 -0.10182354 -0.037933704 0.14551346
0001a0 d8 8d fc 3c c5 85 89 3d e8 76 16 bd 25 b5 29 bc
       0.030829355 0.06714968 -0.03673449 -0.01035813
0001b0 01 7f bc bd cc 9b a7 3d 94 f7 23 3d 7c cf f3 3d
       -0.092039116 0.08184013 0.04003103 0.11904809
0001c0 1e 9a 97 bd d0 1d ef 3c 28 7c a6 3d 0e f3 39 3e
       -0.074024424 0.02918902 0.0812915 0.18159124
0001d0 7a c6 0d be 9b 8f 62 be 10 cd 0b 3d e0 1c 62 bc
       -0.13845244 -0.22125094 0.03413111 -0.01380083
0001e0 2e b5 9e 3e eb 09 6c bc c5 80 f2 3d c1 27 c2 3d
       0.30997604 -0.0144066615 0.11840967 0.09480239
0001f0 36 ef f1 3e bd 5d c6 3d 61 dc 3a 3d 81 4f af bd
       0.47252816 0.09685848 0.045620326 -0.08560086
000200 da bd 39 3d 90 14 e1 be 70 2d 0c 3c 8e ae dd 3d
       0.045347072 -0.43961 0.008555755 0.10824309
000210 45 bd cc 3d 5a e1 a4 bd 38 9c 95 bd 30 66 fa bc
       0.09997038 -0.08050795 -0.07305187 -0.030566305
000220 a2 96 9d bd c1 6d 3f be 4c 3d a2 3d d4 8d 60 be
       -0.076947466 -0.18694212 0.07921848 -0.21929103
000230 d1 36 30 3c c9 dc 66 bb c7 30 5f bd d7 d3 07 3d
       0.010755257 -0.0035226813 -0.054489877 0.03316101
000240 06 bf e4 3d 48 6d 34 3d 74 ed 54 be 0e fc 0a bf
       0.11169247 0.04404953 -0.20793706 -0.54290855
000250 bf 06 32 bd 2b 3f a0 3d 93 fc 84 3b ff 9d af bd
       -0.043463465 0.07824548 0.0040584295 -0.08575057
000260 9e 82 96 be 12 0a 85 3d 11 18 3f 3f a9 3b e8 bc
       -0.29396528 0.064960614 0.746461 -0.02834876
000270 af 8a e4 3c 88 6f 2d 3e c9 c0 9a 3c 4e 82 e3 be
       0.02789816 0.16937077 0.018890755 -0.44435352
000280 00 b6 a8 3c e1 4e 19 3b 56 7c fc 3d 1c 74 72 3d
       0.020594597 0.0023392963 0.12328403 0.05919276
000290 d0 cc 3d 3c c8 11 50 bd 15 99 bb 3c c7 d2 65 be
       0.011584476 -0.050798208 0.022900144 -0.22443686
0002a0 e4 8f 6c 3d 33 23 23 bc f8 e4 de bc ef 93 18 bf
       0.057754412 -0.009957123 -0.02720879 -0.5960073
0002b0 ed 3a 75 bd 30 67 b1 3d 60 b9 be bd 60 02 e2 3b
       -0.05987065 0.086622596 -0.09312701 0.006897256
0002c0 a2 35 f6 bd 26 21 f0 3d 38 07 c4 bd 69 ed 90 be
       -0.120219484 0.117250726 -0.09571689 -0.2830613
0002d0 b6 d8 c7 3d 86 d0 a5 bd c8 c9 7f bd 98 91 e6 3c
       0.09758131 -0.08096413 -0.062448293 0.028145596
0002e0 6d 3a 90 bf d1 ef b5 be 8c 40 d3 bd ee bb c5 bd
       -1.126783 -0.35534528 -0.10315046 -0.09654985
0002f0 99 5a af 3d 18 14 d1 be cf ba aa 3a 5e 1f cb bc
       0.08562202 -0.40835643 0.0013025644 -0.02479523
000300 85 de a9 be fe 41 77 3e 70 3c fc 3d c6 83 fd bd
       -0.3317758 0.24146268 0.12316215 -0.123786494
000310 a1 24 f0 bd 4a 4f af bd 86 e6 9b 3d 78 3e 6f 3d
       -0.117257364 -0.08560045 0.07612328 0.058409184
000320 d2 78 f2 3d c6 31 97 3d be 4b d3 bc 3e 95 77 bd
       0.11839451 0.073825404 -0.025792953 -0.060445063
000330 cc 7a 82 3d bb f1 a0 3e 32 6d b0 bc 97 a6 d6 bd
       0.06371078 0.31434426 -0.021536443 -0.10480993
000340 d8 9b 71 bd 14 fa b5 bd bd 96 c9 3d f9 7a c5 3d
       -0.058986515 -0.08885589 0.09843204 0.09642596
000350 6b 2a 8e bb 72 24 9f be 46 12 f1 3d 4d d0 e9 3d
       -0.0043385527 -0.31082493 0.117710635 0.11416683
000360 5a c3 fc 3d ea 85 85 bd ad 67 f5 3d fb bb 89 3a
       0.12341948 -0.06519683 0.11982665 0.0010508293
000370 f3 8f 36 bc d8 9a a7 3e fa 99 9d be 7b 05 92 3d
       -0.011142719 0.32735324 -0.30781537 0.071299516
000380 72 4d f0 3d 55 7a 36 3d a4 74 f9 bd f0 44 a3 bd
       0.117335215 0.04455026 -0.121804506 -0.07972133
000390 80 d3 cf bb 02 8e e4 bd 79 59 93 bd da 91 91 3c
       -0.0063423514 -0.11159898 -0.071948 0.017769743
0003a0 20 04 d5 3b 77 19 87 3c 84 32 97 bd 4e 24 c2 3d
       0.006500736 0.016491635 -0.07382682 0.09479581
0003b0 60 3e 5c 3d 4c 0f 53 3d 7c 0a 64 3d c0 f8 a5 3c
       0.053770423 0.05152826 0.05567406 0.020260215
0003c0 54 ee d3 bd 00 e9 7d 3c f4 fb fb 3d 23 24 4e 3e
       -0.10348192 0.015497446 0.123039156 0.20130973
0003d0 fc 5b f1 bd 85 b5 84 be 80 af 11 bb 68 05 2e bd
       -0.11785123 -0.25919738 -0.002222985 -0.042485625
0003e0 0c a8 28 3e c0 84 4e 3e a3 de 1c 3e 1f 0a e8 bb
       0.16470355 0.20167828 0.15319304 -0.0070812847
0003f0 67 06 0b 3e 4f 9f d4 3b de be d8 3c 4b 96 79 3a
       0.13576661 0.0064887176 0.0264582 0.00095209916

models.524287.layers.3.bias f4 [32]
000000 80 30 d4 be ba 6b b6 bd 49 a1 89 3e 36 94 04 be
       -0.41443253 -0.08907266 0.26880863 -0.12947163
000010 c1 72 63 bd e0 50 5c 3e eb f1 0f be 32 39 bb 3d
       -0.05552936 0.21515226 -0.14057128 0.091417685
000020 20 54 9f 3d 0c 7c 61 3d 1c ee 1b be 74 28 7f 3e
       0.077797174 0.05504994 -0.1522755 0.24917775
000030 1f 94 4f be 04 93 09 3e 9f 20 a6 be f5 50 a6 3c
       -0.20271347 0.13434988 -0.32446763 0.020302275
000040 83 ac 85 3e 64 49 8b 3e da 1e 83 3e 8e 11 8d 3e
       0.26108178 0.2720443 0.25609475 0.27552456
000050 cf e8 cf 3e c3 2f e6 3d 2e f6 a0 3d f3 ec 82 be
       0.40607306 0.112395786 0.07859455 -0.25571403
000060 09 68 95 be bd 7c 9b be 06 44 db 3e 26 e7 57 3e
       -0.29180935 -0.30368605 0.42825335 0.2108427
000070 3e 0b aa 3d b8 8e 60 3e 1b db d1 bd da 70 55 3e
       0.083029255 0.21929443 -0.10246869 0.2084383

models.524287.layers.6.weight f4 [16, 32]
000000 93 6a 48 be d0 b6 82 3d dd 20 09 3f ec 6b 98 3c
       -0.19571905 0.06382525 0.5356577 0.018606149
000010 8d 30 e4 3d 00 d1 3f 3f 46 a1 e2 3d a0 18 17 be
       0.11142073 0.74928284 0.11065917 -0.14755487
000020 50 c6 f6 bd 74 a0 18 be 7d 6a 0a 3e ff 39 af 3d
       -0.12049544 -0.14904958 0.13517185 0.08555984
000030 9d a3 36 3e 33 6f 81 3e ee 0f 13 3f e6 ca c3 bd
       0.17835851 0.2528015 0.5744618 -0.09560184
000040 25 c4 24 be 4b a6 99 3c 36 bd 9b 3f fe 7e 6e be
       -0.16090448 0.018756052 1.2167118 -0.23290631
000050 c9 a3 17 3e 33 d0 6e 3b 07 93 81 bd 60 42 ba b7
       0.14808573 0.0036440014 -0.06326871 -2.2203836e-05
000060 80 07 4d 3e ee 43 a4 3d 96 4a 08 3e 64 46 cc 3e
       0.20022392 0.08020769 0.13309702 0.39897454
000070 07 99 d1 3d 06 a1 a0 3e fa a9 af bd e7 84 20 3e
       0.10234266 0.3137285 -0.08577342 0.15675698
000080 76 fa 21 bd 41 c4 22 3d bc 42 07 3f ca 00 5d 3e
       -0.0395455 0.039737944 0.52836204 0.21582332
000090 57 62 0d 3e c3 3d 1b 3f 26 dd c5 3d d5 fb 82 bd
       0.13807045 0.60641116 0.09661321 -0.063956894
0000a0 52 7b 61 be eb 0d a2 bd 49 6e 22 3e 92 be 1a ba
       -0.22019699 -0.07912811 0.15862383 -0.0005903031
0000b0 d7 97 ec 3c 01 e8 dc 3e 5e 68 34 3f cc 80 81 be
       0.028880997 0.43145755 0.7047175 -0.25293577
0000c0 be 0d b8 bc 61 d6 ac 3d 39 f0 92 3f f4 b3 63 bc
       -0.02246749 0.08439327 1.147956 -0.013897885
0000d0 e1 eb 41 3d c3 76 b7 3b 8d 46 20 be 33 ba 47 3e
       0.047344092 0.0055988743 -0.15651913 0.19504623
0000e0 06 10 79 3e 82 a7 cf 3c 68 e7 27 3e 07 70 dd 3e
       0.24322519 0.025348429 0.16396868 0.43249533
0000f0 fb 38 cc 3d 87 1a 70 3e 12 6f c4 bd df e7 5d 3e
       0.09971806 0.2344762 -0.095914975 0.21670483
000100 3b d7 58 3c 65 ba 93 be ef ec 16 bf ee 65 73 be
       0.013234909 -0.28853145 -0.5895528 -0.23769352
000110 9c be 5d be fa bd 04 bf 45 7a cd be a1 d8 70 3e
       -0.21654743 -0.5185238 -0.40132347 0.23520137
000120 ea 2f 6f 3e a1 8c 7e 3b c3 9c 3a be 78 c7 0b bd
       0.23358122 0.0038841146 -0.18223862 -0.034125775
000130 ad 35 7b be 82 23 7d be 92 07 f5 be 37 87 c2 be
       -0.24532194 -0.24720576 -0.47857338 -0.37993786
000140 57 4c 04 3e 8f 7e 50 3e a3 81 25 bf af 12 86 3d
       0.12919746 0.20360778 -0.64650935 0.06546532
000150 7e 6b 17 3c ca 46 25 3e ad dc 1e bf e9 f6 e0 be
       0.009241937 0.16140285 -0.62055475 -0.43938377
000160 5e 40 57 be c5 eb ca be b8 36 6f 3e e8 23 92 be
       -0.21020648 -0.39633003 0.23360717 -0.2854302
000170 14 8f 82 3e d9 19 53 be 8c ca 9f be 68 77 9e be
       0.25499785 -0.20615329 -0.31209219 -0.30950475
000180 0a c6 c4 3c 39 62 67 be 25 2e 21 bf 05 65 6d be
       0.024020214 -0.22596063 -0.62961036 -0.23183067
000190 f1 5b a0 be 12 8f e2 be 2f 10 b4 be 52 19 6d 3e
       -0.31320146 -0.4424978 -0.35168597 0.2315419
0001a0 49 b2 d8 3e 8c a4 b9 bc 7d 65 63 be 29 ee 21 bc
       0.4232352 -0.02266147 -0.22206683 -0.009883442
0001b0 65 0e de be 40 f7 26 be e7 36 06 bf 8f c2 94 be
       -0.43370357 -0.16305256 -0.52427524 -0.29054686
0001c0 cf 67 21 3e 2e d0 96 3d 7d 43 09 bf 70 b3 e2 3d
       0.15762256 0.07363926 -0.53618604 0.11069381
0001d0 4e 6b d8 3d 6c 80 f9 3d 8c e6 03 bf b1 2f 0b bf
       0.10567342 0.12182698 -0.5152366 -0.54369646
0001e0 c6 5e db be 0e ce 19 bf 3a 1e 58 3d d8 d5 99 be
       -0.42845744 -0.6008004 0.0527632 -0.30045962
0001f0 33 f0 b8 3e 56 b8 93 be 87 8e e1 be 4c 01 2e be
       0.36120757 -0.28851575 -0.44054052 -0.16992682
000200 42 6c 13 be e4 4a dd be 8b 03 0b bf 35 8c be be
       -0.14396766 -0.432212 -0.5430228 -0.37216344
000210 3e 13 d7 be 03 6a b3 be 98 a2 3b bf 8a c8 ee 3d
       -0.42006868 -0.35041818 -0.73294973 0.116593435
000220 33 b2 ec 3e 3e 4f 5a 3c 96 0b 87 be 0b 43 5b 3e
       0.46229705 0.013324557 -0.26376027 0.21412294
000230 a4 8e aa be 59 bd de be 6d ba 0a bf 4c bf 58 be
       -0.3331195 -0.43503836 -0.54190713 -0.21166724
000240 4c 13 69 3d 6b 98 0e 3e 08 cf ee be ec ac 48 3e
       0.05690317 0.1392533 -0.46642327 0.19597214
000250 e0 c7 1e 3e bf 6a 9e 3d e5 91 07 bf 30 2d 1a bf
       0.15505934 0.07735204 -0.5295699 -0.602252
000260 a6 d8 cf be 12 66 b0 be a8 16 2b 3e 59 8e 69 be
       -0.40594977 -0.34452873 0.16707861 -0.22808208
000270 14 02 df 3d eb 2a 86 be 4d 9c 17 bf bc be eb be
       0.10889068 -0.2620462 -0.5922287 -0.46043956
000280 4f 9e 8e be c8 96 5a be 17 a1 1c bf d2 e9 a3 bd
       -0.27855155 -0.21346581 -0.61183304 -0.08003582
000290 cc 28 8a be 68 67 6d be 61 d3 7f be 7d bb bf 3c
       -0.2698425 -0.23183978 -0.24982978 0.023404831
0002a0 e4 88 aa 3e 60 09 d5 3d d7 d5 09 be 26 55 e9 3d
       0.33307564 0.10402179 -0.1346048 0.11393194
0002b0 78 8e 9f be 48 04 7e be 99 95 21 bf 1f 7d 5e be
       -0.31163383 -0.2480632 -0.6311889 -0.21727417
0002c0 37 cc d9 bd 49 bf d9 3d 19 81 01 bf 54 ee 66 3e
       -0.10634654 0.10632188 -0.5058761 0.22551852
0002d0 28 7a e9 3d cb bb ee 3d 5f 42 23 bf db fd c7 be
       0.114002526 0.116569124 -0.6377315 -0.39060864
0002e0 3c 63 dd be 36 09 eb be 5b 15 1d 3e 60 99 82 be
       -0.43239772 -0.45905465 0.15340178 -0.2550764
0002f0 74 2c 63 3e 66 06 dd bd fe 46 1a be 61 02 0d bf
       0.22184926 -0.10792236 -0.15066144 -0.55081755
000300 61 d3 c2 3c 74 e2 ad 3d 6c 91 97 be bc e2 6d be
       0.023782434 0.08490458 -0.29603136 -0.23231024
000310 1e 9d 5e 3d 18 46 69 bd 9a c6 0a bd aa 0e 14 3e
       0.054349057 -0.056951612 -0.033880807 0.14458719
000320 72 b0 86 3e 07 7a 9b 3d 25 49 81 bd 9d b3 cf 3d
       0.26306492 0.07591634 -0.06312779 0.101416804
000330 69 11 fc bd 3e bb 5b be 3b 61 86 be 08 9f 41 3c
       -0.12308008 -0.21458146 -0.26246056 0.011817701
000340 ad 6f bc 3e ad a4 d7 3c f8 bb d5 be e8 3e 9c 3d
       0.36803952 0.02632364 -0.4174497 0.07629186
000350 e3 79 01 3e 12 2e 22 bd b3 52 8d be 59 54 97 be
       0.12644152 -0.039594717 -0.27602157 -0.2955654
000360 ce 67 8f be ef b2 80 be fc cf 5e 3e a2 06 84 be
       -0.28008884 -0.25136515 0.21759027 -0.2578631
000370 ad 74 9e 3b 64 c0 eb bc 78 3b a5 3c 37 c0 1c be
       0.004835686 -0.028778262 0.020169958 -0.15307699
000380 19 e7 92 bd 03 21 e4 bd a9 98 2d bf 9b de 92 be
       -0.07172985 -0.11139109 -0.67811066 -0.2868546
000390 41 68 80 bd cf 46 e3 be f2 53 53 be f9 27 44 3e
       -0.06269885 -0.4438996 -0.20637491 0.19155873
0003a0 d5 f6 21 3e e4 28 76 3d 32 26 75 be 46 25 63 3e
       0.15816815 0.06009759 -0.23940352 0.22182187
0003b0 b6 27 40 bd 76 27 e7 b9 f1 17 0d bf cc 27 20 be
       -0.04691287 -0.00044089154 -0.55114657 -0.15640181
0003c0 e6 d3 6a 3e 29 dd 93 3e 3c 00 28 bf 99 f2 9c 3c
       0.22932395 0.2887967 -0.6562536 0.019158648
0003d0 47 17 59 3e f6 b7 07 3e a8 a2 1c bf 1e f7 00 bf
       0.21200286 0.1325377 -0.61185694 -0.5037707
0003e0 57 c6 a5 be 56 b0 ee be 68 8a c8 3d f2 2c 93 be
       -0.32377884 -0.4661891 0.09792024 -0.28745228
0003f0 26 f1 b3 3e ea 27 94 bc 86 76 45 3d fb af 96 be
       0.3514492 -0.018085439 0.048208736 -0.29431137

models.524287.layers.6.bias f4 [16]
000000 59 a9 98 3c b6 03 84 bd 42 e5 f4 3e 96 e2 06 3f
       0.018635439 -0.0644602 0.4783116 0.5268949
000010 20 98 80 3e f8 21 1c 3f b7 78 54 3e cd 77 c2 3e
       0.25116062 0.6098933 0.20749174 0.37982026
000020 75 d3 02 3f 18 37 c8 3d fd 23 ac bd 67 44 be bd
       0.5110391 0.09776133 -0.08405302 -0.092903905
000030 b0 d5 11 be a0 fb 05 3e c2 94 4f be ca 05 73 bb
       -0.14241672 0.13084269 -0.2027159 -0.0037082308

models.524287.layers.9.weight f4 [1, 16]
000000 c8 62 03 bf bb f5 f3 be 40 d0 22 3f 13 f9 32 3f
       -0.51322603 -0.47648415 0.63599014 0.6991131
000010 94 e3 6b 3f a0 aa 26 3f 78 f1 8f 3e 12 9c f7 3e
       0.9214413 0.65104103 0.28113914 0.4836126
000020 78 38 2f 3f 9d d5 ae be df df b0 be 52 74 87 be
       0.6844554 -0.3414735 -0.345458 -0.26455933
000030 9d 5b df be ef c3 b8 be 76 77 07 3e a5 4a ab be
       -0.43624583 -0.36086985 0.13229164 -0.33455387

models.524263.layers.0.weight f4 [64, 17]
000000 8c f0 05 c0 f5 25 e8 3c b9 25 4b ba 21 16 9c bf
       -2.0928068 0.028338412 -0.00077494566 -1.2194253
000010 57 07 8b bf 58 36 aa bc b8 a3 0f be 8b a8 df 3b
       -1.0861615 -0.020777866 -0.14027297 0.006825512
000020 ef 3c a3 bf e2 9a 9d 3d f7 a6 58 3c f7 85 fa ba
       -1.275297 0.07695557 0.013223401 -0.0019113411
000030 90 45 f8 3b bd 77 38 3c e7 9d 05 bc 9d 5f 5a 3c
       0.007576652 0.011259017 -0.008155323 0.01332846
000040 c6 fd e8 bc 52 37 73 bf 64 12 aa 3d e5 38 2a be
       -0.028441321 -0.9500629 0.08304289 -0.16623266
000050 45 ee 0d bf ac f0 17 be 92 5e 80 b9 40 fe 28 3e
       -0.55441695 -0.14837903 -0.00024484523 0.16503239
000060 67 44 81 3d 0c 66 68 bf 68 bf f5 bd 0a d4 9b bd
       0.06311875 -0.9078071 -0.119993985 -0.076088026
000070 20 c4 23 be f3 5a b6 3d 31 5b ad 3a df 30 3d 3e
       -0.15992785 0.08904066 0.001322603 0.18475674
000080 9c 89 fe bd dc be 8d 3c 52 60 f8 bd 82 80 05 be
       -0.12428591 0.017302923 -0.12127747 -0.13037303
000090 98 47 2c 3d 32 40 9a bd 37 96 6e be fc fa 74 bd
       0.042060465 -0.075317755 -0.2329949 -0.05980967
0000a0 f8 0f 8a 3d eb 95 0d be 58 a1 75 3e dc 6e 0d 3e
       0.06741327 -0.1382672 0.23987329 0.13811821
0000b0 40 32 41 be 3c 36 f0 3d c8 39 96 bd da 79 87 bd
       -0.18866825 0.117290944 -0.0733524 -0.06615038
0000c0 62 53 48 be b2 ee 6c 3e b0 74 ed 3d be 16 18 bf
       -0.19563058 0.2313793 0.11594522 -0.594097
0000d0 6b 38 d3 bd 36 6e 6d be eb a1 ab bd aa a4 66 be
       -0.10313495 -0.23186573 -0.08380493 -0.22523752
0000e0 51 7c ef bd f2 0d 27 3e 91 e8 87 3e 12 55 26 bf
       -0.11693633 0.16313913 0.26544622 -0.64973557
0000f0 b7 5a 1d be e1 a4 6c 3d 78 7c 4d be c7 f7 fa 3d
       -0.15366636 0.05777443 -0.20067012 0.12254291
000100 73 c3 83 bc b0 f2 c8 3d d7 3c 6c 3e 6a 76 50 bd
       -0.016084408 0.09811914 0.23070084 -0.05089418
000110 bc 0b fd 3d 20 73 1b be 2c e6 0d be 88 01 e1 3d
       0.12355754 -0.15180635 -0.13857335 0.1098662
000120 3c 99 55 bd 7e 91 be bd 40 d8 45 3b df b4 f1 bd
       -0.05214809 -0.09305094 0.003018871 -0.118020765
000130 f0 1b 85 bc 44 1d 16 3e 94 0c 2b be 54 59 8d 3d
       -0.016248673 0.14659601 -0.16704017 0.069018036
000140 04 46 ca 3d ac e9 53 bd 80 7b 7c 3c 9c c9 23 3e
       0.09876636 -0.05173652 0.015410304 0.15994877
000150 a6 a3 aa bd 1b 54 cc 3f 4d 43 09 bd f0 8f 4d 3a
       -0.08331995 1.5963167 -0.03351145 0.0007841578
000160 39 e4 0f 3e f5 23 dd 3c b4 e7 31 bd f0 fe 0c 3b
       0.14051904 0.026994685 -0.04343386 0.002151426
000170 fc 0a a2 3c 0c 40 8a 3f 19 07 9b 3d 83 de b5 bd
       0.019780628 1.0800796 0.07569713 -0.08880331
000180 0c 4d a9 bd 6d de e3 bd 2f 0a 50 bb 09 24 d7 3b
       -0.08266649 -0.11126409 -0.003174435 0.006565575
000190 08 60 20 3c 33 11 8d bc 89 29 77 be 76 40 09 be
       0.009788521 -0.017220115 -0.24136938 -0.13403496
0001a0 60 cb ef 3d 1c 95 e2 bd fa b6 fe bd 60 14 63 3c
       0.117087126 -0.110635966 -0.12437244 0.013859838
0001b0 c4 02 86 3d 40 62 71 3b a0 c4 73 bd ea e5 c1 bd
       0.06543496 0.0036832243 -0.059513688 -0.09467681
0001c0 20 3e 3b 3e c4 7d b0 bd 24 d4 04 be c5 f2 5a be
       0.18285418 -0.08617738 -0.1297155 -0.21381672
0001d0 0c 4c e0 3d a2 c6 a3 bd 00 a5 5d bd 83 f2 71 be
       0.10952005 -0.079968706 -0.054112434 -0.23627667
0001e0 b4 ea 0e bd e1 2b 1d be 40 2a 70 3b e2 7b 0d be
       -0.0348918 -0.1534877 0.0036646277 -0.13816789
0001f0 e8 83 5e 3e 8c aa 82 3d 54 f1 f3 3d da 1f 27 be
       0.21730006 0.063801855 0.11911264 -0.16320744
000200 de e6 19 3e c4 b1 5e be 72 17 53 3e 32 dd 1f be
       0.15029475 -0.217475 0.20614412 -0.15611723
000210 e8 a0 6e bd 06 d6 09 be 12 8e 0b be 9a 3f 5f 3e
       -0.05825892 -0.1346055 -0.13628414 0.21801606
000220 9a 58 ba bf fd ed b6 3c 7e c9 99 3a 14 6c 6d bf
       -1.4558289 0.022330279 0.0011733023 -0.9274304
000230 ff df 7f bf 25 c2 ff 3d 79 b0 0a 3e 0d 68 5f 3c
       -0.99951166 0.12488202 0.13543881 0.0136356475
000240 f6 5c cf bf 24 4d 24 bd 1d 84 bf bc 02 5e e1 bc
       -1.6200244 -0.04011263 -0.023378426 -0.027510647
000250 d1 e1 90 3b 12 3c 26 3c b0 52 e5 3a c0 95 2f bc
       0.0044214507 0.010146158 0.0017495956 -0.0107168555
000260 ec 52 7b bb e1 78 31 be 40 6b a8 bc cc 7e 4c be
       -0.0038348986 -0.17331268 -0.020558953 -0.19970244
000270 dc eb 4f be 30 ef f5 3c f3 33 5e be 00 cf 2a 3d
       -0.20304817 0.03002128 -0.21699505 0.041701317
000280 98 e5 21 3e 9d cc 5f be 38 6f 8e bc 86 03 2d 3e
       0.1581024 -0.21855398 -0.017387018 0.16895875
000290 70 8c 1f bc 46 62 43 3e 46 4b cd bd 58 8e 49 3e
       -0.009738073 0.19080457 -0.10024123 0.19683206
0002a0 8a 3b 41 3e d4 cd 87 bd 26 c7 8c be 1d 9b 9a 3b
       0.18870369 -0.066310555 -0.27495688 0.004718198
0002b0 ad 8b d5 ba de e1 a7 bf 31 2d 96 bf 93 74 07 be
       -0.0016292237 -1.3115804 -1.1732541 -0.13228063
0002c0 31 94 95 bd fa 39 30 3b ac af 14 bf ed b2 c3 3d
       -0.07303656 0.0026890025 -0.58080554 0.09555612
0002d0 72 d7 c6 3d 6d 6f 47 3d f2 55 59 bd 85 f0 50 3c
       0.09709062 0.04869025 -0.05306048 0.012752657
0002e0 54 32 f4 bd a1 fb e3 bd c4 85 f3 3d 2a 9c d8 bd
       -0.11923662 -0.11131979 0.11890748 -0.10576661
0002f0 fa 58 77 3e 48 50 35 3e b8 d4 3a 3d b6 be 0e be
       0.24155036 0.17706406 0.04561302 -0.13939938
000300 58 50 5f 3e ce f7 3b 3e 6a a1 6d 3e 40 db c4 bd
       0.21807992 0.18356249 0.23206106 -0.09612131
000310 6a cf 54 be 0c c9 e8 bd f4 d0 43 be c4 ba 6c 3e
       -0.20782247 -0.11366472 -0.19122678 0.2311812
000320 20 31 74 be 1a f2 be bd 98 d9 16 3e b0 17 55 be
       -0.23846865 -0.09323521 0.14731443 -0.20809817
000330 ca 65 6a be 30 16 1c 3d 08 cf c1 3d c8 79 86 3d
       -0.22890392 0.038107097 0.09463316 0.06566197
000340 80 5e cb 3d 18 45 a0 3d 7a ca 40 3e 0a 57 07 3e
       0.09930134 0.078256786 0.18827239 0.13216797
000350 5a 09 46 be 38 d5 68 3e 40 aa 6a bd 3c e2 3e be
       -0.19339505 0.22737586 -0.05729127 -0.18640989
000360 c6 8c 18 3e 6c 8e b8 bd 80 70 f8 ba 34 20 e6 3d
       0.14897451 -0.0901154 -0.0018954426 0.11236611
000370 b0 02 ed 3d 29 ab 53 3c a8 e4 d6 3c 1e 92 cb 39
       0.11572778 0.012919226 0.026232079 0.00038828043
000380 d4 bb c9 bf e4 77 8f bf a3 b0 43 be 09 76 6a be
       -1.5760446 -1.1208463 -0.1911035 -0.2289659
000390 00 85 17 bc 58 85 b3 3e 64 0f fa 3d d1 5b 29 3d
       -0.009248018 0.3506267 0.12209967 0.04134733
0003a0 b6 e9 c6 bb 22 ed 17 bd 67 fb 96 3b ad 3b 9b 3c
       -0.006070341 -0.03709138 0.004607606 0.018949354
0003b0 73 ca 4b 3c 2b c1 23 3c 93 68 5d be 14 5e 29 3e
       0.012438404 0.009994785 -0.21621923 0.16539794
0003c0 70 d4 21 3d 0a 1f e2 bd 94 01 78 3e 8a f4 9c bd
       0.039509237 -0.110410765 0.24219352 -0.076638296
0003d0 e8 67 fb 3d e4 03 6f 3e c4 54 e7 3d d8 93 47 3d
       0.12275678 0.23341328 0.11295465 0.04872498
0003e0 60 28 bb bb 2e 55 a8 bd 42 c8 0b 3e 66 9b 3a be
       -0.0057116 -0.08219372 0.13650611 -0.18223342
0003f0 cc a1 41 bd ab 5d 04 be a6 cc 0c 3e b9 e4 5c bf
       -0.047273442 -0.12926356 0.13749942 -0.86286503

models.524263.layers.0.bias f4 [64]
000000 84 c6 0d 3b 64 5c 14 bd 32 9f 2f 3e b1 b4 02 be
       0.0021633217 -0.036220923 0.17150572 -0.12764241
000010 00 eb 2b bb b5 67 78 bd 48 31 9f 3d d2 c0 c7 bd
       -0.00262326 -0.060645778 0.077730715 -0.097535744
000020 32 a5 85 3e a4 ad 07 3e 1b f7 4f be a0 d2 e9 3d
       0.26102597 0.13249832 -0.20309107 0.11417127
000030 14 9b 28 be 37 39 de bb c0 f6 2a 3c f3 91 5e be
       -0.16465408 -0.006781723 0.010434806 -0.21735363
000040 a8 dd e9 3d c4 6f a5 3d 22 5b 25 bc 76 e5 68 be
       0.11419231 0.08077958 -0.010092529 -0.22743782
000050 04 da 48 be c1 13 76 3d a9 59 95 3d 4c 40 8b 3c
       -0.19614416 0.060077433 0.07292492 0.016998433
000060 ce 20 34 be ea d4 7c be fa 7d 6e 3c 44 e3 0b be
       -0.17590639 -0.24690595 0.014556402 -0.13660914
000070 2d 5e 4a be ab cf f7 bd be 87 e9 bd 68 15 47 3d
       -0.19762488 -0.121001564 -0.11402844 0.0486044
000080 0f 47 78 be 38 99 16 bd ab 13 c5 be c5 d2 63 be
       -0.24245857 -0.036767215 -0.38491568 -0.22248371
000090 4b d1 14 be 23 9d da be 63 b0 b4 be a3 41 a9 be
       -0.14532964 -0.4269801 -0.35290822 -0.3305789
0000a0 48 f1 18 3e 98 d4 5e bd c4 71 a2 be f8 d2 3d be
       0.14935791 -0.054401964 -0.3172742 -0.1853751
0000b0 67 5d be 3c f6 c0 33 3e 9f cb 27 bd 91 99 1e be
       0.023237897 0.17554078 -0.040965673 -0.15488268
0000c0 b9 7d 91 bb ee f2 9c be 80 0d 87 3b e6 4a 07 3d
       -0.004440036 -0.3065409 0.0041214824 0.033030413
0000d0 3d 68 55 3d 50 39 a7 bc bc bc 82 be c0 0e 3e 3e
       0.052101362 -0.02041307 -0.25534618 0.18560314
0000e0 ca b6 c2 bd ad 56 d4 bd ea 1a 27 bd 01 0f 56 3e
       -0.095075205 -0.103680946 -0.04079715 0.20904161
0000f0 f4 b0 08 be 2f 34 5f 3d 05 35 97 bd 32 02 c9 bd
       -0.13348752 0.054493126 -0.073831595 -0.09814872

models.524263.layers.3.weight f4 [32, 64]
000000 8f 98 07 3d 7a b9 cc bb e6 14 f4 bd 55 ad b1 bd
       0.033104476 -0.0062476965 -0.119180486 -0.086756386
000010 4e d2 cd 3d 0d f6 54 be 6c 70 59 3d 54 3c 2c bd
       0.10049878 -0.20796986 0.05308573 -0.04204972
000020 63 44 49 be b4 c1 c5 3d 2a 00 3b be da 5c 8a bd
       -0.19654994 0.096560866 -0.18261781 -0.06755991
000030 40 fe 17 bb a5 62 75 be 6c 94 2b 3d 06 62 6f 3d
       -0.0023192316 -0.23963411 0.041889593 0.05844309
000040 28 f6 dd 3c 20 1f c4 bb fc 87 ef bd e9 fc 0d be
       0.027094916 -0.0059851557 -0.11695859 -0.13866009
000050 18 56 23 bd 0a f2 97 3d 75 2f e6 3d f9 a7 0f bc
       -0.039877027 0.07419212 0.112395205 -0.008768075
000060 1e 61 f6 3d 7b b4 5c be ee 1f 35 3c ac 1e ff bd
       0.120302424 -0.21553223 0.011054976 -0.12457022
000070 d6 42 cd bd 8e 63 88 bd e9 41 41 bd 5a 69 d4 bd
       -0.100225136 -0.066596135 -0.047181997 -0.10371657
000080 30 a9 dc bd b0 e3 0c bc 92 50 a7 be e0 44 26 3c
       -0.107744575 -0.008599207 -0.32678658 0.010148257
000090 1f 5b 00 bd 53 a8 ec 3c 62 6d 47 3e ad 15 66 bb
       -0.0313369 0.028888857 0.1947532 -0.0035108135
0000a0 40 97 72 3b d8 a6 f7 bd fe 5b 27 3d b0 a5 05 3d
       0.0037016422 -0.1209237 0.040859215 0.032628715
0000b0 80 b2 da be 6c 8a a3 3d db a6 31 3d a4 0f 1c 3c
       -0.4271431 0.07985386 0.043372016 0.009525213
0000c0 09 35 04 3e 58 af 1d bb 98 72 d7 3c 20 f1 05 be
       0.12910856 -0.0024060812 0.02629976 -0.13080263
0000d0 c5 14 8f 3d 35 b8 83 3d 03 33 8c be 8a f4 b2 3d
       0.06986383 0.06431619 -0.2738267 0.087380484
0000e0 a8 17 3e be 81 a8 b0 be d1 f0 f2 bd 73 e6 87 bc
       -0.18563712 -0.34503558 -0.11862338 -0.016589379
0000f0 5a b2 10 be f8 0b 5b 3e ef da d3 bd f2 94 3a 3d
       -0.14130536 0.21391284 -0.10344493 0.0455522
000100 a9 81 f9 be 3c 5c e4 bd d8 72 31 bd 57 36 6b 3c
       -0.48731735 -0.11150405 -0.043322414 0.014356217
000110 4a 86 97 bd 79 1d f1 bc 70 1e 2a bc 46 79 84 bd
       -0.073986605 -0.029432999 -0.010383233 -0.064684436
000120 5d ea 16 bf a0 98 0d 3d 1a b4 ae 3d 90 07 5d 3d
       -0.5895136 0.034569383 0.085304454 0.05396229
000130 20 c4 72 bd cf b0 84 3e 52 79 a8 3d 5c 53 7e 3c
       -0.05926907 0.25916144 0.08226265 0.015522804
000140 08 a7 af 3c c8 d4 6d 3d 9c 0d 3c bc 55 1c ba 3d
       0.021441951 0.058064252 -0.011477854 0.09087435
000150 38 ae a7 bc ae 47 05 3e 68 1b d9 be 2c 30 8a be
       -0.020468816 0.13015625 -0.42403722 -0.26989877
000160 16 c8 af 3d be 4f 81 3b 9e 1d 93 3d a2 a0 60 be
       0.08583085 0.0039462736 0.071833834 -0.21936277
000170 2c b9 99 bd aa 9b 20 3e a2 f4 c5 3d aa c2 10 3e
       -0.07506022 0.15684381 0.09665801 0.14136758
000180 80 5e b4 3d a6 4c b0 bd 59 6f 03 3d d6 d0 c3 3d
       0.08807087 -0.086083695 0.03208861 0.09561317
000190 53 7c 5a 3c 81 26 8b 3c cd 53 33 be a9 e9 58 bd
       0.013335305 0.016986134 -0.17512436 -0.05295721
0001a0 e4 6d 0e 3d 70 bd c7 bc 5c 0a fb bc 3c d7 0e 3d
       0.03477277 -0.024382323 -0.030644588 0.034873232
0001b0 df 7e 0b bd 5c f8 6c bd 76 d4 e2 be a0 ce 02 be
       -0.03405654 -0.05785404 -0.4430272 -0.12774134
0001c0 cb de 9b be cc b2 a6 3a 8c a3 33 bd 3c fd 46 3d
       -0.30443415 0.001271808 -0.043857142 0.048581347
0001d0 d4 e8 dd be a5 4d ce bb cc 1f f9 3d d0 40 9f bd
       -0.43341696 -0.006295877 0.12164268 -0.07776034
0001e0 fc 54 72 3e d6 9f 16 3e 25 85 f5 3d d6 69 93 bd
       0.23665231 0.1470941 0.11988286 -0.07197921
0001f0 1a 00 f6 bd 06 40 a5 be cb 75 84 3d 5b d7 39 be
       -0.12011738 -0.32275409 0.0646778 -0.18148558
000200 0d 2f b6 bb 48 29 11 3e e0 4a 87 bb 7a 99 4d bc
       -0.005559808 0.14175904 -0.004128799 -0.012548799
000210 b0 6a 68 bd af 49 57 bd da ff cc 3d 5a 20 ca bd
       -0.05674237 -0.052560505 0.10009737 -0.09869452
000220 e7 89 04 3e c8 43 bf 3d 4f f9 06 bd 44 4c 32 bd
       0.1294323 0.093391 -0.032952603 -0.043529764
000230 d4 29 d1 3d fd 63 1a be 5a fa df 3d 3b c6 18 3d
       0.10213056 -0.15077205 0.10936423 0.037298422
000240 c6 c8 e6 bd 48 31 8b bd a6 ed a7 bd 04 78 52 bd
       -0.11268763 -0.06796509 -0.08199625 -0.051383987
000250 50 ff 75 bd a6 c4 bd bd be 0c 99 3d 60 f8 63 bd
       -0.060057938 -0.09266023 0.074731335 -0.05565679
000260 30 ae 08 bd 35 7b e2 bd ea 22 0d be 7b 58 d5 bd
       -0.033369243 -0.11058656 -0.1378285 -0.10417267
000270 28 7e 97 bc 50 a6 18 3e cc 42 b4 bd f7 e6 7f bd
       -0.018492773 0.14907193 -0.08801803 -0.062476125
000280 68 8c 51 bd 52 cd c3 bd 27 20 0c be c0 66 1a bd
       -0.051159292 -0.09560646 -0.1368414 -0.037695646
000290 3f 23 43 3c 74 0b b4 bd 5d 17 fb bd 2c 52 0d 3d
       0.011910259 -0.08791247 -0.122603156 0.034502193
0002a0 e4 c5 90 3d f6 4f 8b bd e8 d4 93 bd ba 15 e6 3d
       0.07068995 -0.06802361 -0.07218343 0.11234613
0002b0 a9 cc 55 bd b0 8d ff bc c7 c0 9e 3d a6 6f ab bd
       -0.052197132 -0.031195492 0.07751613 -0.083709046
0002c0 2c b8 b4 3d f5 72 7e 3b 80 d0 21 bb 6a ee b1 bd
       0.088241905 0.0038825844 -0.0024690926 -0.08688052
0002d0 bb 0a ca bc 4b d8 f7 bd 8e a8 7b 3d 34 c5 a5 bd
       -0.02466332 -0.121018015 0.061440043 -0.08094254
0002e0 77 72 89 bd 3a 09 9e be a5 04 3c bd 49 a3 74 bc
       -0.067112856 -0.30866414 -0.045902867 -0.014931508
0002f0 16 59 ae 3d 96 c9 1e be 78 f2 98 bd aa 75 b6 bb
       0.085130855 -0.15506586 -0.07468122 -0.005568226
000300 ea b6 1e 3f dd 59 2e 3d c6 d4 a0 3d 1d 57 90 3d
       0.61997855 0.04256617 0.07853083 0.070478655
000310 cc 7a d7 bd b9 82 53 bd 1e b9 ac 3d 3e 1e a3 3d
       -0.105214685 -0.05163834 0.08433746 0.079647526
000320 56 d7 5a 3f 40 ac 96 3b 5d 36 16 3e 80 33 78 bc
       0.85484827 0.0045981705 0.14669175 -0.015148997
000330 48 2a f6 bd 16 41 30 3f 1a 25 c0 3d fa 08 1f bb
       -0.12019783 0.68849313 0.093820766 -0.0024266825
000340 40 26 16 3b 90 e9 e1 3c ff 9c 8b 3d fa 2c 9b 3d
       0.0022910982 0.027577192 0.06817054 0.07576938
000350 38 69 5c bd d9 33 80 3d 65 a5 4d 3d 55 9c 23 3c
       -0.053811282 0.06259889 0.05020656 0.009986003
000360 80 47 9a ba e1 c3 9b 3d 56 20 2e 3d ee f1 ce 3d
       -0.0011770576 0.0760572 0.042511307 0.10104738
000370 e8 80 7d bd 23 57 a3 3d b7 76 fd 3c 5e d3 66 3d
       -0.061890513 0.079756044 0.030940397 0.05635392
000380 a0 27 78 bc 8c ba 56 bd 50 7e c4 3c 98 a9 81 3d
       -0.015146166 -0.052424 0.023986012 0.063311756
000390 5f 21 02 3d b6 66 a0 3d 59 7e 47 3c 8a 67 9e bd
       0.031770106 0.078320906 0.01217612 -0.07734592
0003a0 28 86 cd bd b0 4a 91 bd 8d b4 2b bc 8b 50 72 bc
       -0.10035354 -0.07094324 -0.010480058 -0.014789711
0003b0 9e 0f 9b 3e f4 36 4e bd 2f 24 f9 3c f4 8d d2 3d
       0.30285352 -0.050345376 0.030412761 0.10280982
0003c0 b8 e8 a2 bc c0 10 e7 3c 64 83 a3 bd 6a fd 2b be
       -0.01988636 0.02820623 -0.07984045 -0.16795889
0003d0 da d8 02 3f 0d 26 a7 bc 5a 51 e4 3d cc 2e 8d bd
       0.5111214 -0.020403886 0.11148329 -0.068936914
0003e0 88 54 a7 3e 7d 2c ac 3e 0f 7f da bd f6 71 57 be
       0.3268168 0.33627692 -0.10668766 -0.21039566
0003f0 77 75 09 3f ca a1 3d bc 2c ff a7 3b 03 6f 81 3d
       0.5369486 -0.011574218 0.0051268544 0.06320002

models.524263.layers.3.bias f4 [32]
000000 e6 52 08 bd 65 64 17 3e 2b 84 5f 3e 3b fe 2f be
       -0.033282183 0.14784391 0.21827762 -0.17186825
000010 87 11 b2 be be 37 e3 3d d1 bd 43 3c 82 dc 68 3e
       -0.34778997 0.11094616 0.011947111 0.22740367
000020 c2 9a 12 3e 48 4a 67 3e 17 d5 3b 3d fa e0 81 be
       0.14316848 0.2258693 0.045857515 -0.25366956
000030 40 ba ba be 23 c1 63 bc 94 6c f8 3c 47 b7 98 3e
       -0.36470222 -0.013901028 0.030325212 0.2982733
000040 65 b2 2e bc 58 8f dc 3d e1 91 30 be a0 51 9d 3d
       -0.01066265 0.10769528 -0.17243148 0.07681584
000050 8a 5e ba bd 30 77 af 3c 2a 5f 3b 3e 48 64 ed 3c
       -0.09100063 0.021419138 0.18298021 0.028978482
000060 f7 0d fa 3b e1 77 4b be 01 c8 30 3d 5a 46 38 3e
       0.0076310593 -0.19869949 0.04315949 0.17995587
000070 4a a6 44 bd c8 df 0e be 0c 4a 22 3e 6d 0a be bc
       -0.048010148 -0.13952553 0.15848559 -0.02319833

models.524263.layers.6.weight f4 [16, 32]
000000 dd 69 12 be 8c 9e 93 be 51 56 7b 3e 1e 0e 8e bd
       -0.14298196 -0.288319 0.24544646 -0.069362864
000010 86 4b 55 3e 79 32 92 3d 08 bb fe 3c d0 54 8c 3e
       0.20829591 0.07138533 0.031095043 0.27408457
000020 d7 96 91 3b 04 cc 87 ba a2 15 36 3d f6 ea 16 3d
       0.0044430303 -0.0010360484 0.044454224 0.03684517
000030 66 ba 2b 3f 5e 8b 13 bd 08 ef 0f bf e0 6c 38 3e
       0.67081296 -0.036021583 -0.5622411 0.18010283
000040 09 e4 eb bc a5 7f bf 3e 7c 9e 98 be 70 55 ca bd
       -0.02879526 0.37402073 -0.29808414 -0.09879577
000050 ea 14 50 3d 95 6c 3e 3e da 22 c5 3e de 76 05 bd
       0.050801195 0.18596108 0.38503152 -0.032584064
000060 45 1c ac bd 82 cd 24 3e e7 31 0c bf f0 78 c2 3e
       -0.084038295 0.1609402 -0.54763645 0.37982893
000070 c8 b5 5c 3e 90 c6 18 3e d3 09 e6 3e 85 8c 47 3e
       0.21553719 0.14919496 0.4492937 0.19487198
000080 0d f5 2f be 65 89 8b be b1 d0 6d 3e 0f e3 5b 3e
       -0.17183323 -0.2725326 0.2322414 0.21473335
000090 49 bc c7 3e 8b d0 99 3c 47 1e 08 3d ab 1b 59 3e
       0.39010838 0.018776199 0.033232 0.2120196
0000a0 7b 5a 07 3e 7c 70 ca 3d 55 25 a4 bc 9d ca 41 3e
       0.1321811 0.09884736 -0.020037333 0.18924947
0000b0 37 d1 22 3f 96 a8 28 bd 46 44 22 bf f5 4a 38 3e
       0.63600487 -0.0411764 -0.63385427 0.17997344
0000c0 18 ea 24 bd 9b ad c1 3e 0d 51 8c be 3f 5d 8e bd
       -0.04026231 0.37827763 -0.27405587 -0.06951379
0000d0 59 8f f2 bd 9a 6f b0 3e 80 8d 05 3f 46 28 db 3d
       -0.11843748 0.34460145 0.52169037 0.10701041
0000e0 a6 c9 d6 bd 44 26 c6 3e c9 ac 12 bf ee 7b af 3e
       -0.1048768 0.3870107 -0.572949 0.34274238
0000f0 55 63 95 3d 1d af af 3d e7 77 cb 3e b2 bf fd 3b
       0.07294337 0.08578322 0.39739916 0.007743799
000100 c6 70 3e bc 53 f5 77 be d7 b1 93 3e 5f 00 66 3e
       -0.011623567 -0.24214678 0.2884662 0.22461079
000110 0d 77 85 3e 9f dc 7a 3e 78 6a e4 ba 13 6a 93 3e
       0.2606739 0.24498223 -0.001742675 0.28791866
000120 12 7a b4 3d c8 19 c8 bb 22 31 0e be a3 e2 5b 3e
       0.088123456 -0.006106589 -0.1388593 0.21473174
000130 7c 00 44 3f 98 62 6a 3d c8 8c d3 be b5 6b b7 3d
       0.7656324 0.057222933 -0.41318345 0.0895609
000140 20 63 4c 3d 6c f3 b3 3e 42 47 be be 5e 54 ae 3d
       0.04989922 0.35146654 -0.3716374 0.085121855
000150 a9 81 1c be 5b b4 40 3e 66 52 c6 3e f1 cb 52 bc
       -0.15283836 0.188188 0.3873474 -0.012866006
000160 3d 1b 57 bc 91 3c 18 3e b0 46 b1 be f4 04 b3 3e
       -0.013129053 0.14866854 -0.34624243 0.34964716
000170 8d 2d 9b 3e 6e 08 2b 3d 04 ec 08 3f 27 0e 08 3e
       0.3030819 0.041756086 0.5348513 0.13286649
000180 51 0f 2f be 9b 86 bd bd f2 36 1b bd 49 70 bb 3d
       -0.17095686 -0.092541896 -0.037894197 0.09152276
000190 36 85 a1 be 10 48 ab 3d 8a 78 21 be 42 8a 84 3e
       -0.31546944 0.08363354 -0.15768638 0.25886732
0001a0 c6 32 0b 3e f4 d7 c5 3e aa 7a d3 bd 3a a4 94 be
       0.13593587 0.38641322 -0.10326131 -0.29031545
0001b0 c5 74 57 be bb 78 d9 3d 48 f8 9e b9 68 45 82 3e
       -0.21040638 0.10618731 -0.00030321092 0.25443578
0001c0 e5 dc bf 3d ca e0 b4 bd ce 7b 05 be 6e 83 81 be
       0.09368304 -0.088319376 -0.13035509 -0.25295585
0001d0 3c 27 1e 3e 4a 1a 15 bd bd ec f1 bd 08 dd e9 bd
       0.15444654 -0.036402024 -0.11812732 -0.114191115
0001e0 45 d1 90 be 0b 00 f8 3b 9e d1 91 3e 71 d1 d4 bd
       -0.2828466 0.0075683645 0.28480238 -0.1039151
0001f0 5c c2 30 be e9 86 7d be bb ea 23 be fc 18 a3 3d
       -0.17261642 -0.24758495 -0.16007511 0.0796375
000200 64 00 76 bd d9 98 e5 be 55 cf 15 3e 9c 9f 6f be
       -0.060058966 -0.44843176 0.14629872 -0.2340073
000210 99 14 cc bd 93 ca e6 3d 64 17 71 bd 6e 7f 8a 3e
       -0.09964866 0.11269107 -0.058860198 0.27050346
000220 a9 37 9b 3d 42 05 ff 3d 26 ca 58 bd da bf 8e bd
       0.07578976 0.12452175 -0.05292716 -0.069701865
000230 f2 b8 07 be 3d 4b fa 3d b3 7c 28 bf 27 e6 6c 3e
       -0.13254145 0.12221382 -0.65815276 0.23134671
000240 1f 78 61 3d 61 39 99 3e a6 86 85 be 72 d4 34 bd
       0.055046197 0.2992659 -0.2607929 -0.044147916
000250 de fd 2e be 18 55 22 3d ac 3f bb 3e eb 7d a3 3b
       -0.1708903 0.039631933 0.36572015 0.004989376
000260 a0 8e 12 bd bf f5 1e be 8a 74 34 bf 25 a7 c0 3e
       -0.03578055 -0.15523432 -0.70490324 0.3762752
000270 67 9b 04 be d0 30 b7 bd da 88 e5 3e 08 53 41 bd
       -0.12949906 -0.08944857 0.44830972 -0.047198325
000280 9b 80 85 be e7 d2 10 3e 18 27 4f 3c 17 ec 66 bd
       -0.2607468 0.14142953 0.012643598 -0.056377497
000290 fd 09 23 bf 84 4b 87 3e 07 85 0c bf ba fb dd 3d
       -0.63687116 0.264248 -0.54890484 0.10839029
0002a0 bf 7c 21 3e b5 1e 0f 3e 87 db a1 be c7 26 ff be
       0.15770243 0.13976558 -0.316128 -0.49834272
0002b0 b1 e9 36 3d ee cf ad 3d a5 d3 3a 3e f7 3b cd 3e
       0.04465646 0.08486925 0.18244798 0.40084812
0002c0 2c d8 2c be 26 3f 00 3e 47 31 95 be 62 3c 9f be
       -0.16879338 0.12524089 -0.29139158 -0.31100756
0002d0 34 ce 1a 3e 6b b8 f1 3d de e5 fe bd 67 c9 41 be
       0.15117723 0.11802753 -0.124461874 -0.18924485
0002e0 05 cc aa be 2f fe bf bd dc f8 37 3e a2 f0 7e 3d
       -0.3335878 -0.093746535 0.17966026 0.062241204
0002f0 4e c5 06 bf ba 14 a1 be d5 c7 c9 be b4 08 04 3d
       -0.52644813 -0.31461126 -0.39410272 0.032234862
000300 b7 ee 03 be 9c 0e ba bd ad c6 e7 3d bc c2 9b 3e
       -0.12884031 -0.09084818 0.11317191 0.30422008
000310 e8 1f 1a 3f 7e 94 64 3d 38 49 e2 3c 83 99 19 bd
       0.60204935 0.055805676 0.027622804 -0.037499916
000320 47 bd c8 3d 03 9c 7c bd ff 4f f5 b7 a0 83 be 3e
       0.09801727 -0.061672222 -2.9243527e-05 0.37209797
000330 7c 42 ee 3e 79 09 79 3e 0c 79 dc bd e9 8d 70 3e
       0.465351 0.2432002 -0.10765275 0.23491634
000340 59 b0 74 bd 29 24 c9 3e c3 07 eb bd 9f e5 2b bb
       -0.05973849 0.392854 -0.1147609 -0.0026229394
000350 b1 87 21 3d 6c 97 38 3e 7b 24 8f 3e e8 3c 37 ba
       0.039436046 0.18026513 0.2795752 -0.0006989972
000360 e1 20 22 bc 48 b3 58 3e 18 03 10 be 69 58 f7 3e
       -0.009895534 0.2116214 -0.1406368 0.4830964
000370 02 06 a6 3e 98 52 b5 3e 48 ff 01 3f 94 e4 0f 3e
       0.3242646 0.35414577 0.50780153 0.1405204
000380 08 94 96 be 71 d6 fa bc c1 cc 34 3e 63 9f 92 3e
       -0.29409814 -0.030619832 0.17656232 0.28637227
000390 2a 08 8b 3e cf e7 a4 bb 5e c6 4b bd 1b 08 29 3e
       0.27154666 -0.0050325166 -0.049749725 0.16506998
0003a0 82 62 ae 3d be 53 f5 3d 53 3c 41 3d ac 74 f4 3e
       0.085148826 0.11978863 0.04717667 0.47745264
0003b0 87 5f 1d 3f 3b 55 cc 3d a4 82 87 be 23 47 13 3e
       0.6147389 0.09977194 -0.26466858 0.14382605
0003c0 77 66 3a 3e b2 58 db 3e 22 91 a8 be 53 13 40 3d
       0.1820315 0.42841107 -0.32923228 0.04689343
0003d0 66 32 01 be 5e 47 b0 3d 6c 39 f5 3e 2d fb 59 bd
       -0.12616882 0.08607362 0.47895372 -0.053218056
0003e0 10 61 cb 3d 8d 0f 6e 3e 92 40 47 be 89 8c e2 3e
       0.099306226 0.2324812 -0.19458225 0.44247845
0003f0 69 33 cd 3e 76 6e c3 3e ec 14 0e 3f 83 60 a4 3d
       0.40078285 0.38170213 0.55500674 0.08026221

models.524263.layers.6.bias f4 [16]
000000 3f 00 83 3e b1 a6 99 3e 2e 94 dc 3d 5b 4a dc 3d
       0.25586125 0.30009988 0.107704505 0.1075637
000010 93 12 9e 3e 8c 95 4e 3e 94 06 1b 3d 1d 8c 39 3d
       0.30873546 0.20174235 0.03784807 0.045299638
000020 ea 78 c0 3e 4a d2 8d be 2a e9 c1 3e 28 3e 7e 3e
       0.3759225 -0.276995 0.37873203 0.24828398
000030 74 c5 8f 3e df af c0 3e 43 eb 8c 3d d4 36 f1 3d
       0.28080332 0.3763418 0.0688081 0.11778036

models.524263.layers.9.weight f4 [1, 16]
000000 18 51 0d bf 6f 91 c1 be e0 4c c8 be 42 b8 16 3f
       -0.55201864 -0.3780627 -0.3912115 0.58874905
000010 9c 64 18 bf 8c 80 15 3f 97 a9 0f bf 3d 2d d9 be
       -0.5952852 0.5839927 -0.5611815 -0.42417327
000020 eb 2a 4c 3f 38 b2 5a 3e 1d 39 2b 3f be 25 9e be
       0.7975299 0.21357048 0.6688402 -0.3088817
000030 23 e6 e1 be e3 d9 52 3f 82 92 c1 be 62 d4 17 bf
       -0.44120893 0.8236372 -0.3780709 -0.59308445
