models/Ensemble/pion_1.pt (torch, 71267 bytes, 28 tensors)

models.524287.layers.0.weight f4 [64, 19]
-0.01873213 -0.095645785 -0.15583497 0.14468996 -0.018135518 -0.0056420714 0.076725945 -0.13280559
0.20770995 -0.15121472 -0.04502307 -0.06715618 -0.13221973 0.22556974 -0.057661712 -0.19224446
-0.09571272 -0.20400125 0.05522038 -0.13804114 -0.1391551 0.1915428 0.0040041134 -0.09399709
0.12168358 0.07651103 0.013786215 -0.04578011 -0.009921326 -0.116231546 0.05439696 0.21075822
-0.20231338 -0.075715564 -0.0861076 0.21865638 -0.105765544 0.005552295 -0.05349894 -0.20965508
-0.056561843 0.11807345 0.08210881 -0.012981147 -0.16945639 0.05147247 -0.15213224 -0.006000757
0.032555416 -0.17345296 -0.102807 -0.10527108 0.20429553 -0.057443365 -0.10527439 -0.14298323
0.02922137 -0.78645486 0.0020412006 0.00069801183 0.00648157 -1.4199516 0.47592092 0.55554986
-0.061799165 0.07158741 -0.010989357 -0.90153354 -0.08171132 0.077808835 0.015146541 0.022636887
-0.0021875415 -0.009279802 -0.06915392 0.02167691 -0.681885 0.21243961 -0.074996985 0.5642265
-0.5032335 -0.42630574 -0.3482654 0.051975783 0.11047908 -0.21004812 0.5549058 -0.08649202
0.09541803 0.06017814 -0.006335258 0.0075189094 0.121591344 -0.16193312 -0.025872735 -1.6439207
0.14419357 0.000762902 -0.0251571 -0.17486459 -0.9483419 -0.80385995 -0.026285393 0.04711058
-0.0011255263 0.9115684 -0.011284584 0.00932886 0.016085267 -0.003852796 0.0006510959 -0.0038669053
-0.026697107 -0.004645062 -0.09861331 -0.17351231 0.13507836 0.22266333 0.20471264 0.012180716
-0.08094941 -0.20855331 0.05163224 0.17077805 0.04937665 -0.07957508 -0.06546661 0.10506667
-0.08981913 -0.15830983 -0.008994505 -0.07189335 0.10414304 -1.031 -0.33275515 6.4870575e-05
-1.0910404 1.1884183 -0.52745306 -0.64654857 0.05320277 0.16935343 -0.07414828 0.13442297
-0.18902376 -0.029965844 0.020156164 0.0038889819 0.0047099884 0.003417585 -0.2685993 0.06436019
-0.28438976 0.1332441 0.07559933 -0.54399824 1.7949795 -0.65649664 -0.31645212 0.0071552903
-0.060826942 0.12915166 0.79418486 7.589801e-05 -0.07601999 -0.03561556 0.037271768 -0.015124609
0.060433626 -0.0069076815 0.020146906 0.9601265 0.034427535 0.0045574554 -0.196716 2.0777028
-0.17149876 -0.10245244 -0.09079319 -0.03761986 -0.006220608 0.945976 0.026083162 0.13144143
-0.0007752064 0.03234406 -0.0014559487 0.01231357 -0.039041154 0.13646546 -0.23100965 -0.7184267
-0.11767656 -0.16804479 0.69389457 -0.9982679 -0.86441123 -0.095948644 -0.1022734 -0.33269328
0.8969008 -0.10222052 0.120810166 0.0544171 0.19007878 0.013039711 -0.007911114 0.19522336
0.04718796 0.0067761093 -0.07777943 -0.18074983 -0.22298905 -0.2217013 0.14647038 0.016780317
-0.15971357 0.21046625 0.20328279 0.031192526 -0.19708292 0.10203309 0.033077672 0.005518645
-0.15405437 -0.028150648 -0.10673581 -0.060509503 -0.7534402 -0.30994582 -0.00026636818 -0.17627537
-0.70554286 0.37294462 0.05103852 -0.013127264 0.046520345 0.013042114 -1.2794099 -0.0337505
0.020598078 -0.006701017 -0.0015324185 0.0015919552 0.0037165259 -0.0010973151 0.01626735 2.1736484
0.037336834 -0.0014424548 0.35064182 -0.02069947 -0.11995665 -0.18344925 0.057494737 0.067794725
00000000: 2074 99bc f0e1 c3bd 3493 1fbe 9b29 143e
00000010: f090 94bc 20e1 b8bb 7e22 9d3d 30fe 07be
00000020: ebb1 543e 08d8 1abe 1c6a 38bd 2e89 89bd
00000030: 9c64 07be c1fb 663e b02e 6cbd bbdb 44be
00000040: 0805 c4bd b4e5 50be c42e 623d a85a 0dbe
00000050: ad7e 0ebe cc23 443e f034 833b 8c81 c0bd
00000060: 3e35 f93d d1b1 9c3d 94df 613c ed83 3bbd
00000070: 0f8d 22bc ce0a eebd 59cf 5e3d 01d1 573e
00000080: 3d2b 4fbe c310 9bbd 2e59 b0bd 75e7 5f3e
00000090: 9b9b d8bd 07f0 b53b b421 5bbd d2af 56be
000000a0: 64ad 67bd 7ed0 f13d aa28 a83d e0ae 54bc
000000b0: fa85 2dbe ccd4 523d 8ec8 1bbe 00a2 c4bb
000000c0: d458 053d a79d 31be 7a8c d2bd 5d98 d7bd
000000d0: d932 513e bc49 6bbd 199a d7bd 326a 12be
000000e0: a861 ef3c 1b55 49bf aac5 053b c8fa 363a
000000f0: 5a63 d43b f9c0 b5bf e8ab f33e 8438 0e3f
00000100: 1f21 7dbd 6c9c 923d b40c 34bc e7ca 66bf
00000110: 4458 a7bd 3d5a 9f3d 3329 783c fe70 b93c
00000120: db5c 0fbb 500a 18bc 92a0 8dbd c693 b13c
00000130: 0490 2ebf c589 593e 0598 99bd 2671 103f
00000140: e9d3 00bf bf44 dabe d84f b2be 8fe4 543d
00000150: db42 e23d db16 57be 4e0e 0e3f ba22 b1bd
00000160: 876a c33d 5a7d 763d ff97 cfbb 2f61 f63b
00000170: e204 f93d ccd1 25be 0ff3 d3bc fe6b d2bf
00000180: 7ba7 133e 7dfd 473a 4316 cebc b40f 33be
00000190: 89c6 72bf c4c9 4dbf 7754 d7bc 06f7 403d
000001a0: 6586 93ba 8c5c 693f fae2 38bc 13d8 183c
000001b0: 40c5 833c 317f 7cbb 4eae 2a3a e86b 7dbb
000001c0: e4b3 dabc 9b35 98bb c6f5 c9bd 36ad 31be
000001d0: fb51 0a3e db01 643e 31a0 513e a091 473c
000001e0: cec8 a5bd 008f 55be 547c 533d 71e0 2e3e
000001f0: 2c3f 4a3d 42f8 a2bd 5c13 86bd 322d d73d
00000200: 18f3 b7bd f91b 22be b05d 13bc d23c 93bd
00000210: f248 d53d cff7 83bf e25e aabe 200b 8838
00000220: 36a7 8bbf 171e 983f 2a07 07bf 3584 25bf
00000230: 26eb 593d fc6a 2d3e 0edb 97bd 2da6 093e
00000240: 728f 41be ee7a f5bc 8a1e a53c 4ade 7e3b
00000250: 3f56 9a3b 90f9 5f3b d985 89be 46cf 833d
00000260: 899b 91be 2471 083e d2d3 9a3d 7843 0bbf
00000270: e3c1 e53f 2a10 28bf 0306 a2be ed76 ea3b
00000280: ac25 79bd 5540 043e b34f 4b3f 6f2b 9f38
00000290: 5eb0 9bbd 9fe1 11bd 48aa 183d 35cd 77bc
000002a0: 4089 773d d559 e2bb 200b a53c daca 753f
000002b0: e303 0d3d b556 953b eb6f 49be 15f9 0440
000002c0: 5f9d 2fbe 96d2 d1bd c8f1 b9bd 4817 1abd
000002d0: 3ed6 cbbb 7c2b 723f 5bac d53c 9598 063e
000002e0: 3937 4bba 347b 043d 88d5 beba dbbe 493c
000002f0: 9ee9 1fbd 9abd 0b3e cb8d 6cbe d0ea 37bf
00000300: 6900 f1bd ef13 2cbe 13a3 313f 7c8e 7fbf
00000310: 0e4a 5dbf b980 c4bd b774 d1bd c656 aabe
00000320: 4a9b 653f fe58 d1bd 526b f73d 77e4 5e3d
00000330: 03a4 423e 83a4 553c 9e9d 01bc a2e8 473e
00000340: 2a48 413d 200a de3b d24a 9fbd 7c16 39be
00000350: 3e57 64be aa05 63be 55fc 153e e076 893c
00000360: f48b 23be 7784 573e 5d29 503e 7887 ff3c
00000370: 1bd0 49be baf6 d03d 747c 073d c0d5 b43b
00000380: 6ec0 1dbe 309c e6bc 4e98 dabd d0d8 77bd
00000390: 75e1 40bf 38b1 9ebe 55a7 8bb9 8881 34be
000003a0: 759e 34bf 99f2 be3e c40d 513d bc13 57bc
000003b0: 1e8c 3e3d 97ae 553c b4c3 a3bf f73d 0abd
000003c0: 4dbd a83c 3494 dbbb 6fdb c8ba 27a9 d03a
000003d0: f590 733b c9d3 8fba 1b43 853c 0e1d 0b40
000003e0: 82ee 183d c010 bdba 5387 b33e ef91 a9bc
000003f0: d5ab f5bd 1fda 3bbe 9a7f 6b3d f6d7 8a3d

models.524287.layers.0.bias f4 [64]
-0.05902022 0.021051787 0.022105053 0.07409051 -0.33315334 -0.17604677 -0.0342668 -0.016781915
-0.111023076 -0.13729206 0.011666625 0.06627934 0.12361488 -0.0320578 -0.28788334 -0.20919335
-0.14129065 0.0011149198 -0.1635902 -0.020026937 0.118934914 0.028748788 -0.25939375 9.6425414e-05
0.109227225 0.1324064 -0.025214508 -0.12315663 -0.11534208 0.11740069 -0.026511692 -0.011634842
-0.22514944 -0.197358 -0.14572126 -0.07875505 -0.044372693 -0.19556186 -0.05217366 -0.0663593
-0.22763598 -0.09472122 0.025964648 0.059291217 0.06879993 -0.20070253 -0.007043496 0.07860693
-0.17073396 -0.22396404 -0.19640914 -0.07371693 -0.053165287 -0.044751756 0.19214018 -0.14313546
-0.12046231 0.030356511 -0.31531808 -0.036761746 -0.2746314 0.17542426 -0.11826733 -0.13769734
00000000: 30bf 71bd cc74 ac3c a815 b53c c4bc 973d
00000010: 1393 aabe 9b45 34be 585b 0cbd 3a7a 89bc
00000020: 1160 e3bd 4a96 0cbe 5f25 3f3c 76bd 873d
00000030: cc29 fd3d 0a4f 03bd 7265 93be c836 56be
00000040: 7fae 10be 8022 923a 3084 27be 880f a4bc
00000050: 2694 f33d 9482 eb3c 42cf 84be 0038 ca38
00000060: 86b2 df3d 8b95 073e a88e cebc 8b39 fcbd
00000070: 7838 ecbd c66f f03d 0c2f d9bc 10a0 3ebc
00000080: 938d 66be 3718 4abe f437 15be 544a a1bd
00000090: 24c0 35bd 5e41 48be 0cb4 55bd 62e7 87bd
000000a0: 6819 69be 33fd c1bd d0b3 d43c 59db 723d
000000b0: fae6 8c3d f784 4dbe 20cd e6bb acfc a03d
000000c0: e2d4 2ebe d456 65be 7a1f 49be e7f8 96bd
000000d0: d8c3 59bd 9e4d 37bd 65c0 443e 1a92 12be
000000e0: f2b4 f6bd 38ae f83c 5f71 a1be 7c93 16bd
000000f0: 7d9c 8cbe 6ba2 333e 2436 f2bd 8800 0dbe

models.524287.layers.3.weight f4 [32, 64]
-0.042970225 -0.12460162 -0.11042458 -0.053476308 -0.05153865 -0.7584122 0.056713924 -0.040112276
-0.099468544 -0.2553405 -0.028609129 -0.081116274 -0.06139552 0.067124434 -0.032925755 -0.1992134
0.071541406 -0.04400201 0.050865594 0.04238876 0.05276744 0.11384207 0.03325434 0.08961314
-0.22565213 -0.040888805 -0.1112964 0.07360889 0.30382812 0.094387546 -0.26309866 0.090448245
-0.59036934 0.06581683 0.038696636 0.020602116 -0.36178192 0.09557369 -0.0651848 -0.0045073777
0.11409591 0.0299292 0.39706385 0.09354181 -0.04585989 0.047038645 0.030771479 0.033980723
0.017035719 0.15407294 -0.11807495 0.06785826 0.10144618 0.16361304 0.06494094 0.013644218
-0.024427295 -0.03686957 0.17133696 0.10173187 0.04414316 0.039787218 0.067603886 -0.08980395
0.10816926 0.056686997 0.09554881 -0.31929344 0.039781068 -0.15240696 0.016741067 0.053371653
-0.07173303 0.038151972 -0.028461728 -0.009957626 -0.4578518 -0.33637023 0.0030113875 0.077777475
-0.009097165 0.04065104 -0.00920174 0.01997096 0.06371181 -0.016865043 -0.16086935 0.06901704
-0.38705286 -0.46588236 0.006335452 -0.058214054 -0.068216465 0.06891531 -0.17223091 0.053778514
0.24458982 0.09184461 -0.07372582 0.04298325 0.15061091 -0.05939439 -0.048468933 -0.11204836
0.035158396 -0.0685462 -0.29044774 0.039297845 0.0006751418 0.068883285 -0.10554518 -0.042169694
0.0007142379 0.011000991 0.08315636 0.02971655 0.007337332 -0.5799118 0.07871138 0.010905266
0.029665157 -0.055868715 -0.050301336 0.0782457 0.04451467 0.05329612 0.12305854 0.11892676
-0.044603676 0.11999216 -0.0050859153 -0.62138945 -0.019496627 -0.041734576 0.09855789 -0.027471695
0.017534966 0.017856061 0.0130146835 -0.02420266 -0.9073755 -0.1199346 0.04529663 0.021106577
0.006022793 0.028155908 0.0344536 0.048082966 0.09259933 0.06375937 -0.05982227 -0.04481861
-0.36438724 -0.6820242 -0.08556117 -0.0474924 0.0467504 0.08028114 -0.24819876 -0.059293002
0.113362245 0.022169335 -0.018317716 0.009012309 0.17550254 -0.103910044 -0.019052133 -0.100420624
-0.021623015 -0.028659651 -0.256543 -0.022906762 0.07833244 0.05965337 0.05812171 0.10592588
0.014790383 -0.004777267 -0.09792949 0.0004959336 -0.027377471 -0.43264338 0.022212265 0.05046186
0.105022475 -0.05045858 0.0011423847 0.045727655 0.04811567 -0.0811329 -0.014136478 0.060864776
-0.1166005 -0.025397904 0.08173849 -0.05710247 0.020627784 -0.6517979 0.056608975 -0.05746123
-0.12466992 -0.1731124 0.04896444 0.07528135 0.2914164 0.25312787 -0.07271819 -0.17105564
-0.002487845 -0.07770428 0.005020623 0.011974859 -0.10055186 0.026923578 -0.033745863 -0.11042741
-0.17263895 0.04533311 0.065836474 -0.025235131 0.59710586 -0.07312134 -0.08424178 0.09789069
-0.608937 -0.061093505 -0.054227922 -0.047918733 -0.9391004 0.05532366 -0.12126055 -0.074498415
-0.029871985 0.07482087 0.61371464 0.08135815 0.004972145 -0.051062927 0.10834451 0.0023203273
0.032897186 -0.10390172 0.03382358 0.087654635 -0.08279173 0.46366102 0.015893772 -0.003536746
0.07200414 0.071326554 0.21903782 -0.012578279 0.036911275 -0.050565526 -0.015731916 -0.10271822
00000000: 8c01 30bd 222f ffbd 4826 e2bd f909 5bbd
00000010: 311a 53bd 4d27 42bf dc4c 683d c54c 24bd
00000020: 2ab6 cbbd fdbb 82be b15d eabc 4a20 a6bd
00000030: de79 7bbd 8978 893d 28dd 06bd 99fe 4bbe
00000040: 4d84 923d 743b 34bd 7158 503d d69f 2d3d
00000050: ac22 583d 0826 e93d b435 083d 1887 b73d
00000060: 5a11 67be 057b 27bd 5eef e3bd 42c0 963d
00000070: 5c8f 9b3e 424e c13d deb4 86be ee3c b93d
00000080: 7222 17bf f9ca 863d 5d80 1e3d c5c5 a83c
00000090: 7b3b b9be 24bc c33d 9c7f 85bd a0b2 93bb
000000a0: 1eab e93d 152e f53c f44b cb3e d992 bf3d
000000b0: 94d7 3bbd 98ab 403d 7814 fc3c 5f2f 0b3d
000000c0: 7e8e 8b3c 4cc5 1d3e 48d1 f1bd 45f9 8a3d
000000d0: 04c3 cf3d 2d8a 273e c1ff 843d 008c 5f3c
000000e0: c01b c8bc 8c04 17bd f572 2f3e cc58 d03d
000000f0: 75cf 343d ecf7 223d e873 8a3d 22eb b7bd
00000100: d887 dd3d a030 683d 18af c33d 6e7a a3be
00000110: 79f1 223d 9210 1cbe 9024 893c 3c9c 5a3d
00000120: c4e8 92bd 3e45 1c3d 9228 e9bc 5025 23bc
00000130: 8d6b eabe b838 acbe b35a 453b cc49 9f3d
00000140: 470c 15bc b481 263d e5c2 16bc 249a a33c
00000150: 567b 823d 8f28 8abc efba 24be ce58 8d3d
00000160: cb2b c6be 2288 eebe a099 cf3b dc71 6ebd
00000170: 13b5 8bbd 7823 8d3d 4d5d 30be dc46 5c3d
00000180: c175 7a3e 0719 bc3d 90fd 96bd 340f 303d
00000190: bf39 1a3e 8847 73bd 5c87 46bd 9c79 e5bd
000001a0: 4002 103d f361 8cbd 91b5 94be c7f6 203d
000001b0: 00fc 303a ae12 8d3d 1228 d8bd 21ba 2cbd
000001c0: b23b 3b3a 803d 343c e24d aa3d 1f70 f33c
000001d0: 006e f03b 1a75 14bf 6f33 a13d 00ac 323c
000001e0: 5804 f33c 98d6 64bd c608 4ebd 483f a03d
000001f0: 0455 363d 084d 5a3d 1e06 fc3d e08f f33d
00000200: 58b2 36bd 73be f53d c0a7 a6bb 6113 1fbf
00000210: 64b7 9fbc e0f1 2abd b8d8 c93d 520c e1bc
00000220: 7da5 8f3c e046 923c 8a3b 553c a844 c6bc
00000230: c349 68bf 46a0 f5bd f688 393d b3e7 ac3c
00000240: d95a c53b 38a7 e63c 381f 0d3d a5f2 443d
00000250: b8a4 bd3d 4694 823d 3208 75bd b893 37bd
00000260: f790 babe 2399 2ebf b23a afbd 6487 42bd
00000270: 597d 3f3d 706a a43d d127 7ebe 38dd 72bd
00000280: 772a e83d 779c b53c 090f 96bc 5da8 133c
00000290: f0b6 333e cace d4bd 3813 9cbc 54a9 cdbd
000002a0: c022 b1bc a5c7 eabc 9b59 83be f6a6 bbbc
000002b0: c26c a03d 1857 743d 0811 6e3d abef d83d
000002c0: 5d53 723c 9f8a 9cbb 428f c8bd 8a01 023a
000002d0: b846 e0bc 6f83 ddbe 7ff6 b53c 18b1 4e3d
000002e0: 0616 d73d a8ad 4ebd 12bc 953a ec4c 3b3d
000002f0: f014 453d 0229 a6bd b09c 67bc 584d 793d
00000300: 3ecc eebd 440f d0bc 8266 a73d 48e4 69bd
00000310: 99fb a83c 3adc 26bf d0de 673d 775c 6bbd
00000320: f152 ffbd 6144 31be f08e 483d 1c2d 9a3d
00000330: 8834 953e fa99 813e 46ed 94bd 3629 2fbe
00000340: 1d0b 23bb 6c23 9fbd 0a84 a43b 3332 443c
00000350: 22ee cdbd d68e dc3c 1a39 0abd c427 e2bd
00000360: 44c8 30be 36af 393d 46d5 863d e8b9 cebc
00000370: eedb 183f a4c0 95bd f486 acbd ea7a c83d
00000380: 4ce3 1bbf 2f3d 7abd 191e 5ebd 6f46 44bd
00000390: e268 70bf 109b 623d 7457 f8bd a092 98bd
000003a0: 18b6 f4bc af3b 993d 671c 1d3f 1a9f a63d
000003b0: 60ed a23b 5c27 51bd bae3 dd3d a210 183b
000003c0: 33bf 063d 6dca d4bd 988a 0a3d 4684 b33d
000003d0: b68e a9bd fa64 ed3e a833 823c c0c8 67bb
000003e0: e876 933d a813 923d 734b 603e 2015 4ebc
000003f0: 4730 173d cc1d 4fbd 38e0 80bc ee5d d2bd

models.524287.layers.3.bias f4 [32]
0.48505238 0.2186957 0.071035974 0.17571013 0.09315279 0.07194579 0.0024051026 0.15281276
0.085121185 0.17560527 0.07407763 0.03800236 0.08189701 -0.19036931 -0.030370962 0.09747665
0.05403492 0.6631419 0.5336151 0.16257237 -0.40071192 -0.33718756 0.66195786 -0.36301428
0.07918731 0.04546851 0.168845 -0.06921003 0.10342729 0.69335824 -0.012323777 0.10215566
00000000: c958 f83e c4f1 5f3e 4f7b 913d 5bed 333e
00000010: e4c6 be3d 5058 933d ed9e 1d3b f37a 1c3e
00000020: 0454 ae3d ded1 333e 03b6 973d 5da8 1b3d
00000030: 9fb9 a73d 2cf0 42be 86cc f8bc d6a1 c73d
00000040: b853 5d3d abc3 293f 009b 083f 5f79 263e
00000050: 1d2a cdbe d9a3 acbe 1276 293f 02dd b9be
00000060: f52c a23d 303d 3a3d b4e5 2c3e fdbd 8dbd
00000070: b0d1 d33d ed7f 313f abe9 49bc fd36 d13d

models.524287.layers.6.weight f4 [16, 32]
0.0031348928 -0.2595913 -0.4100142 0.31658152 -0.2486867 -0.0991682 -0.20270874 0.20519295
0.33475462 0.027942423 -0.06506778 0.15815434 0.15372631 -0.22540882 0.022123558 -0.24985357
0.014001274 -0.067785166 -0.43081975 0.007718719 0.27370963 0.009131329 -0.5059945 0.29087472
-0.021065138 -0.0902307 0.29193386 -0.17419395 -0.13342355 0.0079426905 0.0841354 -0.46031055
0.13570042 -0.07429332 0.01816103 0.178286 -0.10453403 -0.4359716 -0.02126416 -0.1343916
0.13789809 0.045049563 -0.12517007 -0.2660662 0.1338557 0.08870454 0.13140103 -0.017617887
-0.12778883 -0.07738179 -0.26731014 0.010812444 0.007658224 0.005841469 -0.102382734 0.02256689
0.07796192 -0.108432725 -0.039365508 -0.29062665 -0.088859886 -0.060973637 -0.04894122 0.09832085
0.10602826 0.0463711 -0.25860834 0.4051502 0.0144090345 0.060453136 -0.49957606 -0.27639928
-0.22738475 0.37581265 0.02454258 -0.50602484 0.110250965 -0.29742783 -0.23422292 -0.44737935
-0.232461 0.09059631 0.07188048 0.2222421 0.14616011 -0.34016472 0.094424635 0.162748
0.122945234 -0.028764084 0.2866588 -0.3147153 0.030271081 0.11779397 -0.22666965 -0.2620326
0.023854326 -0.00068474247 -0.44451466 0.32011732 -0.12884183 0.32420483 -0.56616384 -0.08725206
-0.094170995 0.35608354 0.13856108 -0.117176324 0.14621407 -0.42841682 -0.46458223 -0.38828126
-0.17675565 0.18864144 0.022516392 0.14510743 0.5237527 -0.5581601 0.06287286 0.59465575
0.28647164 0.06024426 0.4418511 -0.38858837 -0.040244136 0.10372402 -0.15929696 -0.32467705
0.12404416 0.1839694 0.1342296 -0.29737458 0.27102014 -0.5385068 0.18334633 0.12142859
0.19616704 -0.32008374 0.38687414 0.07043012 -0.3494329 -0.081267655 0.4014864 0.21989997
0.045625024 0.2588385 0.09627005 -0.57888025 -0.53660256 0.012653175 0.16660888 -0.5411433
-0.2240797 -0.38571492 -0.5085698 0.21069503 -0.59002334 0.40454328 0.12290187 0.22942862
-0.48100817 -0.24935548 -0.12546238 -0.16990548 0.10863753 0.25497976 -0.10404015 -0.14543737
-0.18896359 -0.07351232 0.11216513 0.016968707 0.13033782 -0.15344626 0.2567226 -0.15983762
0.19488636 -0.37319326 -0.25932354 0.14464045 -0.114846416 0.12675661 -0.22737354 -0.13965182
-0.32741228 0.23964319 0.061636526 0.5500295 0.25144964 -0.20656674 0.16820656 -0.0551688
0.15060465 0.020876706 -0.3351244 0.28061593 0.13760604 0.11734379 -0.27271003 -0.52707356
-0.17333254 0.60129476 -0.0551583 -0.5445984 -0.020741759 0.041064546 -0.016907139 -0.5340268
-0.23788206 0.22284506 0.020152682 0.0003151066 -0.1047347 -0.19988811 0.061454993 0.25195047
0.3259234 0.12879792 0.46387824 -0.37102062 0.19326264 0.20921825 -0.30667505 -0.3038896
0.06608241 -0.14627154 -0.12524873 0.4302287 0.053516172 0.26098177 -0.45691338 -0.3684348
-0.25666732 0.3642592 -0.14797594 -0.5291905 0.102403276 -0.027740251 -0.22606516 -0.3527003
-0.16947688 0.14674999 0.090909615 -0.13682558 -0.104253046 -0.29342413 0.043085586 0.15117846
0.20360848 -0.060322393 0.52427214 -0.3279777 0.09970968 0.1606226 -0.17816797 -0.39336348
00000000: c672 4d3b 27e9 84be 62ed d1be f916 a23e
00000010: baa7 7ebe b218 cbbd e192 4fbe 1a1e 523e
00000020: f564 ab3e 82e7 e43c 4242 85bd 36f3 213e
00000030: 6e6a 1d3e 92d1 66be 773c b53c 9dd9 7fbe
00000040: 9965 653c f3d2 8abd 6894 dcbe 4fed fc3b
00000050: ab23 8c3e 929b 153c db88 01bf 88ed 943e
00000060: cc90 acbc e0ca b8bd 5b78 953e e65f 32be
00000070: 2fa0 08be 0f22 023c 2e4f ac3d d3ad ebbe
00000080: 0df5 0a3e 1927 98bd 71c6 943c 9b90 363e
00000090: f015 d6bd ab37 dfbe 2d32 aebc f49d 09be
000000a0: 2835 0d3e e485 383d 952c 00be d439 88be
000000b0: 7811 093e baaa b53d fe8d 063e 6353 90bc
000000c0: 13db 02be 587a 9ebd e0dc 88be ad26 313c
000000d0: d7f1 fa3b cb69 bf3b 0aae d1bd 33de b83c
000000e0: 80aa 9f3d fa11 debd ba3d 21bd 04cd 94be
000000f0: 2cfc b5bd 7ebf 79bd 9776 48bd 715c c93d
00000100: 5825 d93d 9fef 3d3d 5068 84be d96f cf3e
00000110: df13 6c3c b59d 773d 6fc8 ffbe 3584 8dbe
00000120: 8cd7 68be 846a c03e 850d c93c d88a 01bf
00000130: 42cb e13d 7648 98be 22d8 6fbe e80e e5be
00000140: 420a 6ebe 8f8a b93d 1336 933d 6f93 633e
00000150: ffaa 153e 122a aebe b461 c13d 69a7 263e
00000160: b6ca fb3d a8a2 ebbc f1c4 923e 5d22 a1be
00000170: 0ffb f73c f73d f13d 171c 68be 2329 86be
00000180: 266a c33c 4a80 33ba 6d97 e3be 6be6 a33e
00000190: 1def 03be 2dfe a53e 1df0 10bf 35b1 b2bd
000001a0: b9dc c0bd 9550 b63e f5e2 0d3e 24fa efbd
000001b0: 24b9 153e 7359 dbbe b9dd edbe cdcc c6be
000001c0: 6fff 34be 392b 413e 4c74 b83c 0b97 143e
000001d0: a814 063f 95e3 0ebf 7cc3 803d 5c3b 183f
000001e0: 69ac 923e afc2 763d 4f3a e23e 0ef5 c6be
000001f0: 09d7 24bd 426d d43d be1e 23be 123c a6be
00000200: dd0a fe3d 7962 3c3e 7c73 093e 7b41 98be
00000210: 27c3 8a3e 95db 09bf 24bf 3b3e 8daf f83d
00000220: 03e0 483e 04e2 a3be 5e14 c63e ab3d 903d
00000230: dee8 b2be a86f a6bd a08f cd3e 752d 613e
00000240: 4ee1 3a3d 7b86 843e 3b29 c53d 7f31 14bf
00000250: c95e 09bf 434f 4f3c 859b 2a3e 5e88 0abf
00000260: 2675 65be 6d7c c5be a131 02bf 70c0 573e
00000270: c50b 17bf 4c20 cf3e fab3 fb3d 56ef 6a3e
00000280: b446 f6be 0b57 7fbe 3679 00be b4fb 2dbe
00000290: 5a7d de3d b58c 823e 0113 d5bd 89ed 14be
000002a0: ac7f 41be a18d 96bd d5b6 e53d f501 8b3c
000002b0: 4777 053e 0421 1dbe 2571 833e 79ac 23be
000002c0: 4a90 473e 3013 bfbe 0ec6 84be a01c 143e
000002d0: 9934 ebbd 7ccc 013e 9cd4 68be e300 0fbe
000002e0: 95a2 a7be 0665 753e 9576 7c3d bcce 0c3f
000002f0: 02be 803e 3b86 53be 573e 2c3e aef8 61bd
00000300: 1b38 1a3e a005 ab3c 6d95 abbe e4ac 8f3e
00000310: 99e8 0c3e f151 f03d a6a0 8bbe 4bee 06bf
00000320: 167e 31be 74ee 193f abed 61bd cd6a 0bbf
00000330: 9fea a9bc 4c33 283d d780 8abc fbb5 08bf
00000340: 5b97 73be 7f31 643e 3d17 a53c e434 a539
00000350: 257f d6bd 78af 4cbe 3bb8 7b3d a7ff 803e
00000360: 6fdf a63e 9ae3 033e 7381 ed3e 6af6 bdbe
00000370: a4e6 453e 4f3d 563e 8304 9dbe 6b97 9bbe
00000380: 3756 873d 35c8 15be 3441 00be f046 dc3e
00000390: c633 5b3d 679f 853e 8df0 e9be 7ca3 bcbe
000003a0: e669 83be 2f80 ba3e 0187 17be 0779 07bf
000003b0: cfb8 d13d 863f e3bc a07d 67be 2295 b4be
000003c0: 598b 2dbe a145 163e d22e ba3d 011c 0cbe
000003d0: 9f82 d5bd b03b 96be 837a 303d 87ce 1a3e
000003e0: be7e 503e 9d14 77bd b336 063f b1ec a7be
000003f0: 9734 cc3d 407a 243e aa71 36be f066 c9be

models.524287.layers.6.bias f4 [16]
-0.09411544 -0.6083194 0.19639657 0.12793672 0.6586447 -0.063790426 0.12971795 0.279414
-0.515716 0.3115547 0.5863327 0.29477033 0.603256 0.12795717 0.20467962 0.37995815
00000000: 99bf c0bd d2ba 1bbf 2f1c 493e d801 033e
00000010: f09c 283f 8ea4 82bd c8d4 043e 5a0f 8f3e
00000020: f705 04bf 1984 9f3e e619 163f 23ec 963e
00000030: fc6e 1a3f 3407 033e 8997 513e e089 c23e

models.524287.layers.9.weight f4 [1, 16]
-0.5831453 -0.18647458 -0.53162515 -0.5236324 0.408989 0.4281134 -0.4065617 -0.48991078
-0.6961028 -0.50583225 0.58491606 -0.46734497 0.49752656 -0.4681652 -0.44157618 0.71685344
00000000: 0349 15bf 31f3 3ebe 9618 08bf c60c 06bf
00000010: 0267 d13e ae31 db3e db28 d0be 96d5 fabe
00000020: cb33 32bf 397e 01bf 0fbd 153f d747 efbe
00000030: cdbb fe3e 59b3 efbe 4616 e2be b583 373f

models.524263.layers.0.weight f4 [64, 17]
-0.12561294 0.0916796 -0.19050631 0.18237743 -0.067185014 -0.08083278 0.061375737 -0.019493788
0.15654352 0.16723484 -0.19518799 -0.04014124 -0.03691271 -0.17851108 0.19473657 -0.18379769
0.17935267 2.1061633 0.07540973 0.00022128034 -0.18762651 -0.1536002 0.03548258 0.029394835
-0.0027513995 -0.75982463 0.01269677 -0.048294883 0.005544843 -0.072428085 0.008430948 0.03094427
0.008148611 -0.02825069 -0.59345007 -0.0035950188 0.0005065106 -1.2018038 -1.0743871 -0.03040273
0.14850101 -0.03077785 -0.004506461 -0.0061839777 0.014278286 -0.031723127 -0.017456623 0.010159896
0.011722559 -0.07384616 -0.030984486 0.12013161 -0.19047692 0.2116498 -0.10804315 -0.11081724
-0.22210735 0.15879947 -0.0645815 -0.18546492 0.09239796 0.056809902 -0.1949507 -0.052331075
-0.12092742 0.11463058 0.11786923 0.19686931 0.035205275 0.20066994 -0.15797082 0.088716745
0.1667031 -0.07336475 0.004652798 -0.07633941 0.038749605 0.13937423 0.21932569 0.008307993
0.002154529 -0.16832924 -0.006322995 0.04269886 0.025036246 1.5262059 0.035770707 -0.0015863867
0.68513566 0.3913222 0.114878625 -0.054675043 -0.08402448 -0.4340378 -0.009849141 -0.11359952
0.008621244 0.027081173 -0.004994979 0.12440822 -0.04352768 0.021850487 1.0363834 0.07680179
0.00059308164 -0.99260587 -1.1594448 -0.006758157 0.11866839 0.0032036575 -0.84680355 -0.16260305
0.012961066 -0.08191626 0.01893908 0.019416045 0.026957376 -0.12277495 0.11248004 0.2485296
0.043863308 0.0023277279 -1.1457114 -1.2406975 0.099951334 -0.0893543 -0.061130375 -0.7194721
0.024424484 -0.038756564 0.029268282 0.092490435 0.012873326 -0.020083979 -0.10416 -0.08649618
1.8792934 0.037288852 0.00072249817 -0.047734354 -0.08079825 0.022675455 0.02332956 0.015937757
-1.3049855 0.0020650101 -0.025156785 -0.003214043 -0.011074882 0.0031449448 0.016569812 0.017522749
0.013312442 -0.13066408 -0.05286546 -0.14091885 0.10250935 -0.07747917 -0.14515835 0.052960306
-0.1343918 -0.081707045 0.077970624 -0.011777416 -0.24030505 -0.0761507 -0.19776484 -0.041980892
0.101192355 -0.04079996 -0.0535966 0.1313049 0.21253178 -0.17612876 0.103476085 0.23119631
-0.1245018 0.13392475 -0.12073664 -0.1756274 -0.121321455 0.2197124 -0.21015225 -0.083280295
0.03492833 0.17203112 -0.02597758 -0.036206692 -0.06972188 0.21157905 0.053210706 -0.2262852
0.07806173 0.0049066246 -0.19970748 0.15864769 0.19946623 0.061398566 -0.1466668 0.021454364
-0.16563502 0.008265972 0.043325573 0.20872456 0.03984639 -0.050225526 0.038003862 -0.21466577
-0.010236099 -0.16573653 -0.20939629 0.17773044 -0.20696029 -0.09059839 -0.04865259 -0.011884287
-0.07477833 -0.11031653 -0.19697718 -0.17811495 -0.12310144 -0.14308882 -0.067566544 -0.098556325
-0.17335308 0.013539404 -0.22379847 -0.038089678 -0.21515022 0.14053977 -0.11919432 -0.14434433
-0.10754377 -0.024147227 -0.14958206 0.012718052 0.05290115 0.23723835 0.11233157 0.18556806
0.14337087 0.11096057 -0.07491754 0.007085204 0.057883203 -0.06671429 -0.15364471 0.01879108
-0.02507633 0.14347056 0.005521655 -0.1848723 0.18296811 0.07528028 -0.011257917 -0.9695227
00000000: aea0 00be 84c2 bb3d 1614 43be 26c1 3a3e
00000010: 4c98 89bd a88b a5bd 2065 7b3d 70b1 9fbc
00000020: f24c 203e 9c3f 2b3e 5cdf 47be 246b 24bd
00000030: c831 17bd 9ccb 36be 0669 473e 7635 3cbe
00000040: 3aa8 373e 61cb 0640 6b70 9a3d 7d07 6839
00000050: 2a21 40be 5f49 1dbe 2f56 113d 70cd f03c
00000060: d350 34bb de83 42bf 1d06 503c dbd0 45bd
00000070: 84b1 b53b 2d55 94bd f521 0a3c d67e fd3c
00000080: c081 053c fe6d e7bc 58ec 17bf 689a 6bbb
00000090: 5ac7 043a b5d4 99bf 8485 89bf 250f f9bc
000000a0: a610 183e d421 fcbc efaa 93bb f7a2 cabb
000000b0: 79ef 693c 1cf0 01bd 3101 8fbc b175 263c
000000c0: fa0f 403c a83c 97bd 2dd3 fdbc 9007 f63d
000000d0: 620c 43be baba 583e ba45 ddbd 26f4 e2bd
000000e0: 1c70 63be 549c 223e 4e43 84bd 84ea 3dbe
000000f0: 243b bd3d 80b1 683d 28a1 47be 1c59 56bd
00000100: cca8 f7bd 70c3 ea3d 6c65 f13d 1c98 493e
00000110: 6833 103d 6c7c 4d3e 1ac3 21be 20b1 b53d
00000120: 38b4 2a3e 4240 96bd 8076 983b d657 9cbd
00000130: e8b7 1e3d 1eb8 0e3e ea96 603e 401e 083c
00000140: 0033 0d3b 805e 2cbe 2031 cfbb 00e5 2e3d
00000150: d018 cd3c b75a c33f 4e84 123d 4eee cfba
00000160: 0d65 2f3f 625b c83e 7c45 eb3d f0f2 5fbd
00000170: 0715 acbd 343a debe 4b5e 21bc dda6 e8bd
00000180: 1e40 0d3c 56d9 dd3c ecac a3bb bdc9 fe3d
00000190: 154a 32bd cbff b23c 36a8 843f 424a 9d3d
000001a0: 0979 1b3a 6b1b 7ebf b068 94bf 8873 ddbb
000001b0: 6a08 f33d 74f4 513b 1ec8 58bf 6a81 26be
000001c0: a75a 543c b6c3 a7bd 2126 9b3c 660e 9f3c
000001d0: b7d5 dc3c 6f71 fbbd ef5b e63d 8b7e 7e3e
000001e0: 03aa 333d cb8c 183b aca6 92bf 2dcf 9ebf
000001f0: 49b3 cc3d 63ff b6bd d863 7abd 532f 38bf
00000200: db15 c83c 34bf 1ebd 09c4 ef3c a06b bd3d
00000210: a5ea 523c 2887 a4bc d751 d5bd e924 b1bd
00000220: b08c f03f 32bc 183d 0866 3d3a 1985 43bd
00000230: 8e79 a5bd e0c1 b93c a21d bf3c e68f 823c
00000240: c409 a7bf 1f55 073b 9a15 cebc b2a2 52bb
00000250: 6c73 35bc 6b1b 4e3b 6abd 873c de8b 8f3c
00000260: 6e1c 5a3c cecc 05be 7489 58bd 084d 10be
00000270: 6cf0 d13d 66ad 9ebd 64a4 14be e8ec 583d
00000280: 019e 09be 0656 a7bd 10af 9f3d 10f6 40bc
00000290: 8712 76be e6f4 9bbd de82 4abe 28f4 2bbd
000002a0: f03d cf3d dc1d 27bd 1c88 5bbd cb74 063e
000002b0: eea1 593e 195b 34be 45eb d33d babe 6c3e
000002c0: cdfa febd 9223 093e c644 f7bd abd7 33be
000002d0: 6277 f8bd 4afc 603e 2732 57be dc8e aabd
000002e0: 0211 0f3d ed28 303e efce d4bc 784d 14bd
000002f0: 58ca 8ebd 2ea8 583e 78f3 593d 4fb7 67be
00000300: d4de 9f3d c0c7 a03b 1e80 4cbe 8a74 223e
00000310: e040 4c3e 107d 7b3d d22f 16be 10c1 af3c
00000320: 3a9c 29be 006e 073c 2876 313d e4bb 553e
00000330: f835 233d 48b9 4dbd f0a9 1b3d 58d1 5bbe
00000340: 50b5 27bc d6b6 29be fb6b 56be f8fe 353e
00000350: 66ed 53be a68b b9bd f047 47bd 50b6 42bc
00000360: 6225 99bd a2ed e1bd 63b4 49be c463 36be
00000370: 9c1c fcbd e085 12be 5460 8abd e6d7 c9bd
00000380: 7883 31be 60d4 5d3c 6d2b 65be ec03 1cbd
00000390: 5750 5cbe a8e9 0f3e 271c f4bd 00cf 13be
000003a0: e83f dcbd 68d0 c5bc 0a2c 19be 605f 503c
000003b0: e0ae 583d 9cee 723e 180e e63d 8e05 3e3e
000003c0: d0cf 123e 4c3f e33d 5e6e 99bd 002b e83b
000003d0: f016 6d3d 80a1 88bd 0a55 1dbe c0ef 993c
000003e0: e06c cdbc f2e9 123e 00ef b43b 2a4f 3dbe
000003f0: fe5b 3b3e 8c2c 9a3d 2073 38bc a432 78bf

models.524263.layers.0.bias f4 [64]
-0.10662606 -0.07980764 -0.27692196 0.15526038 -0.23350506 -0.062157743 -0.2705672 -0.14149882
0.16733088 0.05206898 0.067590944 0.042102307 0.014987856 0.19415551 -0.17397365 -0.3816866
-0.2010648 -0.34978253 -0.15077148 0.046492435 -0.094543085 -0.21621686 -0.12279176 0.24063666
0.08859253 -0.07027395 -0.029197231 -0.22078411 -0.2254743 -2.2232533e-05 -0.40870705 -0.20577289
-0.17673285 0.05444211 -0.20483002 0.05120345 0.11749396 -0.15258338 0.11330375 0.12990151
0.09765831 0.23416808 0.019753171 -0.09931761 0.21874696 -0.076146826 0.083569326 0.16103014
0.20495477 0.051369 -0.1723908 -0.35117087 -0.10880924 -0.3218333 -0.1274822 -0.1501257
-0.31494206 0.03819022 -0.24785541 -0.15324911 0.12017704 0.14651516 0.22040457 -0.025091365
00000000: c45e dabd 3072 a3bd b7c8 8dbe 94fc 1e3e
00000010: f31b 6fbe 1e99 7ebd c987 8abe 11e5 10be
00000020: c958 2b3e 4846 553d 1f6d 8a3d 7873 2c3d
00000030: a08f 753c b4d0 463e 2626 32be 6d6c c3be
00000040: eee3 4dbe b216 b3be d763 1abe da6e 3e3d
00000050: ce9f c1bd f467 5dbe 3f7a fbbd 7569 763e
00000060: 0070 b53d caeb 8fbd 082f efbc 3b15 62be
00000070: bce2 66be 0080 bab7 0d42 d1be 21b6 52be
00000080: 75f9 34be b1fe 5e3d f6be 51be b5ba 513d
00000090: aca0 f03d d13e 1cbe cc0b e83d e704 053e
000000a0: 1401 c83d c2c9 6f3e 67d1 a13c 0867 cbbd
000000b0: 34ff 5f3e def2 9bbd 6526 ab3d 16e5 243e
000000c0: aadf 513e 4d68 523d 3787 30be abcc b3be
000000d0: 61d7 debd 56c7 a4be b28a 02be 8dba 19be
000000e0: 1640 a1be 596d 1c3d cfcd 7dbe 56ed 1cbe
000000f0: 611f f63d 1208 163e bcb1 613e 688c cdbc

models.524263.layers.3.weight f4 [32, 64]
0.0328988 -0.4270909 -0.32946602 0.03359881 -0.028549582 0.07490568 -0.12269833 -0.39322188
-0.50172323 0.074797034 -0.04199655 0.016321778 0.11280009 -0.03205836 -0.012309656 0.043312527
0.01516135 0.1277724 -0.121561825 -0.6218944 -0.008266225 0.025252843 0.0937244 0.06675741
0.022761077 0.11384386 0.09356141 0.31678605 0.124857545 0.0065760165 0.11860042 -0.5432475
-0.051263824 0.027205542 -0.13685352 0.40934366 0.0084940875 -0.15861852 0.090536326 -0.082712196
0.11697452 -0.08006932 -0.02835889 0.07175046 0.06586066 0.10511373 -0.4864963 -0.27172747
0.0044517964 -0.1497966 0.10313463 0.10266493 -0.692569 0.12547924 0.059441686 0.11136007
0.11098257 0.0063405894 -0.025147732 -0.08617152 -0.027544117 -0.45154127 0.079249725 -0.08073874
0.035904944 0.009281589 0.044108365 -0.011805862 -0.10568108 0.09854401 -0.057976775 0.003913605
0.23814349 -0.06742787 -0.01907128 -0.0053936094 -0.11234762 -0.114617005 -0.11328991 -0.09537916
-0.06430827 -0.08599368 -0.03975293 -0.0075022047 -0.06712668 -0.03080285 0.08987677 -0.012318201
-0.054886684 0.0246602 -0.030592144 -0.043213174 -0.035733968 0.054431215 -0.12511228 -0.028038505
0.123908624 -0.06679021 0.09324091 0.07488486 0.08597101 0.044958346 0.042845532 -0.07427739
-0.019009337 -0.07147345 -0.25246537 -0.0016304404 0.02289936 0.051113725 -0.15906756 0.22055821
0.05046092 -0.0493393 -0.06768148 0.007811041 -0.17359047 -0.16407703 -0.08371512 -0.0033354163
0.0485012 0.016333124 -0.2399009 0.09076072 -0.00764427 0.10915127 0.016088858 -0.055604324
-0.115433425 -0.038452074 0.09346688 0.10442479 -0.03935437 -0.21327886 -0.03769384 0.02983186
0.10449125 -0.028124422 -0.09813862 0.02086556 0.010626569 0.10858537 -0.037367508 -0.06722092
0.07316662 -0.010878408 -0.11409293 -0.012937585 0.07642549 -0.020696485 0.043948635 -0.056862477
0.10102245 -0.07373947 0.102334365 0.047862306 -0.04725489 -0.08019149 0.066926606 -0.07625323
-0.00033070147 -0.010982767 -0.4070054 -0.26345357 -0.37513888 0.09197002 -0.028340474 -0.01805158
0.025965035 0.0327826 -0.03945024 0.037859276 0.12388843 0.05314575 0.004138595 0.0016482979
-0.01837577 0.24760802 -0.107483774 0.05254646 0.19521248 0.02348517 -0.0035670793 -0.056271985
-0.15701531 0.047785204 0.336506 0.013333276 0.025004081 0.19373475 -0.0712467 -0.09964207
-0.10382688 0.041494194 -0.048399366 -0.020838305 0.020491645 0.1347339 0.11723026 -0.13172029
-0.21908322 0.09543775 -0.056428045 -0.029827848 -0.05472532 -0.11957927 -0.116965845 -0.025466513
0.00850594 0.029045891 0.01320155 -0.078185126 -0.0024904609 0.028143344 -0.027168363 0.036437143
-0.10346155 -0.029979631 -0.037611306 -0.0986122 0.08289786 -0.043345913 0.06346656 0.18392868
-0.0037592351 -0.047726452 0.03764549 0.018781956 -0.037909694 -0.093453564 -0.07801646 0.12957083
0.07660948 -0.007615015 0.0761703 0.11964895 -0.0590965 -0.020870507 0.085201144 0.0786585
0.020017356 0.20885764 0.10312213 -0.103392325 -0.23496127 -0.0003353737 -0.054118868 0.019492447
-0.12707801 0.1441333 -0.07910136 -0.06197317 0.03804003 -0.45655972 -0.040628165 -0.0108201355
00000000: e4c0 063d a9ab dabe c5af a8be e89e 093d
00000010: d0e0 e9bc 2668 993d 4349 fbbd 6154 c9be
00000020: ef70 00bf 302f 993d 9304 2cbd 40b5 853c
00000030: bc03 e73d a04f 03bd 70ae 49bc 7a68 313d
00000040: 5067 783c c5d6 023e 68f5 f8bd 7934 1fbf
00000050: 106f 07bc 0ddf ce3c 94f2 bf3d 1cb8 883d
00000060: 7075 ba3c f826 e93d 209d bf3d c831 a23e
00000070: 50b5 ff3d a07b d73b c7e4 f23d 4512 0bbf
00000080: 04fa 51bd 28de de3c 5423 0cbe 7e95 d13e
00000090: c92a 0b3c e56c 22be 1c6b b93d 0365 a9bd
000000a0: 5690 ef3d 62fb a3bd e750 e8bc e8f1 923d
000000b0: f4e1 863d de45 d73d 0b16 f9be dd1f 8bbe
000000c0: 60e0 913b 4864 19be 4038 d33d fe41 d23d
000000d0: 344c 31bf a17d 003e 2079 733d c010 e43d
000000e0: d44a e33d b8c4 cf3b 9e02 cebc b27a b0bd
000000f0: 33a4 e1bc 6b30 e7be ae4d a23d 5a5a a5bd
00000100: 1011 133d ce11 183c f9aa 343d 606d 41bc
00000110: 526f d8bd 71d1 c93d 0e79 6dbd b33d 803b
00000120: e3db 733e a017 8abd 5f3b 9cbc e0bc b0bb
00000130: 8216 e6bd 52bc eabd 8a04 e8bd 2656 c3bd
00000140: 0eb4 83bd 741d b0bd f8d3 22bd 0ed5 f5bb
00000150: b679 89bd 4256 fcbc 5011 b83d 48d2 49bc
00000160: dcd0 60bd 3004 ca3c 609c fabc 4c00 31bd
00000170: c85d 12bd 44f3 5e3d 6f1d 00be 02b1 e5bc
00000180: cec3 fd3d 4ec9 88bd 17f5 be3d 3c5d 993d
00000190: 9211 b03d 3e26 383d cc7e 2f3d bf1e 98bd
000001a0: 78b9 9bbc ac60 92bd 2443 81be 80b4 d5ba
000001b0: 7097 bb3c a05c 513d 9be2 22be 03da 613e
000001c0: 1cb0 4e3d 0118 4abd 969c 8abd c3f3 ff3b
000001d0: b3c1 31be cf03 28be d572 abbd 0097 5abb
000001e0: 32a9 463d 0bcd 853c 95a8 75be c2e0 b93d
000001f0: c97c fabb b38a df3d c8cc 833c 5cc1 63bd
00000200: 5c68 ecbd ec7f 1dbd 906b bf3d aadc d53d
00000210: 0c32 21bd c665 5abe db64 1abd f261 f43c
00000220: 82ff d53d 3065 e6bc e7fc c8bd 40ee aa3c
00000230: 101b 2e3c 0262 de3d ac0e 19bd 1fab 89bd
00000240: 62d8 953d 5a3b 32bc 8ea9 e9bd 2af8 53bc
00000250: f884 9c3d ad8b a9bc 7c03 343d a1e8 68bd
00000260: dce4 ce3d b804 97bd ae94 d13d 440b 443d
00000270: 588e 41bd 703b a4bd d110 893d a72a 9cbd
00000280: 0062 adb9 10f1 33bc 0363 d0be 63e3 86be
00000290: 3412 c0be c75a bc3d 482a e8bc e8e0 93bc
000002a0: a0b4 d43c 0c47 063d 9396 21bd 5412 1b3d
000002b0: 38b9 fd3d 5caf 593d 0d9d 873b b30b d83a
000002c0: c888 96bc f58c 7d3e 7420 dcbd f53a 573d
000002d0: c8e5 473e f963 c03c a9c5 69bb 747d 66bd
000002e0: 9fc8 20be 6bba 433d 844a ac3e d073 5a3c
000002f0: 5cd5 cc3c 6762 463e cae9 91bd 2411 ccbd
00000300: 30a3 d4bd d1f5 293d 6a3e 46bd 18b5 aabc
00000310: 18de a73c aff7 093e 6b16 f03d afe1 06be
00000320: 5a57 60be de74 c33d 1821 67bd 8859 f4bc
00000330: a827 60bd fae5 f4bd ca8b efbd 269f d0bc
00000340: 805c 0b3c a6f1 ed3c 504b 583c 861f a0bd
00000350: 0037 23bb df8c e63c 3090 debc 1d3f 153d
00000360: a6e3 d3bd d897 f5bc 500e 1abd 31f5 c9bd
00000370: 5ac6 a93d 7c8b 31bd c1fa 813d cd57 3c3e
00000380: 805d 76bb d07c 43bd 2832 1a3d 9edc 993c
00000390: 3247 1bbd 9564 bfbd 18c7 9fbd 37ae 043e
000003a0: 6ee5 9c3d 6087 f9bb 2dff 9b3d 820a f53d
000003b0: 2c0f 72bd a0f8 aabc f07d ae3d b517 a13d
000003c0: 70fb a33c c7de 553e b231 d33d 5bbf d3bd
000003d0: b099 70be 19d5 afb9 bfab 5dbd a0ae 9f3c
000003e0: bd20 02be ae97 133e e5ff a1bd 94d7 7dbd
000003f0: ddcf 1b3d 32c2 e9be b869 26bd f046 31bc

models.524263.layers.3.bias f4 [32]
0.10566084 0.0655612 0.115963995 0.2661612 0.2303792 -0.03913377 0.025029864 0.06447811
-0.009165136 0.026326992 -0.032928247 0.0411933 0.29026708 0.054169066 0.09902116 0.14554068
0.12184933 0.17952263 0.11721588 0.08827791 -0.00849881 0.24057302 -0.092652164 -0.14443414
-0.11249599 -0.13177842 0.15972754 -0.10926706 0.20113213 0.032752655 -0.24870574 -0.02593636
00000000: b664 d83d f344 863d 887e ed3d 4846 883e
00000010: 86e8 6b3e bb4a 20bd 6e0b cd3c 190d 843d
00000020: 5e29 16bc b4ab d73c c5df 06bd 4eba 283d
00000030: e39d 943e 62e0 5d3d 9bcb ca3d 9e08 153e
00000040: 248c f93d c8d4 373e e10e f03d 0dcb b43d
00000050: 983e 0bbc c658 763e 6bc0 bdbd 8be6 13be
00000060: 4c64 e6bd ecf0 06be 9e8f 233e 69c7 dfbd
00000070: 95f5 4d3e a627 063d b8ac 7ebe 7d78 d4bc

models.524263.layers.6.weight f4 [16, 32]
-0.36805072 -0.18691896 0.2294251 0.14690088 0.03881316 -0.03938675 0.07748818 0.13497257
0.15517378 0.24588521 -0.07961317 -0.011134907 0.026080966 0.20260485 0.16925697 0.080988266
0.08451758 0.024120707 0.29606038 0.17064984 0.19714798 -0.14709225 -0.25884816 -0.22165005
-0.32803577 -0.23849046 0.29511935 -0.19545703 0.07839825 -0.4904446 0.24138078 -0.09415927
-0.39748102 -0.14790064 0.07401268 -0.08957174 0.1155317 0.1344128 -0.05621727 0.19263865
0.007736856 0.1026522 -0.25263572 0.2513516 -0.12519386 0.030904239 0.16903204 0.03550901
0.121871196 0.14999668 0.015213703 0.11459724 0.017266072 -0.12163899 -0.0871157 -0.14806192
-0.17563625 -0.24000281 0.038102016 -0.20083116 0.20913075 -0.43052003 0.046642397 0.1356755
-0.1973534 0.15704785 -0.3852331 -0.05386009 -0.037446056 -0.17518415 -0.32996345 -0.13273787
0.289767 -0.23179978 0.1788411 0.10919962 -0.50116956 -0.30832002 -0.5252612 -0.13568121
0.05153076 -0.11231068 0.019397167 0.20308736 0.12637855 -0.4662305 0.12755094 0.04100959
0.18959513 0.16410258 -0.1921194 0.10046091 -0.23681064 -0.16238177 0.16012219 -0.21871458
-0.042330123 0.101696104 -0.3517543 0.29101986 -0.026979433 -0.37407196 -0.11646921 -0.018793259
0.04462125 -0.28751078 0.17752296 0.40611288 -0.25322205 -0.23952805 -0.46105224 -0.098974705
0.14383996 -0.10019448 0.14416514 -0.0039186776 0.058238193 -0.27594283 0.29243547 0.14142944
0.2573625 0.32834387 -0.114802286 -0.006853715 -0.14177492 -0.02237786 0.057561267 0.03935348
-0.41890714 -0.11584691 -0.03419425 0.28321207 0.13848089 0.15954724 -0.014263266 0.21719392
0.10987933 0.16312462 -0.27765584 0.056123067 -0.09043484 0.13887198 0.10553789 0.16710915
0.093252085 0.03558181 0.12229378 0.0076205074 0.07683716 -0.1297829 -0.22030888 -0.3262479
-0.16337647 -0.26497898 0.2703587 -0.0952436 0.11038071 -0.5034812 0.11874689 0.16338305
-0.07192941 0.28401622 -0.28480813 0.03517229 0.08185706 -0.15897746 -0.16375183 -0.14009506
0.31850997 -0.2765002 0.07568534 0.15911199 -0.3578197 -0.23265812 -0.4704403 -0.1034419
0.10958229 -0.030415496 0.031088188 -0.0084998505 0.028271157 -0.1113689 0.042371467 0.23128039
0.28820974 0.30934376 -0.009829375 0.016950084 -0.12480329 -0.18080412 0.2720422 -0.03767548
-0.43880704 -0.16745256 0.06223278 0.18097268 0.038832035 0.0029260183 0.1572062 0.053387582
0.2124867 0.2230457 -0.25970337 -0.057962246 0.044980932 0.18559374 0.30466586 0.119955264
0.14773828 0.21846117 0.2851923 0.04240066 0.32939097 -0.19766407 -0.1960339 -0.18728787
-0.1187665 -0.39684483 0.23189214 -0.25963932 0.18006794 -0.5769518 0.14084694 0.13609661
-0.5143364 -0.09190316 0.13029985 0.06485072 0.069441296 0.06693467 0.11557384 0.2039291
0.09205207 0.21786292 -0.049319416 0.17746669 -0.22457659 0.27014303 0.14572406 0.29655334
0.2561886 0.18441753 0.13952859 0.16481994 0.06994649 -0.15242127 -0.21734683 -0.30582872
-0.31084114 -0.37010342 0.3256591 -0.054012433 0.13948858 -0.5618305 0.1400036 -0.012913721
00000000: 2571 bcbe af67 3fbe 6aee 6a3e 2f6d 163e
00000010: 8cfa 1e3d 0054 21bd 1fb2 9e3d 4036 0a3e
00000020: e0e5 1e3e 55c9 7b3e 3b0c a3bd 2f6f 36bc
00000030: c0a7 d53c a577 4f3e b351 2d3e 2ddd a53d
00000040: 8e17 ad3d ca98 c53c 3a95 973e d5be 2e3e
00000050: 29e1 493e 5a9f 16be bf87 84be 3bf8 62be
00000060: 4ef4 a7be d836 74be e219 973e e325 48be
00000070: 438f a03d 8e1b fbbe 862c 773e 93d6 c0bd
00000080: a282 cbbe 4473 17be f693 973d 6371 b7bd
00000090: e29b ec3d 82a3 093e 1544 66bd 1143 453e
000000a0: 7485 fd3b 513b d23d 7859 81be 28b1 803e
000000b0: d232 00be e32a fd3c bc16 2d3e e571 113d
000000c0: 9b97 f93d bb98 193e e542 793c f5b1 ea3d
000000d0: 9471 8d3c dd1d f9bd b769 b2bd 8b9d 17be
000000e0: fdd9 33be 4cc3 75be dc10 1c3d afa6 4dbe
000000f0: 5f26 563e 1f6d dcbe 190c 3f3d 85ee 0a3e
00000100: 0217 4abe 27d1 203e 463d c5be 669c 5cbd
00000110: 0961 19bd 7963 33be f8f0 a8be 70ec 07be
00000120: 575c 943e ec5c 6dbe 1f22 373e 0da4 df3d
00000130: a64c 00bf 1fdc 9dbe 8577 06bf 04f0 0abe
00000140: eb11 533d 2403 e6bd cfe6 9e3c 22f6 4f3e
00000150: 6169 013e c4b5 eebe b79c 023e acf9 273d
00000160: 3a25 423e 820a 283e f3ba 44be 73be cd3d
00000170: 7d7e 72be 6847 26be 12f7 233e b7f6 5fbe
00000180: 5a62 2dbd 0c46 d03d 2419 b4be 8e00 953e
00000190: f903 ddbc 5c86 bfbe 6987 eebd 52f4 99bc
000001a0: c6c4 363d 9d34 93be 94c8 353e 07ee cf3e
000001b0: 52a6 81be d746 75be 0a0f ecbe 40b3 cabd
000001c0: c84a 133e c332 cdbd 07a0 133e 4068 80bb
000001d0: 2c8b 6e3d 6148 8dbe 1aba 953e e1d2 103e
000001e0: 05c5 833e b01c a83e 761d ebbd 2195 e0bb
000001f0: 722d 11be c651 b7bc 5dc5 6b3d 1d31 213d
00000200: ff7a d6be 2541 edbd 450f 0cbd 2c01 913e
00000210: efcd 0d3e 5a60 233e 79b0 69bc 1568 5e3e
00000220: 6a08 e13d 240a 273e e828 8ebe 4de1 653d
00000230: e735 b9bd 7534 0e3e 4024 d83d a91e 2b3e
00000240: f3fa be3d 3bbe 113d 2975 fa3d 73b5 f93b
00000250: cd5c 9d3d cfe5 04be a798 61be f709 a7be
00000260: 294c 27be 53ab 87be 756c 8a3e 140f c3bd
00000270: 480f e23d 25e4 00bf 9231 f33d e34d 273e
00000280: ba4f 93bd 936a 913e 5fd2 91be d210 103d
00000290: ada4 a73d fdca 22be 8fae 27be 1475 0fbe
000002a0: bd13 a33e 6f91 8dbe ea00 9b3d 41ee 223e
000002b0: 2534 b7be ee3d 6ebe 8ddd f0be 59d9 d3bd
000002c0: ae6c e03d eb29 f9bc a8ac fe3c f542 0bbc
000002d0: ea98 e73c 6115 e4bd b48d 2d3d c4d4 6c3e
000002e0: 3a90 933e 4e62 9e3e 630b 21bc e7da 8a3c
000002f0: de98 ffbd b724 39be 1e49 8b3e 9b51 1abd
00000300: 51ab e0be af78 2bbe cde7 7e3d e750 393e
00000310: 570e 1f3d 71c2 3f3b a9fa 203e f0ac 5a3d
00000320: 1d96 593e 1866 643e d7f7 84be d269 6dbd
00000330: ed3d 383d 490c 3e3e 2afd 9b3e 1bab f53d
00000340: b448 173e 49b4 5f3e ba04 923e 51ac 2d3d
00000350: efa5 a83e 7368 4abe 1cbd 48be 64c8 3fbe
00000360: da3b f3bd 3f2f cbbe 2275 6d3e 72ef 84be
00000370: bb63 383e 1db3 13bf 2e3a 103e e95c 0b3e
00000380: 8dab 03bf b937 bcbd 536d 053e 74d0 843d
00000390: 3d37 8e3d 0b15 893d fab1 ec3d cad2 503e
000003a0: cc85 bc3d 7517 5f3e 2803 4abd d4b9 353e
000003b0: 68f7 65be 3050 8a3e b038 153e d7d5 973e
000003c0: 272b 833e f3d7 3c3e 95e0 0e3e 8fc6 283e
000003d0: 1b40 8f3d 5214 1cbe 2b90 5ebe 9595 9cbe
000003e0: 9226 9fbe 327e bdbe cabc a63e 243c 5dbd
000003f0: 18d6 0e3e 20d4 0fbf 1b5d 0f3e 1294 53bc

models.524263.layers.6.bias f4 [16]
0.40719557 0.42826706 -0.013237671 -0.10044884 0.36878744 -0.17319751 0.49050927 0.5493084
-0.06713494 0.4643985 0.44864094 0.07165922 0.4480019 0.058046646 0.365955 -0.044022657
00000000: f07b d03e d245 db3e d1e2 58bc 1fb8 cdbd
00000010: b5d1 bc3e b05a 31be 0824 fb3e 7a9f 0c3f
00000020: 0b7e 89bd a4c5 ed3e 44b4 e53e 12c2 923d
00000030: 8160 e53e 52c2 6d3d 745e bb3e 1a51 34bd

models.524263.layers.9.weight f4 [1, 16]
0.39644548 0.47954804 -0.5691998 -0.28476223 0.40576756 -0.35843605 0.3230016 0.2936804
-0.40630034 0.39541247 0.58117837 -0.29552293 0.5582377 -0.4404234 0.423887 -0.5697671
00000000: e7fa ca3e 5287 f53e 14b7 11bf 5bcc 91be
00000010: c4c0 cf3e ee84 b7be 7760 a53e 475d 963e
00000020: 9906 d0be 8173 ca3e 1bc8 143f c84e 97be
00000030: aae8 0e3f 2d7f e1be b807 d93e 42dc 11bf

models.524281.layers.0.weight f4 [64, 17]
-0.24004187 0.06884745 -0.2071209 -0.2326315 -0.06266576 0.22061348 0.10162556 -0.13967507
0.030507684 -0.14125434 0.19681573 -0.106894284 -0.11041655 -0.2331698 -0.17229089 0.054429084
0.23215234 -0.12877858 0.23742841 -0.022782383 0.21038352 -0.158532 -0.13154012 -0.072446525
-0.009767285 0.9440017 0.049471807 -0.3062427 -0.07852915 0.2500842 0.013133816 -0.092282735
0.03589194 0.020697774 0.041768283 -0.12751088 -0.11630808 0.08778474 -0.21043262 0.0130293965
0.16366023 0.07105458 0.13153878 -0.057621688 0.12020615 0.0962787 -0.19705193 -0.08668968
0.083912134 0.025638014 0.10999778 0.078473985 0.030030785 -0.20890811 -0.0680268 0.18626042
0.28067383 -0.14771287 -0.13915601 -1.0417709 -0.03962336 -0.08010871 -0.03205765 0.28053468
0.008385182 -0.21276991 -0.066525005 -0.20285119 0.11066598 0.09776294 -0.12068869 0.08161971
-0.050836235 -0.026506633 0.18316674 0.019343376 -0.055279225 -0.07776219 0.05297625 0.06856865
0.17644477 -0.24119316 -0.04706365 -0.18286248 -0.02552104 0.5280807 -0.11379063 -0.37261677
0.22598001 -0.108636044 -0.1538661 0.19415241 0.00090664515 -0.96888936 -0.056239527 0.087443896
-0.009112766 -0.09861177 0.0042979424 0.037808664 -0.034438975 0.0193073 0.4613614 -0.26730186
0.3272015 -0.42874953 -0.17850544 0.21857595 0.24024895 -0.22096923 -0.8223722 -0.20781422
-0.14982551 -0.087103635 0.033162948 0.017502172 -0.23728666 0.013458473 0.14417322 0.56386393
-0.05220008 0.109727085 -0.12969412 0.023349155 0.0239947 -0.063994676 0.18576951 -1.1599085
-0.17615959 0.2380958 -0.12290688 -0.1931776 0.01566702 -0.13709569 0.116770044 -0.05420044
0.31870487 -0.07503782 -0.17028768 0.21733867 0.19889323 -0.16298643 -0.12336997 -0.053588755
-0.54056597 0.29199454 -0.112698495 0.043500744 -0.11716424 0.010702637 -0.0446394 -0.2847679
-0.08622145 0.21683747 0.06353384 0.087533236 0.1007323 0.1643441 -0.025191486 0.19505268
-0.17113182 -0.05131598 -0.19572392 0.04592669 -0.08669609 0.091000855 -0.23818155 0.14196098
0.19991699 -0.16256323 0.34676135 -0.25308064 0.36967906 -0.17731476 -0.1425709 0.21803819
-0.14325215 -0.16795355 -0.40783897 0.14064015 -0.15780038 -0.016415663 -0.03867437 0.014670766
0.09455046 -0.032287307 0.033335283 0.15340546 -0.1001095 -0.15940255 0.22812122 -0.0404208
0.12635884 0.05039242 -0.15097365 0.09832725 -0.10912649 -0.15540129 -0.12016939 0.062406987
-0.13497439 -0.17637414 -0.1670513 -0.049937606 -0.46954256 0.19148323 0.9005135 -0.41514942
-0.2871809 -0.21931565 0.25759077 -0.017484058 1.0375018 -0.031905025 -0.026734186 0.026901254
-0.08400035 0.0011516658 -0.010634184 -0.011698315 -0.043073833 -0.23509054 -0.0039343536 0.121784806
-0.21163689 -0.016679153 -0.048104987 -0.10956071 -0.2094258 0.015296936 -0.004516855 0.072432995
-0.12278115 -0.11792405 -0.12290452 0.081192136 0.03860408 0.098210454 -0.3970709 0.13465773
0.34236604 -0.24387002 -0.4206458 -0.057084475 0.20761181 -0.04491476 0.76141137 -0.022340873
0.051059745 -0.14526449 -0.19897366 0.014010518 0.1385733 -0.014111786 -0.16850439 0.25197375
00000000: 89cd 75be e4ff 8c3d 8017 54be f436 6ebe
00000010: e856 80bd 80e8 613e 1021 d03d fb06 0fbe
00000020: 40eb f93c faa4 10be 108a 493e 64eb dabd
00000030: 1222 e2bd 10c4 6ebe 066d 30be 08f1 5e3d
00000040: 58b9 6d3e 88de 03be 6f20 733e 1fa2 babc
00000050: c76e 573e 3656 22be 74b2 06be d85e 94bd
00000060: f606 20bc 18aa 713f f3a2 4a3d d8cb 9cbe
00000070: e4d3 a0bd 090b 803e 382f 573c bbfe bcbd
00000080: 6d03 133d 618e a93c 3815 2b3d 3692 02be
00000090: ee32 eebd 7cc8 b33d a67b 57be 4079 553c
000000a0: 8c96 273e 1085 913d 1ab2 063e b804 6cbd
000000b0: a42e f63d c42d c53d fbc7 49be 5c8a b1bd
000000c0: 20da ab3d d006 d23c 8446 e13d f8b6 a03d
000000d0: 1f03 f63c 02ec 55be a351 8bbd 0dbb 3e3e
000000e0: 7bb4 8f3e 0b42 17be ea7e 0ebe c058 85bf
000000f0: 1b4c 22bd 0910 a4bd e24e 03bd 3ea2 8f3e
00000100: 0162 093c 5be0 59be 433e 88bd 39b8 4fbe
00000110: d8a4 e23d f037 c83d a22b f7bd 3c28 a73d
00000120: a839 50bd 7024 d9bc 1090 3b3e 0076 9e3c
00000130: 786c 62bd c841 9fbd a0fd 583d b86d 8c3d
00000140: f0ad 343e 57fb 76be d0c5 40bd 4d40 3bbe
00000150: 8011 d1bc 4c30 073f 100b e9bd a0c7 bebe
00000160: 4e67 673e 937c debd 138f 1dbe e4cf 463e
00000170: edab 6d3a 2209 78bf 6b5b 66bd c915 b33d
00000180: b64d 15bc f8f4 c9bd c1d5 8c3b 42dd 1a3d
00000190: e20f 0dbd 582a 9e3c 9037 ec3e cadb 88be
000001a0: f486 a73e 0f85 dbbe 21ca 36be 60d2 5f3e
000001b0: d203 763e c245 62be fc86 52bf 40cd 54be
000001c0: dc6b 19be 6463 b2bd dfd5 073d b760 8f3c
000001d0: 46fb 72be ed80 5c3c 25a2 133e 6359 103f
000001e0: c0cf 55bd 98b8 e03d 89ce 04be ba46 bf3c
000001f0: 8890 c43c a40f 83bd 5d3a 3e3e e277 94bf
00000200: 2e63 34be 63cf 733e 9ab6 fbbd 59d0 45be
00000210: 1f58 803c d062 0cbe 2225 ef3d 4801 5ebd
00000220: 492d a33e 6ead 99bd e55f 2ebe 078e 5e3e
00000230: abaa 4b3e eae5 26be 65a9 fcbd e27f 5bbd
00000240: 8862 0abf 4f80 953e 78ce e6bd d62d 323d
00000250: cef3 efbd 1d5a 2f3c ced7 36bd 19cd 91be
00000260: df94 b0bd a40a 5e3e 081e 823d a044 b33d
00000270: bc4c ce3d d249 283e 605e cebc e4bb 473e
00000280: 2e3d 2fbe b430 52bd da6b 48be a01d 3c3d
00000290: b88d b1bd a85e ba3d dde5 73be 385e 113e
000002a0: 0ab7 4c3e fa76 26be b48a b13e c993 81be
000002b0: 9346 bd3e 0092 35be 1bfe 11be 6745 5f3e
000002c0: b1b0 12be 04fc 2bbe 45d0 d0be f903 103e
000002d0: 6c96 21be 247a 86bc 0469 1ebd a75d 703c
000002e0: aca3 c13d b23f 04bd 948a 083d 5216 1d3e
000002f0: 3606 cdbd 6c3a 23be 9c98 693e 4890 25bd
00000300: 3664 013e 4868 4e3d d698 1abe cc5f c93d
00000310: b67d dfbd 8421 1fbe 5f1b f6bd 789e 7f3d
00000320: ba36 0abe 6c9b 34be 7f0f 2bbe 608b 4cbd
00000330: e267 f0be 2e14 443e 0e88 663f 778e d4be
00000340: 6009 93be 4894 60be f0e2 833e ba3a 8fbc
00000350: dccc 843f d8ae 02bd a701 dbbc 0560 dc3c
00000360: 6008 acbd 7ef3 963a 003b 2ebc 4aaa 3fbc
00000370: 306e 30bd 93bb 70be c0eb 80bb 506a f93d
00000380: 57b7 58be b8a2 88bc bc09 45bd 5e61 e0bd
00000390: b873 56be 00a0 7a3c 2002 94bb c057 943d
000003a0: af74 fbbd 2a82 f1bd 5db5 fbbd 1048 a63d
000003b0: 501f 1e3d 9022 c93d e14c cbbe b7e3 093e
000003c0: 9a4a af3e 10b9 79be e35e d7be 69d1 69bd
000003d0: 3198 543e 8af8 37bd dbeb 423f 3504 b7bc
000003e0: 0624 513d 37c0 14be c0bf 4bbe 5f8c 653c
000003f0: 29e6 0d3e 1f35 67bc 6a8c 2cbe b402 813e
