models/Ensemble/proton_2.pt (torch, 73127 bytes, 28 tensors)

models.524287.layers.0.weight f4 [64, 19]
0	0xbe0565d2	-0.13027123
1	0x3cc46ecf	0.023978619
2	0x3da65998	0.081225574
3	0x3dfa93eb	0.12235244
4	0xbd3e8d2e	-0.04652136
5	0xbf3e039d	-0.74224263
6	0xbf452221	-0.770052
7	0xbdb89baa	-0.090140656
8	0xba7e4f2a	-0.00097011274
9	0xbe523d3c	-0.20531172
10	0xbf109b22	-0.56486714
11	0x3e4f8e40	0.20269108
12	0x3e3db590	0.18526292
13	0x3e008ee3	0.12554507
14	0x3cd63d44	0.02615226
15	0xbb3ea5dc	-0.002909056
16	0x3c6dccaf	0.014514132
17	0x3e10276d	0.1407754
18	0xbe22cc27	-0.1589819
19	0xbb5862c0	-0.0033017844
20	0x3e1772db	0.14789908
21	0xbd9ac70c	-0.075574964
22	0xbce3aa60	-0.027791202
23	0xbd894192	-0.0670196
24	0x3e411239	0.18854608
25	0xbd8121ca	-0.06305273
26	0x3e031f4b	0.12804906
27	0x3cde2bf8	0.027120575
28	0x3e12d9e5	0.14340933
29	0xbe557be3	-0.2084804
30	0x3e00a1f9	0.12561788
31	0xbde89ba2	-0.113578096
32	0xbd9fe738	-0.07807773
33	0x3e36e275	0.17859824
34	0xbe6504f4	-0.2236517
35	0x3e55e4e1	0.20888092
36	0x3e559237	0.20856558
37	0x3e1111d9	0.14166965
38	0xbe8d93bf	-0.27651784
39	0xbd8b4cb4	-0.06801739
40	0xbaa7bf50	-0.0012798104
41	0xbf272c0a	-0.65301573
42	0x4006d73f	2.1068876
43	0xbe09c466	-0.13453826
44	0xbf0b240c	-0.5435188
45	0x3da8f187	0.08249193
46	0xbd2d108a	-0.0422521
47	0xbc4811e6	-0.012211299
48	0xbf004ec0	-0.5012016
49	0x3d0304df	0.031987067
50	0xbe1551e8	-0.14582026
51	0x3cac1fa9	0.02101119
52	0x3cec46ca	0.028842349
53	0x3c1de48d	0.00963701
54	0x3c846dbd	0.016165609
55	0xbe4ce6ee	-0.20009968
56	0xbd34d559	-0.044148777
57	0x3f3a3845	0.7274211
58	0x3ebe82c5	0.37209144
59	0xbd412d22	-0.047162183
60	0xbf16e66b	-0.5894534
61	0x3eccd158	0.40003467
62	0xbe8d33cb	-0.27578577
63	0xbf012eca	-0.5046202
64	0x3cfefc29	0.031126099
65	0x3e8006db	0.2500523
66	0xbe3e05a0	-0.18556833
67	0xbf117aef	-0.56828207
68	0x3dba60ec	0.09100518
69	0x3daa6fb8	0.0832209
70	0x3e0785ae	0.13234589
71	0xbc81a09d	-0.015823657
72	0xba7e26f6	-0.00096951367
73	0x3db0f248	0.086399615
74	0xbceb5f18	-0.028731868
75	0x3e0f5de4	0.1400066
76	0x3e43aac4	0.1910811
77	0x3c01af64	0.007915352
78	0xbc2863f3	-0.010277736
79	0xbd8a4145	-0.067507304
80	0x3eed551c	0.46353996
81	0xbf8b61ed	-1.088926
82	0xbf475555	-0.7786458
83	0x3dc17ad5	0.094472565
84	0xbd51a2e2	-0.051180728
85	0x3b212746	0.002459006
86	0xbf798952	-0.9747516
87	0x3d492c4a	0.049114503
88	0xbd1e0820	-0.038581967
89	0xbb4e1401	-0.0031445029
90	0x3c9bbbab	0.019010385
91	0x3ba15e11	0.0049245437
92	0x3cd7ac49	0.02632727
93	0xbbc0159a	-0.00586195
94	0xbc343c33	-0.011000681
95	0x3cf1a788	0.02949883
96	0xbe60de92	-0.21959904
97	0x3d7b2284	0.061312214
98	0x3e468d6f	0.1938989
99	0x3e1dbbaf	0.15403627
100	0x3e1adee3	0.15124087
101	0xbdd6052e	-0.10450207
102	0xbdf97ba9	-0.121817894
103	0xbdc8f14e	-0.0981165
104	0xbd3b5788	-0.045737773
105	0x3d7c55dc	0.06160532
106	0x3d85df16	0.06536691
107	0xbd960688	-0.073254645
108	0x3e624011	0.22094752
109	0x3e2357e9	0.15951504
110	0xbd31f8e8	-0.043450266
111	0xbe3f0cb8	-0.18657196
112	0xbd2c328c	-0.042040393
113	0xbdbf0280	-0.09326649
114	0xbd7a45a4	-0.06110157
115	0x3d8af8ae	0.06785713
116	0xbdfaeea8	-0.12252551
117	0x3de50c3a	0.11183973
118	0x3e42f96f	0.19040464
119	0x3d5b0f24	0.053481236
120	0x3e61c87d	0.22049136
121	0x3e2cfbab	0.16892879
122	0x3db4c542	0.088266864
123	0x3d261cc4	0.040554777
124	0x3d58f6cc	0.05296974
125	0x3d9042d6	0.07043998
126	0x3cbc5bb8	0.022992954
127	0xbe411cd5	-0.18858655
128	0x3dac322a	0.084080055
129	0xbcc5d500	-0.024149418
130	0xbd15a7cc	-0.036536977
131	0x3dc3e4f6	0.09565155
132	0x3e282bb9	0.16422929
133	0xbee831cd	-0.45350495
134	0xbeae0aee	-0.33992714
135	0xbe882f80	-0.2659874
136	0xbf31cd32	-0.6945373
137	0x3f07b516	0.5301069
138	0xbed024de	-0.40653127
139	0xbef58796	-0.47955006
140	0x3eadd1a3	0.33949003
141	0x3e8bbd77	0.27292988
142	0xbce9eece	-0.028556254
143	0xbf03780f	-0.5135507
144	0x3d86a81a	0.065750316
145	0x3e3e3afa	0.18577185
146	0x3e21e3c2	0.15809539
147	0x3e03264d	0.1280758
148	0x3c68da73	0.014212239
149	0xbd88ef5d	-0.0668628
150	0x3d15b937	0.036553588
151	0x3cd0db18	0.025495097
152	0x3f74a7ea	0.95568717
153	0xbde56f03	-0.112028144
154	0x3c18a21c	0.009315994
155	0x3e8a6088	0.27026772
156	0x3f37ad38	0.71748686
157	0xbecba547	-0.39774534
158	0xbed4b1f8	-0.4154203
159	0x3d80c989	0.0628844
160	0xbdf4a457	-0.11945408
161	0xbd73c38e	-0.059512667
162	0xbeb5f16c	-0.35535753
163	0xbd03fe00	-0.032224655
164	0xbc5719d4	-0.0131287165
165	0xbbe90f14	-0.007112393
166	0x3cf01e48	0.029311314
167	0x3c5e2c2a	0.013560334
168	0x3e789d38	0.24278724
169	0xbd0a4c09	-0.03376392
170	0x3df38951	0.118914254
171	0x3f2da4e0	0.67829704
172	0x3f2f2200	0.68411255
173	0x3e309cb9	0.17247285
174	0x3e6f0dcf	0.23345111
175	0x3f174061	0.5908261
176	0x3f342b88	0.70378923
177	0x3eef2528	0.46708035
178	0x3c8446d7	0.01614706
179	0x3cf83a5b	0.030301264
180	0x3e1e8e02	0.15483859
181	0xbf45584d	-0.7708786
182	0xbdb07e2e	-0.08617817
183	0xbd508dc3	-0.050916445
184	0x3c227771	0.009916172
185	0x3e1d75b5	0.15376933
186	0xbd65891a	-0.056038953
187	0x3d872701	0.06599236
188	0xbe0daa21	-0.1383443
189	0x3e4ed8ba	0.20199862
190	0xbf0dae04	-0.5534365
191	0xbdd73756	-0.10508601
192	0xb9df4ca4	-0.00042590976
193	0x3ca711e6	0.020394277
194	0xbeaf7d80	-0.34275436
195	0xbfb11301	-1.3833925
196	0xbfaaa961	-1.333294
197	0x3e0c1313	0.13679151
198	0xbdc80589	-0.09766681
199	0xbc2416a2	-0.010015162
200	0xbf0aface	-0.5428895
201	0x3da223d1	0.07916988
202	0xbd8e5b0e	-0.06950961
203	0xbbf7b0cd	-0.007558918
204	0xbcf9e293	-0.030503547
205	0x3c13f78c	0.009031188
206	0xbc8b2f55	-0.016990343
207	0xba531884	-0.00080526643
208	0x3c1f4d38	0.009723
209	0xbfa635d6	-1.298518
210	0xbeb16fa1	-0.3465548
211	0xbb8115d7	-0.003939371
212	0x3e5efed3	0.21776895
213	0xbf69e021	-0.9135762
214	0x3e586f87	0.21136294
215	0x3eb41903	0.35175332
216	0x39489a9a	0.0001913108
217	0x3d40643c	0.04697059
218	0x3bd68e1c	0.0065477025
219	0x3f819193	1.0122551
220	0xbd27b7c9	-0.040946756
221	0x3c4e6b4f	0.012598827
222	0xbc6edfac	-0.014579695
223	0xbd6d7c36	-0.057979785
224	0xbc361c5f	-0.011115163
225	0x3bbcd119	0.005762231
226	0xbd747776	-0.05968424
227	0xbd656d8c	-0.056012675
228	0xbf4dccab	-0.80390424
229	0xbce56917	-0.028004212
230	0xbaef9dd2	-0.0018281287
231	0xbe05be4c	-0.13060874
232	0xbd18bec9	-0.037291322
233	0xbf88b0cd	-1.0678955
234	0xbf3e0a28	-0.7423425
235	0xbd09112f	-0.033463653
236	0xbe1d9355	-0.15388234
237	0xbb63afb7	-0.0034742185
238	0xbf0082a4	-0.5019934
239	0x3da9e7eb	0.08296188
240	0xbc15ace7	-0.009135461
241	0xbc76302a	-0.015026132
242	0x3cbfec11	0.023427995
243	0x3c43d7ee	0.011953337
244	0x3c0f0fac	0.008731764
245	0x3d0c9ac2	0.034327276
246	0xbc87479d	-0.01651364
247	0xbfa43193	-1.2827629
248	0x3d27fe7c	0.04101418
249	0xbc811912	-0.015759025
250	0x3e9373f9	0.28799418
251	0xbf62d118	-0.886003
252	0x3e9de050	0.308352
253	0x3f07975f	0.5296535
254	0xbcfafc39	-0.030637847
255	0x3e059e88	0.13048756

models.524287.layers.0.bias f4 [64]
0	0xbe092a6e	-0.13395092
1	0xbd9e93d0	-0.07743037
2	0xbe46229f	-0.19349144
3	0xbeadc51b	-0.33939442
4	0x3e19858e	0.14992353
5	0xbcb092d0	-0.02155438
6	0xbe42f1f7	-0.19037615
7	0xbe6d08ee	-0.23147938
8	0xbd0803a8	-0.033206612
9	0xbddcaa71	-0.107746966
10	0xbdb428e4	-0.08796862
11	0x3ab1914f	0.0013547334
12	0xbddbe7c5	-0.10737566
13	0x3db9d17a	0.090731576
14	0x3e08efa1	0.13372661
15	0xbe34af5f	-0.17645024
16	0xbd2e9de2	-0.042631038
17	0xbe92ad6e	-0.2864794
18	0x3de5b1a4	0.11215523
19	0x3e598988	0.2124387
20	0x3e026b3a	0.12736216
21	0xbe1fef9d	-0.15618749
22	0xbbe9e56c	-0.007137945
23	0x3b0bdd00	0.0021341443
24	0x3df657ec	0.120284885
25	0xbe8df18c	-0.27723348
26	0xbc209bf9	-0.009802812
27	0x3e2b1e93	0.16710882
28	0x3e1a5a9b	0.15073626
29	0xbd4cdaa3	-0.050013196
30	0x3e12d1d1	0.14337851
31	0xbe737a8d	-0.23777218
32	0xbe0836e7	-0.13302194
33	0x3de7e16a	0.11322291
34	0xbe51f5a3	-0.20503859
35	0xbe00326c	-0.12519234
36	0xbd9026fe	-0.07038687
37	0xbd058cb8	-0.032604903
38	0xbcbc793a	-0.023007024
39	0xbe6d7177	-0.23187815
40	0x3d2caa0b	0.042154353
41	0xbeb29fb9	-0.34887484
42	0x3e1c4bdb	0.15263312
43	0xbe6e31df	-0.23261212
44	0x3e5a0299	0.21290053
45	0xbb91ee63	-0.0044534667
46	0xbe2b5e76	-0.16735253
47	0xbdb2c68f	-0.08729278
48	0x3e4a1c31	0.19737317
49	0xbe2feb78	-0.17179668
50	0x3e2b2906	0.16714868
51	0xbccba338	-0.024858102
52	0xbe292ce4	-0.1652103
53	0x3d04d07c	0.03242539
54	0xbdcbef2e	-0.09957729
55	0x3e5c6045	0.21521099
56	0xbe87afac	-0.26501215
57	0xbdc8cbda	-0.098045066
58	0xbe0702a0	-0.13184595
59	0xbe13dd8e	-0.14439985
60	0xbece1153	-0.40247592
61	0xbcdff324	-0.027337618
62	0xbd107b7f	-0.035274025
63	0x3c857431	0.016290756

models.524287.layers.3.weight f4 [32, 64]
0	0x3c197cbf	0.009368121
1	0x3d6832cc	0.05668907
2	0xbe91d29f	-0.28481004
3	0x3cba3223	0.022728985
4	0xbf7a2fbe	-0.977291
5	0x3dcd4ae4	0.1002405
6	0x3da10b3c	0.07863471
7	0xbdc408b6	-0.09571974
8	0x3c89c3f9	0.01681708
9	0xbe396af7	-0.1810721
10	0xbe71239c	-0.2354874
11	0x3e9dc196	0.30811757
12	0xbe9bd9eb	-0.30439696
13	0xbd9ee0d6	-0.07757728
14	0xba26ec00	-0.0006367564
15	0x3d9f1e82	0.07769491
16	0xbdf769f4	-0.12080756
17	0xbb1007ed	-0.002197738
18	0x3e51892d	0.20462485
19	0xbde02a96	-0.109456226
20	0xbd24fa7b	-0.04027794
21	0x3dfd63b2	0.12372531
22	0x3ca2ed28	0.019888476
23	0x3d4dbf28	0.05023113
24	0x3c073334	0.008251954
25	0xbce83301	-0.028344633
26	0xbbd667cc	-0.0065431353
27	0xbd6f4ca9	-0.05842272
28	0x3d008d28	0.031384617
29	0xbede63da	-0.43435556
30	0xbd58f8d9	-0.052971695
31	0xbd53d1ca	-0.051713742
32	0xbbe0a067	-0.006855059
33	0x3d91f6b0	0.0712713
34	0xbcbe3fdc	-0.02322381
35	0xbad4d13a	-0.0016236671
36	0xbea6595f	-0.3249006
37	0x3d723cc9	0.05914
38	0x3bdae10c	0.0066796597
39	0x3ca8ab15	0.02058939
40	0xbdc46e67	-0.0959137
41	0x3deeb524	0.116556436
42	0xbdac8e36	-0.08425562
43	0xbf02dae3	-0.51115245
44	0xbd310394	-0.043216303
45	0xbc27951f	-0.010228424
46	0x3cfbc888	0.03073527
47	0xbd44a01c	-0.048004255
48	0x3d8a1140	0.067415714
49	0xbd5ddfa0	-0.054168344
50	0x3e486b79	0.19572248
51	0x3ab5cf80	0.0013871044
52	0xbd2c2ad4	-0.04203303
53	0xbd29e560	-0.041478515
54	0xbdd5967c	-0.10429093
55	0x3d778d00	0.060437202
56	0xbce3be5b	-0.02780073
57	0x3dd3a814	0.10334793
58	0xbd87930c	-0.06619844
59	0xbdc5322e	-0.09628712
60	0x3d50e5ba	0.051000334
61	0xbdad5ce7	-0.08464985
62	0x3ddeb9ad	0.108752586
63	0xbf17f077	-0.59351295
64	0x3e06d82b	0.13168399
65	0xbd87636a	-0.066107586
66	0xbeac4cfe	-0.3365249
67	0x3dfdd1b4	0.12393513
68	0xbf2cf73f	-0.6756477
69	0xbdc7deac	-0.09759268
70	0xbd8aed04	-0.067834884
71	0xbe37306c	-0.17889565
72	0x3c3f6548	0.011681862
73	0xbe3bcaa1	-0.18339016
74	0xbe8de797	-0.27715752
75	0xbd05ec60	-0.032696128
76	0xbe8fee72	-0.28111607
77	0xbe2ae9b8	-0.16690719
78	0x3c5a8ee0	0.013339728
79	0xbd8fbabb	-0.07018038
80	0x3c04bc95	0.008101602
81	0xbe1b6cd7	-0.15178238
82	0x3db414b9	0.08793015
83	0xbea3dc65	-0.32004085
84	0xbe56b324	-0.20966774
85	0xbd6f1700	-0.058371544
86	0xbd3c338c	-0.045947596
87	0x3cf67708	0.030086055
88	0x3e1f479f	0.15554665
89	0xbe4474bc	-0.19185156
90	0xbd92c4e3	-0.071664594
91	0x3d2acdca	0.041700162
92	0x3c3bf110	0.011471048
93	0xbf0d25e7	-0.5513596
94	0xbdb0f15b	-0.08639785
95	0xbe1b86b6	-0.15188107
96	0xbda73723	-0.08164813
97	0xbe026326	-0.12733135
98	0x3d3eeb83	0.04661132
99	0x3d546198	0.051850885
100	0xbe2a2f3c	-0.16619581
101	0xbce9be5c	-0.028533153
102	0x3d427162	0.04747141
103	0x3ca80d52	0.020514164
104	0x3dd7679a	0.10517807
105	0x3d8fc6bf	0.0702033
106	0x3da466c4	0.080274135
107	0xbf252de0	-0.64523125
108	0x3d9a9b6c	0.075491756
109	0x3d86c35c	0.065802306
110	0xbda0cfc2	-0.07852127
111	0xbd4d1c06	-0.050075553
112	0xbdad6172	-0.08465852
113	0x3d87034e	0.06592427
114	0xbe1b908b	-0.15191858
115	0x3db1c100	0.0867939
116	0xbe5e7be0	-0.21726942
117	0xbdb4a6c0	-0.088208675
118	0x3db83620	0.089946985
119	0xbdfe09a8	-0.124041855
120	0x3dd2866f	0.102795474
121	0xbd2d19d4	-0.04226096
122	0xbd05355b	-0.032521587
123	0xbdd319c0	-0.10307646
124	0x3d8f7397	0.07004469
125	0x3cff56fe	0.03116941
126	0x3c3e2b20	0.0116069615
127	0xbf21d4ac	-0.63215137
128	0xbdc62dde	-0.09676717
129	0xbddba454	-0.107247025
130	0x3d9cef89	0.07662875
131	0xbdc276fd	-0.094953515
132	0xbd95c6f0	-0.07313335
133	0x3d8fc09e	0.07019161
134	0x3d840b68	0.06447488
135	0xbcc2bf67	-0.023772908
136	0x3c979688	0.018504396
137	0xbd84b099	-0.06478996
138	0x3e034472	0.12819079
139	0xbe30bf35	-0.1726044
140	0x3dffe330	0.124945045
141	0xbdeb56c6	-0.1149116
142	0x3db9d122	0.09073092
143	0x3e15c272	0.14624956
144	0x3e05b316	0.13056597
145	0xbca9064e	-0.02063289
146	0xbf1b442a	-0.60650885
147	0xbcad4d5d	-0.021155054
148	0x3d9c338f	0.076270215
149	0x3d3cbac4	0.04607655
150	0xbd13f190	-0.036119044
151	0xbd598e9c	-0.05311452
152	0xbcd24cc1	-0.025671365
153	0x3e4bb2ba	0.19892398
154	0x3cfcdc8b	0.030866882
155	0x3c313dc1	0.010817946
156	0x3dbee2be	0.093205914
157	0xbd5cc3c8	-0.05389765
158	0xbe8fa089	-0.28052166
159	0xbd9adea9	-0.07562
160	0x3dc515b8	0.09623283
161	0xbd46f266	-0.048571013
162	0xbd13e432	-0.036106296
163	0x3ddf721e	0.10910438
164	0xbe10e5c2	-0.14150146
165	0xbdaea2e0	-0.0852716
166	0x3dd95c7a	0.10613342
167	0xbe27f663	-0.16402583
168	0xbe517783	-0.20455746
169	0xbe12fc3f	-0.14354037
170	0xbda10c5e	-0.07863687
171	0xbeb01fdb	-0.34399304
172	0xbd2f9f98	-0.04287681
173	0xbd51178c	-0.051047847
174	0xbd425458	-0.047443718
175	0x3dc8df6b	0.098082386
176	0xbdaf5638	-0.08561367
177	0xbdd63c64	-0.10460737
178	0x3d5021f9	0.05081365
179	0xbddfe27a	-0.10931869
180	0x3e2bb50a	0.1676828
181	0xbd359b74	-0.044337705
182	0x3ce67c71	0.02813551
183	0x3d7b5fd8	0.0613707
184	0xbdbb2899	-0.09138603
185	0x3dad7678	0.08469862
186	0xbb8944b9	-0.0041891006
187	0x3df04100	0.11731148
188	0xbcb13c85	-0.021635303
189	0xbc4f653d	-0.012658414
190	0xbcddac9c	-0.027059846
191	0xbe7d93fd	-0.24763484
192	0xbd9d376c	-0.076765865
193	0x3d84d83e	0.064865574
194	0x3ee57737	0.44817516
195	0x3d93d85d	0.072190024
196	0x3ed8d422	0.42349344
197	0xbdcd057a	-0.1001081
198	0xba9fa280	-0.0012179166
199	0x3d227983	0.039666664
200	0xbd22e476	-0.03976866
201	0x3ea8665b	0.3289059
202	0xbdc367f7	-0.09541314
203	0xbeb416b4	-0.3517357
204	0x3dd7ba48	0.10533577
205	0xbc605976	-0.013693204
206	0x3deae7ba	0.114699796
207	0xbe131852	-0.14364746
208	0xbcc83b4a	-0.024442334
209	0x3d128096	0.03576716
210	0xbf05c228	-0.52249384
211	0x3e3a26db	0.18178885
212	0x3e19bc43	0.15013222
213	0xbdb1ecab	-0.08687719
214	0x3c47e624	0.012200866
215	0x3d90858e	0.070567235
216	0x3e3c9826	0.18417415
217	0x3cb7d14e	0.022438671
218	0x3dd8b608	0.10581595
219	0xbd8a39e8	-0.06749326
220	0x3b7062c0	0.0036679953
221	0x3f111057	0.5666556
222	0xbdef759b	-0.11692353
223	0x3de44b4c	0.11147174
224	0x3e008a3b	0.1255273
225	0xbe140cc6	-0.14457998
226	0x3dd06f26	0.1017745
227	0x3e188b78	0.14896953
228	0x3dc9785d	0.098374106
229	0xbc2710f2	-0.010196911
230	0x3e00726c	0.12543648
231	0xbd9d1b97	-0.07671278
232	0x3cefa769	0.029254632
233	0xbe0ee290	-0.13953614
234	0x3a892600	0.0010463595
235	0xbe4b2d46	-0.19841489
236	0xbc1cb3f0	-0.009564385
237	0x3d4862c7	0.048922326
238	0x3dae605c	0.08514473
239	0x3da62342	0.08112194
240	0xbc982760	-0.018573463
241	0x3d9be8fa	0.07612796
242	0xbe3a179b	-0.18173067
243	0x3d40d4f0	0.047078073
244	0x3e27be9c	0.16381305
245	0xbdcd42a8	-0.10022479
246	0xbd6a3519	-0.057179544
247	0xbd7632bc	-0.060106978
248	0xbe075d66	-0.13219222
249	0x3d375f50	0.04476863
250	0x3d433563	0.047658335
251	0xbd868286	-0.06567864
252	0x3bc7a418	0.0060925595
253	0xbe0c05c2	-0.13674071
254	0x3d65b91f	0.05608475
255	0xbdddc847	-0.108292155

models.524287.layers.3.bias f4 [32]
0	0x3e885723	0.2662898
1	0x3d9e5f71	0.07733048
2	0x3c4c8e04	0.012485031
3	0xbd50eca4	-0.051006928
4	0xbd813c7e	-0.06310366
5	0x3d46836e	0.048465185
6	0xbd693f31	-0.05694503
7	0x3d0eeb97	0.034892645
8	0xbcedd546	-0.02903236
9	0x3d98fa98	0.07469672
10	0xbd8060f9	-0.06268496
11	0x3e6461c0	0.22302914
12	0xbdfbe446	-0.12299399
13	0x3e8c285e	0.27374548
14	0xbd2ca06e	-0.042145185
15	0xbdba02f5	-0.09082595
16	0xbdd10e10	-0.1020776
17	0xbd9371e3	-0.071994565
18	0xbc283aaa	-0.010267893
19	0x3e3787e5	0.17922933
20	0xbcf0a118	-0.02937369
21	0x3eb114f0	0.34586287
22	0x3d02d679	0.03194282
23	0x3e1195bc	0.14217275
24	0xbdd2a903	-0.10286143
25	0xbe96c45a	-0.2944668
26	0xbe08ad88	-0.13347447
27	0x3d2d0efd	0.042250622
28	0x3dbbb16c	0.091647
29	0x3dad2e6a	0.084561184
30	0x3e26e9a9	0.16300072
31	0x3d455960	0.048180938

models.524287.layers.6.weight f4 [16, 32]
0	0x3e0c6c24	0.13713127
1	0xbe3b55b2	-0.18294409
2	0xbd5a5f22	-0.053313382
3	0xbe810aa9	-0.25203446
4	0x3d8ad0fb	0.06778141
5	0xbe03360c	-0.12813586
6	0x3ef4dead	0.47826138
7	0xbd24a588	-0.040196925
8	0x3dd1859a	0.102305606
9	0xbd80f505	-0.06296734
10	0x3e28a538	0.16469276
11	0xbe5fb0f8	-0.21844852
12	0xbde4fed8	-0.1118142
13	0xbe0272b7	-0.12739073
14	0x3e3413ae	0.17585632
15	0x3e19727d	0.1498508
16	0xbea08034	-0.3134781
17	0x3d183d69	0.03716794
18	0x3d957ffb	0.07299801
19	0x3e8a003f	0.26953313
20	0xbea77dbe	-0.3271312
21	0xbc42a6d9	-0.0118806
22	0x3e75b2e0	0.23994017
23	0x3d80e1ac	0.062930435
24	0xbde0811c	-0.10962126
25	0x3dc491a6	0.09598093
26	0x3e44f9da	0.19235936
27	0x3e6fb31f	0.23408173
28	0xbc088554	-0.008332569
29	0x3eab631d	0.33474055
30	0xbe72354b	-0.23653142
31	0x3d8b383a	0.06797834
32	0xbeab719f	-0.33485124
33	0x3d19e476	0.037571393
34	0x3e5b94ba	0.21443453
35	0x3dd6bc9d	0.10485194
36	0x3e309c8c	0.17247218
37	0x3e50670a	0.20351806
38	0x3e95258a	0.29130203
39	0x3e9ad50f	0.30240676
40	0xbe3ad957	-0.18246971
41	0xbdba0164	-0.090822965
42	0xbd920f94	-0.071318775
43	0x3e86295c	0.2620343
44	0xbe0af89d	-0.13571401
45	0x3c008b5f	0.007845729
46	0xbdbf0422	-0.0932696
47	0x3de4048c	0.1113368
48	0x3e8cc078	0.27490592
49	0x3e7ebe0b	0.24877183
50	0x3e3e37df	0.18576
51	0xbe3f17b0	-0.1866138
52	0x3e47d453	0.19514589
53	0x3d0808ed	0.033211637
54	0xbd17b5c3	-0.037038576
55	0x3e513fb0	0.20434451
56	0xbbe95cd5	-0.007121662
57	0xbd12622a	-0.035738148
58	0x3e0f6ea4	0.1400705
59	0x3d8cbd0b	0.068719946
60	0xba542f4d	-0.00080942066
61	0x3e8676de	0.26262563
62	0x3d7ce93b	0.061745863
63	0x3c802d9e	0.015646752
64	0xbd349d0b	-0.04409508
65	0xbe459eef	-0.1929891
66	0x3ecca15a	0.3996685
67	0xbda0b550	-0.078470826
68	0x3eb0fbb7	0.34567043
69	0x3df0a162	0.11749531
70	0x3efeaba5	0.4974033
71	0x3e475d4c	0.19469184
72	0xbe0798dd	-0.13241906
73	0x3db041ad	0.08606277
74	0x3e22cb26	0.15897807
75	0x3d3ce6a8	0.04611841
76	0x3e2579a7	0.16159688
77	0xbdeb99ff	-0.11503982
78	0x3e576688	0.21035206
79	0x3e80e78a	0.2517665
80	0x3eb15916	0.3463828
81	0x3e8078fc	0.25092304
82	0x3e033fef	0.12817357
83	0x3c43a4fb	0.01194119
84	0x3db10123	0.08642795
85	0x3e1af870	0.15133834
86	0x3e4a13dc	0.19734138
87	0x3e4e89ae	0.20169708
88	0x3d59c42f	0.05316561
89	0xbde038cb	-0.109483324
90	0x3eee480a	0.46539336
91	0x3e16add5	0.14714749
92	0xbd6b51ca	-0.057451047
93	0x3e193b38	0.14963996
94	0xbb89ddb3	-0.004207337
95	0x3e450113	0.19238691
96	0x3d8021de	0.0625646
97	0x3ee73931	0.4516082
98	0xbe2f8183	-0.17139249
99	0xbe6c023e	-0.2304773
100	0xbf352983	-0.70766467
101	0x3dd4bff3	0.10388174
102	0xbdb8472b	-0.08997949
103	0xbed46547	-0.41483518
104	0xbe4b0a46	-0.19828138
105	0xbe866b19	-0.26253584
106	0xbf127f73	-0.5722572
107	0x3e3b54b9	0.18294038
108	0xbde499cb	-0.11162146
109	0x3efb271d	0.4905328
110	0xbeeb1c04	-0.45919812
111	0xbef8c8b7	-0.48590633
112	0xbec3f080	-0.38269424
113	0xbe3dd7f0	-0.18539405
114	0xbe96a839	-0.2942522
115	0x3e9043b7	0.28176662
116	0xbe8d6ef8	-0.27623725
117	0x3ebe72eb	0.3719705
118	0xbe521bbc	-0.20518392
119	0xbe450244	-0.19239146
120	0xbe86b82e	-0.26312393
121	0xbefb11cc	-0.49037015
122	0xbefb400c	-0.490723
123	0xbed5b839	-0.41742113
124	0x3e91c54a	0.28470832
125	0x3e08cd10	0.13359475
126	0xbddf0607	-0.108898215
127	0xbee4cae1	-0.44686034
128	0xbd90453a	-0.07044454
129	0x3ec62691	0.387013
130	0xbe410866	-0.1885086
131	0xbe9659c1	-0.29365352
132	0xbf178a6a	-0.5919558
133	0x3d935759	0.071943946
134	0xbd8481be	-0.06470059
135	0xbe77d504	-0.24202353
136	0xbe6292e5	-0.22126348
137	0xbe89c001	-0.269043
138	0xbf19042c	-0.5977199
139	0x3e2e0772	0.16995028
140	0x3e0f0035	0.13964923
141	0x3f0cbc77	0.54975075
142	0xbe9e549e	-0.30923933
143	0xbec8b0e6	-0.39197463
144	0xbe8c32d2	-0.27382523
145	0xbe902410	-0.28152514
146	0xbeed721e	-0.46376127
147	0x3eaeaf38	0.34118056
148	0xbeefd34e	-0.468409
149	0x3ec09cff	0.3761978
150	0xbecbbc43	-0.3979207
151	0xbf0801fd	-0.53128034
152	0xbe0238b2	-0.1271694
153	0xbeef0765	-0.4668533
154	0xbe889d06	-0.266823
155	0xbf0aad61	-0.54170805
156	0x3e8779a4	0.26459992
157	0xbd7ee898	-0.062233537
158	0xbe330a71	-0.17484452
159	0xbed3ba76	-0.41353196
160	0xbe39bfa5	-0.18139513
161	0xbdead4fb	-0.11466404
162	0x3ed6a8bd	0.41925612
163	0x3d6ad669	0.057333384
164	0x3eb9e651	0.3630853
165	0x3e07a089	0.13244833
166	0x3f0a810c	0.5410316
167	0x3e596a72	0.21232012
168	0xbd0d479e	-0.034492128
169	0xbc0d8223	-0.008636984
170	0x3e41d286	0.18927965
171	0x3e113f81	0.14184381
172	0xbc4713d3	-0.012150723
173	0x3cf8d2eb	0.030374011
174	0x3e623a85	0.22092636
175	0x3e90d55d	0.28287783
176	0x3da4503c	0.08023116
177	0x3e186624	0.14882714
178	0xbd2a1d30	-0.04153174
179	0xbe0a927f	-0.13532446
180	0x3e59400f	0.21215843
181	0x3da3aa2c	0.07991442
182	0x3e32de00	0.17467499
183	0xbce768a2	-0.028248135
184	0x3b25964f	0.0025266593
185	0x3a1e28fd	0.00060333294
186	0x3eb58530	0.35453176
187	0x3e407e3e	0.18798158
188	0xbd55e1e1	-0.052217368
189	0x3ea2894f	0.31745383
190	0x3d5e8ff4	0.054336503
191	0x3e5e0b1b	0.21683924
192	0xbc0722eb	-0.008248071
193	0xbe1e5a4d	-0.15464135
194	0x3ecd8e18	0.4014747
195	0x3e75cdf5	0.24004348
196	0x3ea1bf54	0.31591284
197	0x3d975302	0.07388879
198	0x3f25ded4	0.64793134
199	0x3e4bb907	0.19894801
200	0xbd9adbf4	-0.07561484
201	0xbd96aea9	-0.073575325
202	0x3e898f24	0.2686702
203	0x3e4f76a0	0.20260096
204	0xbdee2287	-0.11627679
205	0xbdf0f9fa	-0.11766429
206	0x3e3b9a53	0.18320589
207	0x3ef32a48	0.47493196
208	0x3e7e4cf8	0.24834049
209	0x3e690bd6	0.22758421
210	0x3e567499	0.20942916
211	0xbd4ee8f7	-0.05051514
212	0x3e941bfa	0.28927594
213	0x3de92a2a	0.11384995
214	0x3c544a8b	0.012957226
215	0x3dc7045e	0.0971763
216	0x3e0fefe1	0.1405635
217	0xbd86c2f0	-0.0658015
218	0x3e1f7397	0.15571438
219	0x3df1f200	0.11813736
220	0xbd3bfe7f	-0.045897003
221	0x3e927d40	0.28611183
222	0x3e0794a8	0.13240302
223	0x3ea08b8f	0.31356475
224	0x3e09e9f3	0.13468151
225	0xbe564188	-0.20923436
226	0x3e90fea9	0.2831929
227	0x3e5cdc66	0.2156845
228	0x3e808933	0.25104675
229	0x3c83b05a	0.016075302
230	0x3eddcd3b	0.4332064
231	0x3ea134ea	0.31485683
232	0x3e0ab5f5	0.13545974
233	0xbd47a603	-0.048742305
234	0x3e56fcf1	0.20994927
235	0x3e33e72b	0.17568652
236	0x3df47973	0.11937227
237	0xbe08a409	-0.13343824
238	0x3e63d2fb	0.22248451
239	0x3ea8d6d7	0.3297641
240	0x3ed3a902	0.4133988
241	0x3e0903fb	0.13380425
242	0xbaf5a7e2	-0.001874205
243	0x3d3fba45	0.0468085
244	0x3d47a090	0.04873711
245	0x3c9ecb59	0.019384073
246	0x3e246089	0.1605245
247	0x3e89a96f	0.2688708
248	0x3d6c2cf6	0.057660066
249	0x3e20a47c	0.15687746
250	0x3e6b02fe	0.2295036
251	0x3e2c18bd	0.16806312
252	0xbdeff68b	-0.11716946
253	0x3e689dce	0.22716448
254	0x3e3d05f6	0.18459305
255	0x3eb9dcbc	0.3630122

models.524287.layers.6.bias f4 [16]
0	0xbdd49ef7	-0.10381883
1	0x3d1df881	0.03856707
2	0xbd43c329	-0.04779354
3	0x3f214197	0.6299071
4	0x3ef5312e	0.47889084
5	0xbd09871c	-0.033576116
6	0xbe03f5ba	-0.12886706
7	0xbdf1aeef	-0.11800944
8	0xbe8b8e73	-0.27257118
9	0xbd57c7e2	-0.052680857
10	0x3da85fde	0.0822141
11	0x3b95959c	0.004564954
12	0x3efed019	0.4976814
13	0x38bc1949	8.969248e-05
14	0x3f073bf6	0.5282587
15	0xbe0cbaa1	-0.13743068

models.524287.layers.9.weight f4 [1, 16]
0	0xbeea2370	-0.45730162
1	0xbebbd459	-0.36685446
2	0xbed08098	-0.4072311
3	0x3f38198b	0.71913975
4	0x3f531356	0.8245138
5	0xbee21199	-0.4415405
6	0xbe688ddc	-0.22710365
7	0xbe1c2cbc	-0.1525144
8	0xbf024a80	-0.5089493
9	0xbe957aa0	-0.29195118
10	0xbe99b154	-0.30018103
11	0xbea47617	-0.32121345
12	0x3f531c88	0.8246541
13	0xbebb79c4	-0.36616337
14	0x3f3cb7f3	0.73718184
15	0xbee3aa4c	-0.44465864

models.524263.layers.0.weight f4 [64, 17]
0	0x3d3a6c90	0.04551369
1	0xbe0aaaa4	-0.13541657
2	0xbd096328	-0.03354183
3	0xbe487cf9	-0.19578923
4	0xbc4cb320	-0.012493879
5	0x3df588ec	0.119890064
6	0x3d4f4c50	0.050609887
7	0x3ca4b520	0.020105898
8	0x3df36f84	0.11886504
9	0xbe331667	-0.17489015
10	0xbe04f905	-0.12985618
11	0xbdd263c8	-0.10272938
12	0xbe0dcf14	-0.13848525
13	0xbe114e6c	-0.14190072
14	0x3e11ad62	0.14226297
15	0x3e0fa33e	0.14027116
16	0xbde33510	-0.11094105
17	0x3e33abaa	0.17545953
18	0x3d22d060	0.039749503
19	0xbdc6aa54	-0.09700456
20	0x3cdac230	0.026703924
21	0xbe4eb9c0	-0.20188046
22	0x3e6a819a	0.22901002
23	0x3e283088	0.16424763
24	0xbdda272a	-0.10652001
25	0x3dd70478	0.10498899
26	0x3e226518	0.15858877
27	0xbd8ef6bc	-0.069806546
28	0xbd83c58a	-0.06434162
29	0x3e16076c	0.14651269
30	0xbde93248	-0.113865435
31	0xbd65951c	-0.056050405
32	0x3e170cce	0.14750978
33	0x3cbe3150	0.023216873
34	0xbd83b6de	-0.064313635
35	0x3e239614	0.15975219
36	0xbe1cdfe0	-0.15319777
37	0xbcf40a80	-0.029790163
38	0xbd304a10	-0.04303938
39	0xbe4e7345	-0.2016116
40	0x3e01cd2c	0.12675923
41	0xbd896032	-0.06707801
42	0x3e5be5fa	0.21474448
43	0x3e20bdbc	0.15697378
44	0x3d2e0348	0.042483598
45	0x3daf8cb4	0.08571759
46	0x3e1f0296	0.1552833
47	0xbdbe9b88	-0.09307009
48	0xbe2ff74b	-0.17184179
49	0xbca94ff8	-0.020668015
50	0x3daf04f0	0.08545864
51	0xbd4e4784	-0.05036117
52	0xbe75be4d	-0.23998375
53	0x3c2f32e0	0.010693282
54	0x3d4548d0	0.048165143
55	0x3e5fde98	0.21862257
56	0x3dba3b78	0.09093374
57	0x3e73471a	0.23757592
58	0x3df95a00	0.12175369
59	0x3d7398d8	0.059471935
60	0x3e3d34a8	0.18477118
61	0x3dc7bf08	0.09753233
62	0x3e15bdb6	0.1462315
63	0xbe156006	-0.14587411
64	0xbe70c666	-0.23513183
65	0xbdb38b10	-0.087667584
66	0xbc25adb0	-0.010112211
67	0x3d8ab0c4	0.067719966
68	0x3e0f080c	0.13967913
69	0x3de72f4c	0.11288318
70	0xbd89eb6a	-0.06734355
71	0x3deed08c	0.11660871
72	0xbe5fca72	-0.2185457
73	0x3e1d5fde	0.15368602
74	0xbe48cd9f	-0.19609688
75	0xbdeb806a	-0.114991024
76	0xbe39d6c6	-0.18148336
77	0x3de8e2a0	0.1137135
78	0xbe189105	-0.1489907
79	0x3e554edc	0.20830864
80	0x3e720d56	0.236379
81	0xbe44ee63	-0.19231562
82	0xbded0e8a	-0.11575039
83	0xbe683820	-0.2267766
84	0x3df1a83c	0.11799666
85	0xbf4f376f	-0.8094396
86	0xbec70517	-0.3887107
87	0x3d4d311a	0.050095655
88	0xbe29c671	-0.16579606
89	0xbee29b2d	-0.44259015
90	0xbe1cf6a4	-0.15328461
91	0x3ab8220c	0.0014048233
92	0xbde747b7	-0.112929754
93	0xbfb85200	-1.4400024
94	0x3e8d00e9	0.27539757
95	0x3e394e19	0.18096198
96	0x3d98d4d3	0.07462468
97	0xbe25c02a	-0.16186586
98	0xbbaaa876	-0.0052080704
99	0xbda1fad8	-0.07909173
100	0x3e88e57c	0.26737583
101	0xbd9b7af8	-0.07591814
102	0x3d0d85fd	0.03455161
103	0x3ec9d3ae	0.3941931
104	0x3d4d519e	0.050126664
105	0x3ea38919	0.31940535
106	0x3e1b92c5	0.15192707
107	0xbe93bcf1	-0.28855088
108	0xbe9bd9e0	-0.30439663
109	0xbe327f5d	-0.17431398
110	0xbec9690a	-0.3933795
111	0xbeda32f9	-0.42617014
112	0xbe058838	-0.13040245
113	0x3d667330	0.056262195
114	0xbdf73ff6	-0.120727465
115	0xbc990a82	-0.018681768
116	0x3e895720	0.26824284
117	0xbd680fc5	-0.056655664
118	0xbd34ff96	-0.04418906
119	0xbe26ec8e	-0.16301176
120	0x3e2b055a	0.1670126
121	0xbe3aa37b	-0.18226425
122	0x3e6aa4cc	0.22914428
123	0xbe4e3c0a	-0.2014009
124	0xbddc518a	-0.1075774
125	0xbd371dfc	-0.04470633
126	0x3e32e6ee	0.17470905
127	0xbe32cf53	-0.174619
128	0x3cd882c0	0.026429534
129	0x3e106168	0.14099658
130	0x3da78f5c	0.081816405
131	0x3e491394	0.19636375
132	0xbdb5320c	-0.08847436
133	0x3da1e8a0	0.07905698
134	0x3dca4c28	0.09877807
135	0xbd186d18	-0.037213415
136	0x3ea62a14	0.32453978
137	0xbe58ba26	-0.2116476
138	0x3baaf849	0.005217586
139	0x3f413f14	0.75486875
140	0x3efd8b34	0.49520266
141	0xbc8a6b36	-0.016896825
142	0x3da1474b	0.07874926
143	0x3c51fa58	0.012816034
144	0x3e85fefc	0.261711
145	0xbe05dcb4	-0.13072473
146	0x3db203ff	0.086921684
147	0x3c9e582e	0.019329157
148	0x3d2cc9a1	0.042184476
149	0xbbc204dd	-0.00592099
150	0x3e2f8944	0.17142206
151	0x3bf2ac37	0.0074057835
152	0xbdb9cf87	-0.09072786
153	0xbd8c489c	-0.06849787
154	0xbdc6c8a4	-0.09706238
155	0xbb8ef5fd	-0.00436282
156	0xbdf11bc9	-0.11772878
157	0xbd58996f	-0.0528807
158	0x3c901549	0.017588275
159	0x3c9578f9	0.01824616
160	0xbe3ca369	-0.18421711
161	0xbd9475f8	-0.07249063
162	0x3d920b08	0.0713101
163	0x3e2659a9	0.1624514
164	0xbea6334e	-0.32461017
165	0xbd5e354a	-0.05425004
166	0xbcaed0d8	-0.021339819
167	0x3e804bc2	0.250578
168	0xbd8e7f6f	-0.069579
169	0xbe3dccdf	-0.18535183
170	0xbe4e709f	-0.20160149
171	0x3c81962b	0.015818676
172	0xbe8ded9d	-0.27720347
173	0xbe7987b1	-0.24368168
174	0xbf0043bb	-0.5010335
175	0xbe8d05f3	-0.275436
176	0x3e0e5b57	0.13902031
177	0x3dedde16	0.11614625
178	0xbf654880	-0.8956375
179	0xbe681003	-0.22662358
180	0xbe24e34e	-0.16102335
181	0xbe6188cd	-0.22024842
182	0x3d88cc05	0.06679539
183	0x3bf736dd	0.007544382
184	0x3e4f3d80	0.20238304
185	0x3e0ab21a	0.13544503
186	0xbe7a232c	-0.2442748
187	0x3f107a34	0.5643647
188	0xbe2b5464	-0.16731411
189	0x3a9f9c7a	0.0012177371
190	0xbecca1ab	-0.39967093
191	0xbf0cf1ed	-0.5505665
192	0x3ccf6ab7	0.02531944
193	0xbd2de6b0	-0.04245633
194	0x3dbc2a42	0.091877475
195	0x3f6bbf11	0.9208842
196	0x3cb494c7	0.022043599
197	0xbe042a89	-0.12906851
198	0xbd8592a6	-0.065221116
199	0xbd1522ad	-0.036410023
200	0x3ae5e1e1	0.0017538631
201	0x3e32a618	0.17446172
202	0xbec3c3cb	-0.38235316
203	0x3e000caf	0.12504838
204	0xbfc14853	-1.5100197
205	0x3dc298a7	0.095017724
206	0xbbb9342c	-0.0056519713
207	0x3f24fb6a	0.6444613
208	0x3f2b670b	0.66954106
209	0xbe095f18	-0.13415182
210	0x3d29c7d4	0.041450337
211	0xbd83ee92	-0.06441988
212	0xbf495126	-0.7863945
213	0xbd9d67c7	-0.076858096
214	0x3e23143c	0.15925688
215	0x3cae796c	0.021298133
216	0x3d0cd2fe	0.034380905
217	0xbbd1f80d	-0.006407744
218	0x3dae3ae5	0.08507327
219	0xbe1f46d2	-0.1555436
220	0x3d67dba1	0.05660594
221	0x3f6b6870	0.91956234
222	0xbe967d51	-0.29392484
223	0xbc942548	-0.018084183
224	0x3d5c610b	0.053803485
225	0x3db52539	0.0884499
226	0xbd8d4732	-0.06898345
227	0xbb5abdc9	-0.003337728
228	0xbe403ee3	-0.1877399
229	0x3fa9cc25	1.3265425
230	0x3e12fc3a	0.1435403
231	0x3dea1943	0.114305995
232	0x3d8df3a2	0.06931235
233	0x3e5d40bb	0.21606724
234	0x3b87d1d6	0.0041448874
235	0x3d897b64	0.06712988
236	0xbe854e04	-0.26036084
237	0xbda65f41	-0.08123637
238	0xbe38f028	-0.18060362
239	0xbe90a959	-0.28254202
240	0x3a292130	0.00064517837
241	0xbf90be3e	-1.1308057
242	0xbf689c21	-0.90863234
243	0xbcfe0b05	-0.031011114
244	0xbd86a442	-0.065742984
245	0xbd3bd878	-0.045860738
246	0xbf91a6d9	-1.1379043
247	0xbdb9bec7	-0.09069591
248	0xbcc5e228	-0.024155691
249	0x3d9ce491	0.07660783
250	0x3df6fe5f	0.12060236
251	0x3c92eaa0	0.017934144
252	0xbd5958c3	-0.053063165
253	0xbe2bc9bc	-0.16776174
254	0xbe3ab05b	-0.18231337
255	0xbd0e7e1c	-0.034788236

models.524263.layers.0.bias f4 [64]
0	0x3bb8dc00	0.0056414604
1	0xbe235f48	-0.15954316
2	0x3e14d072	0.1453264
3	0x3cad1f70	0.021133155
4	0x3e4451d8	0.19171846
5	0x3d88a90c	0.06672868
6	0xbd920745	-0.07130293
7	0x3d850278	0.064946115
8	0xba99e64f	-0.0011741611
9	0xbe12555e	-0.14290377
10	0xbeb00f2e	-0.3438658
11	0xbeafd715	-0.34343782
12	0xbdf4da37	-0.11955684
13	0xbc852f4f	-0.01625791
14	0xbd43a7c5	-0.04776742
15	0x3d678128	0.056519657
16	0xbe498036	-0.19677815
17	0xbea55a58	-0.3229549
18	0x3c81e42b	0.01585587
19	0xbe992db0	-0.2991767
20	0xbee3c751	-0.44488004
21	0xbd308c30	-0.043102443
22	0xbcb5fd4e	-0.022215512
23	0xbd099dc8	-0.033597738
24	0xbe0989bb	-0.13431446
25	0xbb7303d1	-0.0037081132
26	0xbe327f97	-0.17431484
27	0x3e052b7a	0.13004866
28	0xbd62b970	-0.05535263
29	0xbe0cd1b4	-0.1375187
30	0x3c63fd44	0.013915364
31	0xbb5174c0	-0.0031960458
32	0xbd8a6e14	-0.06759277
33	0xbd1661b4	-0.03671427
34	0xbdc89a4c	-0.09795055
35	0xbc937c00	-0.018003464
36	0x3e1d33b0	0.15351748
37	0x3d6e47b8	0.058173865
38	0x3d40d8b8	0.04708168
39	0x3dc90d01	0.098169334
40	0xbbea8fc0	-0.0071582496
41	0xbd8c8242	-0.06860782
42	0x3d560700	0.05225277
43	0x3e5d00e2	0.21582368
44	0xbecabb9c	-0.3959626
45	0x3c8ef07f	0.017448662
46	0xbe01d136	-0.12677464
47	0xbec7ca6d	-0.39021626
48	0xbc6d8d07	-0.014498956
49	0x3dea2305	0.11432461
50	0xbe574815	-0.21023591
51	0xbe571f99	-0.21008147
52	0xbe1cc36c	-0.15308923
53	0x3dcee42a	0.101021126
54	0x3e1c6a1e	0.15274855
55	0xbe68623f	-0.22693728
56	0xbebbb8f1	-0.36664537
57	0x3d85d34b	0.065344416
58	0xbe9a5116	-0.3013999
59	0xbdb14c64	-0.086571485
60	0xbdb8f4d2	-0.09031071
61	0x3cb3e570	0.02195999
62	0x3e1ea1f2	0.15491465
63	0xbeb58c05	-0.3545839

models.524263.layers.3.weight f4 [32, 64]
0	0xbc8aab18	-0.016927287
1	0xbd80d1a8	-0.06289989
2	0xbd303bb8	-0.043025702
3	0xbde1b8f6	-0.110216066
4	0xbc938dd0	-0.018011957
5	0x3e299cdc	0.16563743
6	0xbd937c22	-0.07201411
7	0xbc32bfb0	-0.01090996
8	0xbd0eec5e	-0.034893386
9	0xbe006905	-0.12540062
10	0xbca6a8d7	-0.020344181
11	0x3e0ef7ae	0.1396167
12	0xbeecdf9d	-0.46264353
13	0x3c0e3734	0.008680154
14	0xbd2a32a5	-0.041552205
15	0x3dc7f884	0.097641975
16	0xbd81c5fe	-0.06336592
17	0x3deea603	0.11652758
18	0xbe877f68	-0.2646439
19	0x3dda3f03	0.1065655
20	0x3c26c416	0.0101785865
21	0xbeb1db54	-0.34737647
22	0x3da7c36b	0.0819157
23	0xbd98cb28	-0.07460624
24	0x3ded00d4	0.115724236
25	0xbe755a15	-0.23960145
26	0xbd7ea7f7	-0.062171903
27	0xbec660fb	-0.38745865
28	0x3da5fb54	0.08104578
29	0x3dc3132f	0.09525143
30	0xbeae4565	-0.3403732
31	0x3d93364e	0.07188092
32	0xbe7ae53c	-0.24501508
33	0xbdbe6f32	-0.092985526
34	0x3d8b3760	0.06797671
35	0x3ce7a1b8	0.028275356
36	0xbc9c9278	-0.01911281
37	0xbc6df100	-0.014522791
38	0xbdc15e84	-0.094418555
39	0xbf1dc2e3	-0.616255
40	0xbcf26148	-0.029587403
41	0x3d543c8c	0.051815554
42	0x3cda6b08	0.026662365
43	0x3db62a36	0.0889477
44	0xbcc055cc	-0.023478411
45	0x3db7fc2c	0.08983645
46	0xbd84b579	-0.06479926
47	0x3c334803	0.010942462
48	0xbeb5a692	-0.35478646
49	0x3cc9a23f	0.024613498
50	0x3d88507a	0.06655975
51	0xbd2f7018	-0.04283151
52	0x3dd69712	0.10478033
53	0xbf530ed5	-0.82444507
54	0x3dd64924	0.10463169
55	0x3c4a3c09	0.012343415
56	0xbe193d19	-0.14964713
57	0xbd0312b5	-0.032000262
58	0xbbe8b308	-0.0071014203
59	0x3c0a9650	0.008458689
60	0xbd55ccd0	-0.052197278
61	0x3de100fe	0.10986517
62	0xbd5e9b34	-0.054347232
63	0x3daa5ed8	0.08318871
64	0xbdb881b4	-0.09009114
65	0x3d1995f8	0.037496537
66	0xbcc88ba8	-0.024480656
67	0x3c8cf208	0.017205253
68	0x3bd21b60	0.0064119548
69	0x3d5b80a4	0.053589478
70	0xbdd865e0	-0.10566306
71	0xbcafef60	-0.021476448
72	0xbdbff8df	-0.0937364
73	0x39a2ecee	0.00031075574
74	0x3d128777	0.03577372
75	0xbcc41b65	-0.023938844
76	0xbe3a8972	-0.18216494
77	0xbbb15856	-0.005412142
78	0x3db06502	0.08613016
79	0xbc9e2730	-0.019305795
80	0x3d9803b4	0.07422581
81	0x3e53f438	0.20698631
82	0x3e95629a	0.2917679
83	0x3d1cbb42	0.03826452
84	0x3dac65cb	0.08417853
85	0x3e97df6f	0.29662654
86	0xbcdbec78	-0.026846156
87	0xbcf0ca58	-0.02939336
88	0xbd8b3612	-0.067974225
89	0x3f4738a6	0.77820814
90	0x3de13d54	0.109980255
91	0x3e4173db	0.18891852
92	0xbd508670	-0.05090946
93	0x3e266e39	0.16252984
94	0x3e9f38f2	0.31098133
95	0xbdaffd86	-0.08593278
96	0x3f2ff347	0.68730587
97	0x3c35e940	0.011102974
98	0x3d6228c0	0.055214643
99	0xbdbf64fe	-0.093454346
100	0xbd4e51a0	-0.050370812
101	0x3d1d0740	0.038336992
102	0xbc1dc190	-0.009628668
103	0x3f0e2707	0.555283
104	0xbd6ef4c8	-0.05833891
105	0x3db176f4	0.08665267
106	0xbd810068	-0.062989056
107	0xbdd994cc	-0.10624084
108	0x3dda79b3	0.106677435
109	0xbc43b613	-0.011945265
110	0x3dc48b01	0.095968254
111	0xbd82b281	-0.06381703
112	0x3e08ab58	0.13346612
113	0xbd0dceaa	-0.03462092
114	0x3cb57130	0.022148699
115	0xbd0b42d3	-0.033999275
116	0xbc332f90	-0.010936633
117	0x3f6c89fe	0.9239806
118	0x3d63b02c	0.055587932
119	0xbdd261f4	-0.10272589
120	0xbaaff44f	-0.001342425
121	0xbb20ab2d	-0.0024516091
122	0x3c2c5c1d	0.010520008
123	0xbc3b22c0	-0.011421859
124	0xbdf905c0	-0.121593
125	0xbc7022c0	-0.014656723
126	0xbbb7caa0	-0.0056088716
127	0x3cac7683	0.021052605
128	0xbc60d800	-0.013723373
129	0xbbc456c0	-0.0059917867
130	0xbc91b060	-0.017784297
131	0xbc9284d0	-0.017885596
132	0x3d580b18	0.052744955
133	0x3d7f614c	0.06234865
134	0x3e2c647e	0.1683521
135	0xbde4958e	-0.11161338
136	0x3d2960bd	0.041352022
137	0xbe0a0225	-0.1347738
138	0x3d939e24	0.07207897
139	0xbcc8c88b	-0.024509689
140	0x3dbe557c	0.092936486
141	0xbcf7e4cb	-0.030260464
142	0xbc51a026	-0.01279453
143	0xbd36bd64	-0.04461421
144	0x3cec1a98	0.028821275
145	0x3e0dbfc5	0.13842686
146	0xbe2031e9	-0.15644039
147	0xbd4ad963	-0.049523722
148	0x3d3aa96e	0.045571737
149	0xbe680ad7	-0.22660385
150	0xbca87ec1	-0.020568253
151	0x3d485cf0	0.048916757
152	0xbd8fab6a	-0.070151165
153	0x3efa7e6c	0.48924577
154	0xbca4a39a	-0.020097543
155	0x3e1633c8	0.1466819
156	0xbdef2d30	-0.11678541
157	0xbdbd4eea	-0.09243567
158	0x3e6b42b8	0.2297467
159	0xba815580	-0.00098674
160	0x3e3afb47	0.18259917
161	0x3d98f804	0.0746918
162	0x3da197e0	0.07890296
163	0xbddb0c44	-0.10695699
164	0xbd179700	-0.03700924
165	0x3d6fc4f4	0.05853744
166	0x3d556d18	0.052105993
167	0x3ee1b552	0.4408365
168	0xbc557190	-0.013027564
169	0x3dd0e39c	0.10199663
170	0xbdaf9644	-0.08573583
171	0xbb4a9940	-0.0030914098
172	0x3d8ec3b8	0.06970924
173	0xbcbd41e9	-0.023102717
174	0x3d7da2c3	0.0619228
175	0x3cb71a38	0.02235137
176	0x3e62bc01	0.2214203
177	0x3d0b2423	0.03397001
178	0xbdef5836	-0.11686747
179	0x3dcd33b0	0.10019624
180	0x39f11000	0.00045979023
181	0x3f01f5e9	0.50765854
182	0xbd576968	-0.052590758
183	0x3df8e07e	0.121521935
184	0x3dfae5e8	0.122508824
185	0xbd1efb71	-0.038814012
186	0xbeac3e08	-0.33641076
187	0xbd82a600	-0.06379318
188	0xbd8d2558	-0.068918884
189	0x3df587a6	0.119887635
190	0x3df77442	0.12082721
191	0xbcc7777f	-0.024348972
192	0xbce6fc38	-0.02819644
193	0x3d025da4	0.031827584
194	0x3ddf4e0e	0.109035596
195	0xbd04fe18	-0.032468885
196	0x3de49eae	0.11163078
197	0x3d3415d4	0.04396613
198	0xbdb72ba8	-0.08943874
199	0x3dd7cc84	0.10537055
200	0x3e15193d	0.14560409
201	0xbdbb1132	-0.09134139
202	0xbd331d96	-0.043729387
203	0x3c7b23a0	0.015328318
204	0xbe769194	-0.24078971
205	0x3db8b494	0.090188175
206	0xbe3b2f10	-0.18279672
207	0x3a7deb00	0.0009686202
208	0x3d4302d0	0.047610104
209	0xbe2e8fa8	-0.17046988
210	0xbdd3cbe2	-0.10341622
211	0x3bc073ad	0.0058731646
212	0xbdc4c1f0	-0.09607303
213	0xbe3c442b	-0.18385379
214	0x3d31753e	0.0433247
215	0x3cf64900	0.030064106
216	0xbdd7f114	-0.10544029
217	0xbe473116	-0.19452319
218	0xbd83a0b8	-0.06427139
219	0xbee5c4ef	-0.4487681
220	0xbde64ac0	-0.11244726
221	0xbe81caf9	-0.25350168
222	0x3e47fcf4	0.19530088
223	0x3b734000	0.0037117004
224	0x3c63f135	0.013912489
225	0xbd415824	-0.047203198
226	0xbdc77e88	-0.09740931
227	0xbd91be18	-0.07116336
228	0xbdb7e296	-0.08978765
229	0xbd27cafc	-0.040965065
230	0x3d228dd0	0.039686024
231	0xbe6b0b6a	-0.22953573
232	0xbd9b16d8	-0.075727165
233	0x3db78114	0.089601666
234	0xbdae3d7a	-0.085078195
235	0xbc9121e0	-0.017716348
236	0xbde04552	-0.10950722
237	0x3e120747	0.14260589
238	0x3d8aa2af	0.06769311
239	0x3d94f83f	0.07273912
240	0xbeb95eaa	-0.36205035
241	0x3e3909db	0.18070166
242	0xbdad9f76	-0.084776804
243	0xbd6c2431	-0.057651702
244	0x3d21a008	0.03945926
245	0xbeecaf5c	-0.4622754
246	0x3d5b62a8	0.053560883
247	0xbd283193	-0.041062903
248	0xbe3e19c4	-0.18564516
249	0xbdcf8ff6	-0.1013488
250	0xbd85ec1f	-0.06539177
251	0x3dc9dd92	0.09856714
252	0xbdb4128e	-0.087926015
253	0xbcc21760	-0.023692787
254	0x3df7e90c	0.12104997
255	0x3e00938f	0.12556289

models.524263.layers.3.bias f4 [32]
0	0x3cc33044	0.023826726
1	0xbe7b353d	-0.24532028
2	0x3e010a61	0.12601615
3	0x3e9b6fd1	0.30358747
4	0x3cb6e492	0.022325788
5	0xbd9622e7	-0.07330876
6	0x3e2adae5	0.16685064
7	0x3e6e6d69	0.23283924
8	0x3d0f564f	0.03499442
9	0xbe293251	-0.165231
10	0x3e161932	0.14658049
11	0xbcb79cb7	-0.022413595
12	0xbe356e1f	-0.17717789
13	0x3d5d261e	0.05399143
14	0xbe81c94c	-0.2534889
15	0xbd76a4a0	-0.060215592
16	0xbb02d06f	-0.0019960662
17	0xbe5edcba	-0.21763888
18	0x3dfecbf6	0.12441246
19	0x3eac2d7d	0.33628455
20	0x3d6ec8c2	0.058296926
21	0x3e587ad5	0.21140607
22	0xbd3a30a3	-0.04545654
23	0x3e871305	0.26381698
24	0xbe98eefe	-0.29869837
25	0x3d369f70	0.044585645
26	0xbe8ca355	-0.27468362
27	0x3d8d72a0	0.069066286
28	0xbd05e275	-0.03268667
29	0x3d4a4b4f	0.049388226
30	0x3bc6abb9	0.0060629514
31	0x3dddc56f	0.10828673

models.524263.layers.6.weight f4 [16, 32]
0	0xbe9ea4e1	-0.30985168
1	0x3e8b28d0	0.27179575
2	0x3ded0385	0.11572937
3	0x3e6557c8	0.22396767
4	0x3c9c01dd	0.019043857
5	0xbe09e308	-0.13465512
6	0x3e7b511f	0.24542664
7	0x3dc73661	0.09727169
8	0xbe815ab3	-0.2526451
9	0x3de97cad	0.11400733
10	0xbe63c76f	-0.22244047
11	0x3d9003d4	0.0703198
12	0x3e3c3255	0.18378575
13	0xbe157a24	-0.14597374
14	0x3f0321ad	0.5122326
15	0xbe4bf847	-0.19918929
16	0xbdc1b6ca	-0.09458692
17	0x3e704567	0.23463975
18	0x3cb0f5a4	0.021601506
19	0x3e56d89d	0.20981069
20	0x3daa8a31	0.08327139
21	0xbdb622ac	-0.08893332
22	0x3e56d3ca	0.20979229
23	0x3ed7ff4b	0.4218696
24	0x3ef6121d	0.48060694
25	0x3e095763	0.13412242
26	0x3edd1d69	0.431865
27	0xbdfc7067	-0.123261265
28	0xbd062f20	-0.032759786
29	0x3d13be78	0.036070317
30	0x3dce68a0	0.100785494
31	0xbdbab604	-0.09116748
32	0xbe0b20f8	-0.13586795
33	0x3e96984e	0.29413074
34	0x3e23afbb	0.15985005
35	0xbda016df	-0.07816862
36	0xbd895808	-0.06706244
37	0x3d9d9b4b	0.076956354
38	0x3e81c886	0.253483
39	0x3e8d04af	0.27542636
40	0xbcfa1647	-0.0305282
41	0x3e7c8c4b	0.24662893
42	0xbe115604	-0.14192969
43	0x3e0eb79c	0.13937229
44	0x3e9e288f	0.3089032
45	0xbe455982	-0.19272426
46	0x3e9e854d	0.30961075
47	0xbd9e02bf	-0.077153675
48	0xbcb3b9c6	-0.02193917
49	0x3e8f30a2	0.2796679
50	0x3d08bb13	0.033381533
51	0x3d3a8ade	0.04554259
52	0x3e760be8	0.2402798
53	0xbe0dc1ed	-0.13843508
54	0x3e31470d	0.1731226
55	0x3ea933c6	0.33047312
56	0x3e97a193	0.2961546
57	0x3dc93479	0.098244615
58	0x3eb328fd	0.3499221
59	0xbda328b9	-0.079667516
60	0xbe46af3c	-0.19402784
61	0x3e5262a0	0.20545435
62	0xbdc95704	-0.0983105
63	0xbd9812be	-0.0742545
64	0xbe95d0c3	-0.29260835
65	0x3ef00fc5	0.4688703
66	0xbe0b579f	-0.13607644
67	0x3de88bd0	0.11354792
68	0xbbae8767	-0.0053262
69	0xbceff424	-0.02929122
70	0x3d618c23	0.055065285
71	0x3dce85fb	0.100841485
72	0xbe37a70e	-0.1793482
73	0x3c57aacd	0.013163281
74	0xbe295892	-0.16537693
75	0x3d856fb0	0.06515443
76	0x3e16abe6	0.14714012
77	0xbdd60d05	-0.10451702
78	0x3eb3e280	0.35133743
79	0xbe177610	-0.14791131
80	0x3d53043c	0.05151771
81	0x3e9bd478	0.30435538
82	0x3ec14f29	0.37755707
83	0x3e217cfe	0.15770337
84	0x3e269c38	0.1627053
85	0xbe1b9d37	-0.15196691
86	0xbd5428d0	-0.051796734
87	0x3ec65800	0.38739014
88	0x3ec48dc0	0.38389397
89	0x3e10af0d	0.14129277
90	0x3f062a8c	0.5240867
91	0xbe01dfa5	-0.1268297
92	0xbc078507	-0.008271462
93	0x3e0e129e	0.1387429
94	0x3e084d53	0.13310747
95	0x3d17c1a5	0.03704991
96	0xbe43fbb1	-0.19138981
97	0x3eea1939	0.45722368
98	0xbcd50d2e	-0.026007261
99	0x3e146403	0.14491276
100	0x3dcf6898	0.101273715
101	0x3d5ab6c6	0.053396963
102	0x3e334172	0.17505434
103	0x3dd61af1	0.104543574
104	0xbdf6946d	-0.12040029
105	0x3e1a0832	0.15042189
106	0xbe52d6d9	-0.2058977
107	0x3e02706b	0.12738197
108	0x3eb1ed78	0.34751487
109	0xbd33a569	-0.04385892
110	0x3e5aeaea	0.21378675
111	0xbdd05755	-0.10172907
112	0xbbac3354	-0.005255142
113	0x3dff9f72	0.12481584
114	0x3ed38df2	0.41319233
115	0x3ea40aa2	0.32039362
116	0x3d956d5d	0.0729625
117	0xbe1475c4	-0.14498049
118	0x3d7ef583	0.062245857
119	0x3f03e835	0.51526195
120	0x3f0e2918	0.55531454
121	0xbc6e0e6e	-0.0145298075
122	0x3f011e77	0.5043711
123	0xbe5c95f2	-0.21541575
124	0xbca67e6f	-0.02032396
125	0xbd1dbbe3	-0.03850926
126	0xbde87927	-0.11351233
127	0xbd0efd70	-0.034909666
128	0xbe58bf73	-0.21166782
129	0x3e52d4d5	0.20589001
130	0xbdbc39a9	-0.09190685
131	0x3e6a390b	0.22873323
132	0x3d7b0e97	0.06129321
133	0xbdfbb7c1	-0.12290908
134	0x3d9b51e7	0.07583981
135	0x3e323fc8	0.17407143
136	0xbd1cc282	-0.038271435
137	0x3e31c805	0.17361458
138	0xbe938a3a	-0.28816396
139	0x3e96b8d7	0.29437897
140	0x3ecc3473	0.39883766
141	0xbe4a3402	-0.19746402
142	0x3ecd1353	0.40053806
143	0xbe82a3b4	-0.2551552
144	0xbda894ef	-0.08231532
145	0x3e429fb5	0.19006236
146	0x3e990120	0.2988367
147	0x3e926ebc	0.2860011
148	0x3e7ff78b	0.24996774
149	0xbe966b82	-0.29378897
150	0x3dfdcfd3	0.12393155
151	0x3ed933a6	0.42422217
152	0x3f09b1d9	0.53787
153	0x3dce42d3	0.100713395
154	0x3e8d368a	0.27580673
155	0xbe2f6c33	-0.17131118
156	0xbe10b1d0	-0.1413033
157	0x3e086b8c	0.13322276
158	0x3d69e1a8	0.05709997
159	0x3dbec091	0.09314073
160	0xbe6852ee	-0.22687885
161	0x3ece85fe	0.40336603
162	0xbdaa7144	-0.08322385
163	0x3e6b1e11	0.22960688
164	0xbdddbaba	-0.10826631
165	0xbe1f5d3d	-0.15562911
166	0x3e8d4b4f	0.27596518
167	0x3e9779cc	0.2958511
168	0xbde5721b	-0.112034045
169	0x3e2d9ee0	0.16955137
170	0xbea04541	-0.31302837
171	0x3e151269	0.14557804
172	0x3dcb0663	0.099133275
173	0xbe2e523e	-0.1702356
174	0x3e5a8a11	0.2134173
175	0xbe15d75a	-0.14632931
176	0xbd3c38c8	-0.04595259
177	0x3e95a2ea	0.29225856
178	0x3e8405ae	0.25785583
179	0x3e526675	0.20546897
180	0x3de0b6c0	0.10972357
181	0xbde7967d	-0.11308
182	0x3d83e239	0.06439633
183	0x3ed3607b	0.41284546
184	0x3ee83c3b	0.45358452
185	0x3e206c07	0.15666209
186	0x3e5c1210	0.21491265
187	0xbdeccb74	-0.11562243
188	0x3d992a03	0.07478716
189	0x3dfb45f4	0.12269202
190	0x3ce84c88	0.028356805
191	0xbd268dbc	-0.040662512
192	0xbe4e1798	-0.20126188
193	0x3ee285fb	0.44242844
194	0xbd9f9326	-0.07791738
195	0x3dbcc318	0.09216899
196	0xbcdde3cc	-0.027086161
197	0x3d9afb2b	0.07567438
198	0x3e863621	0.26213172
199	0x3eacfa8a	0.33784896
200	0xbd732a56	-0.059366547
201	0x3dc82fa0	0.09774709
202	0xbe7e6a87	-0.24845324
203	0x3e1d0b22	0.15336278
204	0x3ea39429	0.31948975
205	0xbdf1fcbe	-0.11815785
206	0x3eb30d9a	0.34971315
207	0xbe83cb24	-0.25740921
208	0x3d1220fc	0.035675988
209	0x3e63a3ba	0.22230425
210	0x3e936399	0.28786924
211	0x3e51cbe8	0.2048794
212	0x3c9d69aa	0.019215424
213	0xbddb259f	-0.10700535
214	0x3e0f5cdd	0.14000268
215	0x3e8c2a20	0.2737589
216	0x3f12371c	0.5711534
217	0xbd7af969	-0.061273012
218	0x3ed08637	0.40727398
219	0xbe3c3686	-0.18380174
220	0xbba84b40	-0.0051359236
221	0x3d4e64f3	0.05038924
222	0xbd871819	-0.06596393
223	0xbc7d3e97	-0.015456817
224	0xbdfc5522	-0.12320925
225	0xbe1c6fab	-0.15276973
226	0xbd9d8c24	-0.07692745
227	0xbe39416d	-0.18091364
228	0xbe47c552	-0.19508865
229	0x3dcd8ca2	0.10036589
230	0x3c85eec6	0.016349208
231	0x3c610b60	0.013735622
232	0x3d98dd29	0.07464058
233	0xbdeb06f0	-0.114759326
234	0xbcdde96f	-0.027088849
235	0xbdce23df	-0.100654356
236	0x3dcabd70	0.098994136
237	0xbe276f49	-0.16351046
238	0x3cbec1ea	0.023285825
239	0x3d2638ae	0.040581398
240	0x3d067ae4	0.03283204
241	0xbcd239c9	-0.02566232
242	0x3c2a26f2	0.010385262
243	0xbd866d5e	-0.06563829
244	0x3d37ce01	0.044874195
245	0xbd8350ef	-0.06411921
246	0x3a1d685b	0.0006004625
247	0xbd5d38af	-0.054009136
248	0xbc813aa6	-0.015775036
249	0x3c7d806d	0.015472514
250	0xbe47d078	-0.19513118
251	0x3d859333	0.06522217
252	0x3da33f1d	0.07971022
253	0x3c86cf05	0.016456136
254	0xbd1e6d02	-0.038678177
255	0xbdbd36ea	-0.0923899

models.524263.layers.6.bias f4 [16]
0	0x3e621821	0.22079517
1	0x3df4a659	0.11945791
2	0x3e6ed846	0.2332469
3	0x3d8fc0a5	0.07019166
4	0x3e0a2b55	0.13493092
5	0x3e314a3a	0.17313471
6	0x3e2f9362	0.17146066
7	0xbe368a96	-0.17826304
8	0x3df51659	0.11967153
9	0x3d9cf889	0.07664592
10	0x3ec2d46c	0.3805269
11	0x3e9948d3	0.29938373
12	0x3e8ea124	0.27857316
13	0x3e01cdd4	0.12676173
14	0x3ee6a874	0.45050395
15	0x3e2e0af3	0.16996364

models.524263.layers.9.weight f4 [1, 16]
0	0xbe98aeef	-0.29820964
1	0xbf043d8f	-0.5165643
2	0xbe9b3a88	-0.30318093
3	0xbecfce64	-0.4058715
4	0xbea5c18c	-0.32374227
5	0xbef6fa8d	-0.4823803
6	0xbedb8695	-0.42876115
7	0x3d0e17d5	0.034690697
8	0xbeaa82f4	-0.33303034
9	0x3ec7519c	0.3892945
10	0x3f50c601	0.8155213
11	0xbe80f708	-0.2518847
12	0x3f2a5188	0.66530657
13	0xbf14a337	-0.58061546
14	0x3f3ef3c6	0.7459072
15	0xbec071db	-0.37586865
