models/Delete/antikaon_1.pt (torch, 18925 bytes, 7 tensors)

layers.0.weight f4 [64, 19]
0	0x3f8ccace	1.0999391
1	0x3cdbb1ef	0.026818244
2	0xbdf77bb4	-0.120841414
3	0xbe583468	-0.21113741
4	0x3d83e65a	0.064404204
5	0xbcfad701	-0.0306201
6	0xbe3f1b6f	-0.18662809
7	0xbde78393	-0.11304393
8	0x3d7dcb38	0.061961383
9	0x3d837295	0.06418339
10	0x3f671c3a	0.90277445
11	0xbd13e01e	-0.036102407
12	0x3de69af8	0.11260027
13	0x3c44e6c9	0.012017914
14	0xbdc80476	-0.09766476
15	0x3c72d12e	0.01482038
16	0xbd227c71	-0.039669458
17	0xbe3ad648	-0.18245804
18	0xbe80d817	-0.25164863
19	0x3c397873	0.011320221
20	0x3d75d047	0.060013082
21	0x3e49e2d1	0.1971543
22	0xbdb2e0a6	-0.087342545
23	0x3dff1d14	0.12456718
24	0x3e480c3d	0.19535919
25	0x3e310d98	0.17290342
26	0xbdcc9b02	-0.09990503
27	0x3dcb74a7	0.09934359
28	0x3e008ab9	0.12552918
29	0x3e0e6d67	0.13908921
30	0xbe240cd8	-0.16020525
31	0xbe3d1617	-0.18465458
32	0xbe4d6226	-0.20056972
33	0xbd7768a6	-0.060402535
34	0xbdd826b5	-0.10554258
35	0xbe4bcaf7	-0.19901644
36	0x3dbc55f9	0.091960855
37	0x3e1366f4	0.14394742
38	0x3dd8649c	0.10566065
39	0x3db1b7a4	0.08677605
40	0x3e33b21c	0.17548412
41	0x3d46ac8c	0.048504397
42	0xbe4dd475	-0.20100577
43	0xbe009b6a	-0.12559286
44	0xbe30bb10	-0.17258859
45	0x3d8c5a61	0.06853176
46	0xbe581611	-0.21102168
47	0xbd72df5c	-0.059295043
48	0xbe0e6e3e	-0.13909242
49	0x3e33a915	0.17544968
50	0x3e5ecde4	0.21758229
51	0xbe260fe6	-0.16217002
52	0x3de05da1	0.10955358
53	0xbd82fde1	-0.0639608
54	0xbd366c20	-0.04453671
55	0xbe281318	-0.16413534
56	0x3e316db2	0.17327002
57	0x3fd9801c	1.6992221
58	0xbe82a5d5	-0.25517145
59	0xbc2340ef	-0.009964212
60	0x3df37189	0.118868895
61	0x3ec61ef4	0.3869549
62	0xbed818fd	-0.42206565
63	0xbed1d360	-0.4098158
64	0xbde91d33	-0.113825224
65	0xbde17c20	-0.11010003
66	0xbd37040d	-0.044681598
67	0x3f7a1982	0.9769517
68	0xbd6946b8	-0.05695221
69	0x3e3482b9	0.17627992
70	0xbd02c8ee	-0.031929903
71	0x3d5d0cd2	0.053967305
72	0x3c96bd2d	0.018400753
73	0xbda70037	-0.08154338
74	0x3d1b295d	0.037881244
75	0x3da13aac	0.07872519
76	0xbe646ccd	-0.22307129
77	0xbde74e68	-0.11294252
78	0x3d3120ec	0.043244287
79	0xbe6728c1	-0.2257414
80	0xbd87410a	-0.06604202
81	0xbe5ee1e3	-0.21765856
82	0x3d67059c	0.056401834
83	0x3c38c650	0.01127775
84	0x3e6293ab	0.22126643
85	0x3e616561	0.22011329
86	0x3dbf5e76	0.09344189
87	0x3e0ff547	0.1405841
88	0xbe1d7d7a	-0.15379897
89	0x3e15bd61	0.14623024
90	0x3e4bc061	0.19897605
91	0xbd8e9286	-0.06961541
92	0x3e3d27e3	0.18472247
93	0xbd6473b8	-0.05577442
94	0xbe5be954	-0.21475726
95	0x3e4f1853	0.20224123
96	0x3def70be	0.11691426
97	0xbe5cf449	-0.21577562
98	0x3cfe3858	0.031032726
99	0x3d8246ce	0.06361161
100	0xbc9f82a0	-0.019471467
101	0x3cfb2928	0.030659273
102	0x3e663dd3	0.22484522
103	0x3db783ae	0.08960663
104	0xbdd07758	-0.10179013
105	0x3c6fdf90	0.014640704
106	0x3deafc3e	0.11473893
107	0x3e51435d	0.20435853
108	0x3d90af4a	0.07064684
109	0xbd2033bc	-0.039111838
110	0xbd6f40ec	-0.058411524
111	0xbdee66ae	-0.11640678
112	0x3e01cf27	0.12676679
113	0x3e00bf45	0.12572964
114	0xbed6e1eb	-0.41969237
115	0x3d24c365	0.040225405
116	0x38f707e5	0.00011779348
117	0xbe6f4340	-0.23365498
118	0x3f1f6fcb	0.6227996
119	0xbf844ba8	-1.0335588
120	0xbf2bd4e2	-0.6712171
121	0xbdafcaff	-0.0858364
122	0x3d7aa6ec	0.061194345
123	0xbc835dac	-0.016035877
124	0x3f74e27e	0.956581
125	0xbd47b9ff	-0.048761364
126	0x3da614ce	0.08109437
127	0x3c163ec2	0.009170236
128	0x3c873fc0	0.01650989
129	0x3c41b3f4	0.011822689
130	0xbc1fd717	-0.009755871
131	0xb8afc0cb	-8.380561e-05
132	0xbcc3c805	-0.023899088
133	0x3f06c8b3	0.5264999
134	0xbeb1ef46	-0.34752864
135	0x3cbba1cf	0.022904305
136	0xbd8ca2cb	-0.06866988
137	0x3e1b36d3	0.15157633
138	0xbef57ab8	-0.4794519
139	0xbf1a9415	-0.60382205
140	0x3d7b7ec6	0.061400197
141	0x3e817826	0.25286978
142	0x3e02fdea	0.12792173
143	0x3e6b2592	0.2296355
144	0xbd686cbf	-0.056744333
145	0x3dfec836	0.12440531
146	0x3e1c0b3e	0.15238664
147	0xbd5863c8	-0.052829534
148	0x3c9dffff	0.019287108
149	0xbd5d372f	-0.054007705
150	0xbdfffa82	-0.124989524
151	0xbccd0754	-0.025027908
152	0xbf067301	-0.5251923
153	0xbdbc32f3	-0.09189405
154	0x3ad16a48	0.0015977109
155	0x3c8834a3	0.016626662
156	0xbf2374b6	-0.6384996
157	0xbe2b9e95	-0.16759713
158	0xbe82b2ff	-0.25527188
159	0x3d08601a	0.033294775
160	0xbe0b01a6	-0.13574848
161	0xbd7c6c51	-0.061626736
162	0xbf6cb71d	-0.9246691
163	0x3db17eb0	0.08666742
164	0xbc8e0ac9	-0.017339127
165	0xbd4aa8a9	-0.049477253
166	0x3e028611	0.12746455
167	0x3a16f64a	0.0005758746
168	0x3d1b84f3	0.037968587
169	0x3ddcd12c	0.10782084
170	0xbd21a349	-0.03946236
171	0x3f6a50a0	0.91529274
172	0x3c8280ca	0.015930552
173	0xba92a863	-0.0011189099
174	0xbd81febe	-0.06347416
175	0xbe96edc2	-0.2947827
176	0x3e2d94e5	0.1695133
177	0x3ec0fe6d	0.3769411
178	0xbd3f6781	-0.04672957
179	0xbd373ca8	-0.04473558
180	0xbbbcc60f	-0.005760915
181	0x3f788cce	0.9708985
182	0x3dbee52a	0.09321053
183	0x3d48f1dc	0.04905878
184	0x3c288dcc	0.010287713
185	0xbc222ffb	-0.009899135
186	0x3ac6f07f	0.0015177875
187	0x3ddcbb21	0.107778795
188	0xbdff4a55	-0.124653496
189	0xbc573bee	-0.013136847
190	0x3eafa67b	0.34306702
191	0x3ddb59a7	0.10710459
192	0x3b53a0c8	0.0032291878
193	0xbd8b2d90	-0.067958
194	0x3f2e4d7e	0.68086994
195	0xbf58e44f	-0.8472337
196	0xbf59b1d3	-0.85036963
197	0xbde5af44	-0.1121507
198	0xbdcc9323	-0.099890016
199	0xbc2421e0	-0.010017842
200	0x3f1fda0b	0.6244208
201	0x3c5969fd	0.0132698985
202	0x3ca98715	0.020694295
203	0x3cb363c9	0.021898167
204	0x3d95513d	0.072908856
205	0x3c8069c2	0.01567543
206	0x3ced9fac	0.029006802
207	0x3d458913	0.048226427
208	0xbcd8cbfb	-0.026464453
209	0x3d853826	0.0650485
210	0xbc1962d0	-0.009361938
211	0xbe6abd7c	-0.22923845
212	0xbd9f5896	-0.07780568
213	0xbe55adb3	-0.20867042
214	0x3d549854	0.051903084
215	0x3e3c0a75	0.18363364
216	0x3d25d874	0.04048963
217	0xbcc10df0	-0.023566216
218	0xbe14ddac	-0.14537686
219	0xbe2bfa80	-0.16794777
220	0x3bb7c2a0	0.005607918
221	0x3df86f06	0.12130551
222	0xbe537b29	-0.2065245
223	0x3c2d75d0	0.010587171
224	0xbe3ec562	-0.18629983
225	0x3dd89d06	0.10576825
226	0xbe0b3c2a	-0.1359717
227	0xbe20d1d8	-0.15705049
228	0xbe6fd2ab	-0.23420207
229	0xbda84875	-0.08216945
230	0xbd749ad8	-0.059717983
231	0x3e2777b0	0.16354251
232	0x3e379d85	0.17931183
233	0xbf07f6e1	-0.5311108
234	0xbf65e20b	-0.8979804
235	0xbd9a7a95	-0.07542912
236	0x3e18311a	0.14862481
237	0xbe8efbba	-0.27926427
238	0x3eaf1dfa	0.34202558
239	0xbe3717ae	-0.17880127
240	0x3e7774a3	0.24165587
241	0xbd8e3aa2	-0.06944777
242	0xbdffb4b3	-0.124856375
243	0x3c4fb96f	0.012678488
244	0xbb1aee77	-0.0023640671
245	0xbdbbc434	-0.09168282
246	0xb9f90cf3	-0.0004750263
247	0xbe80c415	-0.251496
248	0xbe544891	-0.20730807
249	0xbe87e9f2	-0.26545674
250	0x3d145cfa	0.03622148
251	0x3efad0b2	0.48987347
252	0xbd9ff53f	-0.07810449
253	0x3d5bd224	0.053667203
254	0xbd147391	-0.036243025
255	0xbe49392b	-0.19650714

layers.0.bias f4 [64]
0	0xbe929027	-0.28625605
1	0xbd9a1322	-0.075231805
2	0xbd97c93e	-0.07411431
3	0xbeb0e2b6	-0.34547967
4	0xbe2c6f5c	-0.16839355
5	0x3db6f1d6	0.08932845
6	0x3d55ebde	0.052226894
7	0xbe851dc7	-0.2599928
8	0xbde92264	-0.113835126
9	0xbd1dc144	-0.03851439
10	0xbd085263	-0.033281695
11	0xbd8f6892	-0.07002367
12	0xbe0fd1f2	-0.14044932
13	0xbd994aed	-0.07484994
14	0x3de79df2	0.113094226
15	0xbebb24e5	-0.36551586
16	0x3e05930f	0.1304438
17	0x3e36f4da	0.17866841
18	0xbe2f423d	-0.17115112
19	0xbd170424	-0.036869183
20	0xbe54d843	-0.20785622
21	0x3e440a71	0.19144608
22	0x3d0c3e55	0.034239132
23	0x3d836c5e	0.06417154
24	0xbe01649b	-0.12636034
25	0xbd908316	-0.07056253
26	0x3d921cc2	0.07134391
27	0xbddee87b	-0.10884186
28	0x3e5840bb	0.21118443
29	0xbe403f25	-0.18774088
30	0xbdebc135	-0.11511461
31	0xbe5854f0	-0.21126151
32	0xbe277ede	-0.1635699
33	0xbe9b332c	-0.3031248
34	0x3e63ae63	0.22234492
35	0xbed55725	-0.41668049
36	0xbe314a08	-0.17313397
37	0xbe869206	-0.26283282
38	0xbd83771e	-0.06419204
39	0xbe354c4b	-0.17704885
40	0xbe1f4495	-0.15553506
41	0x3ce24448	0.02762045
42	0xbcc99bd8	-0.024610445
43	0x3da88646	0.082287356
44	0xbcbb5680	-0.022868395
45	0xbe397604	-0.18111426
46	0xbea62e7a	-0.32457334
47	0xbe4665a6	-0.19374713
48	0xbeda0418	-0.42581248
49	0xbd146fbc	-0.03623937
50	0x3ded3352	0.11582054
51	0xbc213890	-0.009840146
52	0x3e0edac9	0.13950647
53	0xbd94e022	-0.072693124
54	0xbe1dd993	-0.15415029
55	0xbcb0cf4d	-0.021583224
56	0xbd32290c	-0.043496177
57	0xbdab9d48	-0.083796084
58	0xbd75d300	-0.06001568
59	0x3e14b893	0.14523534
60	0xbe20d5d8	-0.15706575
61	0xbebe2454	-0.3713709
62	0xbe9b8fbe	-0.30383104
63	0xbe58575c	-0.21127075

layers.3.weight f4 [32, 64]
0	0x3b92277a	0.0044602724
1	0x3d948444	0.0725179
2	0x3d9e593e	0.07731865
3	0x3a0f3a52	0.00054637075
4	0xbddaafc4	-0.10678056
5	0xba2bb500	-0.00065501034
6	0x3f836f45	1.0268332
7	0x3ab09a36	0.0013473693
8	0xbd87f21b	-0.06637975
9	0x3c955eeb	0.018233737
10	0x3b104908	0.0022016186
11	0x3db325b8	0.08747429
12	0x3dc20b20	0.09474778
13	0x3c23a198	0.009987257
14	0x3c7289c0	0.01480335
15	0x3dbbedc6	0.09176211
16	0xbe2e5fa1	-0.17028667
17	0x3ee18b6a	0.44051677
18	0xbc949206	-0.018136036
19	0x3a821580	0.000992462
20	0xbc5870b7	-0.013210467
21	0xbda37080	-0.07980442
22	0x3d94bbc7	0.07262378
23	0xbd0f92c0	-0.03505206
24	0x3d8c2d62	0.068445936
25	0xbe209249	-0.15680803
26	0x3f389d5b	0.72115105
27	0x3d8773c0	0.066138744
28	0xbc9d6188	-0.019211546
29	0x3d7f9c7c	0.062405095
30	0xbce36347	-0.0277573
31	0xbd3df0d4	-0.04637225
32	0xbd89b4c0	-0.067239285
33	0xbce6454e	-0.028109219
34	0x3d3508a0	0.04419768
35	0xbd488d2d	-0.04896276
36	0xbd7ccd74	-0.061719373
37	0x3d63e0b4	0.055634215
38	0x3d1f03d0	0.038821995
39	0xbe73bd0e	-0.23802587
40	0x3e21662a	0.15761629
41	0x3dab8c82	0.08376409
42	0xbde00858	-0.109390914
43	0x3c559a40	0.013037264
44	0xbc9a33c0	-0.018823504
45	0xbdc60a7c	-0.096699685
46	0xbdba2201	-0.09088517
47	0x3f131ab4	0.5746262
48	0xbbc8f03c	-0.006132154
49	0x3dda5036	0.1065983
50	0x3f25b1bd	0.6472433
51	0x3b47b340	0.0030471832
52	0x3e77c59e	0.24196479
53	0x3c5fccf0	0.013659701
54	0x3d8f1ab6	0.069875166
55	0x3ebffffc	0.37499988
56	0x3dc6f05e	0.09713815
57	0xbdde42cc	-0.10852584
58	0x3ccecdc8	0.025244609
59	0x3d92fd02	0.07177164
60	0x3e41c6ab	0.18923442
61	0x3c1bb577	0.009503714
62	0xbd32e786	-0.04367783
63	0x3dd397b2	0.10331668
64	0x3e0dbed9	0.13842334
65	0xbdf0353e	-0.11728905
66	0xbdeeaf0e	-0.11654483
67	0x3e06ccdc	0.13164085
68	0x3ddbf77a	0.10740562
69	0x3dd14568	0.10218316
70	0x3eb3aa8f	0.35091063
71	0x3c2a2a1f	0.010386019
72	0xbd0dc44a	-0.034611024
73	0x3e1b47e4	0.15164143
74	0xbdafdb5c	-0.08586761
75	0xbd010820	-0.03150189
76	0xbdb102bf	-0.08643102
77	0x3cb274c2	0.02178419
78	0xbd9f9dba	-0.07793756
79	0x3bab1061	0.0052204584
80	0xbd87f00e	-0.06637584
81	0x3de777ca	0.11302145
82	0xbded086b	-0.11573871
83	0x3c69f970	0.014280662
84	0xbe543ca5	-0.20726259
85	0xbc9b02d8	-0.018922254
86	0x3d0ea7de	0.03482806
87	0xbdef70e0	-0.11691451
88	0xbc5fbf39	-0.013656431
89	0xbc95efb5	-0.018302778
90	0x3e1ecf6f	0.15508817
91	0x3def3d04	0.1168156
92	0xbdc9d284	-0.09854606
93	0x3df444a0	0.11927152
94	0x3de68b9c	0.11257097
95	0xbda9694c	-0.08272037
96	0x3de50300	0.11182213
97	0x3c30f06b	0.010799508
98	0x3d27c8b8	0.040962905
99	0xbd1b9f68	-0.03799382
100	0xbd86b646	-0.06577735
101	0x3dac7fff	0.08422851
102	0xbcce1c60	-0.025160015
103	0xbef0736b	-0.46963057
104	0xbc625adc	-0.013815608
105	0xbdcf82fa	-0.10132404
106	0x3ddfd296	0.10928838
107	0xbdc12162	-0.094301954
108	0x3dfe18ec	0.12407097
109	0xbe5a30cf	-0.21307682
110	0x3d9ff871	0.07811058
111	0x3dcff315	0.10153786
112	0xbc6de185	-0.0145191
113	0xbd32df14	-0.043669775
114	0x3f213d1e	0.6298388
115	0x3cc35e58	0.023848698
116	0x3ecc8193	0.39942607
117	0xbd68aaa8	-0.056803375
118	0xbe3eed2f	-0.18645166
119	0xbea38bd2	-0.31942612
120	0x3d3c334c	0.045947358
121	0xbdef0b60	-0.116720915
122	0x3de8e242	0.1137128
123	0xbcf01a63	-0.029309457
124	0xbeb3314b	-0.34998545
125	0x3cc39332	0.0238739
126	0xbd08ea75	-0.03342672
127	0x3df9e37e	0.12201594
128	0x3de7bc5c	0.113152236
129	0xbcf1c1fa	-0.02951144
130	0xbd31dee7	-0.043425467
131	0x3db970b1	0.09054697
132	0xbdaa6f34	-0.083219916
133	0x3dfa9efc	0.12237355
134	0x3eac077b	0.33599457
135	0x3d0baaab	0.03409831
136	0xbdbc4186	-0.09192185
137	0x3e615374	0.22004491
138	0xbc63e23c	-0.013908919
139	0x3cd79078	0.026314005
140	0xbcfce7c8	-0.03087224
141	0x3d07a65b	0.033117633
142	0xbd32474c	-0.043525025
143	0xbd1f8de6	-0.038953684
144	0xbe7bb786	-0.24581727
145	0x3e3da244	0.1851893
146	0x3d23052a	0.039799847
147	0x3d9b650c	0.075876325
148	0xbe3d5a25	-0.18491419
149	0xbdeafcda	-0.11474009
150	0xbcc84351	-0.024446161
151	0x3d98d13a	0.07461782
152	0x3e145319	0.14484824
153	0xbe45d780	-0.19320488
154	0xbbd41519	-0.0064722416
155	0xbd6efe1c	-0.058347806
156	0xbd27db24	-0.040980473
157	0x3d325524	0.043538228
158	0x3ddc5628	0.107586205
159	0x3c8f0750	0.017459542
160	0x3d1e6504	0.038670555
161	0xbd4e3eb3	-0.050352763
162	0x3d8f64b2	0.07001628
163	0x3d3457dc	0.0440291
164	0xbd721df4	-0.059110597
165	0xbdd35265	-0.1031845
166	0x3c2aab70	0.01041685
167	0xbeea3b82	-0.45748526
168	0xbd53271e	-0.051550977
169	0xbd24c40c	-0.040226027
170	0x3dd3066a	0.10303958
171	0x3d8df83e	0.06932114
172	0x3c21ca20	0.0098748505
173	0xbe8f247f	-0.27957532
174	0xbc977d18	-0.018492267
175	0x3e204a15	0.1565326
176	0xbd52d80e	-0.051475577
177	0x3d689458	0.056782097
178	0x3f1dc73f	0.6163215
179	0x3d97a250	0.074040055
180	0x3f0d12b4	0.55106664
181	0xbdccf516	-0.10007684
182	0xbdb73ada	-0.08946772
183	0xbe31c6e5	-0.17361028
184	0xbd103944	-0.035210863
185	0xbc20af30	-0.009807393
186	0xbdc6af4a	-0.097014025
187	0x3c8ba915	0.017048398
188	0xbe911f08	-0.28343987
189	0x3c5d34b7	0.013501338
190	0x3c9398aa	0.018017132
191	0x3df0c4f0	0.11756313
192	0xbd6f1ac2	-0.058375128
193	0x3c6331fb	0.013866897
194	0xbc974daa	-0.01846965
195	0xbd910546	-0.07081084
196	0xbdb07e66	-0.086178586
197	0x3ba03660	0.0048892945
198	0x3f576aee	0.84147537
199	0xbc12b0a3	-0.008953246
200	0x3d21ef14	0.039534643
201	0xbe0c863c	-0.13723081
202	0x3dafc504	0.085824996
203	0xbcdcd140	-0.026955247
204	0x3e0c8708	0.13723385
205	0xbd122c6c	-0.035686895
206	0xbd8a8ef8	-0.067655504
207	0x3db265ef	0.087108485
208	0xbd270601	-0.04077721
209	0x3e50f822	0.20407155
210	0x3d1b2d97	0.037885275
211	0x3d85ba88	0.06529719
212	0xbdc2ffaf	-0.09521424
213	0x3ded91a2	0.11600043
214	0xbdc52ccb	-0.09627684
215	0x3ccc1080	0.024910212
216	0x3b944689	0.00452501
217	0xbe5ba6b4	-0.21450311
218	0x3f52c615	0.823335
219	0xbcc31e98	-0.0238183
220	0xbd5d6844	-0.054054514
221	0xbd389f90	-0.045074046
222	0xbd51ddb4	-0.051236823
223	0x3c207980	0.009794593
224	0x3d3dd58c	0.046346232
225	0x3b35ab97	0.0027720684
226	0xbdccf0ba	-0.100068524
227	0x3dabb9e1	0.08385063
228	0x3ca95b98	0.020673558
229	0x3c134539	0.008988672
230	0x3d9cf930	0.07664716
231	0xbe571475	-0.21003897
232	0x3d448f1e	0.04798805
233	0xbd3229a4	-0.043496743
234	0xbde6c204	-0.11267474
235	0xbc0ae480	-0.00847733
236	0x3c848458	0.016176388
237	0x3c665db9	0.014060431
238	0xbd850ca8	-0.064965546
239	0x3e89de25	0.26927295
240	0x3d214a61	0.039377574
241	0x3dd4e7ea	0.103957966
242	0x3f16bcf5	0.58882076
243	0x3dc8e108	0.09808546
244	0x3ee99348	0.4562018
245	0xbd691518	-0.056904882
246	0x3e3be738	0.18349922
247	0x3ea0349f	0.31290147
248	0xbd1f29ac	-0.0388581
249	0xbd2fd100	-0.042923927
250	0xbd5710e8	-0.052506357
251	0xbdba3dca	-0.090938166
252	0x3e5d0590	0.21584153
253	0x3d0b1237	0.033952918
254	0xbd045cd0	-0.032315075
255	0x3d6bfca8	0.057614

layers.3.bias f4 [32]
0	0x3c038087	0.008026249
1	0x3d78e603	0.06076623
2	0xbdb16f4f	-0.086638086
3	0xbe15f45e	-0.14644
4	0x3bac5c79	0.005260047
5	0xbdf2a3b3	-0.118476294
6	0x3dbf2b39	0.09334416
7	0x3e86891c	0.2627648
8	0xbd95b537	-0.073099546
9	0x3e174dbf	0.14775752
10	0xbd1912c5	-0.037371416
11	0x3cfad13e	0.030617353
12	0xbd8759e2	-0.06608941
13	0xbc30ae1e	-0.0107837
14	0x3e48984b	0.19589345
15	0xbd812522	-0.06305911
16	0xbe3cda04	-0.18442541
17	0x3e92b4b6	0.28653497
18	0xbda53a9e	-0.08067821
19	0xbec1e38e	-0.37868923
20	0x3e1c0449	0.1523601
21	0x3d637390	0.05553013
22	0x3e0bda6c	0.1365754
23	0xbe13f117	-0.14447437
24	0x3de96a7a	0.11397262
25	0x3e138e35	0.14409716
26	0xbc30e52d	-0.010796827
27	0xbd312309	-0.043246303
28	0x3d76289c	0.060097322
29	0x3cb77b90	0.022397786
30	0x3e4fff69	0.20312275
31	0xbddbccf0	-0.10732448

layers.6.weight f4 [16, 32]
0	0x3e6c980e	0.2310488
1	0x3e5113c1	0.20417692
2	0x3e471aed	0.19443865
3	0x3e69ef6f	0.22845243
4	0x3dc68a00	0.0969429
5	0x3e9b7bdb	0.30367932
6	0xbe0dc139	-0.1384324
7	0x3e2a3bf9	0.1662444
8	0x3c50ccb7	0.01274412
9	0xbd0feae6	-0.035136126
10	0x3e323b83	0.17405514
11	0x3ea48944	0.32135975
12	0x3dfe4cc4	0.12416986
13	0x3e59450d	0.21217747
14	0x3d406c43	0.046978246
15	0x3dcab0cd	0.09897003
16	0xbdeb24a0	-0.11481595
17	0x3e2fec9c	0.17180103
18	0xbe473903	-0.19455342
19	0xbe093a3f	-0.13401125
20	0x3ce5c3c4	0.02804745
21	0x3e14318a	0.14472023
22	0xbbdfd48c	-0.0068307575
23	0x3d8edba0	0.06975484
24	0x3e6c26ff	0.23061751
25	0xbe142ebf	-0.14470957
26	0x3e356953	0.17715959
27	0xbeaa9f15	-0.33324495
28	0x3cbdec87	0.023184074
29	0xbe8b26fc	-0.2717818
30	0x3d90d29b	0.0707142
31	0x3dbad09b	0.091218196
32	0x3d9fc3de	0.078010306
33	0x3cbe0363	0.023194974
34	0x3e045c2b	0.12925784
35	0x3e3d0f58	0.18462884
36	0x3e936151	0.28785184
37	0x3e29ec8d	0.16594143
38	0x3cedbd65	0.029020974
39	0x3c9461c0	0.018113017
40	0x3e2887f4	0.16458112
41	0x3d2dc1e9	0.042421255
42	0x3dcb6daa	0.09933026
43	0x3e88fa7f	0.26753613
44	0x3e70a55a	0.23500577
45	0xbd9c1d83	-0.076228164
46	0x3bbca393	0.0057568043
47	0x3dcd385b	0.100205146
48	0xbdcdf033	-0.1005558
49	0xbdcebc66	-0.10094528
50	0xbdf0c3a9	-0.11756069
51	0x3d86546a	0.065590695
52	0xbd938023	-0.072021745
53	0x3e5fae20	0.21843767
54	0xbd807195	-0.06271664
55	0x3cc9002f	0.02453622
56	0xbd36fc10	-0.04467398
57	0xbcd356c0	-0.025798202
58	0x3db9d0bc	0.09073016
59	0xbdf624af	-0.120187156
60	0x3d844bfb	0.064598046
61	0x3cf236f9	0.029567229
62	0x3d9e82e1	0.07739807
63	0x3e0a42a7	0.13501988
64	0xbe1ddf7e	-0.15417287
65	0xbe29843b	-0.16554348
66	0xbe2857a0	-0.16439676
67	0xbeb6fa6a	-0.35737926
68	0xbe33fb54	-0.17576343
69	0xbecec5e8	-0.40385365
70	0x3e7fc353	0.24976854
71	0x3e10de97	0.14147411
72	0xbcddcdc4	-0.027075656
73	0x3e0e8830	0.13919139
74	0xbe8afd2d	-0.27146283
75	0xbe13219b	-0.14368288
76	0xbe94d7ed	-0.29070988
77	0xbd55a3d1	-0.05215818
78	0x3dce1110	0.10061848
79	0x3e02f788	0.12789738
80	0xbd9b8902	-0.075944915
81	0xbf292162	-0.66066563
82	0x3e17c06d	0.14819498
83	0xbe3fc314	-0.1872676
84	0x3e0bf818	0.13668859
85	0xbd1a1d2e	-0.037625484
86	0x3e1595a2	0.14607862
87	0xbe1117bb	-0.14169209
88	0xbf4480f4	-0.76759267
89	0x3e907b40	0.28219032
90	0xbeba7e8b	-0.3642467
91	0x3d0b34e3	0.033985984
92	0x3e58520f	0.21125053
93	0x3e488f3a	0.19585887
94	0x3e2e9ee9	0.17052807
95	0xbc8e0416	-0.017335933
96	0x3de6e705	0.11274532
97	0x3e6b5d3e	0.22984788
98	0x3e82aa2a	0.2552045
99	0x3da0935f	0.07840609
100	0x3e68b2df	0.22724484
101	0x3e7eb4d8	0.24873674
102	0xbd9caadd	-0.07649777
103	0x3c8474dc	0.016169004
104	0xbdf2b387	-0.118506484
105	0xbc522a97	-0.012827537
106	0x3dfa1fdf	0.1221311
107	0x3b4252c8	0.0029651392
108	0x3dcebdf3	0.10094824
109	0x3d665dc5	0.05624177
110	0xbd43be1b	-0.04778872
111	0xbc16cb99	-0.009203815
112	0xbe22a375	-0.15882666
113	0x3cbca206	0.023026478
114	0xbdca44a1	-0.09876371
115	0x3e4b63ba	0.19862261
116	0xbd973d5c	-0.0738475
117	0x3e254fc0	0.16143703
118	0xbe2f40b0	-0.1711452
119	0x3c72c237	0.014816812
120	0xbd9ab029	-0.07553131
121	0xbda090f2	-0.07840146
122	0x3d9e6337	0.077337675
123	0xbd043f06	-0.032286666
124	0x3d0bd3d4	0.034137562
125	0xbe23b09e	-0.15985343
126	0x3c5f6f2c	0.013637345
127	0x3a8c6ae4	0.0010713008
128	0xbdee41cb	-0.11633643
129	0xbdaed194	-0.085360676
130	0xbe06d7b9	-0.13168229
131	0xbe4a1455	-0.19734319
132	0xbd9c1a6f	-0.07622229
133	0x3d649f09	0.05581573
134	0x3d13d93e	0.03609585
135	0x3deaed1b	0.114710055
136	0x3d7a0bd9	0.061046455
137	0x3e0124c1	0.12611677
138	0xbdb13b0c	-0.086538404
139	0xbce645e7	-0.028109504
140	0x3d8f667e	0.07001971
141	0xbdb1eaf0	-0.08687389
142	0x3e7a0e97	0.24419628
143	0x3c146e1a	0.009059453
144	0x3c6e899b	0.014559175
145	0xbe063461	-0.13105918
146	0xbe101d16	-0.14073595
147	0xbe092497	-0.13392864
148	0xbd0c316e	-0.034226827
149	0xbda968a7	-0.08271914
150	0x3e2f3a91	0.17112185
151	0x3e079be7	0.13243066
152	0xbe48ef7d	-0.19622608
153	0x3e1c152d	0.15242453
154	0xbdec3f42	-0.11535503
155	0xbd6a6fc1	-0.057235483
156	0x3d604792	0.054755755
157	0x3e5542a8	0.20826209
158	0xbde022ad	-0.10944114
159	0x3dea597f	0.11442851
160	0x3e98d5ca	0.29850608
161	0x3e3de941	0.1854601
162	0x3e18d9d3	0.14926843
163	0x3c22001c	0.009887721
164	0x3e4ad9d6	0.1980966
165	0x3e5cc33c	0.21558851
166	0xbde96320	-0.1139586
167	0x3e44fb47	0.1923648
168	0xbd466fdb	-0.048446517
169	0xbe1c3159	-0.152532
170	0x3e5755a7	0.21028768
171	0x3e260753	0.16213731
172	0x3dbacfdb	0.091216765
173	0x3e0b11a9	0.13580956
174	0x3d3818bc	0.044945464
175	0xbe34b2ba	-0.17646304
176	0x3e38a451	0.18031432
177	0x3f3ff7e0	0.749876
178	0xbcdbc941	-0.026829364
179	0xbe83a5d5	-0.25712457
180	0xbd4de144	-0.05026366
181	0x3d4aec95	0.04954203
182	0xbe072815	-0.13198884
183	0x3c6bfc81	0.014403463
184	0x3ef458f6	0.47724122
185	0xbeb1f61f	-0.34758088
186	0x3e06c2cc	0.13160247
187	0xbd8022f9	-0.062566705
188	0xbdb58f25	-0.08865193
189	0xbe0e7b98	-0.13914335
190	0x3d1178ce	0.0355156
191	0xbbf114de	-0.007357224
192	0xbef26038	-0.47339034
193	0xbe41f7ea	-0.18942228
194	0xbe996c46	-0.2996542
195	0xbed5869e	-0.41704267
196	0xbeea9e91	-0.45824102
197	0xbd47bc38	-0.048763484
198	0x3e9ce79d	0.30645457
199	0x3e6a3c9e	0.22874686
200	0x3d4f1a4b	0.050562184
201	0x3e6e062f	0.23244546
202	0xbeb11a9b	-0.3459061
203	0xbe8d58bf	-0.2760677
204	0xbebc0a37	-0.36726543
205	0xbe6f92ce	-0.23395845
206	0x3e72a39d	0.23695226
207	0x3e3bc276	0.183359
208	0xbe01b877	-0.12668024
209	0xbeeff5b1	-0.46867135
210	0x3bda2efb	0.0066584325
211	0xbe871dba	-0.26389867
212	0x3e593738	0.2121247
213	0x3d225e80	0.039640903
214	0x3e272e34	0.16326219
215	0xbead6503	-0.33866128
216	0xbf22ef4b	-0.6364638
217	0x3e849820	0.25897312
218	0xbe6abc7d	-0.22923465
219	0xbd4ad312	-0.0495177
220	0x3eab6943	0.33478746
221	0x3c880eae	0.016608562
222	0x3dab496d	0.08363614
223	0xbd1eda35	-0.038782317
224	0xbd817ce3	-0.063226484
225	0xbd4f9803	-0.05068208
226	0x3dc6f60c	0.097148985
227	0x3e24d6bc	0.1609754
228	0xbc6decd2	-0.014521794
229	0x3e4c85b9	0.19972886
230	0xbe631742	-0.22176841
231	0x3d800494	0.06250873
232	0xbe79b538	-0.24385536
233	0xbcf63a0c	-0.030056976
234	0x3d1228e6	0.035683535
235	0x3bfcd5d2	0.007715919
236	0x3e390694	0.18068916
237	0x3dff5aae	0.12468468
238	0x3cb9b21c	0.022667937
239	0x3cad4566	0.021151256
240	0xbc9ef5a9	-0.01940425
241	0x3f5910bf	0.8479118
242	0xbe0b2483	-0.13588147
243	0xbe428842	-0.1899729
244	0xbb8a714f	-0.004224933
245	0x3e0a03d9	0.1347803
246	0xbe5d2dfc	-0.21599573
247	0x3e2ff6e6	0.17184028
248	0x3e63a6a4	0.22231537
249	0xbea42426	-0.3205883
250	0x3db94156	0.09045665
251	0xbea9025c	-0.33009613
252	0x3c0a4c32	0.008441018
253	0xbe17e00e	-0.14831564
254	0x3d591b1c	0.05300437
255	0xbd322ddc	-0.043500766

layers.6.bias f4 [16]
0	0xbda490f8	-0.08035463
1	0xbe50fb70	-0.20408416
2	0x3eef5bf7	0.4674985
3	0x3db97ea6	0.090573594
4	0x3dff535c	0.124670714
5	0x3e1a60df	0.15076016
6	0x3ea7855f	0.32718942
7	0x3e1ecad2	0.15507057
8	0x3df69b6a	0.12041362
9	0x3e58d6b7	0.21175657
10	0x3e65cb41	0.22440816
11	0x3edfcd10	0.43711138
12	0x3e0af74a	0.13570896
13	0x3e982673	0.29716834
14	0x3e97e0a8	0.29663587
15	0x3dd8583b	0.105637036

layers.9.weight f4 [1, 16]
0	0xbe9639a7	-0.2934086
1	0xbed9c239	-0.42530993
2	0x3f59a24a	0.8501326
3	0xbe88088d	-0.26569024
4	0x3e4ca05a	0.19983044
5	0xbe88f473	-0.26749
6	0x3f434a0b	0.76284856
7	0xbf209357	-0.6272482
8	0xbee59c56	-0.44845837
9	0xbee2da89	-0.44307354
10	0x3f111e65	0.56687003
11	0x3f1997ec	0.5999744
12	0xbebc6287	-0.3679392
13	0x3f8cbff6	1.0996082
14	0xbec4fd1a	-0.3847435
15	0xbea982ba	-0.3310755
