models/Delete/antiproton_1.pt (torch, 18945 bytes, 7 tensors)

layers.0.weight f4 [64, 19]
0.89723635 0.29552466 0.00994905 -0.15069447 -0.10511818 -0.18724968 -0.5911506 -0.23710416
-0.24674673 -0.030459622 -0.43878138 0.22208552 0.034740392 0.04235634 -0.1625945 0.05874208
-0.10858988 0.04436007 -0.103835575 -0.3371443 -0.47514665 -0.08802514 -0.45794383 0.7422482
-0.51205176 -0.24597716 0.018577492 0.12643819 0.1920375 0.7272856 -0.20220813 0.009525472
-0.11315701 -0.062798545 0.020826885 -0.051457968 0.081643894 0.17967044 -0.19022113 0.15243037
0.06343095 -0.08295007 0.033918932 -0.20402384 -0.03032671 0.22362964 -0.009459376 -0.19360152
0.017452076 -0.08998421 -0.22299668 -0.1957705 -0.121768124 -0.10245006 -0.19840688 0.20060511
-0.13745943 -0.09553122 -0.43695137 -0.0019927137 -1.2236562 1.1882893 -0.44897178 -0.39360622
0.06056884 -0.12498072 -0.1874921 1.0595248 0.09967899 -0.09302372 0.11808145 -0.013037401
0.01751092 -0.08483748 -0.12392999 0.10458827 0.06310128 0.21367012 -0.079052664 0.25661868
0.3717046 -0.16345702 0.04854167 -0.14610904 -0.19808573 0.05040341 0.7916095 0.1591224
-0.15800941 -0.00065937336 -0.08258475 0.018900918 -0.16933323 -0.081840634 -0.023270003 0.0692891
-0.10139787 0.21051978 0.0057653934 0.09462215 -0.048487768 0.22878177 -0.046621233 -0.068832174
0.19162206 -0.15415478 -0.1365937 -0.15429386 -0.102227435 0.21512823 -0.099947125 -0.21933328
0.17390664 -0.17406133 -0.6573242 -0.5754706 0.0068488736 -0.24619265 -0.5316688 0.06028634
0.30054402 0.020351846 -0.06657869 -0.0038368546 -1.0748005 0.10844108 -0.059810493 0.008382099
-0.046053793 -0.008795474 -0.19811194 0.029609248 -0.06168855 0.09428147 0.03334516 0.00045669966
-0.32556003 0.72421163 -0.93525845 -0.60800904 0.0191974 -0.093332164 0.007277984 1.5535462
0.10135649 -0.06312303 0.008260065 -0.0036446403 0.01971736 0.0013826326 0.02444996 -0.012194789
1.1278491 0.065197326 0.079830274 -0.7467668 -0.09779481 -0.4610055 -0.3953781 -0.057338018
-0.024721159 0.114105724 -1.0783329 0.15750808 0.06704251 -0.14067872 -0.004641729 0.00038915907
-0.017435024 -0.14091991 -0.041599303 0.18269642 -0.049780235 -0.028687745 0.051550552 -0.13295811
0.015242234 -0.18962689 -0.19938876 0.20368336 -0.12468661 0.20935054 0.10145374 0.02342774
0.22218885 0.012066811 -0.161997 -0.007723704 0.00048016012 -0.12344716 0.25108948 0.0040172697
0.001447122 -0.04952981 0.5670402 -0.9505183 -1.0571269 0.09983746 -0.09671671 -0.00035259454
1.3803475 0.08200804 -0.07847456 0.008597345 -0.024315922 0.019209385 -0.014823522 0.018536549
0.011731113 -0.16803461 0.0057347743 0.00015410043 0.12314168 0.395358 -1.3386065 -1.2646561
-0.09871357 -0.11850656 -0.023490528 1.5116905 0.03670854 0.023309443 0.01178062 0.034414586
0.020111194 0.009327422 0.013893184 -0.009733836 0.17187397 0.01838231 -0.21115069 0.20303772
-0.19222154 -0.005480334 0.15698068 0.052581534 -0.18354677 -0.0038415045 0.0095704645 -0.12925366
0.1514311 -0.08120334 -0.018576875 -0.10811983 0.11408217 -0.17354912 0.2103781 0.13065432
-0.08237566 0.007742226 -0.22326437 0.21238585 0.026439026 -0.20453808 0.19042073 -0.044003636
00000000: 48b1 653f 024f 973e 5701 233c a74f 1abe
00000010: 3348 d7bd 61be 3fbe a555 17bf 6fcb 72be
00000020: 2dab 7cbe 7586 f9bc f4a7 e0be 636a 633e
00000030: f14b 0e3d d77d 2d3d 2c7f 26be 899b 703d
00000040: 5f64 debd e8b2 353d bfa7 d4bd 2d9e acbe
00000050: 6c46 f3be 8646 b4bd 9d77 eabe fa03 3e3f
00000060: d315 03bf 70e1 7bbe d32f 983c 0379 013e
00000070: 7aa5 443e 642f 3a3f a60f 4fbe ba10 1c3c
00000080: ddbe e7bd 869c 80bd 259d aa3c 97c5 52bd
00000090: ea34 a73d 87fb 373e 54c9 42be b516 1c3e
000000a0: 16e8 813d bae1 a9bd 94ee 0a3d a0eb 50be
000000b0: b86f f8bc 2bff 643e 80fb 1abc 7a3f 46be
000000c0: a8f7 8e3c a449 b8bd 3e59 64be 1078 48be
000000d0: 9161 f9bd 56d1 d1bd 2c2b 4bbe 6d6b 4d3e
000000e0: 2ac2 0cbe dfa5 c3bd 17b8 dfbe 3098 02bb
000000f0: c4a0 9cbf dd19 983f a1df e5be c186 c9be
00000100: 0817 783d e4f5 ffbd eefd 3fbe 829e 873f
00000110: 8024 cc3d 3883 bebd b0d4 f13d d39a 55bc
00000120: 1073 8f3c 46bf adbd 02cf fdbd 6032 d63d
00000130: 3e3b 813d 57cc 5a3e 5de6 a1bd 8663 833e
00000140: 1150 be3e 4761 27be a1d3 463d 9c9d 15be
00000150: fcd6 4abe ce73 4e3d eca6 4a3f fcf0 223e
00000160: 38cd 21be ccd9 2cba 3222 a9bd 19d6 9a3c
00000170: b165 2dbe 109c a7bd bca0 bebc 72e7 8d3d
00000180: b0a9 cfbd 7f92 573e a0eb bc3b 42c9 c13d
00000190: 1c9b 46bd c545 6a3e e8f5 3ebd e2f7 8cbd
000001a0: 9338 443e c0da 1dbe 38df 0bbe 36ff 1dbe
000001b0: 9e5c d1bd 934a 5c3e 14b1 ccbd e798 60be
000001c0: 9514 323e 223d 32be 6646 28bf 0b52 13bf
000001d0: 846c e03b ed19 7cbe 721b 08bf cfee 763d
000001e0: e8e0 993e eab8 a63c 695a 88bd bd73 7bbb
000001f0: 1093 89bf 5b16 de3d d9fb 74bd 1255 093c
00000200: e7a2 3cbd e41a 10bc dbdd 4abe 188f f23c
00000210: 22ad 7cbd a516 c13d ef94 083d 3171 ef39
00000220: ceaf a6be ef65 393f 196d 6fbf 7ba6 1bbf
00000230: de43 9d3c ef24 bfbd 287c ee3b 9ada c63f
00000240: fe93 cf3d a646 81bd 3955 073c ebda 6ebb
00000250: 4d86 a13c 7439 b53a 484b c83c a7cc 47bc
00000260: 5c5d 903f 2d86 853d 0e7e a33d 1c2c 3fbf
00000270: a548 c8bd ea08 ecbe 006f cabe 45db 6abd
00000280: 0784 cabc 43b0 e93d d006 8abf cc49 213e
00000290: 954d 893d 150e 10be a519 98bb 0c08 cc39
000002a0: e5d3 8ebc 4f4d 10be 0864 2abd c514 3b3e
000002b0: 5ce6 4bbd 9002 ebbc ac26 533d 2c26 08be
000002c0: 90ba 793c 8d2d 42be 912c 4cbe 5f92 503e
000002d0: b25b ffbd fd5f 563e fac6 cf3d 88eb bf3c
000002e0: 7985 633e e0b3 453c 8be2 25be 2017 fdbb
000002f0: 00be fb39 ddd1 fcbd cd8e 803e 4da3 833b
00000300: 5bad bd3a c5df 4abd 8c29 113f 2b55 73bf
00000310: ef4f 87bf 9577 cc3d 6913 c6bd 70dc b8b9
00000320: 3aaf b03f d5f3 a73d 45b7 a0bd e1db 0c3c
00000330: 2f32 c7bc 005d 9d3c 5cde 72bc f6d9 973c
00000340: db33 403c 4411 2cbe c6ea bb3b 0596 2139
00000350: b531 fc3d 5d6c ca3e 7557 abbf 40e0 a1bf
00000360: 572a cabd 91b3 f2bd 356f c0bc 137f c13f
00000370: b25b 163d 72f3 be3c 8003 413c 4ff6 0c3d
00000380: 3bc0 a43c 0bd2 183c 3da0 633c ab7a 1fbc
00000390: bbff 2f3e 8096 963c e337 58be 1fe9 4f3e
000003a0: b9d5 44be 6094 b3bb 8bbf 203e bc5f 573d
000003b0: aff3 3bbe c0c1 7bbb 70cd 1c3c 125b 04be
000003c0: c110 1b3e f04d a6bd 882e 98bc ee6d ddbd
000003d0: eaa3 e93d dcb6 31be 5b6d 573e 3fca 053e
000003e0: 92b4 a8bd 80b2 fd3b 6a9f 64be ad7b 593e
000003f0: a896 d83c 6e72 51be a7fd 423e 283d 34bd

layers.0.bias f4 [64]
-0.20325595 -0.052075405 0.18413465 -0.26970503 0.07437302 -0.19037978 -0.008404487 -0.10727018
0.04521812 0.041671082 -0.18656549 0.01700339 -0.12056392 0.08309178 0.099396706 -0.1987779
-0.21037434 -0.39410973 -0.11747797 -0.17298348 -0.10703947 0.0024010718 -0.10719391 0.121098086
-0.21289039 0.0077366075 0.024897948 -0.029745538 -0.26167873 -0.14173695 -0.33144823 -0.26735324
-0.036970362 -0.05054243 -0.016698241 -0.15567556 -0.103875674 -0.34298077 -0.17880203 0.07095429
-0.19584057 0.012080478 -0.070958816 0.22312139 0.22100547 0.18011303 -0.18102677 0.14722799
0.00027269125 -0.13012436 0.22970818 -0.064685956 0.08274846 -0.13141806 -0.07391309 -0.03618583
0.12722258 -0.111712195 -0.028047334 -0.3509282 -0.11543682 0.09109074 -0.2728392 0.0052931607
00000000: 5422 50be 054d 55bd cb8d 3c3e c716 8abe
00000010: e250 983d ebf2 42be f9b2 09bc 78b0 dbbd
00000020: a336 393d 4caf 2a3d 060b 3fbe b14a 8b3c
00000030: 37ea f6bd 062c aa3d 8090 cb3d 6f8c 4bbe
00000040: 5f6c 57be c0c8 c9be 4a98 f0bd 9522 31be
00000050: 8237 dbbd 4d5b 1d3b 7b88 dbbd 4602 f83d
00000060: f0ff 59be 5e83 fd3b c8f6 cb3c eaac f3bc
00000070: c1fa 85be 7e23 11be 95b3 a9be 86e2 88be
00000080: 3c6e 17bd 9405 4fbd c0ca 88bc 6a69 1fbe
00000090: c5bc d4bd 2d9b afbe e117 37be 7c50 913d
000000a0: 6e8a 48be 32ed 453c db52 91bd ef79 643e
000000b0: 424f 623e 8d6f 383e 155f 39be efc2 163e
000000c0: 00f8 8e39 523f 05be 9f38 6b3e 127a 84bd
000000d0: 0678 a93d 7592 06be bf5f 97bd 9837 14bd
000000e0: a346 023e 5dc9 e4bd 86c3 e5bc dcac b3be
000000f0: 246a ecbd c88d ba3d 94b1 8bbe 4072 ad3b

layers.3.weight f4 [32, 64]
0.0030441652 -0.051996008 0.017095849 0.116561025 -0.0017125363 0.10905349 -0.22296081 0.65362227
0.011251349 0.08567348 0.9207598 0.905151 -0.11670393 -0.06799854 0.03593852 0.057883516
0.047353342 0.12931864 -0.03594339 0.052063406 0.6001449 0.0083457725 0.22258916 -0.007730633
-0.04471332 -0.014719863 -0.028785735 -0.00069877243 0.054964546 0.06715611 0.0011236296 -0.0050217113
0.072951525 0.058882937 -0.013804734 -0.14652863 -0.011342146 -0.01744763 0.8460275 -0.023321373
0.01948893 -0.028242907 -0.020978313 -0.02180612 -0.076488815 -0.07542472 -0.0064026765 0.09506266
-0.055307344 0.054588106 0.60440975 0.07169524 -0.10283971 -0.028717682 0.009151303 -0.00480897
0.041286826 0.023450375 -0.021927897 9.3040915e-05 -0.024762558 0.030891703 -0.0005806885 0.08871062
0.060647108 0.05278586 -0.027656987 0.13612784 0.04222869 -0.034389973 -0.11099704 -0.14091744
0.025965607 -0.10319322 -0.07144626 -0.045496475 0.124550566 0.052343547 0.099163055 -0.11942367
-0.111774266 -0.017360065 0.114974424 -0.0687359 0.20680359 0.06837911 -0.057468258 -0.11586523
0.039562806 -0.016611792 -0.11717346 0.061529886 0.045195807 0.018988797 0.024841893 0.13630837
0.11315431 0.040791035 0.0020045042 0.05847945 0.14092179 -0.10553309 0.057284277 -0.10474901
0.08603956 -0.203365 -0.109000884 -0.059440017 -0.07906469 -0.1326879 0.12091608 -0.064302266
0.024288893 0.101064995 0.018458525 0.030513313 -0.08788809 -0.096159846 -0.060875658 -0.08280405
0.05119008 0.00026516616 -0.13936816 0.073430255 0.08619467 -0.1510314 0.03209513 0.08914687
0.019548558 0.06950817 0.12175542 -0.079937756 0.06875559 -0.020646006 -0.14823587 0.296469
0.013885905 0.043139666 0.55842173 0.5235153 -0.11298604 0.031606868 -0.06691386 -0.054427117
0.036049858 0.05451001 0.09838061 -0.05110042 0.3116929 0.042009667 0.0781595 -0.112854555
0.105839044 -0.112806916 0.124096006 -0.063275404 0.015845591 0.062266592 0.02099927 -0.011612732
0.074777424 -0.079459995 -0.09501818 0.0947383 0.08054401 -0.02334159 0.49735782 0.027004447
0.0917857 -0.038684808 0.12323077 0.09334993 -0.10253249 -0.038929235 0.022475312 0.07079378
0.037903056 -0.010640707 0.3461017 0.09868759 -0.09156461 0.012731329 -0.012104474 0.0047961907
0.095975086 0.05111888 0.15323634 -0.077625714 -0.05927052 0.022896197 -0.044846337 -0.08262004
0.08341773 0.07143449 0.090114504 -0.13576536 -0.06451204 0.07394543 -0.17001319 -0.2596219
-0.1066074 0.12271598 -0.4349551 -0.3912728 0.045642972 0.012743652 0.13133202 -0.0012546778
0.0064813346 -0.044968326 0.11066224 0.09723287 -0.159447 -0.10753755 -0.23953363 -0.00066486
0.10658455 0.04425295 0.0606308 0.019699521 0.026220001 0.011510551 -0.020473488 -0.12912515
-0.06996383 -0.028536022 0.08889903 -0.23928832 -0.10747555 -0.03808907 -0.24515311 -0.048046805
0.065510675 -0.030023001 0.031992696 0.031649187 -0.03298569 -0.074029975 -0.078720495 -0.07121049
0.08864215 0.048914593 -0.27548712 -0.11562631 0.060581863 -0.033929765 -0.0015085661 -0.053927314
0.0021692961 -0.06834641 -0.1562632 0.08690167 -0.061231192 0.053213842 -0.051279034 -0.10821082
00000000: 9e80 473b c4f9 54bd 980c 8c3c 8cb7 ee3d
00000010: 2f77 e0ba 7057 df3d d74f 64be ca53 273f
00000020: 9457 383c 9475 af3d eab6 6b3f fab7 673f
00000030: 7802 efbd d242 8bbd 4534 133d 4417 6d3d
00000040: 94f5 413d 1b6c 043e 6039 13bd 7040 553d
00000050: 19a3 193f b5bc 083c 6aee 633e 4051 fdbb
00000060: 5025 37bd 952b 71bc 10d0 ebbc d32d 37ba
00000070: 8122 613d 2589 893d c146 933a 2b8d a4bb
00000080: 9c67 953d 3c2f 713d 402d 62bc 9a0b 16be
00000090: 69d4 39bc 55ee 8ebc 4295 583f 770c bfbc
000000a0: 40a7 9f3c ab5d e7bc b6da abbc c0a2 b2bc
000000b0: 2ba6 9cbd 4778 9abd 8bcd d1bb 36b0 c23d
000000c0: f489 62bd c797 5f3d 99ba 1a3f f4d4 923d
000000d0: a09d d2bd 5841 ebbc 59ef 153c 9094 9dbb
000000e0: 601c 293d 001b c03c 22a2 b3bc f61e c338
000000f0: d9da cabc 9910 fd3c 5839 18ba eaad b53d
00000100: 1a69 783d fc35 583d e890 e2bc 1965 0b3e
00000110: fef7 2c3d 80dc 0cbd 6b52 e3bd a94c 10be
00000120: d3b5 d43c f856 d3bd 6b52 92bd 835a 3abd
00000130: 5e14 ff3d 3066 563d 0016 cb3d 6694 f4bd
00000140: e8e9 e4bd b236 8ebc b677 eb3d 68c5 8cbd
00000150: 52c4 533e 590a 8c3d d663 6bbd c04a edbd
00000160: 9c0c 223d 7415 88bc a4f8 efbd c306 7c3d
00000170: 3d1f 393d 658e 9b3c 3a81 cb3c 6c94 0b3e
00000180: 72bd e73d 8014 273d 005e 033b 2688 6f3d
00000190: cd4d 103e bc21 d8bd eba2 6a3d a686 d6bd
000001a0: 8235 b03d ea3e 50be db3b dfbd 6077 73bd
000001b0: abec a1bd 56df 07be daa2 f73d e8b0 83bd
000001c0: 80f9 c63c 2afb ce3d 5536 973c 0ef7 f93c
000001d0: acfe b3bd 74ef c4bd c158 79bd 2b95 a9bd
000001e0: b0ac 513d 0006 8b39 87b6 0ebe 9a62 963d
000001f0: d586 b03d faa7 1abe 2f76 033d a292 b63d
00000200: 4c24 a03c 4d5a 8e3d e85a f93d 68b6 a3bd
00000210: bbcf 8c3d d021 a9bc 25cb 17be c9ca 973e
00000220: b581 633c 38b3 303d baf4 0e3f 1905 063f
00000230: 3a65 e7bd 3476 013d 220a 89bd f8ee 5ebd
00000240: 04a9 133d e345 5f3d c67b c93d ad4e 51bd
00000250: 3696 9f3e 5412 2c3d 1712 a03d 4a20 e7bd
00000260: 24c2 d83d 5007 e7bd 0c26 fe3d 8996 81bd
00000270: 9dce 813c 410b 7f3d a906 ac3c 5443 3ebc
00000280: e824 993d ecbb a2bd e498 c2bd 2706 c23d
00000290: 42f4 a43d dd36 bfbc afa5 fe3e 6e38 dd3c
000002a0: 24fa bb3d f673 1ebd 6a60 fc3d 402e bf3d
000002b0: 8efc d1bd 4374 1fbd 251e b83c 54fc 903d
000002c0: 3c40 1b3d 5c56 2ebc 3e34 b13e b81c ca3d
000002d0: 3a86 bbbd 1097 503c d851 46bc 5d29 9d3b
000002e0: 968e c43d 0862 513d fde9 1c3e 3bfa 9ebd
000002f0: a5c5 72bd ce90 bb3c cbb0 37bd b234 a9bd
00000300: ead6 aa3d 3f4c 923d f48d b83d 1306 0bbe
00000310: e31e 84bd b470 973d f017 2ebe 29ed 84be
00000320: fb54 dabd 8452 fb3d 6fb2 debe e954 c8be
00000330: 20f4 3a3d c0ca 503c e77b 063e 0074 a4ba
00000340: 6061 d43b b530 38bd e2a2 e23d 0722 c73d
00000350: 1346 23be a63c dcbd 4e48 75be 004a 2eba
00000360: 0049 da3d 9542 353d 0058 783d e460 a13c
00000370: 54cb d63c c096 3c3c 04b8 a7bc 6239 04be
00000380: 3249 8fbd 60c4 e9bc b210 b63d ff07 75be
00000390: 241c dcbd 4903 1cbd 6b09 7bbe bacc 44bd
000003a0: 762a 863d ccf2 f5bc c60a 033d 94a2 013d
000003b0: 011c 07bd 079d 97bd 3638 a1bd ced6 91bd
000003c0: 048a b53d ab5a 483d a60c 8dbe 7dcd ecbd
000003d0: b024 783d f0f9 0abd 14bb c5ba e3e2 5cbd
000003e0: c02a 0e3b 34f9 8bbd 7603 20be 81f9 b13d
000003f0: 8fcd 7abd c2f6 593d f709 52bd a29d ddbd

layers.3.bias f4 [32]
-0.16505934 0.04435393 0.103059545 -0.079088874 -0.026421586 0.019093899 -0.020254198 -0.08170171
-0.06542578 -0.033295326 0.13332921 0.008008226 0.08861589 0.050571192 -0.15943947 -0.0016877587
0.15965365 -0.13595016 0.051980946 -0.1375527 -0.027440956 0.027481144 -0.09673551 0.08613564
0.05519813 -0.14169069 0.045192216 -0.038225237 0.11366669 0.14227219 -0.057437576 0.031252485
00000000: 5105 29be 77ac 353d e210 d33d 59f9 a1bd
00000010: 1572 d8bc cf6a 9c3c 22ec a5bc 3a53 a7bd
00000020: f4fd 85bd ae60 08bd 7487 083e ef34 033c
00000030: 3f7c b53d bd23 4f3d 1a44 23be c937 ddba
00000040: 3f7c 233e 8536 0bbe f9e9 543d 9dda 0cbe
00000050: dbcb e0bc 2320 e13c 441d c6bd e267 b03d
00000060: 6f17 623d 5d17 11be 791b 393d 1192 1cbd
00000070: 15ca e83d cdaf 113e aa43 6bbd 9b02 003d

layers.6.weight f4 [16, 32]
-0.42370537 0.22408816 0.027304346 0.20011511 0.083719626 -0.063224465 -0.6290291 -0.07120505
0.013548852 -0.09664892 0.010304354 -0.13460353 0.19524637 0.14101343 -0.6762215 0.020183718
0.13802929 0.06853696 -0.095481016 -0.04635344 -0.013552447 -0.12974541 -0.24890414 0.27475482
-0.052652787 -0.06306692 -0.190031 0.14541042 0.0138278855 0.12646987 -0.5423381 0.09719578
0.47068948 0.14142011 0.1648933 -0.14048566 0.0068412535 -0.13984938 0.17770073 0.055941954
-0.023131678 0.1782627 0.19518825 -0.012362028 0.031339537 0.019127956 0.44787648 -0.05848384
-0.10786654 0.11835276 0.2541514 -0.17503947 -0.0579578 0.30379045 0.23980144 0.076065674
0.07344656 0.035423525 0.13686132 -0.037998892 0.053932104 -0.13737074 0.47119635 0.19550088
-0.30536166 -0.06470571 -0.020423688 0.10678442 0.10220001 0.06544073 -0.47994357 -0.120167196
0.16693139 -0.23173657 0.09751071 0.0058482955 0.062711425 0.20621826 -0.5769678 0.14843442
0.119286105 -0.05830152 -0.20075041 0.0144674955 0.054063305 -0.067738004 -0.15243149 -0.011054654
0.12910126 -0.20706889 -0.13753784 0.07879457 0.24364054 0.10370027 -0.60522026 0.106284805
0.2704173 0.019799534 0.1316681 -0.08265647 -0.09579852 -0.22044627 0.33671224 -0.0998871
0.12455132 0.046343308 0.1170179 0.14043298 -0.19865015 0.060709815 0.3959049 -0.06419963
0.109656185 -0.05916531 0.19637062 -0.17762274 0.040036835 0.28417858 0.14881317 0.10721908
-0.18175279 0.17894644 0.089676015 -0.0685332 0.08708608 -0.08502288 0.4800074 0.09235557
-0.32131565 0.13835807 0.08333009 0.041953452 0.16160847 0.09245483 -0.50876516 -0.06787544
-0.03648549 -0.22121933 0.029914074 0.0527739 0.069552965 0.23813488 -0.64385146 0.09224166
0.116867356 -0.1833625 -0.11441387 0.117986076 0.10924122 -0.029723708 -0.42869988 0.105673134
-0.0053141303 -0.24171136 -0.0027117282 0.14441082 0.014564961 0.09274745 -0.55234516 0.0048783803
0.21647893 0.12138816 0.28056815 -0.104398884 0.0049979654 -0.07053857 0.31573686 -0.051408213
0.25420856 0.3268209 0.031064816 -0.07493712 -0.15161198 0.15712623 0.65366054 -0.08886424
0.18945433 0.12132968 0.08373347 -0.14149621 0.09149018 0.3674492 0.3056958 -0.06736614
0.049851574 0.0620423 0.2250955 0.038699847 0.06259956 -0.15449664 0.5382246 0.17663516
0.43370348 0.07403612 0.18704234 -0.10096804 0.061163113 0.037474252 0.47871768 0.115759544
0.14353201 0.16103373 0.050614726 0.07037412 -0.14037557 0.12112517 0.43782517 0.034841094
-0.080498226 0.037901327 0.08760442 -0.03024201 0.00409255 0.19464798 0.33472002 0.12271982
0.0190441 -0.14925523 0.14515245 0.11357362 0.031204468 -0.109844126 0.51896274 0.19743036
0.3813813 0.039753083 0.03178082 -0.08508874 0.031404704 -0.045092806 0.27730298 0.14521083
0.22229126 0.09817183 0.03650667 0.039083812 -0.16097476 0.097572446 0.2576755 -0.10101658
0.02162359 0.13054258 0.19400005 -0.082820386 0.08931445 0.16502494 0.16213651 0.041534204
-0.12250432 0.13760972 0.24486291 0.04421288 -0.030772464 -0.12885514 0.5424296 -0.045026608
00000000: e9ef d8be 5e77 653e 5dad df3c faea 4c3e
00000010: 3275 ab3d d47b 81bd 0d08 21bf f4d3 91bd
00000020: 01fc 5d3c deef c5bd 98d3 283c 82d5 09be
00000030: aaee 473e d365 103e da1c 2dbf 5358 a53c
00000040: 8d57 0d3e 1b5d 8c3d 8d8b c3bd 1bdd 3dbd
00000050: 150b 5ebc fbdb 04be bae0 7ebe aaac 8c3e
00000060: 73aa 57bd 3b29 81bd 7d97 42be 78e6 143e
00000070: 5b8e 623c 5181 013e abd6 0abf 950e c73d
00000080: 36fe f03e 6fd0 103e cad9 283e 79db 0fbe
00000090: 982c e03b ad34 0fbe 2ef7 353e 6423 653d
000000a0: a57e bdbc 7f8a 363e 6edf 473e 1a8a 4abc
000000b0: e35d 003d 3bb2 9c3c 1150 e53e c08c 6fbd
000000c0: 22e9 dcbd ef62 f23d 2220 823e 8c3d 33be
000000d0: 2865 6dbd 6c8a 9b3e 828e 753e 52c8 9b3d
000000e0: 266b 963d 4218 113d 6025 0c3e baa4 1bbd
000000f0: e9e7 5c3d eaaa 0cbe a640 f13e 6231 483e
00000100: 5d58 9cbe 6d84 84bd 944f a7bc cab1 da3d
00000110: 3d4e d13d ca05 863d 2abb f5be 381a f6bd
00000120: 10f0 2a3e 5a4c 6dbe b2b3 c73d 0fa3 bf3b
00000130: d96e 803d e12a 533e 29b4 13bf 31ff 173e
00000140: 464c f43d 93cd 6ebd 8491 4dbe 1309 6d3c
00000150: 7c71 5d3d 39ba 8abd 0017 1cbe 941e 35bc
00000160: 1f33 043e de09 54be b8d6 0cbe 0c5f a13d
00000170: e87c 793e cf60 d43d b7ef 1abf d9ab d93d
00000180: 2374 8a3e a232 a23c 01d4 063e cc47 a9bd
00000190: 0432 c4bd abbc 61be 8c65 ac3e 9c91 ccbd
000001a0: c314 ff3d 7bd2 3d3d 15a7 ef3d aacd 0f3e
000001b0: f26a 4bbe dbaa 783d 0cb4 ca3e 187b 83bd
000001c0: 6c93 e03d 5357 72bd 6115 493e bce2 35be
000001d0: aafd 233d db7f 913e 7b62 183e ad95 db3d
000001e0: 671d 3abe bc3d 373e 0fa8 b73d 225b 8cbd
000001f0: 305a b23d 7a20 aebd 88c3 f53e eb24 bd3d
00000200: 7c83 a4be bdad 0d3e f7a8 aa3d 62d7 2b3d
00000210: b17c 253e f558 bd3d 6f3e 02bf 4702 8bbd
00000220: cf71 15bd 5287 62be 5c0e f53c 7229 583d
00000230: c971 8e3d a1d9 733e 73d3 24bf 32e9 bc3d
00000240: 2758 ef3d 61c3 3bbe d251 eabd afa2 f13d
00000250: dcb9 df3d 227f f3bc 8d7e dbbe 286b d83d
00000260: 2822 aebb 2f83 77be 40b7 31bb 6ee0 133e
00000270: e0a1 6e3c 60f2 bd3d 7e66 0dbf d2da 9f3b
00000280: a7ac 5d3e 5b9a f83d a1a6 8f3e 15cf d5bd
00000290: f9c5 a33b 8776 90bd 43a8 a13e 6b91 52bd
000002a0: a027 823e 1255 a73e a47b fe3c a278 99bd
000002b0: 2c40 1bbe b3e5 203e 4c56 273f 74fe b5bd
000002c0: 5100 423e b27b f83d 747c ab3d 62e4 10be
000002d0: 345f bb3d 4d22 bc3e 2984 9c3e 42f7 89bd
000002e0: 2a31 4c3d 1120 7e3d 6f7f 663e bb83 1e3d
000002f0: 3334 803d 5e34 1ebe 16c9 093f d9df 343e
00000300: 620e de3e 40a0 973d 0788 3f3e 55c8 cebd
00000310: 2c86 7a3d 9a7e 193d 7c1a f53e 5713 ed3d
00000320: 0efa 123e 07e6 243e 6351 4f3d 4e20 903d
00000330: 9dbe 0fbe 7910 f83d 9f2a e03e 89b5 0e3d
00000340: 41dc a4bd 6c3e 1b3d f269 b33d 17be f7bc
00000350: cc1a 863b cd51 473e 6c60 ab3e 8754 fb3d
00000360: 5f02 9c3c 5dd6 18be d8a2 143e 4999 e83d
00000370: 83a0 ff3c f5f5 e0bd beda 043f 2f2b 4a3e
00000380: 6944 c33e 21d4 223d 9b2c 023d 0143 aebd
00000390: 38a2 003d 3cb3 38bd a8fa 8d3e 26b2 143e
000003a0: 52a0 633e 500e c93d 0588 153d 5916 203d
000003b0: 91d6 24be 10d4 c73d 0bee 833e c8e1 cebd
000003c0: f423 b13c f4ac 053e f3a7 463e bc9d a9bd
000003d0: 7fea b63d 4cfc 283e 1d07 263e c51f 2a3d
000003e0: 8ce3 fabd 90e9 0c3e 58bd 7a3e 9118 353d
000003f0: 8916 fcbc 9af2 03be abdc 0a3f d26d 38bd

layers.6.bias f4 [16]
0.35870755 0.033192992 0.18978557 -0.13624264 0.19348696 -0.07950573 -0.12879498 0.24391836
0.15998252 0.2591441 0.32030267 0.08274844 0.22316737 0.28130534 -0.0112543665 0.0012279603
00000000: 84a8 b73e 60f5 073d 2657 423e 3183 0bbe
00000010: 7221 463e e6d3 a2bd d5e2 03be bcc5 793e
00000020: 75d2 233e 89ae 843e b6fe a33e 0478 a93d
00000030: fd85 643e 4107 903e 3c64 38bc 83f3 a03a

layers.9.weight f4 [1, 16]
0.55068177 -0.21032622 0.39176923 -0.33366174 0.50121963 -0.15479481 -0.18251824 -0.26453426
0.37414205 0.66450197 0.46556696 0.44875085 0.23790593 0.5454836 0.38977 -0.29515144
00000000: 7bf9 0c3f c25f 57be fa95 c83e b6d5 aabe
00000010: ee4f 003f 8882 1ebe 10e6 3abe 0971 87be
00000020: 8c8f bf3e cd1c 2a3f cb5e ee3e acc2 e53e
00000030: 9d9d 733e d0a4 0b3f ef8f c73e 171e 97be
