models/Delete/antiproton_0.pt (torch, 18945 bytes, 7 tensors)

layers.0.weight f4 [64, 19]
0	0x3ebcca72	0.36873204
1	0x3e394a89	0.18094839
2	0xbe905c85	-0.28195587
3	0x3cb7cfc9	0.022437947
4	0xbf5212bd	-0.8205984
5	0xbe9a290e	-0.30109447
6	0xbedfec47	-0.43734953
7	0xbc7bad89	-0.015361198
8	0xbe665d92	-0.22496632
9	0xbdf6148d	-0.120156385
10	0xbf36f177	-0.71462196
11	0xbe087eef	-0.13329671
12	0x3e31f3f1	0.17378213
13	0x3dffb316	0.1248533
14	0xbde9352d	-0.113870956
15	0x3bf48128	0.0074616857
16	0x3d282a88	0.041056186
17	0xbe26ec93	-0.16301183
18	0x3df0bf83	0.11755278
19	0x3d457831	0.048210327
20	0x3d114c21	0.035472993
21	0x3d967f11	0.07348455
22	0x3f363eb3	0.7118942
23	0xbf445c9b	-0.76703805
24	0x3e9eb71c	0.30999076
25	0x3f1bcd23	0.6085989
26	0x3cec7ef7	0.028869135
27	0x3d8c888b	0.06861981
28	0xbe4726d4	-0.19448406
29	0xbf9e8af9	-1.2386161
30	0xbdacfda5	-0.08446816
31	0xbd99ef67	-0.075163655
32	0xbe0de57a	-0.1385707
33	0x3bb8aff6	0.0056362106
34	0xbd29b8ab	-0.04143588
35	0x3d580a41	0.052744154
36	0xbcc6a054	-0.024246372
37	0x3d8ea3ef	0.069648616
38	0xbe2a21e7	-0.16614495
39	0xbd2b3b8c	-0.041804835
40	0xbcc2e8f0	-0.023792714
41	0x3e42ff77	0.19042765
42	0x3e4ce903	0.20010762
43	0xbdd180b6	-0.10229628
44	0xbe5f035a	-0.21778622
45	0x3e3ce1cd	0.18445511
46	0xbdc8ad7a	-0.09798713
47	0xbde73c0e	-0.112907514
48	0x3db46982	0.088091865
49	0xbe60ef83	-0.21966366
50	0xbd3772b8	-0.04478714
51	0x3e2d0433	0.16896133
52	0x3cbed798	0.023296162
53	0xbd9b7dc8	-0.0759235
54	0xbe116dc0	-0.14202023
55	0x3c996850	0.018726498
56	0x3e015705	0.12630852
57	0x3e436dd3	0.19084863
58	0xbcb2d26e	-0.021828856
59	0xbe83a927	-0.2571499
60	0xbecfec6f	-0.40610072
61	0x3ecd68f7	0.40119144
62	0xbf070db0	-0.5275526
63	0xbf21c9e0	-0.6319866
64	0xbd1ab018	-0.037765592
65	0x3e375055	0.17901738
66	0x3d0d6693	0.03452165
67	0x3f10fa1d	0.5663164
68	0xbe1aaae9	-0.1510426
69	0xbdbb8228	-0.09155685
70	0x3c3a62d2	0.0113761
71	0xbe23d835	-0.16000445
72	0x3c73d299	0.014881753
73	0xbe2bc4af	-0.16774248
74	0xbdd6a28b	-0.10480221
75	0x3d8db1c6	0.06918673
76	0xbe4a6e6b	-0.19768684
77	0xbdf20560	-0.118174314
78	0x3d5390b4	0.05165167
79	0xbe5f8b8c	-0.21830577
80	0x3e5226a1	0.20522548
81	0xbdec9300	-0.115514755
82	0x3e53480b	0.20632951
83	0xbe166e6c	-0.1469056
84	0x3e41ca6f	0.18924879
85	0x3c8ebdc0	0.017424464
86	0xbd261bd0	-0.040553868
87	0x3d2caf0c	0.042159125
88	0xbdb321f8	-0.087467134
89	0x3e4f5fe5	0.20251425
90	0x3e5d6355	0.21619923
91	0xbe6613fb	-0.2246856
92	0x3dbab722	0.09116961
93	0x3e173073	0.14764576
94	0x3dccc13e	0.099977955
95	0xbd2948ec	-0.04132931
96	0x3cb14458	0.021639034
97	0xbdb984c6	-0.09058528
98	0xbe522c8b	-0.20524804
99	0xbd56bef4	-0.0524282
100	0xbc2782e0	-0.010224074
101	0x3e40b50b	0.18819062
102	0xbcdc19b8	-0.026867732
103	0x3c437440	0.011929572
104	0xbd57bb80	-0.05266905
105	0x3df51a16	0.11967866
106	0xbdc3e6a4	-0.095654756
107	0x3b887740	0.0041646063
108	0xbdf67856	-0.12034671
109	0x3e1cce0b	0.15312974
110	0xbe33282f	-0.17495798
111	0xbc2e88c0	-0.010652721
112	0x3e39bc61	0.18138267
113	0x3aeb4500	0.0017949641
114	0x3f4b2115	0.79347354
115	0x3e413b74	0.18870336
116	0x3ba0d8fe	0.00490868
117	0x3c0adc96	0.008475443
118	0x3f995f2d	1.198217
119	0x3f2859f6	0.6576227
120	0x3eeec841	0.46637157
121	0xbe3544fa	-0.17702094
122	0x3ded3738	0.11582798
123	0x3ced85b7	0.028994424
124	0x3edb8368	0.42873693
125	0xbe6178f7	-0.220188
126	0x3e416220	0.18885088
127	0xbe35ab60	-0.17741156
128	0x3dba014b	0.09082278
129	0xbc0cf652	-0.008603649
130	0x3de30898	0.110856235
131	0xbd0e5594	-0.034749582
132	0x3ce411db	0.027840545
133	0xbdad7f72	-0.08471574
134	0x3e459aff	0.19297408
135	0x3e2dc789	0.16970648
136	0xbe1ef8a3	-0.15524535
137	0xbe4f4079	-0.20239438
138	0xbded6a94	-0.11592594
139	0x3e3a30d3	0.18182687
140	0xbe55768c	-0.20846003
141	0xbe3eff76	-0.18652138
142	0xbb3caa00	-0.0028787851
143	0xbe136178	-0.1439265
144	0x3de600ae	0.112305984
145	0x3e58e9a1	0.21182872
146	0x3d788f94	0.0606838
147	0x3e2adc75	0.1668566
148	0xbe631949	-0.22177614
149	0x3d24a164	0.040192977
150	0x3e03f7a9	0.12887444
151	0x3d57b8c4	0.05266644
152	0xbd3979c4	-0.04528214
153	0xbe1ece36	-0.1550835
154	0x3e5ab5f3	0.2135847
155	0xbd294a70	-0.041330755
156	0x3dff304e	0.12460385
157	0x3e38e50d	0.18056126
158	0xbe633122	-0.22186711
159	0xbe151229	-0.14557709
160	0xbe3bb3aa	-0.18330255
161	0xbda442c8	-0.0802055
162	0xbe59975c	-0.21249145
163	0xbd54de00	-0.05196953
164	0x3e403035	0.1876839
165	0x3da687ae	0.081313476
166	0x3c921638	0.01783286
167	0xbdc485c8	-0.09595829
168	0x3e4c51cd	0.1995308
169	0xb9012000	-0.0001231432
170	0x3e29f49f	0.16597222
171	0x3c18b6ce	0.009320928
172	0x3ccf3982	0.025295977
173	0x3a8938ca	0.0010469195
174	0xbdf903f1	-0.12158955
175	0x3e8a7156	0.27039593
176	0xbf7f4497	-0.99714035
177	0xbf6b2af7	-0.91862434
178	0xbe1e8c1e	-0.15483138
179	0xbdce3838	-0.100693166
180	0xbcf74a28	-0.030186728
181	0x3f9a08dc	1.2033954
182	0x3d1c273f	0.038123365
183	0x3d68e858	0.056862205
184	0x3be716ad	0.0070522637
185	0x3ce755bf	0.02823913
186	0x3c81fcaa	0.01586755
187	0x3bde186f	0.006777815
188	0x3c5a8492	0.013337271
189	0xbafc7604	-0.0019261246
190	0x3da8825c	0.08227989
191	0xbecb9057	-0.3975856
192	0xbeac27c5	-0.33624092
193	0xbdd4ed2b	-0.10396799
194	0x3f37a01a	0.7172867
195	0xbe55cec3	-0.20879655
196	0x3da28e85	0.0793734
197	0x3e0d2c25	0.13786371
198	0x3e7b9499	0.24568404
199	0xbe7f7bac	-0.24949521
200	0x3f4504af	0.7696027
201	0xbe4a46cd	-0.19753571
202	0x3e298ac0	0.16556835
203	0x3c92e263	0.017930215
204	0xbda94856	-0.0826575
205	0x3cdbe035	0.026840309
206	0xbe052e4e	-0.13005945
207	0xbd790f78	-0.060805768
208	0xbb0c1aeb	-0.002137835
209	0xbd05dffa	-0.032684304
210	0x3d7fa5c2	0.06241394
211	0xb96fbc25	-0.00022862905
212	0xbde606e3	-0.11231782
213	0x3ece5cc9	0.40305164
214	0xbf808bcb	-1.0042661
215	0xbf871092	-1.0551932
216	0x3e14cc1c	0.14530987
217	0xbe15ca3d	-0.14627929
218	0x3c906bba	0.017629493
219	0x3fa6fadb	1.3045305
220	0x3d6f29f2	0.05838961
221	0xbdc7de84	-0.09759238
222	0x3bba2d8c	0.005681699
223	0x3c1e5c00	0.009665489
224	0x3c91d92e	0.017803755
225	0x39b690d5	0.00034821653
226	0x3d4a6fcb	0.04942302
227	0xbb1e3317	-0.0024139339
228	0xbe751786	-0.23934755
229	0x3da09e76	0.07842724
230	0xbe8397da	-0.2570179
231	0x3f454417	0.7705702
232	0xbf3a51e2	-0.72781193
233	0x3e2b7532	0.16743925
234	0x3ea452cf	0.32094428
235	0x3e2d60a2	0.16931394
236	0xbd298415	-0.04138573
237	0xbe08e517	-0.13368641
238	0xbf85f8c8	-1.0466547
239	0x3b2cfa0a	0.0026394152
240	0xbdf144ac	-0.11780676
241	0xbd7f1c65	-0.06228294
242	0xbd08af51	-0.03337032
243	0xbbdeb82b	-0.006796857
244	0x38b5ff4a	8.678304e-05
245	0x3bbfb7d6	0.0058507724
246	0x3d1656a5	0.036703724
247	0xbdd584f4	-0.104257494
248	0xbe05fc85	-0.1308461
249	0xbe62acde	-0.22136256
250	0xbd4c2698	-0.049841493
251	0xbe08073a	-0.13284007
252	0x3e573c55	0.21019109
253	0xbbed1b00	-0.0072358847
254	0xbe1a5e28	-0.1507498
255	0xbcb35db8	-0.021895275

layers.0.bias f4 [64]
0	0xbdc93e02	-0.0982628
1	0x3db8f7ee	0.09031664
2	0x3dc020c6	0.09381251
3	0xbe4a9bea	-0.19786039
4	0xbc28c670	-0.010301217
5	0xbe3a8b09	-0.182171
6	0xbe72504f	-0.23663448
7	0x3d98b50a	0.074564055
8	0xbe19bd24	-0.15013558
9	0xbe4d532a	-0.20051256
10	0xbdd0fb8a	-0.10204227
11	0x3d8dd5f3	0.06925573
12	0x3d8a29a8	0.067462265
13	0xbd5220f0	-0.051300943
14	0x3e25f55b	0.16206877
15	0xbebff0a8	-0.37488294
16	0xbe7d4790	-0.2473433
17	0xbe3c5ab6	-0.18393978
18	0xbe937a3a	-0.2880419
19	0xbe76ec83	-0.2411366
20	0x3e36b2e7	0.17841683
21	0x3e71da9a	0.23618546
22	0xbe44f119	-0.19232596
23	0xbdbf9796	-0.093550846
24	0x3d61db77	0.05514094
25	0xbd18e5d4	-0.037328556
26	0x3cbce5a8	0.023058727
27	0xbe1e2c7e	-0.1544666
28	0x3de853c4	0.11344102
29	0xbc46655a	-0.012109125
30	0xbe1f6d85	-0.15569122
31	0xbdd0c10e	-0.10193072
32	0xbe92c0b0	-0.28662634
33	0xbd6c16ea	-0.05763904
34	0xbd6c8cc2	-0.057751425
35	0x3def1178	0.11673254
36	0x3b136fe3	0.002249711
37	0x3c3b6e2c	0.011439841
38	0xbd2e133f	-0.042498823
39	0x3cf3e349	0.029771464
40	0x3d6bb664	0.057546988
41	0xbd91cae2	-0.07118775
42	0xbe39f282	-0.18158916
43	0xbaf0b180	-0.0018363446
44	0x3e120821	0.14260913
45	0xbe41dac7	-0.18931113
46	0xbe882de0	-0.265975
47	0x3d1ddeb8	0.03854248
48	0x3e09676c	0.13418359
49	0xbe7ecb03	-0.2488213
50	0xbdad8384	-0.0847235
51	0xbeadbdfb	-0.33934006
52	0xbe00004b	-0.12500112
53	0x3e73d18b	0.23810403
54	0x3e3c92ab	0.18415324
55	0xbe0f36c7	-0.1398574
56	0x3ca2e8c7	0.019886388
57	0x3cb1bff8	0.021697983
58	0x3e0f32a4	0.13984162
59	0xbe5763d9	-0.21034183
60	0xbde6d896	-0.11271779
61	0x3e4be55b	0.19911711
62	0x3e4befc7	0.19915687
63	0xbe0fa34d	-0.14027138

layers.3.weight f4 [32, 64]
0	0x3bf4e57c	0.0074736457
1	0xbdf9697b	-0.12178322
2	0xbd912714	-0.07087532
3	0xbd224430	-0.03961581
4	0xbd6294fc	-0.055317864
5	0x3cea80a8	0.028625801
6	0x3c4cceb8	0.012500457
7	0x3c812ab8	0.01576744
8	0xbd53661c	-0.05161105
9	0x3f942e23	1.157658
10	0xbbf44aee	-0.0074552214
11	0x3f404d20	0.75117683
12	0xbd951bcd	-0.07280693
13	0xbd204e10	-0.039136946
14	0x3de5a620	0.112133265
15	0xbc0baffc	-0.008525845
16	0xbda455c8	-0.08024174
17	0x3be829da	0.007085067
18	0x3da117d8	0.07865876
19	0xbc81abef	-0.015829055
20	0xbda54b7c	-0.08071038
21	0x3efae73b	0.4900454
22	0xbd92a400	-0.07160187
23	0x3e8ab615	0.27092043
24	0xbc50960a	-0.012731085
25	0xbd84a2dc	-0.064763755
26	0x3bc27520	0.0059343725
27	0x3d9ab4d8	0.075540245
28	0xbd04ada4	-0.03239216
29	0x3b8c7543	0.0042864396
30	0xbdbea62c	-0.093090385
31	0x3c50c712	0.012742775
32	0x3c9d531b	0.019204667
33	0x3c30e348	0.010796376
34	0x3cff6e7f	0.031180618
35	0x3ead295f	0.33820626
36	0x3d20f071	0.039291803
37	0xbc3d3a5e	-0.01154956
38	0x3e7d9652	0.24764374
39	0x3d01faf9	0.031733487
40	0x3dc65816	0.0968477
41	0xbc4b8c9d	-0.012423662
42	0x3d9196ad	0.07108817
43	0xbd62b8b8	-0.055351943
44	0x3e71eca3	0.23625426
45	0x3ea43eac	0.32079065
46	0x3e0f0023	0.13964896
47	0x3e7d6bde	0.2474818
48	0x3e49a73a	0.19692698
49	0x3e4ddd68	0.20103991
50	0x3dada87c	0.084794015
51	0xbc448603	-0.0119948415
52	0xbe885533	-0.26627502
53	0xbd8ba388	-0.068183005
54	0x3d2c0298	0.04199466
55	0x3d506f48	0.050887376
56	0x3caa857e	0.020815607
57	0x3dadb99a	0.08482666
58	0x3e846f25	0.25866047
59	0xbda9469e	-0.08265422
60	0x3dff3d3a	0.1246285
61	0xbd0abc60	-0.033871055
62	0xbceb34fb	-0.028711786
63	0xbe549eee	-0.20763752
64	0xbda2ccd4	-0.07949224
65	0xbe323b0c	-0.17405337
66	0xbd03b614	-0.032156065
67	0x3d749a6d	0.059717584
68	0x3dad6cea	0.08468039
69	0x3da77da4	0.08178261
70	0x3e478695	0.19484933
71	0x3cd1cc00	0.02560997
72	0x3d3e5d28	0.04647556
73	0x3f10ab3d	0.5651129
74	0x3d17388b	0.036919158
75	0x3e9a0b26	0.3008663
76	0xbd74f4f1	-0.059803907
77	0xbdac7006	-0.08419804
78	0x3d6a7fec	0.057250902
79	0xbbe98778	-0.007126745
80	0x3d7fdae3	0.062464606
81	0x3c9ef164	0.019402213
82	0xbced4e33	-0.028967952
83	0x3ab82ab2	0.001405081
84	0xbd61d7a4	-0.05513729
85	0x3f323e61	0.6962643
86	0x3d9a688e	0.075394735
87	0x3d14baac	0.036310837
88	0xbd28534a	-0.041095056
89	0xbd6b8f91	-0.057509962
90	0x3d3e8b84	0.04651977
91	0xbd9f3627	-0.077740006
92	0xbe06dfd9	-0.13171329
93	0x3d2ec69e	0.042669885
94	0x3d02402b	0.031799477
95	0x3c35f9ff	0.011106967
96	0x3d5d6260	0.054048896
97	0xbdd92924	-0.1060355
98	0xbd2127fd	-0.039344776
99	0x3ea66438	0.32498336
100	0x3ba9a27e	0.0051768413
101	0x3d000620	0.03125584
102	0x3e3ce362	0.18446115
103	0xbdbd60f5	-0.09247009
104	0xbb617780	-0.0034403503
105	0x3cffdb62	0.03123254
106	0xbcf8bf6f	-0.03036472
107	0xbdf360f6	-0.11883728
108	0x3f23fd1b	0.64058083
109	0x3d48d251	0.0490287
110	0x3cabc0a0	0.020965874
111	0x3e5ce8fd	0.21573253
112	0x3e8e4939	0.2779024
113	0x3d9d76b8	0.076886594
114	0xbd82873c	-0.0637345
115	0x3d375800	0.044761658
116	0xbe8b3d19	-0.2719505
117	0x3e8daf09	0.27672604
118	0x3dd6e9fc	0.10493848
119	0x3d837940	0.06419611
120	0x3d328373	0.04358239
121	0x3dadcf34	0.084867865
122	0x3ea0996a	0.31367046
123	0x3dd80056	0.10546939
124	0x3c571c79	0.013129347
125	0xbdb2853e	-0.0871682
126	0xbcbdba04	-0.023159988
127	0xbe687c86	-0.22703752
128	0x3d9080e3	0.07055833
129	0xbeaf9e8c	-0.3430065
130	0xbc871040	-0.01648724
131	0xbde4aa38	-0.11165279
132	0xbcf89350	-0.030343682
133	0xbcf4db28	-0.029889658
134	0x3be7be37	0.007072236
135	0xbca36b38	-0.019948587
136	0x3c3527c0	0.01105684
137	0x3f3478a5	0.7049659
138	0x3cf6b4b6	0.030115467
139	0x3e47e318	0.19520223
140	0xbd13ea6c	-0.036112234
141	0xbd3ba868	-0.0458149
142	0x3d7d8270	0.061891973
143	0xbd9826f0	-0.07429302
144	0xbce511bd	-0.02796256
145	0xbdcc9c00	-0.09990692
146	0x3e0ea361	0.13929512
147	0x3b8c5907	0.004283074
148	0xbd34e42c	-0.044162914
149	0x3f50aa88	0.8151021
150	0xbd8dc1dc	-0.06921741
151	0x3eb23630	0.34806967
152	0x3e16e6b7	0.14736448
153	0xbd33edb1	-0.043927852
154	0xbd186b88	-0.037211925
155	0x3cb9b3b2	0.022668693
156	0xbcac06b0	-0.020999283
157	0x3c023240	0.007946551
158	0xbc06f6bb	-0.008237536
159	0xbd1e2485	-0.038609046
160	0xbd1b55d1	-0.037923638
161	0x3c3e2133	0.011604595
162	0xbcc4b01d	-0.024009759
163	0x3dc52b18	0.0962736
164	0x3d67aea5	0.05656304
165	0xbd2f15bd	-0.04274534
166	0x3dabcdc2	0.083888546
167	0x3cc83c71	0.024442883
168	0x3de54668	0.111950696
169	0x3cb8e61b	0.02257066
170	0xbb40edda	-0.0029438646
171	0x3d41466c	0.0471863
172	0x3e254338	0.16138923
173	0x3e793a29	0.24338593
174	0x3d83ea72	0.06441201
175	0x3e7b34ae	0.24531814
176	0x3dc72d63	0.09725454
177	0x3e5ef9b3	0.2177494
178	0x3d1e99e4	0.03872098
179	0xbc8068d0	-0.015674978
180	0xbe50b7e8	-0.20382655
181	0xbdd0b7da	-0.10191317
182	0x3dd9dcbe	0.10637806
183	0x3cd83ca0	0.026396096
184	0xbdd9b648	-0.106304705
185	0x3d875e7c	0.06609818
186	0xbd80285b	-0.06257697
187	0x3d2a9054	0.04164155
188	0x3a25a213	0.00063184014
189	0xbdae64ae	-0.08515297
190	0x3da442c5	0.08020548
191	0xbde912c2	-0.11380531
192	0xbd983115	-0.07431237
193	0xbdf86f10	-0.121305585
194	0xbd940468	-0.07227403
195	0xbd8e3870	-0.06944358
196	0xbd15fc20	-0.0366174
197	0xbdf74912	-0.12074484
198	0x3dcf090d	0.10109148
199	0xbcd14848	-0.025547162
200	0x3dd40f3c	0.10354468
201	0x3edd5fdc	0.43237197
202	0xbb5716ff	-0.0032820103
203	0x3d885fee	0.06658922
204	0xbd34ce6b	-0.044142168
205	0x3de33e42	0.11095859
206	0x3d56de38	0.052458018
207	0x3c54e75a	0.012994612
208	0xbc97e827	-0.018543316
209	0x3cd2b7e5	0.025722453
210	0x3c804d42	0.01566184
211	0x3dc502e0	0.09619689
212	0x3d9e3792	0.07725443
213	0x3ecfcd39	0.4058626
214	0x3d72c108	0.05926612
215	0x3dc9ac0b	0.09847268
216	0x3de4af2a	0.111662224
217	0x3d877f0f	0.066160314
218	0xbdcbfd84	-0.09960464
219	0x3da22a45	0.079182185
220	0xbd5a7209	-0.05333141
221	0xbdef4a65	-0.116841115
222	0xbd12896c	-0.035775587
223	0x3b99d549	0.004694615
224	0xbdb489d6	-0.088153526
225	0xbdfe7d46	-0.12426238
226	0xbc96875d	-0.018375093
227	0xbca37904	-0.019955166
228	0xbde9eeaf	-0.114224784
229	0xbdb08c15	-0.086204685
230	0x3da53d39	0.08068318
231	0xbe06aefa	-0.13152686
232	0x3ced74e8	0.02898641
233	0xbd98cc68	-0.074608624
234	0xbc8dd545	-0.017313609
235	0x3cff4210	0.03115943
236	0x3d513919	0.051079843
237	0xbcfeed8a	-0.031119127
238	0xbdc22ad5	-0.09480826
239	0xb9659237	-0.00021893611
240	0xbc9230fa	-0.01784562
241	0x3da5c334	0.08093873
242	0xbb3dcb00	-0.0028960109
243	0x3dc9cd10	0.09853566
244	0xbe5a9f30	-0.21349788
245	0x3d9f51ed	0.07779298
246	0x3cf584e0	0.029970586
247	0x3d85f6fa	0.06541248
248	0x3c4b5f72	0.012412893
249	0xbdb70f92	-0.08938517
250	0x3e7ff5a2	0.24996045
251	0xbcec1438	-0.028818235
252	0x3ca7c7af	0.020480959
253	0x3dbc8208	0.09204489
254	0x3d511d54	0.05105336
255	0xbe29115b	-0.16510527

layers.3.bias f4 [32]
0	0xbe504185	-0.20337494
1	0xbd875d44	-0.06609586
2	0xbd037a86	-0.03209927
3	0x3d22ee75	0.03977819
4	0x3e02e8de	0.12784144
5	0x3de798fc	0.11308476
6	0xbd0812df	-0.033221122
7	0x3cc63a0f	0.024197606
8	0xbd56c976	-0.052438222
9	0x3cad4230	0.021149725
10	0x3dc19dc8	0.094539225
11	0x3cd29c2d	0.025709236
12	0xbe0107bd	-0.12600608
13	0x3e3839af	0.17990755
14	0xbdffeb82	-0.124960914
15	0x3d14c419	0.036319826
16	0x3e909e9f	0.28246018
17	0x3d8862f6	0.066595
18	0x3d0adcfb	0.03390215
19	0x3e03f4d1	0.12886359
20	0x3d957d60	0.07299304
21	0xbd99d623	-0.075115465
22	0xbe00978f	-0.12557815
23	0xbdb9c77f	-0.09071254
24	0x3d65f945	0.056145925
25	0xbe2655fe	-0.16243741
26	0xbe1423a7	-0.14466725
27	0x3d92ecaa	0.07174046
28	0x3e09ef03	0.13470082
29	0x3dca6f74	0.09884539
30	0x3d240d2d	0.040051628
31	0x3e920e88	0.2852671

layers.6.weight f4 [16, 32]
0	0x3d86ead9	0.065877624
1	0x3e489595	0.19588311
2	0x3e3a1335	0.1817139
3	0x3dc33130	0.09530866
4	0x3e5a6db9	0.21330918
5	0x3dc3d0f8	0.09561342
6	0x3e60f98f	0.21970199
7	0xbd8bfdd8	-0.06835526
8	0x3e376aea	0.17911878
9	0x3e56daba	0.20981875
10	0xbd245c0e	-0.040126853
11	0xbe0d165b	-0.13778059
12	0xbdcae4e2	-0.09906937
13	0x3db21716	0.086958095
14	0x3de68185	0.11255173
15	0xbe45ec6d	-0.1932847
16	0x3de8c847	0.11366325
17	0x3e8c0926	0.2735073
18	0x3cd723fe	0.02626228
19	0xbe19ee49	-0.15032305
20	0xbdbbbc5c	-0.09166786
21	0x3e668e58	0.22515237
22	0x3e4e8db0	0.20171237
23	0x3df20569	0.11817438
24	0xbe0e8df9	-0.13921346
25	0x3dc02337	0.09381717
26	0x3e9495bc	0.29020488
27	0x3d9f31a2	0.077731386
28	0xbcf91dd6	-0.030409735
29	0xbe9b9709	-0.30388668
30	0x3e9b28cc	0.30304563
31	0xbe1a07ce	-0.1504204
32	0x3ddce45e	0.10785745
33	0x3e300f54	0.17193347
34	0x3cfe6d8e	0.0310581
35	0x3c2c1c73	0.01050483
36	0x3e498d3c	0.19682783
37	0xbc92808e	-0.017883565
38	0x3e0f7668	0.14010012
39	0x3d9da702	0.0769787
40	0x3e09adb0	0.13445163
41	0x3e601d31	0.21886136
42	0xbd1846f7	-0.037177052
43	0xbc7b2442	-0.015328469
44	0x3cf18e45	0.029486785
45	0xbe38509f	-0.17999505
46	0xbd885fbe	-0.066588864
47	0xbe11b124	-0.1422773
48	0xbeaa18c6	-0.33222026
49	0x3e2c303f	0.1681528
50	0xbe226eb9	-0.1586255
51	0xbd539cf1	-0.051663343
52	0xbe3a5fbb	-0.18200581
53	0x3ea6001d	0.3242196
54	0xbdaadf31	-0.08343352
55	0x3d4d6c42	0.05015207
56	0x3c6035fa	0.013684744
57	0x3da574ab	0.08078893
58	0x3eb50938	0.35358596
59	0x3e00cbc4	0.1257773
60	0x3e048574	0.12941533
61	0xbe7cee31	-0.24700238
62	0x3e932f8c	0.28747213
63	0xbd01f2c1	-0.03172565
64	0x3e4265da	0.18984166
65	0x3e8443eb	0.25833067
66	0x3db22064	0.08697584
67	0xbd1238e8	-0.0356988
68	0x3e3d91b8	0.18512619
69	0x3d8c5ce4	0.06853655
70	0x3ebecc9a	0.37265474
71	0x3e0f0336	0.13966069
72	0x3e80dcb7	0.25168392
73	0x3da907a8	0.082534134
74	0xbe2c6773	-0.16836338
75	0xbe3da2e6	-0.18519172
76	0xbde0fb1e	-0.10985397
77	0x3cce7e46	0.025206696
78	0x3db76308	0.089544356
79	0x3ca3333c	0.019921891
80	0xbd84d792	-0.06486429
81	0xbdb4ba0e	-0.088245496
82	0xbe28684c	-0.16446036
83	0xbd88970c	-0.06669435
84	0xbdc905c8	-0.09815556
85	0x3e6de149	0.2323047
86	0xbda97f8d	-0.082762815
87	0x3e3c5efb	0.18395607
88	0xbd803322	-0.06259753
89	0x3e747bf6	0.23875412
90	0x3d8b7831	0.06810034
91	0x3c326583	0.01088846
92	0x3d4765a5	0.04868092
93	0xbeaddd21	-0.3395777
94	0x3e3bfd49	0.1835834
95	0xbdb4f2f3	-0.088354014
96	0xbd97b51f	-0.07407593
97	0x3e296dbf	0.16545771
98	0x3e57706f	0.21038984
99	0xbe2921e2	-0.16516832
100	0x3d890c23	0.06691768
101	0x3d124162	0.035706885
102	0x3d85c2c9	0.06531293
103	0x3c06cd59	0.00822767
104	0xbc837e1b	-0.016051343
105	0x3e3b5b14	0.18296462
106	0xbdb6241a	-0.088936046
107	0xbcdc46c1	-0.026889207
108	0x3d28c1d6	0.04120048
109	0x3e0cf2b2	0.13764456
110	0xbccc4279	-0.02493404
111	0xbc571397	-0.013127229
112	0x3d3c0c8f	0.045910414
113	0x3e5001fa	0.20313254
114	0xbe83265d	-0.25615206
115	0xbdf84f8a	-0.12124546
116	0x3d0d6c96	0.034527384
117	0xbc1eb7dd	-0.009687391
118	0x3e09c6d5	0.13454755
119	0x3e7b63b0	0.24549747
120	0xbdebfeac	-0.11523184
121	0x3e32b49c	0.1745171
122	0x3e5e4301	0.21705247
123	0x3deca411	0.11554731
124	0x3df21255	0.11819903
125	0xbe9b7f1a	-0.30370408
126	0x3dec45ee	0.115367755
127	0x3d9382a5	0.07202653
128	0x3d425d38	0.04745218
129	0x3e10192c	0.14072102
130	0x3e878b15	0.264733
131	0x3e25915b	0.1616873
132	0x3dcabf4e	0.0989977
133	0x3e33f7ad	0.1757495
134	0x3d0eb6e0	0.034842372
135	0x3d7af5e8	0.06126967
136	0x3e3394e3	0.17537265
137	0x3d0b9965	0.034081835
138	0xbddccd95	-0.10781399
139	0xbe31d399	-0.17365874
140	0x3df48bee	0.11940752
141	0xbd6f0fe2	-0.058364756
142	0x3e41ca14	0.18924743
143	0xbe09bdc7	-0.134513
144	0x3c6b3a0f	0.014357104
145	0x3e07b3ee	0.13252231
146	0xbdfa0ac3	-0.12209084
147	0xbd04a687	-0.032385375
148	0xbe331647	-0.17488967
149	0x3eb04a1c	0.3443154
150	0x3de7d4dd	0.11319897
151	0x3dcb88d2	0.09938206
152	0xbd2b7fb2	-0.041869827
153	0x3e2c9dc3	0.16857056
154	0x3e7a9676	0.24471459
155	0x3c1cee6b	0.009578328
156	0x3d1007ae	0.035163574
157	0xbe8aee4a	-0.27134925
158	0x3d6bee25	0.05760016
159	0xbd9c5f5f	-0.07635378
160	0xbebc7401	-0.36807254
161	0xbe5384a4	-0.20656067
162	0xbe4835ac	-0.19551724
163	0x3db0d97f	0.08635234
164	0x3e216c5d	0.15763994
165	0x3e6244c7	0.22096549
166	0xbdb39363	-0.08768346
167	0xbe569d10	-0.20958352
168	0xbe678764	-0.22610241
169	0xbe12ede2	-0.14348558
170	0xbafa901f	-0.0019116438
171	0x3e6cebcc	0.23136824
172	0x3c446ab7	0.011988333
173	0x3d79333a	0.06083987
174	0xbe8cea7c	-0.27522647
175	0x3e79d81c	0.24398845
176	0x3e14c57c	0.1452846
177	0xbea278b9	-0.3173273
178	0x3e0e840f	0.13917564
179	0x3e49d3f4	0.1970976
180	0x3dc697f5	0.09696952
181	0xbe606192	-0.2191222
182	0xbe8f87ea	-0.28033382
183	0xbdcc90fd	-0.09988592
184	0x3e88df00	0.26732635
185	0xbe9760a7	-0.29565927
186	0xbed62aec	-0.41829622
187	0x3e1d7730	0.15377498
188	0xbd6d9dd5	-0.05801185
189	0x3eb30cab	0.34970602
190	0xbe171f97	-0.14758144
191	0x3e377fae	0.179198
192	0xbea1a519	-0.31571272
193	0xbe71a1d9	-0.23596896
194	0xbe29d151	-0.16583754
195	0xbd07db56	-0.03316816
196	0x3e35fa2f	0.17771219
197	0xbde20336	-0.11035769
198	0xbd06a206	-0.03286936
199	0x3dfe09b9	0.12404198
200	0xbddd37ab	-0.108016334
201	0xbe5f7e6d	-0.21825571
202	0x3cd1bb84	0.02560211
203	0x3e11bfb6	0.14233288
204	0x3e584336	0.21119389
205	0xbd9456dd	-0.0724313
206	0x3c167675	0.009183516
207	0xb718f264	-9.116342e-06
208	0x3d411314	0.047137335
209	0xbe89fdcb	-0.2695144
210	0x3e27a3a5	0.16371019
211	0x3e9fdac1	0.31221583
212	0x3e871ddd	0.2638997
213	0xbe27a9f6	-0.16373429
214	0x3cbe042e	0.023195352
215	0xbeba57d6	-0.36395139
216	0x3e2dd9be	0.16977593
217	0xbdfda952	-0.12385811
218	0xbef4a1e9	-0.47779778
219	0x3daa6425	0.08319882
220	0x3e98ca54	0.29841864
221	0x3e99270d	0.29912606
222	0xbea15e3d	-0.3151721
223	0x3e55ef25	0.20892008
224	0x3d8a374a	0.06748827
225	0x3e86a318	0.26296306
226	0x3e305a3d	0.17221923
227	0x3d462ff2	0.048385568
228	0x3e230733	0.15920715
229	0x3d770a3a	0.060312487
230	0x3d16903f	0.036758658
231	0x3dbada8b	0.09123715
232	0x3e3f57cc	0.18685836
233	0x3e6701d6	0.22559294
234	0xbe337d24	-0.17528206
235	0xbe2ba5a2	-0.16762403
236	0x3e4069f0	0.18790412
237	0xbe70cf79	-0.23516645
238	0x3e328db1	0.17436863
239	0xbe00998f	-0.12558578
240	0xbe5cf0e6	-0.2157627
241	0x3e2719d6	0.1631845
242	0xbddcdf2a	-0.10784753
243	0xbe0923e7	-0.13392602
244	0xbe3f40ef	-0.18677114
245	0x3e2f924c	0.17145652
246	0xbd670c5a	-0.056408264
247	0x3e4c6da9	0.19963707
248	0x3c5cfbdb	0.013487781
249	0x3d599412	0.053119726
250	0x3e92174e	0.28533405
251	0x3e5c053d	0.21486373
252	0x3d8296bd	0.06376407
253	0xbebd3fd1	-0.3696275
254	0x3e394943	0.18094353
255	0x3cd94b6c	0.026525222

layers.6.bias f4 [16]
0	0x3d827102	0.06369211
1	0x3d679c6f	0.05654567
2	0x3a4567b7	0.00075304083
3	0x3c79039c	0.015198614
4	0xbdfe69ed	-0.124225475
5	0x3e9c571b	0.30535206
6	0x3ddf0812	0.10890211
7	0x3dc744fe	0.09729956
8	0x3e887892	0.26654488
9	0xbd1b6e2f	-0.037946876
10	0x3c9ed2be	0.0193876
11	0x3de4020b	0.11133202
12	0x3edabb92	0.4272123
13	0x3ef1c276	0.47218674
14	0x3ee4c0cf	0.4467835
15	0x3ee49b42	0.44649702

layers.9.weight f4 [1, 16]
0	0xbe04d1bc	-0.12970632
1	0xbea391ee	-0.31947273
2	0xbe0476ce	-0.12935945
3	0xbe465950	-0.19370008
4	0xbea8f3a5	-0.32998386
5	0x3ed2c517	0.41165993
6	0x3f14e5c9	0.58163124
7	0xbe979981	-0.29609302
8	0x3e8f80b6	0.28027886
9	0xbeca4ce4	-0.39511788
10	0xbe589dd8	-0.21153963
11	0xbe735faa	-0.23766962
12	0x3eab7e1b	0.33494648
13	0x3efe3747	0.49651548
14	0x3ed0873f	0.40728185
15	0x3f1962b8	0.5991626
