models/Delete/kaon_1.pt (torch, 18437 bytes, 7 tensors)

layers.0.weight f4 [64, 19]
00000000: bbb8 bd3f fad2 c53e 61ff d939 9905 5a3e
00000010: 6bfa bdbe 99d3 283e e3bb 723e d0d9 e3bb
00000020: a932 d73c f923 9f3d 1f0b e8be 39c6 2abd
00000030: 320e b1bc 93b0 cc3c 5de0 e5bd a8b3 b03a
00000040: f884 88bc 8f06 d1bd df85 9cbc 390b 163e
00000050: 1073 cebd 3167 233e b134 4f3e 8cbd 91bd
00000060: 3020 5ebd f24a 05be 43cc 2b3e af21 243e
00000070: a020 eebc 04d1 4bbd 2e62 f23d 3a88 f2bd
00000080: e142 60be 4e22 903d a44a 05be c85a 9dbd
00000090: 6a39 f53d b152 303e f382 43be b4f2 a7bd
000000a0: c207 d93d 0049 04bc 1550 313e f7c3 31be
000000b0: 1710 673e 5754 ffbd 1b18 2d3e 2d18 403e
000000c0: b395 523e be6e e33d 2b50 223e 8b9a 58be
000000d0: 707a 4bbc 7659 53be 7758 4b3e bcb2 5cbd
000000e0: 32f3 873d a4a7 573f 04ae 953d c5cf 843a
000000f0: 7377 9cbe 2a27 d33f 30b5 1ebe cffb bdbe
00000100: 0a6d dcbb 6f52 d83c 4526 ee3b 3450 91bf
00000110: b1c6 2fbd 6657 df3b df5c 31bc b840 0f3c
00000120: b0ff de3b 1ba5 4bbe f7a0 a43d 206d 573c
00000130: e95b 1c3e 12a6 313d 1901 ea39 051a 46be
00000140: 71cf b93f 65cb 16bf cd72 1ebf 03f5 b93d
00000150: 6afd 08be e1f4 9bbc d158 a4bf d2ef a93d
00000160: d787 e7bd fcbe 423c a3bf b03c a78c 4d3c
00000170: 0849 3f3c 0cd2 ae3d de5b 97bc 9488 193d
00000180: 20bf 2abd ac75 cdbd 93b9 563e 72f1 90bd
00000190: 1cef 19bd f65d c93d 5b92 2ebe 520c 09be
000001a0: 4cd3 063d 3031 4cbc de7a 4fbe 4098 a83b
000001b0: 2f4a 463e 4a50 cd3d 980f 4bbd 3175 253e
000001c0: ea19 d1bd a0c1 733c d676 24bf 0ca9 eb3d
000001d0: 2c33 74bc ac56 0d3e 4fca 063f e9d0 3cbf
000001e0: be9e 10bf efc0 b63d fd0f a1bd ac41 d0bc
000001f0: b93a a2be f369 5abe d51f cdbd 716e d03d
00000200: 2779 b83d d5c0 b13c 82b8 96bd 78bf 533e
00000210: 69a5 053d 35f0 ba3f 529f 5fbd 9caf ff3b
00000220: 3d77 af3d 18fc 9d3d 8061 49be 949c 9cbd
00000230: e0eb 81bd b9a0 8ebd 8ef0 ff3b 98ca 3ebf
00000240: e8b7 e53d a670 c73d 2dd6 ca3c 659f 583c
00000250: 1da7 f73b b3e5 18bb fad2 3cbc 5ce8 8d3d
00000260: 394a eb3f 6c85 a83d 2bbd 313a ea26 123e
00000270: e6da 0bbd 1428 95bd e3bd 103e e90c 15bd
00000280: 3f59 b63d e261 043c e810 86bf 7dec 03be
00000290: 8801 853d 69ff e8bb e046 073c a5ad b63b
000002a0: b7f8 bb3b 2d8a 1bbd 0887 7fbc f913 fa3d
000002b0: fd69 1c3d 20ef eeba 21ec 5bbd 0fb3 753e
000002c0: 9368 a8bf fe04 aebf 671b ff3d 8c41 a1bd
000002d0: 7925 d1ba e054 763d 8db3 113d 2302 92bd
000002e0: d40d 9b3c 2926 7c38 2f07 3e3c 107e 6b3c
000002f0: 2e44 9c3c d8c1 aebb cdea 1a3b 32aa 933c
00000300: 76cd 7a3b 86ad 16be 0e13 013f 967f 8dbf
00000310: fa3a 8abf 4b34 a8bd 08f3 0fbe 3a56 c6bb
00000320: 270e a5be f10c 183e 0dea 473d b047 6dbc
00000330: 6305 16bd 0778 7d3c c43c c43c 9822 52bc
00000340: 5801 dbbb 5310 08be 162b 35be df7c 783a
00000350: 44af 85be 63b9 673d 2830 a4bf 733c 85bf
00000360: 42b0 3bbd 1908 333e 317b bd3c 2826 7f3e
00000370: 1900 1cbe 913e 8f3d e5d5 a6bc fe05 693d
00000380: d037 353c 6dd0 03be 2488 093c dcde 7fbc
00000390: e525 0540 ea34 e13d 2b98 17bb 078e 133e
000003a0: 63a0 a13e f933 38bc 1450 27be f96a 42bd
000003b0: 6ac1 0b3a 5db5 833c 253d aebf 55ae 55bd
000003c0: 84b6 9a3d 5308 f4bc cc9e 2a3d 0229 153c
000003d0: 8315 14bd c12a b73b 2087 1cbd e18d 9bbf
000003e0: 6aff abbd 1ad6 f639 5c7d 86bf 1b68 db3f
000003f0: 98cb 40bf 3654 3cbf 833f dc3c d3d8 243d
1.4822 0.38637525 0.00041579737 0.21291198 -0.37105116 0.16486968 0.23704486 -0.0069534555
0.026269274 0.07770533 -0.45320985 -0.041692946 -0.021613214 0.02498654 -0.112244345 0.0013481276
-0.016664967 -0.10206329 -0.019106803 0.14652719 -0.1008054 0.15957333 0.20234944 -0.07116231
-0.054229915 -0.1301687 0.16777138 0.16028474 -0.029068291 -0.04975988 0.118351325 -0.118423894
-0.21900512 0.07037793 -0.13016754 -0.07683331 0.119738415 0.17219044 -0.19092922 -0.08200589
0.10597183 -0.008074045 0.17315705 -0.17359911 0.22564732 -0.124672584 0.16903727 0.18759222
0.20564918 0.11105107 0.15850894 -0.21152703 -0.012419328 -0.20639595 0.19857965 -0.053881392
0.06638183 0.84240174 0.073085815 0.0010132721 -0.30559883 1.6496327 -0.15498805 -0.37106177
-0.0067268657 0.026406495 0.0072677457 -1.1352601 -0.042914096 0.0068158386 -0.010825365 0.0087434575
0.0068053827 -0.19887201 0.08038514 0.013148576 0.15269436 0.043371268 0.00044632776 -0.19345863
1.4516431 -0.58904105 -0.6189392 0.090799354 -0.1337792 -0.019037666 -1.2839605 0.08297695
-0.11305206 0.011886355 0.021575755 0.012545741 0.011675127 0.08536157 -0.018476423 0.037483767
-0.041686177 -0.1003221 0.20969228 -0.07077302 -0.037581548 0.09832375 -0.17048018 -0.13383606
0.032916352 -0.012462899 -0.20261714 0.0051451027 0.19364236 0.100250795 -0.04957542 0.16157986
-0.10210021 0.014877707 -0.6424383 0.115068525 -0.014904778 0.13802594 0.5265245 -0.7375627
-0.5649222 0.08923518 -0.07864378 -0.02542194 -0.31685427 -0.21329479 -0.10015837 0.10177315
0.09007483 0.021698395 -0.07359411 0.20678508 0.03262845 1.4604555 -0.0545953 0.0078029167
0.08567665 0.07714099 -0.196661 -0.076470524 -0.06343818 -0.06964249 0.007810659 -0.74527884
0.11216718 0.09738283 0.02476033 0.013221596 0.0075577633 -0.002333027 -0.01152491 0.06929085
1.8382026 0.08228573 0.00067802024 0.14272657 -0.034144305 -0.07283035 0.14134936 -0.036389265
0.08903741 0.008079978 -1.0473909 -0.12883182 0.06494433 -0.0071105254 0.008256644 0.0055748993
0.005736436 -0.03797357 -0.015596159 0.12210841 0.038187016 -0.0018229224 -0.053691987 0.23994087
-1.3156914 -1.3595273 0.124563985 -0.0787383 -0.0015956602 0.060139537 0.035571624 -0.07129314
0.018927492 6.011702e-05 0.011598392 0.014373317 0.01907548 -0.0053331666 0.0023638487 0.018025491
0.0038269437 -0.14714631 0.504197 -1.1054561 -1.0799248 -0.08213099 -0.14057553 -0.0060527595
-0.3223736 0.14848687 0.048807193 -0.014482424 -0.03662623 0.015470511 0.023954757 -0.012825631
-0.00668351 -0.13287477 -0.17692217 0.00094790565 -0.2611028 0.056573283 -1.2827196 -1.0409073
-0.04582239 0.17483558 0.023130031 0.24916899 -0.15234412 0.069943555 -0.020365665 0.05689048
0.01106067 -0.12872477 0.008394275 -0.015617099 2.080438 0.10996421 -0.002313147 0.14409648
0.31567678 -0.01124286 -0.16339141 -0.0474653 0.000533125 0.016077692 -1.361241 -0.05216821
0.07554343 -0.029789126 0.041655347 0.009104015 -0.036153328 0.0055898135 -0.038214803 -1.2152673
-0.08398326 0.00047080294 -1.0507007 1.7141145 -0.7531066 -0.73565996 0.026885753 0.040245842

layers.0.bias f4 [64]
00000000: e22b abbc ebbf 5ebe 2166 623e 3a8e a93d
00000010: ac33 32be 7fa3 393e ffb2 84bc 772d 6fbe
00000020: a7a1 06bd 0473 8b3d b113 d33d 4438 0cbd
00000030: 8655 703c dd9b 713c a030 6bbe a3e5 2e3e
00000040: 8841 e43c caf3 b83d 6949 5dbd 7236 d23d
00000050: e0e5 92bb 801f 79bc 9be1 1bbd cf14 acbe
00000060: de8f a6be 7856 65be aea0 f33d f256 6cbe
00000070: 6842 993c a655 8fbe 5a2e 9b3d 4bbd 68be
00000080: ad8b 5b3e d865 19bd bab8 b73d f1bf 123e
00000090: d1e1 303c 13a3 34be 78fb b73c 9a8c cdbe
000000a0: 3216 9b3d ba12 39be 59c0 ba3c e8e9 43be
000000b0: f4bc 09be d77c 23be aeb9 bbbd 7b74 323e
000000c0: a16e ccbd f4d0 b8bd 106a eebc 95ff df3d
000000d0: 1ddf 4dbe 94e2 1bbd b97a a9bd 4e16 68be
000000e0: 314a fdbd 69bd debd a6aa d3bd da98 0fbe
000000f0: 0650 87bd 4b0d b1bd f789 2abe 9a77 c43d
-0.020894948 -0.21752898 0.22109272 0.08279081 -0.17402524 0.18128775 -0.016198633 -0.23357187
-0.032869007 0.06809047 0.1030649 -0.034233347 0.014668828 0.014746633 -0.22967768 0.17079787
0.027863279 0.09030874 -0.054025088 0.10264291 -0.0044829696 -0.015205264 -0.03805695 -0.33609626
-0.32531637 -0.22396266 0.118958816 -0.23080042 0.018708423 -0.27995032 0.075772 -0.2272846
0.21440001 -0.03745064 0.08970781 0.14331032 0.010796026 -0.17640333 0.022458777 -0.40146333
0.07572593 -0.1807355 0.022796797 -0.19132197 -0.13450986 -0.15965591 -0.09166275 0.17427246
-0.09982038 -0.0902423 -0.029103309 0.1093742 -0.20104642 -0.03805788 -0.082753606 -0.22664759
-0.123676665 -0.10875971 -0.10335283 -0.14023152 -0.0660706 -0.086451136 -0.16654192 0.09593125

layers.3.weight f4 [32, 64]
00000000: 01cb d43d 609a bdbb c059 803d 3fcf ae3d
00000010: e67a eabd c86e f73c 1721 cfbb cc09 d63d
00000020: a59b ab3d 14c3 9ebd 94d1 c03d 04ca f4bd
00000030: d757 f13c c6c6 56bc ddbe 813d c23c 9b3d
00000040: d61e 83bd 20bf 343d 7c51 adbd 1058 3c3d
00000050: 903d debd 5820 923d 3162 043e 0424 a2bd
00000060: a346 873d 3434 8fbd 1095 2a3d a601 b43d
00000070: 50d0 d7bc e5eb 72be ceee 9ebd ae04 babd
00000080: 7674 f93d da26 fabd 349f 00bd 902c de3d
00000090: 62eb 0fbe 28b9 2b3d 7c70 f4bd db9b 893d
000000a0: d8f5 ff3d 3a31 d53d 85fa dd3d 00f7 783d
000000b0: 4401 c8bd 3a36 393d 6581 8ebe eeaf ebbc
000000c0: 351a a7bd 0048 f7b9 c00e ffbd d849 f0bd
000000d0: ca4f 803a a868 6abd 56de 9ebd 8947 893d
000000e0: fc73 a1bd e053 7a3c e67c f03d c608 efbd
000000f0: 04a4 cebd e81b 353d 780b bb3d 38af 303d
00000100: bec5 1fbc 60fb 6abd a00a 0ebc a982 c13e
00000110: 945d 613e 447c 1cbd e836 113c 20f3 14bb
00000120: 55e4 d2ba 79e0 69bd 8b1d 8e3c 203a b73c
00000130: 89b9 f53c 255c 823c 82f6 81bd 78c2 babd
00000140: 38c5 ecbc 34d8 a83d 0e87 23bc 00c9 b83b
00000150: 6090 01bd 1013 56bd 2ffa 483d 601b dabb
00000160: 3287 1d3d 8009 153b 283c 643d 9f5a 283d
00000170: 0077 c2bc 62d1 11bd 1e7f a3bd 7772 dcbe
00000180: 6ca8 523d 10fb 673d 600c 743c 8489 eb3d
00000190: 3e1d e33e d33e 4d3d d0c2 82bd 7340 5e3d
000001a0: 98e7 05bd 200e aabd ce7d ed3a e48e bebd
000001b0: 900f 86bc 3d80 25bd 1cbd 50be 704a f4be
000001c0: 5607 483d d816 ff3c 4064 0c3b fa26 d3be
000001d0: 1336 a53c 302a 55bd fb95 853d 0a7f c9be
000001e0: 22dd 8a3d 9005 a03d 68b3 a53d f4a3 6c3d
000001f0: d4b7 eebd 60fb edbc 6cd7 d1bd c454 de3d
00000200: 5465 703c 7c7a 5a3d 005c 36b9 96d3 20bf
00000210: bd88 0dbe f2ed d1bd f639 96bd b04f 443e
00000220: 5c27 1e3e 7e97 813e 151f 8e3e be3b ed3d
00000230: 4030 023e e19e 193d 00fd 2f3d ddd2 18be
00000240: 8a17 98bd 344e a53d 465c 94bd 422e c6bd
00000250: e8e0 5f3d 6019 ffbc 0f0e 613d ad0e 07bc
00000260: 4622 99bd 5285 fdbd d09f 97bd 9259 b3bc
00000270: 6c35 463d 69a2 233e e253 c03d 04ff 563d
00000280: 4c2a 8dbd a472 d03d a8bf 1e3d a019 1abc
00000290: 8060 65bf ebb9 2ebc a83a 4f3d 365c 15bd
000002a0: 80a1 d4bd aa4f ad3d 58b5 53be 401e 5f3b
000002b0: 8825 173d c6e7 29be 9a4a 7f3d 303b d63c
000002c0: d493 5abe 7ac0 d83d c858 a03c 7ef4 09be
000002d0: b2ba 493d 80e1 6ebb d00f e43d 6c49 ba3c
000002e0: 8ac7 b13d 6c71 7c3d 401b 08bc b4c0 783d
000002f0: c260 cfbd 02da 413d 10a9 f63d 78b5 c53d
00000300: b72b 59bd 409b ddbc 30c1 ce3d eeaa b13e
00000310: ac82 a83e 10b7 3d3c 6d90 00bc 894c 193c
00000320: dc09 9abe 53ee 7c3e 343f 393e 42fa eb3d
00000330: c9df acbd e741 a73d 2a15 d8bd 29be d83d
00000340: fc7d 68bd 5ccb 173d 5b67 d8bc 109a 0d3d
00000350: 60e2 233d bc4e 433d 353b 25bd 756f 623c
00000360: b604 a3bd c2b7 8cbd 26b5 cb3d 3ee0 613d
00000370: a647 823d 3464 613e 4873 67bd a464 3abd
00000380: ecfa c4bd a018 133d e004 f5bc 482e 88bd
00000390: ec00 853f 1dae 233e fc10 0dbd b3f6 873c
000003a0: 0876 c5bc 8821 493d 18bd 303b 0086 32bd
000003b0: 9e1e 9ebd b3b2 b0bd 466a 303c 03d9 6abb
000003c0: 344e 063d 1229 c2bd a86a 5fbd 6aff e4bd
000003d0: b939 cabb 7860 7b3d d146 7fbb 494f 8ebd
000003e0: c028 20bc 74e0 913d 8080 07bd 40b2 ffbc
000003f0: 9af2 aebd 2bff c03a 5c70 f23d 06be e43d
0.103902824 -0.005786225 0.062671185 0.08535623 -0.11449222 0.030204192 -0.0063210833 0.10451087
0.08379296 -0.07752052 0.09414974 -0.11952594 0.02946083 -0.013108915 0.063352324 0.07579948
-0.06402366 0.044127584 -0.084628075 0.04598242 -0.10851586 0.07135075 0.12928082 -0.07917026
0.0660527 -0.06992379 0.041646063 0.08789377 -0.026344448 -0.23722799 -0.07760392 -0.09082924
0.12180416 -0.122144416 -0.031401828 0.10848343 -0.14054635 0.041924626 -0.11935517 0.0671918
0.12498063 0.1040978 0.108387984 0.060782433 -0.097658664 0.04521773 -0.27833095 -0.028770413
-0.081592955 -0.00047165155 -0.12453985 -0.117328346 0.0009789404 -0.057228714 -0.07757251 0.067030974
-0.078834504 0.015278786 0.117425725 -0.11671595 -0.10089877 0.044216067 0.09133047 0.04313585
-0.009751735 -0.057368636 -0.008669525 0.37794998 0.22008353 -0.038204446 0.008863188 -0.0022727922
-0.0016089777 -0.05709884 0.017348072 0.022366583 0.029995697 0.015913079 -0.06345846 -0.09119123
-0.028902635 0.082443625 -0.00998093 0.0056391954 -0.031631827 -0.052264273 0.04906672 -0.0066560954
0.03845901 0.0022741258 0.055721432 0.041102048 -0.023738384 -0.035600074 -0.0798323 -0.4305608
0.05143015 0.056635916 0.014895529 0.115008384 0.44358248 0.050108742 -0.06384814 0.054260682
-0.032691568 -0.083034754 0.0018119158 -0.09304598 -0.016364843 -0.0404055 -0.2038464 -0.4771304
0.04883512 0.031138822 0.0021422058 -0.41240674 0.020167386 -0.052042186 0.06522747 -0.39354736
0.06780459 0.07813561 0.0809086 0.057773545 -0.11656156 -0.029050529 -0.102461666 0.108560115
0.014672596 0.053339466 -0.00017391145 -0.62822855 -0.13821693 -0.102504626 -0.07335274 0.19171023
0.15444702 0.25310892 0.2775809 0.115836605 0.12713718 0.037505034 0.04296589 -0.14924188
-0.07426365 0.08071557 -0.07244162 -0.09676792 0.054657847 -0.03114003 0.054945048 -0.008243245
-0.0747724 -0.123789445 -0.07403529 -0.021893296 0.04839079 0.15979923 0.093909994 0.052489296
-0.06892833 0.10178116 0.038756996 -0.009405524 -0.8960037 -0.0106644435 0.05059305 -0.036464892
-0.10382366 0.0846246 -0.20674646 0.003404513 0.036901027 -0.16592321 0.062327005 0.02615127
-0.21345454 0.10583587 0.019573584 -0.13472173 0.049250312 -0.0036450326 0.111358285 0.022740088
0.08680637 0.061631605 -0.008307278 0.06073065 -0.10125877 0.04732705 0.12043965 0.09653753
-0.053020205 -0.027051568 0.10095441 0.34700722 0.32912195 0.01157929 -0.007846934 0.009356626
-0.30085647 0.24700288 0.18090516 0.11522342 -0.08441121 0.08166867 -0.10550912 0.10583145
-0.056760773 0.037059173 -0.026416471 0.034570754 0.04001081 0.04768251 -0.040339667 0.013820519
-0.07959883 -0.068709865 0.09946661 0.055145495 0.06361322 0.2201088 -0.056506425 -0.045506135
-0.09618172 0.035912156 -0.029909551 -0.066494524 1.0390906 0.15984388 -0.034440026 0.016597128
-0.024104133 0.049104244 0.0026968177 -0.043584824 -0.077206835 -0.08627834 0.010767525 -0.0035834915
0.032789424 -0.0948049 -0.054545075 -0.11181529 -0.006171432 0.061371297 -0.0038952122 -0.06948716
-0.009775341 0.07122889 -0.03308153 -0.031212926 -0.08542366 0.0014724483 0.11837837 0.111690566

layers.3.bias f4 [32]
00000000: 2003 cabc 7882 803d 6e38 613e f199 27be
00000010: 4572 2c3e d770 76be c6c7 cabc 31d7 1abe
00000020: 8f9f a63d 7b4b 073e b8bc 543d 714e ddbd
00000030: 4473 4a3e 2268 3b3d 25bc 723e 6298 ddbd
00000040: 0548 33bd aa73 2c3d 917a 4ebd 6ffc 873a
00000050: 1545 1f3e e21c 563d 5730 913d 8377 793e
00000060: 07e6 1f3d b7ae 45be 6adf b03d e49e 5fbd
00000070: cc26 483d 3a71 a23d a514 aebd d512 353e
-0.024659693 0.06274885 0.21994182 -0.16367318 0.16840465 -0.24066482 -0.024753463 -0.15121152
0.08135902 0.13212387 0.05193779 -0.10805977 0.19770533 0.045753606 0.23704584 -0.1082008
-0.043769855 0.042102493 -0.050409857 0.0010374914 0.15553696 0.05227364 0.07089298 0.24361996
0.03903773 -0.1930493 0.08636363 -0.05459489 0.048865125 0.079317525 -0.085000314 0.17682965

layers.6.weight f4 [16, 32]
00000000: e265 8f3e 9df4 a63e 01dd 8ebb 70ec 923e
00000010: af5e 5a3e cadd b7be e69b c63d 5f6f 4b3e
00000020: 3cc8 2e3d 0538 be3e 9f59 b23e a10f 413e
00000030: f8be 0d3f b177 ab3e 7738 dbbd 6b13 043e
00000040: 877d 373d 354f 023e 7cbd 8e3e a5d2 5d3d
00000050: 75f5 cc3d c10f 503f 0308 973e 76bc 99bc
00000060: dcd0 f4bd 68f4 c83e 9526 923c 966c 393e
00000070: 67b2 e33e 0fa6 6e3d cfec 573c 7fe4 9c3d
00000080: 96f0 de3c 9d69 9d3e 322e c53c a4c4 e53d
00000090: 0933 8c3e 1cfc f8be 5bb0 743b 9491 023e
000000a0: 969a c3bd 40a0 da3d 6757 b73e 7e8a 1dbd
000000b0: 5203 303f 02fc f7bb 0ed1 65bd 1299 d4bb
000000c0: 8fb7 a33e c638 cd3e 5184 c83e 2a96 603e
000000d0: 6b81 e43d aa5d 4f3f da07 143e aa16 223c
000000e0: f031 203d d155 983e b082 4cbd ebb5 363e
000000f0: 56a1 873d 281b 38bd 016f 303e 5a36 363e
00000100: 3319 ba3c 3c94 04bf 96ed 8c3e 758b 0fbf
00000110: ec41 e9be 2d61 b8bd 3f54 02bf 59b3 68be
00000120: 3bb2 a5be c947 f3be 561e 0cbf 73ce c9be
00000130: 3445 e1be 735c c0be 0cc7 293e 6c88 1abe
00000140: 4eae 04bf 8c1e 33bd a9fc 09bf 4964 10be
00000150: ef4b 20be 6836 b6be 8f1a 70be 5dc4 a93e
00000160: 0885 bdbe 809d 20bf 16dd b63d ab91 b7be
00000170: 5fb8 a4be 66a5 123e bae6 84be ec67 d3be
00000180: 6f04 133e 5e48 1b3e c9c1 6a3b 01dd 3abc
00000190: 7a9b a73e e20b a9be eebd 043e fc8b 9c3d
000001a0: 4085 063e 9704 023e ba06 a43e b9dc 053e
000001b0: 25b4 c03e 515f dabd 1093 31bd 40f6 6ebd
000001c0: 3963 0a3f aded d63d 6a35 9e3e a49d 163e
000001d0: 4b40 203d f5f9 dd3e dae5 8f3d 87e4 a63b
000001e0: 3588 debd d651 263e 6e5d 61bd 773c 3d3d
000001f0: a944 833d 447c 8d3b 748b 4a3e 61c3 013d
00000200: 522d 183e 3725 043c b603 573c 7a89 343e
00000210: cef2 143e 9923 1cbf c262 193e 6b90 813d
00000220: a4b8 f2bc 50fa 783e bc3b dc3e eb4f 303e
00000230: ac18 373f 1677 3e3e 23f5 d8bc 77e8 5d3c
00000240: d672 943e 954d f93d 6037 583e c8d8 883d
00000250: 3260 823c 12d0 103f a4ad 7f3e 4a35 063d
00000260: 5614 3bbd c276 0e3e 20dc 13bc a4ae 403d
00000270: 0ea2 423e 9836 d13c 8630 f83d ef70 373e
00000280: b789 513e 14b3 7a3e f58b 253d 7755 893d
00000290: cbf9 a83e c900 70bd 667c 533e bdfb f33d
000002a0: 26cf e73d f8a5 9b3e d04d e73e b521 a0bd
000002b0: a7ab 293f df81 603e 7c6b e03d bfe5 f0bd
000002c0: 674b af39 8046 a43e 6b78 ac3e 8553 eb3a
000002d0: 6966 eb3c 0668 063f 10c8 a33e 2a73 2a3d
000002e0: 59f3 673d 1968 143e 451a 2ebd f0ca d9bd
000002f0: e9fa 923e 13b4 03be 0cf9 b13d bb68 60bd
00000300: 9ede a83e 30f0 523d 91b0 f13c 00f6 853e
00000310: 7561 a93e 8027 8abe 0cb0 1a3e ee4c 533e
00000320: c002 b73c 576c 1b3e 975b be3e 0a38 aabd
00000330: bc15 0e3f f0e2 163e 7e1a 583c 698d d9bd
00000340: 3f3f 8d3e f620 813d 6bbe 6e3e b66c ab3d
00000350: ffa9 6c3e 0b29 343f 23aa 3f3e bf16 d83d
00000360: 8ad9 7d3d 0da8 ab3e 08d4 b8bd f54a 93bd
00000370: 5398 263e 3cda 58be 12c3 623e 5b8f 7b3e
00000380: 400f 633d c310 8a3e 7cc0 a7b9 dafd 89bd
00000390: 2823 ca3e 7544 96be 3eb2 673e 3bf9 2e3e
000003a0: 328c 3d3e 50c9 4d3e e9a7 d33e cd59 e2bd
000003b0: f9f1 dd3e 391d b53e 9229 91bc 8547 a0bd
000003c0: de27 d8bd d598 c53e 4a45 b83e e0cb 093e
000003d0: 82cc 58bd a4d2 443f 5794 323e a2ae 40ba
000003e0: e21d 8c3d db06 003e 2a01 38bc 64c7 2f3e
000003f0: eec3 533e b117 42bd ee31 4fbd d9da f53d
0.28007418 0.326085 -0.004359842 0.28696012 0.21325181 -0.359114 0.09697704 0.19866703
0.042671427 0.37152115 0.34834 0.18853618 0.5536952 0.33489755 -0.10704129 0.12898032
0.044797447 0.12725528 0.2787894 0.054155964 0.10007755 0.8127404 0.294983 -0.018766623
-0.11953899 0.39248967 0.017840663 0.18107828 0.44472048 0.058263835 0.013179018 0.0766077
0.02721433 0.3074464 0.02406988 0.11219147 0.27382687 -0.48629844 0.0037336561 0.12750846
-0.09550969 0.106750965 0.3580887 -0.038462155 0.68755066 -0.0075678835 -0.056107573 -0.006487974
0.31975982 0.40082377 0.3916345 0.21932283 0.11157497 0.81002295 0.1445612 0.009893099
0.039110124 0.29752973 -0.04992932 0.17842834 0.06622569 -0.044947773 0.17229845 0.17794171
0.022717094 -0.5178869 0.27525014 -0.5607217 -0.45558107 -0.0900291 -0.509098 -0.22724666
-0.32362542 -0.47515705 -0.5473379 -0.3941532 -0.4399811 -0.37570533 0.16579837 -0.15091103
-0.5182847 -0.043730304 -0.53901154 -0.14100756 -0.15653966 -0.35588384 -0.23447631 0.33157626
-0.37015557 -0.62740326 0.089288875 -0.35853323 -0.32171914 0.14320907 -0.2595728 -0.41290224
0.1435716 0.15164325 0.0035821071 -0.0114052305 0.32735807 -0.33016878 0.12963077 0.076438874
0.13136768 0.12697063 0.32036382 0.1307248 0.3763744 -0.106627114 -0.04335314 -0.05834031
0.5405765 0.10494552 0.30900127 0.14708573 0.039123815 0.43354765 0.070262626 0.0050931606
-0.10865823 0.16242155 -0.055020742 0.046200242 0.0640958 0.004317792 0.1977976 0.03168047
0.14861038 0.008065513 0.013123443 0.17630568 0.14545748 -0.6099182 0.1497908 0.06326374
-0.02962906 0.24314237 0.43014324 0.17217986 0.7152202 0.18600115 -0.026484078 0.0135441935
0.28993863 0.12173001 0.21114874 0.06681973 0.01591501 0.5656749 0.24968582 0.032765664
-0.04567369 0.1391249 -0.00902465 0.04704155 0.19007131 0.025538728 0.1211863 0.17914174
0.2046269 0.24482375 0.040416677 0.06705754 0.33003077 -0.0585945 0.20652923 0.1191325
0.11318807 0.30400062 0.45176554 -0.07818929 0.66277546 0.21924542 0.10958001 -0.117625706
0.0003343478 0.32085037 0.33685622 0.0017953968 0.028735356 0.5250248 0.31988573 0.041613735
0.05662856 0.14492835 -0.04250552 -0.106344104 0.28707054 -0.12861662 0.0869008 -0.05478738
0.32982343 0.051498592 0.029503139 0.26164246 0.33082166 -0.2698326 0.15106219 0.20634815
0.022340178 0.15178047 0.37179253 -0.0831147 0.55501914 0.14735007 0.01318991 -0.10622675
0.27587315 0.06305115 0.23314826 0.08370344 0.23111723 0.70375127 0.18717246 0.105512135
0.06197504 0.3352665 -0.09024817 -0.07192031 0.16269045 -0.21177 0.22144726 0.24566405
0.055434465 0.26965913 -0.00031996134 -0.067378715 0.39479947 -0.29349104 0.22626588 0.17087261
0.18510512 0.20096326 0.41339043 -0.110522844 0.43348673 0.35373858 -0.017720018 -0.07826141
-0.10554479 0.38593164 0.35990363 0.13456678 -0.05292941 0.7688391 0.174394 -0.0007350241
0.06841637 0.12502615 -0.011230746 0.17165905 0.2068021 -0.047385875 -0.050584726 0.120046325

layers.6.bias f4 [16]
00000000: d997 d73c 187e 133d 66ad 073f 7821 0a3d
00000010: cbfb 32bd 7e6d 4ebd a1e3 143d b5d7 e43c
00000020: e53a 16bb e7a7 043e 9c8e 563d 20e0 5dbd
00000030: 29cc 1f3f 16a5 e0bd e2be 563f a63b cebb
0.026317524 0.036008924 0.5299896 0.033723325 -0.04369716 -0.05039739 0.036349896 0.027934888
-0.0022923287 0.12954675 0.052382097 -0.05416882 0.624209 -0.10968988 0.83885014 -0.0062937317

layers.9.weight f4 [1, 16]
00000000: 1c01 bcbe a396 09bf 9872 953f edf4 1abf
00000010: f116 0bbf 1d22 eebe fb2f bdbe 5ab4 cfbe
00000020: 7fa4 92be d477 b0be d803 c4be 4ddf e7be
00000030: 82e1 953f e5b9 073e 8417 5f3f 7d2b d6be
-0.36719596 -0.5374548 1.1675596 -0.6052998 -0.5433188 -0.465104 -0.3695067 -0.40567285
-0.28641126 -0.34466422 -0.38284183 -0.45287552 1.1709445 0.13254507 0.87145257 -0.41830054
