models/Delete/kaon_2.pt (torch, 18437 bytes, 7 tensors)

layers.0.weight f4 [64, 19]
00000000: 387e ca3c 04fb 383d 3500 363e 5c06 0abe
00000010: c072 47bb cd68 57be 02f1 c73d 00b0 04b8
00000020: 7674 ae3d 60b8 813b 2715 623e 79f7 2e3e
00000030: 5e88 1cbe 3151 323e 7c85 103d 4cde a4bd
00000040: 73e1 453e 5985 103e 7c65 113d 7033 e63f
00000050: c8a8 fd3d 2d18 2f3c 8ae7 093d 82db 383e
00000060: d709 6cbe fb39 eebe b613 83bc fa89 13bd
00000070: 3140 5f3b 2161 25bf 955b 343e 9a0b adbd
00000080: b6d8 8d3d 64c6 ddbd ee45 3d3c 4ef6 58bd
00000090: 2134 5a3e 30c2 9bbd 24c6 533e 2326 22be
000000a0: ce7b 4ebe 6179 ebbd 0b93 353e 5f94 c9bd
000000b0: 9603 b9bd dc9a 433e 4903 ff3d 1b74 193e
000000c0: 5937 5d3e f4c3 21be 14ce 323d 6747 62bc
000000d0: b053 f4bc 7106 05bb 87c4 1abd 5b13 4a3e
000000e0: 13ee 1ebe 4200 aabe 08d3 5c3d 1621 88b9
000000f0: a626 d0bd d1a3 d63e 8de6 54bf f448 86bf
00000100: 1f41 b5bd 81ab 13be 3a97 5d39 f9e7 a7bf
00000110: 9f8b a63d 2b8e ff3c 7ff0 e53b 4679 7b3c
00000120: b503 693c b55f c93b 93b6 f9bb 264e 2fbb
00000130: 6203 8dbf 7cf8 bdbe 7589 81ba 1009 823e
00000140: 8021 c1bf 15af 963e d29e 183f c181 9bbd
00000150: 6264 0ebd c816 123d 7c5c 423f 26a3 dd3d
00000160: be24 b03d 99c9 203d db0a 20bd a0bf e4bb
00000170: 1bb4 613d 9adb 163c 6e8b bebc b6e6 0fbe
00000180: 84c7 13bd 3e2c ff3d 6668 3ebe 1bcf 1e3e
00000190: 535f 25be cfae 563e bc10 23be 0eaa 8fbd
000001a0: d5d4 2abe 4034 fc3b 9421 0dbe 8ed3 f13d
000001b0: 18d0 cb3c e672 b2bd d6fe 8ebd b15f 10be
000001c0: 7071 453c ddb1 3a3e 811a d03f 54a0 9f3d
000001d0: ce79 943c 4330 0b3d 89f0 5c3e 0ce5 0ebf
000001e0: f9a3 11bf f5c4 a03d 94b5 8cbc 627f bb3d
000001f0: 3593 6fbf c4a8 9c3d 177b dc3d db7f 743c
00000200: e333 fdbc 4f86 823c 623e 20bd b83e 0abe
00000210: 1d7f d2bc 6ae9 9cbf cdb6 fdbe 0a7a 2b3d
00000220: 7dda acbe 90fb 57bf 1f4c 87bc 9f1e 3f3e
00000230: 97ba 6e3d 8b2f 2fbe 387b d6bd e951 e83e
00000240: 1258 d13d ccde 573c e87e 58bd f9df 953c
00000250: 496c 51bc 32a3 683d 4893 bc3d b458 60bd
00000260: d5fd 04be 28fa b63e 42dd b7ba fe49 9dbe
00000270: f61b 023f dc93 8cbf eca5 56bf 331a 09bd
00000280: 2527 b2bc 575d 58bc ffe3 79bf edab 11bc
00000290: 7634 a33d 351c c13d e2c9 7e3d c1f1 aa3c
000002a0: 20b0 13be 6dbb 153e b68e b33d 8c84 6c3e
000002b0: 90c8 3fbe d8f5 68bd 3d0a 0bbf 6775 893f
000002c0: fbd5 10bf 4dc2 17bf fe46 91bd 598a aebe
000002d0: 1fb1 5dbd bbad 89bf e7d8 e23c 3dc4 a5bd
000002e0: 719d b83c f657 f23d 722b 983c 42f6 873c
000002f0: 19ad c83c a4f3 8f3d 48f1 f1be 666b ad3d
00000300: 4114 45bd b14f 9c3d 04c3 84bf b85b 3e3f
00000310: 7b02 463f db8a 6fbd 6aaa 4f3c 7537 61be
00000320: eb8c 563f 500a 9fbd 4fa5 9cbd 4ad1 ef3d
00000330: 1802 f43a 9be5 1abc 7992 28be c0a3 1e3e
00000340: fcbf 5b3d b6c4 19be b957 5f3e 90f6 57bc
00000350: 81e6 003e 961b 34be 65de 083e b299 dc3d
00000360: 1266 8b3d 942d 4dbe b8f1 f23c fccb 6c3d
00000370: 28fd ae3c 9c12 1a3d f016 043c fed1 86bd
00000380: 04b7 37be 081e ec3c 5bab 553e e12c 4c3e
00000390: 0cd9 343f 7e90 323e 9f36 1abb 1881 043e
000003a0: 2479 023e 8d80 b2bf 3fc9 98bf 13e1 843d
000003b0: d2a8 ee3d 8431 2e3c b10e 5ebf 85d7 27be
000003c0: 74af c3bd 2077 353d d82b a73c 6506 4a3c
000003d0: c253 953a 3bf0 e4bd 727f 98bd 7ee8 a23d
000003e0: 3098 a73c 6642 a2bd 2eb7 50be bcd3 383d
000003f0: 0c3a 2abe ced0 ca3d 4d86 5b3e a281 b7bd
0.024718389 0.045161262 0.17773516 -0.13478988 -0.0030433387 -0.21036072 0.097627655 -3.1635165e-05
0.08518307 0.003958747 0.22078381 0.17086591 -0.15286395 0.17413785 0.03528355 -0.08050212
0.19324283 0.14113368 0.035497174 1.7984447 0.12385708 0.010686916 0.03366808 0.18052486
-0.23050629 -0.4652861 -0.01600061 -0.036020257 0.003406536 -0.6460133 0.17613061 -0.084494784
0.069261 -0.10828856 0.011552317 -0.05296927 0.21308948 -0.07605398 0.20681053 -0.1583486
-0.20164415 -0.114977606 0.17731874 -0.09842753 -0.09033887 0.19102043 0.124517985 0.14985697
0.21603145 -0.15797406 0.043653563 -0.013810969 -0.029825062 -0.0020298029 -0.03778508 0.19733946
-0.15520506 -0.33203322 0.053912193 -0.00025964592 -0.101636216 0.41921857 -0.8316429 -1.0491014
-0.088503115 -0.14420892 0.00021132539 -1.3117667 0.08132099 0.03119572 0.0070171948 0.015348738
0.014222075 0.0061454424 -0.0076206415 -0.002674946 -1.1016657 -0.3710364 -0.0009882884 0.2539754
-1.5088348 0.29430452 0.5961734 -0.07593108 -0.0347637 0.035666257 0.7592237 0.10822134
0.08600758 0.03925476 -0.039072853 -0.0069808513 0.055103403 0.0092076305 -0.023259845 -0.14052853
-0.036078945 0.124596104 -0.18594512 0.15508692 -0.16149645 0.20965122 -0.15924352 -0.07014857
-0.16682751 0.0076966584 -0.1378234 0.11807929 0.0248795 -0.087133214 -0.069822 -0.14099003
0.012050971 0.18231912 1.6258088 0.07794252 0.018124487 0.033981573 0.21576132 -0.5581825
-0.5689083 0.078500666 -0.017176427 0.09155156 -0.93583995 0.07649377 0.10765665 0.014923061
-0.03090853 0.015933184 -0.039121993 -0.13500488 -0.025695378 -1.2258732 -0.49553528 0.041864432
-0.33760443 -0.8436823 -0.01651579 0.18664025 0.058283415 -0.1710798 -0.10472721 0.45374992
0.10221876 0.0131756775 -0.052855402 0.018295275 -0.012782165 0.05679626 0.09207779 -0.054772094
-0.12987454 0.3573773 -0.0014027732 -0.30720514 0.50823915 -1.0982623 -0.83846927 -0.03347225
-0.021747181 -0.013205848 -0.9761352 -0.008891088 0.079689905 0.09429208 0.06220425 0.02086723
-0.14422655 0.14622279 0.08767454 0.23097438 -0.18728852 -0.05687508 -0.543125 1.0738953
-0.5657651 -0.59280854 -0.07093619 -0.34089926 -0.054123994 -1.0756143 0.027691318 -0.0809407
0.022536011 0.118331835 0.018575404 0.016596917 0.024496602 0.07028893 -0.47254395 0.0846775
-0.04811502 0.076323874 -1.0372014 0.743587 0.77347535 -0.058482032 0.012674907 -0.21993811
0.83808774 -0.07765639 -0.076487176 0.117098406 0.0018616347 -0.009454156 -0.16462125 0.15492153
0.053649887 -0.15016446 0.21810807 -0.013181344 0.1258793 -0.17588648 0.13366087 0.107715026
0.06806578 -0.20036918 0.029656276 0.057811722 0.021360949 0.037615404 0.008062109 -0.065830216
-0.17940909 0.028822914 0.20866148 0.19938995 0.7064369 0.17437932 -0.0023531092 0.1293987
0.12741524 -1.394548 -1.1936415 0.06488242 0.11653294 0.010631923 -0.8674117 -0.16390808
-0.095549494 0.04430306 0.020406649 0.012330626 0.001139276 -0.11178633 -0.07446183 0.079545006
0.02045831 -0.07922821 -0.20382378 0.0451238 -0.16623706 0.099031076 0.2143795 -0.08960272

layers.0.bias f4 [64]
00000000: cfb9 25be 0273 703c fbf9 51be 8907 30be
00000010: e644 d2bd bcf5 9abd 3e3b d2bd c858 c03d
00000020: 41bd c7be 762c 8b3d 812b 0a3c aeb5 60be
00000030: bc5f 333c 0271 16be 16b4 45bd 8d53 b7bc
00000040: d870 86be 1c55 2f3d 3b14 5ebd 1772 5f3e
00000050: 35da a9bc 1bec 0bbe 88d5 f8bc 22c8 54be
00000060: 92d3 5dbe 85ab 653e 943e 4bbe ea09 91be
00000070: de3c fd3b 10e7 19be 4f30 123e 307c e53c
00000080: 5a80 42be 9f75 85be 91f7 50bd 93c9 16bd
00000090: fb55 39be 1234 813d 591f 2cbe f843 19be
000000a0: 90ca 8b3c e72a bfbe f7ec 1a3e 0b08 71bd
000000b0: d08a 40be 9427 23bd 0a82 28be 10bf 473e
000000c0: 5629 d43d 02db 073d cc9c 433d a7ad abbe
000000d0: 48e8 73bd ff9b 17be 186b 98be 509f 16bd
000000e0: 9549 633e e911 8ebe f7ae b4bd d2f3 46bd
000000f0: 56d9 a33d 1d37 de3c 0718 6fbe 4830 24be
-0.16184162 0.0146758575 -0.20505516 -0.17190374 -0.102670476 -0.07566401 -0.10265206 0.09391934
-0.39011577 0.067955896 0.008433224 -0.21944305 0.010948118 -0.14691547 -0.048267446 -0.022378707
-0.26257968 0.042805776 -0.054218512 0.21820866 -0.020733932 -0.13664286 -0.030375257 -0.2077947
-0.21662739 0.22428711 -0.1984809 -0.28327876 0.007728203 -0.1502955 0.14276241 0.028013319
-0.18994275 -0.260663 -0.051017348 -0.03681333 -0.18099205 0.0630876 -0.16808833 -0.14967334
0.017064363 -0.3733742 0.15129457 -0.05884556 -0.18802953 -0.039832667 -0.16455856 0.19506478
0.10359447 0.033167847 0.047756955 -0.33530924 -0.059547693 -0.14805602 -0.29769206 -0.036773026
0.22196038 -0.2774804 -0.088224344 -0.04857237 0.08000438 0.02712589 -0.2334901 -0.16034043

layers.3.weight f4 [32, 64]
00000000: 9e11 b6bd 6b66 da3c d8dd cabd 25b0 47bf
00000010: 3eb5 4f3d 8006 e73b acb5 4d3d 6976 d73c
00000020: 35f3 0cbc b042 823d d6a2 b33c 547d 9ebd
00000030: 20b9 193e 5824 923c 5d3c 0c3e 0c2e 943c
00000040: 4490 663d 8086 8d3d 5c09 403e d03e 19bd
00000050: 6dc6 ccbd 7c0b 453d 9455 31bd b4ae 313c
00000060: 3869 ef3d 70e5 403d af4b 223d 810a 8b3e
00000070: 573e 303d a88f ca3d 1050 80bd 9f0f 233c
00000080: 9087 21bd a07e 513e 96e4 103e be75 873d
00000090: b911 1ebd ca82 b8bd 1a63 b4bd 5bf6 11bd
000000a0: c4d4 393d 790e a23d 8039 b4bc ff66 5bbd
000000b0: 9aa4 453e 3591 de3d b0ae f13d 67ed 813e
000000c0: 47a0 b2bc fdcb bdbd 502a dc3d a4e3 a03d
000000d0: ef51 12bc eaae e5bd 872b 22bc 2823 aa3d
000000e0: f45b 233d bfaa b0bd acab cbbd 39ec 05bc
000000f0: 607d 8e3b b561 cc3d 4b4a e23d a03c ae3b
00000100: f42d 1f3d a600 0d3c 98a1 40bb b7e2 3a3f
00000110: f3c4 19be aaf0 e33d 9ae5 90bc c7fd 29bc
00000120: 501f 823d 3edc 273c 6825 a1bd 4c09 c43d
00000130: 8d30 353e 5095 1f3d 75a8 8e3e 6262 813d
00000140: 8c10 adbd 8898 743d 68a9 273e a0b9 6b3d
00000150: 6b79 e7bd c022 ba3b d00c 6f3c f53d 12be
00000160: f73b bb3c 4894 333d 507c e43d 9211 403e
00000170: 2e55 ebbb bcc2 88bd 3c73 bf3d b8fb 44bd
00000180: e842 14be fb3d 58bc 08ed d03d 14b0 1bbc
00000190: 07e2 c73e 2c99 3fbd 566a 79bd a4bf 25be
000001a0: 6836 eebd c9f3 ad3e a8f7 943d e5b7 2abd
000001b0: d094 803d cb43 823d 800c ccba 0f68 f13e
000001c0: 92fc bb3d 00aa fb3c 2ef7 9cbd 6cd7 b5bb
000001d0: 8742 20be 2e64 8c3e d0f1 073d b0d9 bb3d
000001e0: 40c5 70bb f793 323d d808 9abe 3cc9 06be
000001f0: 40ae f8bd 8493 8ebd fca7 023d 86b7 8bbd
00000200: 92a4 a2bd 4ae9 a13d 53e0 2fbd 9b82 0b3f
00000210: 6708 d03d 9002 a43c 990a a13d 3c9f 973c
00000220: d6b4 9dbc 4863 8cbc 0947 0cbd 9807 15bd
00000230: 9024 00bd 7e2c 92bd 3bac 7ebe 9649 c03c
00000240: 18f6 09bd 0eda efbd 4799 d1be 52b7 b9bd
00000250: 9aca d33d c0bf abbc f436 e9bd f4e7 05be
00000260: 2dbc 63be e20a 81bd 8280 b93c 8aff 21be
00000270: eb0d 903c f83e f83c 0244 883d 0fab a5bc
00000280: 0321 393c 633e 52be 9e35 11be 2949 b2bc
00000290: 6e23 c83e 8034 37bc 68be 023e 7374 10be
000002a0: b6b1 9fbd 78cb 0cbf 7c80 70bd d8bb 673d
000002b0: 4492 7dbe 4d10 11be 64d9 7c3d ccd4 f13e
000002c0: 570e d03d aa8f edbd 749d 423d c13d a6bd
000002d0: da5b cebd 9d63 df3e a9cf 2d3d 5c2a 05bd
000002e0: 301e 6fbd a93f 46bd dcd4 3abd 5524 4b3e
000002f0: 1464 e83d a6fe 0f3e 766f 8f3b 8066 623b
00000300: 14c8 2a3d 231f 88bc 6ed2 6fbd c279 003e
00000310: 03fa 25be d4c3 a0bd 37ed 1e3d 8fe3 5dbe
00000320: c603 dfbd 972b b3bd 0b5e dd3c 8ce5 273d
00000330: 9501 86be 80ef b5ba a3b7 16be 3be1 3e3e
00000340: 4e72 e6bc 5606 9e3d bec0 c0bd 7c33 f43d
00000350: f4df 91be ccdc d33d 903d 853c 6684 a2be
00000360: 6524 cbbd 3825 d6bc 130f a73b 6853 20bd
00000370: be18 96bc d682 bb3d 68d8 ef3d ef43 b23c
00000380: 967a af3d ddb0 4d3d 94b1 e2bd 43a2 c2bd
00000390: f7b3 603c 9869 c13c 2d01 d3bd 4fda 98bd
000003a0: 4255 bd3d 26eb 24be d845 ea3c b931 6b3d
000003b0: 94b3 6ebc bdaa a3bc c08a c73b deb3 e83e
000003c0: ef73 ce3d 0703 f93d e2ff ee3d 66ef 223d
000003d0: e7de cdbd d519 7e3d 440b 1b3d 92e1 b1bd
000003e0: 3281 eebd 1d35 e2bd e438 b5bd b8c8 6d3e
000003f0: 0018 f63b 7562 3c3e c7ab d8bc 8003 b2ba
-0.08890079 0.026660165 -0.099055946 -0.7800315 0.050709955 0.0070503354 0.050222084 0.02630158
-0.008602907 0.06360376 0.021928232 -0.07738748 0.15012026 0.017839596 0.13694902 0.018088363
0.056289926 0.069104195 0.1875357 -0.03741342 -0.09998784 0.048106655 -0.043294504 0.010844875
0.11689991 0.04709381 0.03962296 0.2715645 0.043028202 0.098906815 -0.06265271 0.009952455
-0.039435923 0.2045846 0.14149699 0.066142544 -0.03859112 -0.09009321 -0.088079646 -0.035635334
0.045368925 0.07912917 -0.022000074 -0.05356502 0.19301072 0.1086754 0.11800897 0.25376436
-0.021804942 -0.09267423 0.10750258 0.07855919 -0.008930667 -0.11215003 -0.009898073 0.08307487
0.039882615 -0.08626317 -0.09944853 -0.008173996 0.004348442 0.09979574 0.110493265 0.0053172857
0.038862184 0.008606112 -0.0029393192 0.7300219 -0.15016536 0.111298874 -0.017687608 -0.010375447
0.06353629 0.010245381 -0.07868463 0.09572086 0.17694302 0.038960755 0.27862898 0.06317593
-0.08450422 0.059715778 0.16373217 0.057550073 -0.113024555 0.005680412 0.014590457 -0.14281447
0.022855742 0.043842584 0.11156523 0.18756703 -0.007181785 -0.06677768 0.09348151 -0.04809162
-0.14478648 -0.013198371 0.1020146 -0.0095024295 0.39039633 -0.046776935 -0.060892425 -0.16186386
-0.11631471 0.33975056 0.07273799 -0.04167928 0.06278384 0.06360587 -0.001556769 0.47149703
0.09179033 0.03072071 -0.07664333 -0.005549362 -0.15650378 0.2742018 0.033189595 0.0917238
-0.0036738664 0.04359814 -0.30084872 -0.13162702 -0.121426105 -0.0696173 0.031898484 -0.06822114
-0.079415455 0.079058245 -0.04293854 0.54496163 0.101578526 0.020020753 0.078633495 0.018508546
-0.019251268 -0.017137185 -0.034247432 -0.036384195 -0.03128487 -0.071373925 -0.24870388 0.023472589
-0.03368196 -0.117115125 -0.40937254 -0.09068169 0.103413776 -0.020965457 -0.113874346 -0.13076764
-0.22239752 -0.06300904 0.022644285 -0.15820137 0.017584762 0.030303463 0.066535965 -0.020223169
0.0112993745 -0.20531611 -0.1418061 -0.021763401 0.3908953 -0.011181951 0.12767947 -0.14106922
-0.077975675 -0.5499797 -0.058716282 0.056575626 -0.24762827 -0.14166375 0.061730757 0.47232664
0.10158985 -0.11599667 0.04751344 -0.081172474 -0.10076113 0.43630686 0.04243437 -0.0325111
-0.0583784 -0.048400555 -0.045613155 0.19838078 0.113472134 0.14061984 0.004377301 0.0034545958
0.041694716 -0.01661641 -0.05855029 0.12546447 -0.16208653 -0.07849851 0.038800444 -0.21668838
-0.108893916 -0.087485485 0.027022382 0.040990397 -0.26173082 -0.0013880581 -0.1471849 0.18640606
-0.028130677 0.07716052 -0.09411763 0.11923882 -0.28491175 0.10344848 0.016264707 -0.31741637
-0.09919051 -0.026140794 0.0050982325 -0.039142042 -0.018322345 0.09155814 0.11711198 0.021760909
0.08568303 0.050217498 -0.110690266 -0.09503605 0.013714782 0.023609921 -0.10302959 -0.07463514
0.09244777 -0.16105327 0.028597757 0.057420466 -0.014569182 -0.019978875 0.0060895383 0.45449728
0.10080706 0.121587805 0.116698995 0.03977909 -0.10052281 0.062036354 0.03785254 -0.08685602
-0.11645736 -0.11045287 -0.08848742 0.232211 0.0075101852 0.18396933 -0.026449097 -0.0013581365

layers.3.bias f4 [32]
00000000: c54f c03d 2520 25be b11b 9e3d 2849 35bd
00000010: 2089 a23d 3cb4 683d 3adf a43e bbe7 c23d
00000020: 3218 0b3e ee35 823d b5dc 3abe 81c8 bcba
00000030: 121d 53bd 7d6c 1abe c8d3 d6bc 9e13 003d
00000040: 4c0b 483e 77ab 7a3d f464 b3bc 432f 793e
00000050: 91f9 c1be 35c9 00be bc4f 833d 6874 a7bd
00000060: f684 23bd f83b 223c 3486 f93d e835 7dbb
00000070: f652 0dbe 674f 743d 1a0f 84be 1b8a 99bd
0.09390215 -0.16125543 0.077201255 -0.04425922 0.07936311 0.05681251 0.32201558 0.09516855
0.13583449 0.063579425 -0.18248256 -0.0014403017 -0.051541395 -0.15080447 -0.026224032 0.03126871
0.1953556 0.061198678 -0.021898724 0.24334435 -0.37885717 -0.12576754 0.064116925 -0.081764996
-0.039921723 0.009901993 0.121838 -0.0038636867 -0.13801178 0.059646036 -0.25792772 -0.07497045

layers.6.weight f4 [16, 32]
00000000: 9947 033e 7b6d a4be 0da3 b0be 7f17 6cbe
00000010: 6592 b73e faaf afbe d7a4 5d3e e004 83bd
00000020: a3ce c8bb 4bd7 4d3e f0e4 55be d0bc 7ebe
00000030: b9eb 76be 45d1 8a3d 4e53 0dbe 8f6a b9bd
00000040: a5e1 47be 34bf 09bf 21de 81be 65d2 5fbe
00000050: 3920 9bbd c00e e3bd 2e3b 5cbe 60f7 83be
00000060: 1893 06bf f1c2 83be cfd8 1ebe cd15 11be
00000070: c3a9 04bf cc54 edbd 97ea 12bf 53d4 9b3d
00000080: 05f5 c93d 6cb4 fabe b691 7ebe 73a9 86be
00000090: 0067 b23e 7b21 d2be 3233 7a3e 6ff1 05be
000000a0: 10e0 763d 2166 833d 30d4 8bbe 1970 7dbe
000000b0: 9c20 e2be eba9 f9bd d560 bcbe 697a f1bd
000000c0: 73f9 2dbe cd78 12bf 7979 6bbe ac86 a4be
000000d0: b410 c83b e997 a9be 1b9e 35be 6d43 27be
000000e0: 3b05 1cbf 99fd 81be 0883 98be fc60 01be
000000f0: 6e35 fdbe 60c3 b8be c8e5 e2be e4c7 f9bd
00000100: 5ff9 86bd bdc1 143e b059 ca3d 56b8 583e
00000110: 8ff7 8ebd 3aac b63e a2cd ac3d 895d cfbd
00000120: 1183 163f 6228 c03c 09a6 97bd 80d1 ce3d
00000130: 5c4e 113e 16ea 403e 1b74 93bc acca 393e
00000140: cfb6 13be 43b8 ba3d 039f 913d d7f8 093f
00000150: 6897 bbbd 33c5 b43b 8d2f 02be 2ac0 283e
00000160: fd8c 813e 6243 f93d 0ebe debc f119 ab3d
00000170: 6bce 0e3f 481a fc3a 5915 0e3d b9c6 a53d
00000180: f747 67be 8e63 803e 1681 a43d 4e96 cf3e
00000190: e3df 89be 0271 f73d afcb 1f3e 13f6 90be
000001a0: 33cf d73e b135 643d 527e 32be 316d f43d
000001b0: b5ef e23d c4d0 fb3d b03b 9a3d fc70 1d3e
000001c0: bd19 853e a77a 303d f94b 0e3e 14df 8b3e
000001d0: 9817 4fbe 9681 3f3e 6f3e a7bd 4e96 d43e
000001e0: 4ea0 9e3c c0ad 4b3e e896 ea3d 53cf fe3d
000001f0: 8e0e 1f3f 55e0 953e a01e c33e c312 a33e
00000200: 7b62 4a3e ac96 bd3a aba7 da3d c321 9a3e
00000210: eb57 ae3d 54b8 0c3e 9f3a 813c 819d f53d
00000220: 33a2 3e3e a1e6 8b3d 08a9 f63c 314e 433d
00000230: 9fa4 923d 6be4 c23d 2e1b c43c c024 6e3e
00000240: 72f3 f9bd ae45 09be cef6 673e deb9 9a3d
00000250: f7e8 673e cd0c 3b3e fa3b 993d 2fdc 623e
00000260: 1725 06be 8e0d e03d a91f 933d 1aab 203d
00000270: 47f9 e43e f1b2 8e3e 40a0 94bc b5a5 913d
00000280: 1868 bdbd 9291 fa3d 8576 4a3e 014d db3d
00000290: 4682 87be a14c 523e 6d1b 903d fba7 f3be
000002a0: 67a7 043f 6ae1 80bd 1564 18bf 2792 113e
000002b0: 375d 293e 85ac be3d 7e30 143c d288 0e3e
000002c0: a3d1 983e e765 173e 6ccf 863e 6ac3 033f
000002d0: a1e7 0ebf 959c d03d 3425 68be b230 ad3e
000002e0: 359f 983d a7ce 7e3d 6b67 87bd 42cb 973e
000002f0: 3858 ab3e b850 9f3d aff8 9b3d d43d 93bc
00000300: 22c1 2cbe e3c3 e53d cb75 143e bf0a 1c3e
00000310: 617a f9bd b66f 923e d097 8d3e 5b9f 3bbe
00000320: e927 d83e b5fd 073e 18ac 70be 665b 68bd
00000330: 777c 3c3e cedf d2bc d05b 7d3e 84b4 a63e
00000340: 0633 8a3e ac07 403e cf67 c13d 325e eb3e
00000350: ea2d 13be 0a0c 713e 74de 51be b4ba e13e
00000360: b45f 1b3e f21d c63e 140e 143e 79d2 5d3e
00000370: a7cd cb3e db3b be3e cc14 b13e 190b 923e
00000380: 23d2 bc3c 069b 133e acbb 363e 54b1 923e
00000390: 4b4e 03be 5c41 093e b162 323e 919f eabe
000003a0: 68f3 fb3e 90a3 81bd fa14 16bf f2d4 c1bd
000003b0: 4ce6 243e d95d 163e c596 e83b b5b1 913e
000003c0: 859f 603e a878 e63d cf26 7c3d fa3d 0f3f
000003d0: 6fe0 31bf dd95 86bd 919e fcbd 599b ab3e
000003e0: 3b0a ab3e bbec 383e b78e 9e3e e96a 3a3e
000003f0: eaa9 b03e 7891 053e 4f0e 5d3e 868a 933e
0.12820281 -0.32114777 -0.34499398 -0.23055838 0.35853878 -0.34313947 0.21644913 -0.06397414
-0.0061281486 0.20101659 -0.20888114 -0.24876714 -0.24113359 0.06778196 -0.1380131 -0.090535276
-0.1951967 -0.5380738 -0.25364783 -0.21857603 -0.07574505 -0.11086798 -0.2150695 -0.2577467
-0.525682 -0.25734666 -0.15512393 -0.14168473 -0.51821536 -0.11588439 -0.57389206 0.07608857
0.09861187 -0.48965776 -0.24860272 -0.26301154 0.34844208 -0.4104117 0.24433592 -0.13080381
0.060272276 0.06415964 -0.27310324 -0.24749793 -0.44165504 -0.121906124 -0.36792627 -0.11790926
-0.16989689 -0.5721558 -0.22995557 -0.32133996 0.006105507 -0.3312371 -0.17736094 -0.16334315
-0.6094548 -0.25388792 -0.2978747 -0.12634653 -0.49454826 -0.3608656 -0.44315934 -0.12196329
-0.065905325 0.1452703 0.09880388 0.21164069 -0.06980812 0.35678273 0.08437659 -0.10125262
0.5879374 0.023456756 -0.074047156 0.10098553 0.14190048 0.18839297 -0.0179997 0.1814372
-0.14425205 0.091171764 0.07110407 0.53895324 -0.09159738 0.005516672 -0.12713452 0.16479555
0.25302878 0.121710554 -0.027190235 0.08354557 0.5578372 0.0019233907 0.034688327 0.08094544
-0.22586046 0.25075954 0.08032434 0.4054436 -0.26928625 0.120821014 0.15605043 -0.2831274
0.42150268 0.055715267 -0.17431 0.11934889 0.11080877 0.12295678 0.07530916 0.15375131
0.259962 0.04308572 0.13896169 0.27318633 -0.20223844 0.18701777 -0.08166205 0.41520923
0.019363549 0.19890499 0.11454564 0.12441888 0.62131584 0.29272714 0.38109303 0.31850252
0.1976413 0.0014464459 0.106765114 0.30103883 0.08512863 0.1374219 0.015775023 0.11992932
0.18616562 0.06831098 0.030109897 0.04768199 0.07160305 0.095162235 0.023938742 0.23256207
-0.12204637 -0.13405487 0.22652742 0.075549826 0.22647463 0.18266602 0.07482143 0.22154306
-0.13100086 0.10940085 0.07183773 0.039225675 0.44721434 0.27870896 -0.01814282 0.07111684
-0.0924837 0.122347966 0.19771774 0.10708047 -0.26466578 0.20537044 0.07036481 -0.47589096
0.51817936 -0.06292994 -0.59527713 0.14215909 0.16539465 0.09310249 0.009044765 0.1391938
0.2984744 0.14784966 0.26330125 0.51470053 -0.5582219 0.10186116 -0.22670442 0.33826214
0.07452241 0.062208798 -0.06611522 0.2964726 0.33465743 0.07779068 0.07615792 -0.017973818
-0.1687055 0.11219003 0.1449806 0.15238474 -0.12181545 0.28600854 0.27654886 -0.18322508
0.4221795 0.13280375 -0.23503149 -0.05672779 0.18406855 -0.025741484 0.24742055 0.32559597
0.26992053 0.18752927 0.09443628 0.45970303 -0.14372984 0.23539749 -0.20495015 0.44087756
0.15173227 0.3869472 0.14458495 0.2166232 0.39805338 0.3715504 0.3458618 0.28524092
0.02304942 0.14414605 0.17845029 0.28650916 -0.12822835 0.13403839 0.1742046 -0.45824865
0.49209142 -0.06330025 -0.5862576 -0.09464444 0.16103476 0.14684238 0.0070980513 0.28455892
0.21935852 0.11253482 0.06156045 0.55953944 -0.69483083 -0.06571553 -0.12334932 0.33516958
0.33406243 0.18059056 0.30968258 0.18204845 0.34504634 0.13043773 0.2158749 0.28816622

layers.6.bias f4 [16]
00000000: f22c c73e a2f4 a13e efcb afbc 46db 2f3e
00000010: 43f1 a8be f7a4 1b3e c812 50bc 15bb 06bd
00000020: e2cc 2c3d 5837 c03e 10ea c4be 2faa 2fbe
00000030: b776 f83e f1ae 80be 3711 d53e 9475 243f
0.38901478 0.31631953 -0.021459548 0.1717349 -0.32996568 0.15199648 -0.01269979 -0.03289326
0.04218758 0.37542224 -0.38459826 -0.17154764 0.48528072 -0.2513347 0.41614696 0.6424191

layers.9.weight f4 [1, 16]
00000000: b0b5 4f3f cb01 7e3f 9b06 23bf fe64 b2be
00000010: fb0d cfbe 7739 0bbf c127 7bbe 839c f9be
00000020: 659b 8cbe 7662 173f d5c2 83be 09a5 683d
00000030: d906 483f 1b5c 49be 7910 da3e 8645 6a3f
0.8113661 0.99221486 -0.63681954 -0.34842676 -0.40440354 -0.5438456 -0.24526884 -0.4875222
-0.27462307 0.59134614 -0.25734583 0.056798015 0.7813545 -0.19664042 0.42590693 0.91512334
