models/Delete/pion_1.pt (torch, 18437 bytes, 7 tensors)

layers.0.weight f4 [64, 19]
000000 fa 77 db 3d c5 fc 15 3e 98 81 f8 3c c7 d2 29 3e
       0.10716243 0.14647205 0.030335233 0.16584311
000010 88 02 0f bd 8e 37 a9 bd 9a 8c a2 3d 98 11 3a be
       -0.034914523 -0.08262549 0.07936974 -0.18170774
000020 46 2f fe 3d 95 d2 1a 3e 7d ab 2b 3e 22 5f 54 be
       0.124113604 0.15119393 0.16764636 -0.20739415
000030 0d ff 49 be 68 e1 d5 bd 0c 21 56 be be 84 0d be
       -0.197262 -0.104433835 -0.20911044 -0.13820168
000040 f6 63 9c 3d 96 bf dd 3d b9 dc 67 be ce 0f 8c 3d
       0.076362535 0.10827558 -0.22642793 0.06838952
000050 43 f1 ed bd af bd 41 3e 22 fe e8 3d 0b 94 10 3e
       -0.11618283 0.18920015 0.11376597 0.14118974
000060 dc c0 02 be 60 6c c5 bd e2 5d c5 3d e4 c7 ba bd
       -0.12768883 -0.096398115 0.09637047 -0.09120157
000070 85 30 0b 3e dd 11 5c 3e 4a a5 45 be 6f 47 66 3e
       0.13592727 0.2149119 -0.19301334 0.22488187
000080 67 b1 12 3e f8 9c b7 3c e0 8a 63 be 38 95 85 3c
       0.14325486 0.022413716 -0.22220945 0.016306505
000090 94 58 38 be 16 96 14 be f7 8a 3b 3e 26 79 01 be
       -0.1800254 -0.14510378 0.1831473 -0.1264387
0000a0 9f 55 47 be 32 b4 93 3d 10 31 03 be 46 d9 d3 3d
       -0.19466256 0.07212104 -0.12811685 0.10344176
0000b0 40 09 08 3b 53 bf 14 3e 6e 0a b0 bd 84 4f 29 be
       0.0020757467 0.1452611 -0.08595739 -0.16534239
0000c0 01 fc 40 be 7d 4c fb bd 90 07 55 3c cc c5 05 be
       -0.18846132 -0.12270448 0.013002291 -0.13063735
0000d0 e9 01 50 3e ac 55 51 be a0 4f 8b 3b f2 71 3e be
       0.20313229 -0.20442837 0.0042514354 -0.18598154
0000e0 c2 16 b6 3d d9 68 17 bf d1 75 1d bf b2 dd 4e 3d
       0.088910595 -0.5914436 -0.615079 0.050504394
0000f0 d5 79 81 3d e3 20 4e 3d 17 8f b9 3d 69 53 a2 bb
       0.06322066 0.050324332 0.09060495 -0.004953791
000100 f7 16 2d 3d 3a 57 36 3d ec 34 49 bd 60 79 8b 3d
       0.04225823 0.04451678 -0.049122736 0.0681026
000110 c8 69 39 bd 2a 4e d4 bd e3 6c 78 3d 5c 53 08 3d
       -0.045266896 -0.10366471 0.060650717 0.033282623
000120 12 dd ec ba ce 63 29 bd c3 bd 16 3d a0 f6 01 be
       -0.0018071255 -0.041354947 0.036802065 -0.12691736
000130 78 e9 5c bd 44 5c 2e bd da 53 3e be 6e d0 ce 3d
       -0.05393359 -0.04256846 -0.18586674 0.100983486
000140 6e cb a0 3d bc 1a 28 be 5e 41 f1 bd d4 b3 0d 3d
       0.07851301 -0.16416448 -0.11780046 0.034595326
000150 c0 5c 4d be 5d 8c 3f 3e 22 fc c1 3d c6 3c c6 3d
       -0.20054913 0.18705888 0.09471919 0.0967956
000160 b8 a8 97 3c 09 4b 49 3e 8c fb 64 be 8b 7f 2e be
       0.018513069 0.1965753 -0.22361583 -0.17040841
000170 47 17 24 3e 76 a7 ff bd c8 3d d3 3c 56 80 b1 3d
       0.16024505 -0.124831125 0.025786296 0.08667056
000180 db c5 46 3e 62 ad 8d 3d d5 26 43 3e 20 36 9b 3c
       0.19411413 0.06917836 0.19057782 0.018946707
000190 40 6d 67 be 3e ce 23 be 70 d5 72 3c 49 30 0e 3e
       -0.2260027 -0.15996644 0.014821395 0.13885607
0001a0 07 6f ea bd 58 c1 5e be de ed 64 be 52 b3 c8 3d
       -0.11446958 -0.21753442 -0.22356364 0.09799828
0001b0 28 6a e2 bc ce d3 fa 3d d8 66 17 be 11 b3 0f 3e
       -0.02763851 0.1224743 -0.14785326 0.14033152
0001c0 8c 79 9a bd 0c c0 0e 3d 5b ca 4b 3c 0b 7f 01 3f
       -0.075427145 0.03485112 0.012438382 0.5058448
0001d0 c2 bf e8 bd 8a 9b ab ba fb 43 a5 3e 1c 3e 14 be
       -0.113647 -0.0013092619 0.32278427 -0.14476818
0001e0 8e 49 0e bd 08 34 db bd 40 a7 6e be 65 9e 0b be
       -0.034738116 -0.107032835 -0.23305988 -0.13634641
0001f0 79 87 19 3f 96 54 e4 3c 67 c4 58 3d b9 15 0e bd
       0.5997234 0.027872365 0.05292168 -0.034688685
000200 66 2d 0b 3e e3 40 c4 3a 91 f9 a7 bd db 84 2e 3d
       0.13591537 0.0014972951 -0.08201898 0.04260717
000210 44 a7 fe bc de 6c e4 3d 0a cd e7 3d 14 81 38 be
       -0.031085618 0.11153577 0.11318405 -0.1801799
000220 8d 4c 4a 3e d2 88 8f 3d 28 5a 0f be f1 1a 0b 3e
       0.19755764 0.07008518 -0.13999236 0.13584496
000230 05 d5 47 3e 64 cf 65 bd 74 ff 45 bd 76 11 c0 3d
       0.19514854 -0.056105986 -0.048339322 0.093783304
000240 6a db 9c 3d b7 e5 2d 3e 8e 67 ac 3d 62 c5 90 3d
       0.076590374 0.1698216 0.08418189 0.07068898
000250 70 ee 10 bd a5 80 0d 3e cf 43 6a be c0 59 9a bd
       -0.03538364 0.13818605 -0.2287743 -0.0753665
000260 f4 56 b1 bd 38 e0 90 3c 12 0d cf bd 55 b7 0b 3e
       -0.08659163 0.01768504 -0.10109915 0.13644154
000270 54 ec 17 bd 02 c4 16 be 20 87 9e 3b eb 3a 5e 3e
       -0.037090614 -0.14723209 0.0048378855 0.21702163
000280 ca 33 00 be d1 0b 4e be 84 c5 3e 3d bc 66 21 be
       -0.12519756 -0.20121695 0.046575084 -0.15761846
000290 00 21 04 bd cb 0f 30 3e e0 7b 82 3b 47 92 2d be
       -0.032258034 0.17193525 0.003982052 -0.16950332
0002a0 e7 d3 07 3e 8d 4a 11 3e c2 da 80 bd 0b e0 0d 3f
       0.13264428 0.14188595 -0.06291725 0.5541999
0002b0 23 d5 5e bd 1c 91 1a 3a 1f 74 91 be e7 c2 25 be
       -0.05440248 0.0005896257 -0.28408906 -0.1618763
0002c0 2a 35 1f be 8b e0 c7 be a0 94 55 3c 47 2a 9c 3c
       -0.15547624 -0.390385 0.013035923 0.019063128
0002d0 f9 41 35 3d e5 98 d9 be c5 b4 6a bc e7 f4 94 bc
       0.04425237 -0.42499462 -0.014325325 -0.018183185
0002e0 6a c0 1b be a8 07 a9 3c 07 74 0c 3c 24 03 1a bd
       -0.15210119 0.020633534 0.008572585 -0.03760065
0002f0 41 e0 5f 3d 82 cf 1b 3e 56 23 9e 3d d4 8f 35 3d
       0.054657225 0.15215877 0.077215835 0.04432662
000300 88 6e 8e bd 7d 21 27 3e b1 99 51 3e 4c a9 98 bd
       -0.06954676 0.16321369 0.20468785 -0.07454166
000310 af 78 3f 3e 17 10 30 3e d8 f9 13 be 2c fb 22 3d
       0.18698381 0.17193638 -0.14450777 0.039790317
000320 30 5b cc bd 8c ef 11 bd 30 32 50 bc aa 32 2a be
       -0.0997833 -0.03562884 -0.012707278 -0.1662089
000330 f2 4e 22 be f8 75 c1 bd d8 8b 03 bd 99 51 07 3e
       -0.15850428 -0.09446329 -0.032115787 0.13214721
000340 80 22 59 be 87 a0 e9 3e 51 21 7f be fe a6 36 3d
       -0.21204567 0.45630285 -0.24915053 0.04459285
000350 33 50 96 be 50 68 ad be aa 29 8b be 72 7b 32 bd
       -0.29358062 -0.33868647 -0.27180225 -0.043574758
000360 bf 60 d2 3c 87 c0 17 3e 67 2c 9d bd df 23 84 bf
       0.025680898 0.14819537 -0.07674485 -1.0323447
000370 30 e0 0c be f0 4c ff 3c 18 ae 5e 3c 8b 8b a0 bc
       -0.13757396 0.031164616 0.013591312 -0.01959779
000380 82 5d d8 ba cb 98 79 bd 8e 28 fc bc ec 7f 12 bc
       -0.001650736 -0.06093673 -0.030781057 -0.008941632
000390 41 2c 17 be 20 c3 b8 bd 7c c5 20 b8 49 c5 a3 be
       -0.14762975 -0.09021592 -3.8330894e-05 -0.31986454
0003a0 5a 8a 66 3f ff 0b 06 bf a0 9a 3d bf e8 b1 06 be
       0.9005486 -0.52362055 -0.74064064 -0.13153803
0003b0 01 00 26 be 85 37 d3 bc 0a 26 39 3f 18 66 f4 3d
       -0.16210939 -0.02578331 0.7232367 0.11933535
0003c0 52 17 b0 3d 82 de 5a 3a 9a 3e 98 3c 69 4f 92 3b
       0.08598198 0.0008349196 0.018584538 0.004465033
0003d0 8a 1c d6 3b f9 d3 4e bd 7c ce f8 bb 70 0a f7 be
       0.006534164 -0.05049512 -0.007592974 -0.4825015
0003e0 de e3 08 bf 84 e5 97 bc fb bf 63 bf 06 f6 5e 3f
       -0.534727 -0.018542059 -0.88964814 0.8709415
0003f0 a7 58 50 3e 45 43 4e 3b 7d 14 16 3d ac d3 4b 3d
       0.20346318 0.0031473201 0.036640633 0.049762413

layers.0.bias f4 [64]
000000 7e 72 87 3d 08 21 cf 3c 48 ca 45 bd f0 b7 75 3d
       0.066136345 0.025284305 -0.048288614 0.05998987
000010 1c 07 27 bd fa 2b a0 bd fe 72 f4 bd 1e eb c2 3d
       -0.040778264 -0.07820888 -0.119359955 0.09517501
000020 93 90 13 3e be 9c 44 bb ee d2 0d be e1 fb 7f be
       0.1441062 -0.0030000652 -0.13849995 -0.24998428
000030 26 8a 36 be 2b 37 79 bd f2 6c 01 3c 9b e8 6e be
       -0.17826137 -0.060843628 0.00789951 -0.2333092
000040 94 a5 98 3c 4d c4 2a 3d 25 f0 62 bc e4 e6 f0 3d
       0.018633641 0.041691113 -0.0138512 0.11762789
000050 ba ca 9a 3d 18 09 fb bc 81 42 a2 3d e7 6f 3f 3e
       0.07558198 -0.030643985 0.07922841 0.18695031
000060 b0 e9 4f be b0 95 53 bd a1 67 54 3c 4f 26 d1 3b
       -0.20303988 -0.051656425 0.01296416 0.0063827406
000070 24 46 81 bd c0 a9 25 3e ff bf 95 be 24 14 f7 bd
       -0.063122064 0.16178036 -0.29248044 -0.120643884
000080 4c 73 29 3d ee fe cc 3d c5 b7 52 be 18 df 2d bd
       0.04136972 0.100095615 -0.20577915 -0.042449087
000090 44 3b 06 bd 60 87 d6 bc dc 7a 0b be 12 55 eb bd
       -0.032771364 -0.026187599 -0.13621086 -0.11490835
0000a0 32 5b 81 3d a4 b8 24 be a1 17 40 3e 37 c3 8a be
       0.06316222 -0.1608606 0.18759014 -0.27102062
0000b0 36 de ce bd ff 6c ec bd 52 89 4c be 48 66 77 bd
       -0.10100977 -0.11544227 -0.19974259 -0.060400277
0000c0 c6 74 a6 3d 13 5d 28 bc 5c 8d 72 3d 06 e6 91 be
       0.081277415 -0.010276097 0.059216842 -0.28495806
0000d0 43 f0 31 be 98 6f 88 be 92 ea ac 3d c3 42 37 be
       -0.17376809 -0.2664764 0.08443178 -0.17896561
0000e0 46 7a 0e 3e fd b8 83 be 2d a3 48 be 8a 80 85 3d
       0.13913831 -0.25727072 -0.19593497 0.065186575
0000f0 ec 49 95 bd fb ad 81 be 88 31 cf bd 82 17 4f bd
       -0.0728949 -0.2532805 -0.10116869 -0.05055953

layers.3.weight f4 [32, 64]
000000 e4 5c 93 3d 80 3d 9e bd c8 15 a9 3d a5 38 52 3d
       0.07195452 -0.07726574 0.082561076 0.05132355
000010 9e d8 84 3d 80 81 44 3b 19 07 b2 3c 18 29 39 bd
       0.06486629 0.0029984415 0.0217319 -0.045205206
000020 60 6f 0c bd 99 8f 1c bd a4 d8 d5 3d 1b 70 44 3d
       -0.034285903 -0.038222883 0.104417115 0.047958475
000030 14 65 48 3e d6 2f b7 bc 9c 01 0a 3d 9b 24 37 bc
       0.19569808 -0.022361677 0.03369294 -0.011178161
000040 95 65 22 3d ff 55 ab 3e 4f 6d 3b 3d f1 0e 9d 3d
       0.039647657 0.33464047 0.04575854 0.076688655
000050 90 49 ff bc 80 32 d9 3c 44 4f a2 3d 29 59 09 3f
       -0.031163007 0.026513338 0.07925275 0.5365167
000060 60 c2 f5 bd 6e fe ab 3d a6 7a e2 3b 36 95 9d be
       -0.11999965 0.08398138 0.0069115935 -0.307779
000070 0d c2 a3 ba 71 4d 69 bc cd 24 6c bc 40 66 a5 3d
       -0.0012493745 -0.014239655 -0.014413071 0.08076143
000080 f0 f6 2d 3d 88 12 cc 3c a0 d7 c4 bb 60 e0 93 3d
       0.042471826 0.02491118 -0.00600715 0.072205305
000090 3e aa ad bd 58 c9 c6 3c 88 19 ec 3c 2a 1a 56 be
       -0.08479737 0.02426593 0.028820768 -0.20908418
0000a0 a4 0c 14 bf d4 3f fa 3d f4 99 35 3d bf df 6d 3d
       -0.5783179 0.122192055 0.044336274 0.05807471
0000b0 58 9c 33 bd 7f 59 16 3e be 7c 7a 3e 20 57 92 bd
       -0.043850273 0.14682578 0.24461648 -0.07145524
0000c0 32 0a c8 3d 58 87 8b 3c 80 b3 cd bc 43 5a 3e 3d
       0.097675696 0.01703231 -0.025110006 0.0464728
0000d0 10 c2 43 3d 28 fa 8d bc 97 73 a5 3d 06 b4 98 be
       0.047792494 -0.017331198 0.08078688 -0.29824847
0000e0 ea 4e 88 bf a2 25 84 3d 5c 9e 6b 3e c8 d2 80 3d
       -1.0649083 0.064524904 0.23009628 0.06290203
0000f0 74 aa 9f 3d 53 c6 33 be 3c a6 7d 3d 9c 4e 68 bd
       0.07796183 -0.17556123 0.06192611 -0.056715593
000100 bc f6 13 bd a4 83 eb bd 80 9c 43 bc 04 b0 41 bd
       -0.036123976 -0.11499718 -0.011939168 -0.047287002
000110 70 dc be 3d 00 0b 40 3c 93 ed 31 bd 06 b5 c0 bd
       0.09319389 0.011721373 -0.04343946 -0.094095275
000120 2e f3 a5 bd c9 61 85 bd 3c c7 42 3d c2 52 54 bc
       -0.081030235 -0.06512792 0.047553286 -0.012959184
000130 2e a3 c1 bb 13 61 0d 3e 7d 45 05 bd 41 0a a0 bc
       -0.005909345 0.13806562 -0.032536972 -0.01953614
000140 55 70 51 3d ed cb 23 be 94 58 e1 bd 8f 57 e6 3d
       0.05113252 -0.1599576 -0.11003223 0.11247169
000150 a6 30 fd bd 10 c9 3d bd 13 8c 5e bd 00 b8 21 be
       -0.123627946 -0.046334326 -0.054332804 -0.15792847
000160 38 3a 82 bd 12 0c bc 3d 1c e0 12 bd 7b 91 ab bd
       -0.063587606 0.0918199 -0.03585826 -0.083773576
000170 cf 88 5c bd e6 1e 09 be 53 ef 60 3d 1e 24 a7 bd
       -0.05384141 -0.13390693 0.054915737 -0.08161186
000180 ee da a1 3d ce 24 f4 3d 4a d0 d7 3d 44 1d 59 3d
       0.07903086 0.119210824 0.10537775 0.053006425
000190 36 b1 ee bd aa 3c 29 bd 6e 02 96 3d 56 87 01 bd
       -0.11654894 -0.04131762 0.07324682 -0.031623207
0001a0 3a 57 3b be de 94 f8 bd 04 13 f1 bd 34 2a 6c bd
       -0.18294993 -0.12137769 -0.11771205 -0.057657436
0001b0 58 33 4a bd b9 6b ce bc 35 20 ae bd b8 02 aa bd
       -0.04936537 -0.02519785 -0.08502237 -0.083013
0001c0 8e 1e 76 3d 13 32 c6 3d 14 04 45 3d 33 47 f4 bb
       0.060087733 0.0967752 0.048099592 -0.0074547767
0001d0 0d 2c c9 bd 11 84 d5 bd f8 4b cb bd f8 4a 17 be
       -0.09822855 -0.1042558 -0.09926599 -0.14774692
0001e0 53 45 a5 be 0f 8e b6 3d 43 4b 4a bd b0 27 54 bd
       -0.32279453 0.08913814 -0.04938818 -0.05179566
0001f0 38 20 a7 3d 95 0a 20 3d 18 2b 47 bd cd 4b 66 bd
       0.08160442 0.03907259 -0.04862508 -0.056224633
000200 22 dd c5 3d 34 8e ef 3d cc 74 de 3d bb 47 c9 3d
       0.09661318 0.11697045 0.10862121 0.098281346
000210 80 9b 32 3c f0 81 b3 bd 83 5d ff bd dc 78 2c bd
       0.010901332 -0.08765018 -0.12469008 -0.042107448
000220 58 75 7c 3d ae 8f f5 3c 5a 6d cb 3d 3f e7 65 bc
       0.061635345 0.029975738 0.099329665 -0.014032184
000230 10 42 c6 3d aa 50 9d 3c fb 3f c6 3d 5f 2f f4 bc
       0.09680569 0.019203503 0.09680172 -0.029807745
000240 b3 b9 44 bd 1c 46 0d 3e 8b 83 17 be ff ff df 3d
       -0.04802866 0.13796276 -0.14796273 0.10937499
000250 90 09 52 3d 28 85 cd bc 6b 13 d9 3c 57 5b 0e be
       0.05127865 -0.025087908 0.026498517 -0.13902031
000260 20 ab ba 3c 2c b6 d0 bd 9b e3 68 bd ff 92 39 be
       0.022786677 -0.101909965 -0.056857686 -0.18122481
000270 7d 5e 3e bc f3 8c a7 3d f9 16 9d 3d dc 13 af 3d
       -0.011619207 0.08181181 0.07670397 0.0854871
000280 f0 e6 58 bd ec 0a 92 bd e0 f5 d9 bd b0 93 dc 3c
       -0.052954614 -0.071309894 -0.106426 0.026925892
000290 1c 5f 55 3d 50 80 62 3d a0 9f 43 3d 6a e2 64 3e
       0.052092656 0.05529815 0.047759652 0.22351995
0002a0 b7 b6 b2 be 18 1c f4 3d f8 df 3e bd fa bd e0 bc
       -0.34905025 0.11919421 -0.046600312 -0.027434338
0002b0 88 41 4d bd c8 63 f3 3d 2b 83 0a 3d 94 fb 5f bd
       -0.050111324 0.11884266 0.033816498 -0.054683283
0002c0 44 22 99 3c 0a 47 ae 3a 3c 34 cb 3d 07 51 ad 3c
       0.018693097 0.0013296318 0.09922072 0.0211568
0002d0 8a 75 2d bd a5 b3 4e bc 25 e5 40 3d 0a 80 9e be
       -0.042348422 -0.012616073 0.04709353 -0.3095706
0002e0 a8 21 c7 be 54 7c d8 bc 48 25 97 bd c8 01 e8 3d
       -0.38892865 -0.026426472 -0.07380158 0.11328465
0002f0 f8 34 a2 bd c1 1e 32 be d6 7f 92 3d 96 46 2e be
       -0.07920259 -0.17394544 0.07153289 -0.17019114
000300 18 83 b2 3d 44 18 0e 3d f0 40 e6 bd c8 b2 d7 3d
       0.087164104 0.03469111 -0.112428546 0.10532147
000310 a0 30 cd 3c e0 f4 95 bd 6d 64 32 bd 40 a4 15 bc
       0.0250476 -0.07322097 -0.043552805 -0.0091333985
000320 00 d9 76 bc 1a 49 ce 3d 5a f2 c2 bd 2e 91 79 3d
       -0.015066385 0.10072537 -0.09518881 0.06092947
000330 a4 3e 93 bb bb 65 d9 3b 4b db 90 bd f4 db c1 3d
       -0.0044935513 0.0066344417 -0.07073077 0.09465781
000340 5f 0a b7 3d f5 e6 a8 3d 6b ec 20 3d dc a2 27 bc
       0.08937525 0.082471766 0.039287966 -0.0102317
000350 3c d3 27 bd a8 5e e2 3c cd 9b 36 3d d6 26 53 be
       -0.040972933 0.027633026 0.044582177 -0.20620283
000360 28 f5 c0 bd c0 09 ae 3c 8f a9 92 3d d5 74 04 be
       -0.0942176 0.021244884 0.07161247 -0.12935193
000370 7d 69 47 bc 07 9e e6 bd 75 97 12 bd 04 ae 2f 3d
       -0.012171146 -0.1126061 -0.035788972 0.042890564
000380 c0 f3 da bc d0 0c 91 bd d8 53 ef bd 00 05 d7 bd
       -0.026727557 -0.07082522 -0.11685914 -0.104990005
000390 2a 73 89 3d 8e 40 1f be e6 ee f5 3d 0d 85 ec 3e
       0.06711419 -0.1555197 0.12008457 0.4619526
0003a0 21 f0 91 bc 78 a5 e3 bc 70 8d fa bd 15 3f 88 3d
       -0.017814698 -0.027788863 -0.12234008 0.06652657
0003b0 1c 4b a7 bd 50 37 13 be ec 8e d9 bd 68 a2 77 3d
       -0.08168623 -0.14376569 -0.10622963 0.060457617
0003c0 65 34 5c 3d e3 55 e5 3d d2 d5 8e 3d 41 4e 58 3d
       0.053760905 0.11198022 0.06974377 0.052809004
0003d0 25 ed 83 be 77 5b 7a 3d d6 22 d9 3d 7f 21 e7 bd
       -0.25766864 0.061122384 0.106023476 -0.11285686
0003e0 49 2e a0 be 53 52 93 3d 8c 0b 9e 3d 60 a1 97 3d
       -0.31285313 0.071934365 0.07717046 0.07403827
0003f0 96 11 e7 bd dc ef d3 bd 90 12 ce 3c 55 1c df bb
       -0.11282651 -0.10348484 0.025155336 -0.0068087974

layers.3.bias f4 [32]
000000 a4 ce 51 3d 4e 5b 2b 3e cd 2f ff 3d 54 81 09 3e
       0.05122246 0.16734049 0.12460289 0.13428241
000010 23 cf 6d 3e 6b 60 1c 3d 42 66 84 3e 31 ef 86 3d
       0.23223548 0.03817789 0.25859267 0.06588591
000020 68 d0 ef 3d ff 17 9e 3c 7b 7e fb ba e4 dc c3 bd
       0.11709672 0.019298552 -0.0019187474 -0.09563616
000030 f3 5c 63 3e 54 7e 69 bd 09 f0 c8 ba ac 9c f6 3d
       0.22203426 -0.05700524 -0.0015330325 0.120416015
000040 46 18 ee bc 46 7d a4 3c 76 28 d0 3c bd 33 7e 3d
       -0.029064309 0.020079266 0.025409918 0.06206106
000050 0f 46 b5 3d 30 bc 3a 3e 80 44 85 3e 7f 8a 0b 3e
       0.08851253 0.1823585 0.26028824 0.13627051
000060 3f 72 01 3e bf 91 7f 3d ac e8 68 3e 28 bb c0 be
       0.12641238 0.062394854 0.22745007 -0.3764279
000070 05 9f 29 bd fa 9b 11 3e 7e 8a 1d 3d 83 e4 b3 3d
       -0.04141142 0.14219657 0.038462155 0.087838195

layers.6.weight f4 [16, 32]
000000 ec d8 05 be 71 7f d5 3d cd fd 71 3d 15 ad e2 bd
       -0.1307103 0.10424698 0.059079934 -0.11068169
000010 17 cf b9 3e 79 d9 bc be 99 27 ab 3e d1 e6 24 bc
       0.3629081 -0.36884668 0.33428648 -0.010064797
000020 53 19 3e 3f b2 69 c0 3e 65 e1 50 3d 30 3b 7f be
       0.7425739 0.3758064 0.050996203 -0.24924922
000030 07 cd 06 3e 8e b4 82 be f1 df 0c 3e 93 75 bf bb
       0.13164149 -0.25528377 0.13757302 -0.0058428734
000040 ff ae 69 bd d5 46 96 be 55 28 32 3e f7 51 a2 be
       -0.057051655 -0.29350916 0.17398198 -0.3170316
000050 ed 90 c0 3e c6 92 8c 3d 13 bf 1a bd c5 4d fe 3e
       0.3761057 0.06863932 -0.03777988 0.49668708
000060 dd 79 7b be 58 3f 8d be 8a 48 87 3d f0 57 17 3f
       -0.24558206 -0.2758739 0.066056326 0.59118557
000070 a1 88 85 bd 13 45 c3 bc ed 80 9e bd bb 1b f5 3e
       -0.065202005 -0.023836648 -0.077394344 0.4787272
000080 03 a6 a1 be 71 a9 8a 3d 39 80 d6 3c 7b ec af 3d
       -0.3157197 0.067706 0.026184188 0.08590027
000090 0c 38 12 3f e6 16 a7 bd ff 54 d0 3e cd d3 85 bc
       0.5711677 -0.081586644 0.40689847 -0.016336346
0000a0 7f a4 39 3f 71 31 f0 3e b9 1c e9 bc 17 d0 88 bd
       0.72516626 0.4691272 -0.028456079 -0.06680315
0000b0 3a 4e e2 3d 8b 40 83 be f1 dc 7b 3e 2a d8 36 3e
       0.11050077 -0.2563518 0.24596001 0.17855898
0000c0 a0 d9 10 be 4f 80 ec bd 5a a8 c7 3e 08 ec 43 be
       -0.14145517 -0.115479104 0.3899563 -0.19133008
0000d0 85 bb 3f 3e 55 72 6c 3e 48 a9 27 3e e6 05 23 3f
       0.18723877 0.23090489 0.1637317 0.63680875
0000e0 b4 0c e4 bd b1 2b 89 be 70 0a 22 3e b5 e4 3a 3f
       -0.111352354 -0.26791146 0.15824294 0.7300523
0000f0 92 ea 8e be 99 c2 84 bd bd 01 90 3e a2 62 0c 3f
       -0.27913338 -0.06482429 0.28126326 0.54838
000100 e2 4e 1b be 68 e2 f7 3d a3 9d 30 be 7e 16 cb bd
       -0.1516681 0.121037304 -0.17247634 -0.099163994
000110 39 9d a2 3e be f2 ce be 09 00 8d 3e b7 c5 1e be
       0.31760576 -0.40419573 0.2753909 -0.1550511
000120 a1 d4 41 3f f1 b7 0a 3f b0 f6 c0 3d 56 76 9d bd
       0.7571507 0.5418692 0.09422052 -0.076885864
000130 0b 57 36 3e 4c 7e 76 be 36 47 3c 3e 87 7d 08 3e
       0.17806642 -0.24071616 0.1838654 0.13329135
000140 9e 0c b2 bd eb 5c 27 be 2c 8b 84 3e 8a fc 99 be
       -0.08693813 -0.16344039 0.2588743 -0.30075485
000150 4d 08 bb 3e ce 45 fe 3d c8 e3 9c 3d ef 98 25 3f
       0.3652977 0.12415658 0.07660633 0.64686483
000160 5b fb eb bd cd dd 56 be 10 98 26 bd 5c 2b f9 3e
       -0.115225516 -0.20983048 -0.04067236 0.48665893
000170 38 6c 8f be f2 80 41 3d 9b 84 c8 3d 3f e1 cd 3e
       -0.28012252 0.047242112 0.097909175 0.40210912
000180 6b 02 a0 bc 74 ca 3d 3d 6a 72 ef 3c c9 fa d6 3d
       -0.019532403 0.046335652 0.029229362 0.10497052
000190 ea d3 1b bf b1 17 90 3d 04 cc eb 3d c2 69 f5 3d
       -0.6087023 0.07035769 0.11513522 0.11983062
0001a0 11 5d d5 be 77 e6 04 bf dd 08 9c bd ee ec 3e bd
       -0.41672567 -0.5191416 -0.07618878 -0.046612673
0001b0 7a 72 47 3e dd 6a 15 3e 22 55 65 be 36 3d 6a 3e
       0.19477263 0.14591546 -0.22395757 0.22874913
0001c0 19 7b 3f 3e 12 cb ba bc a0 66 2d bf 3f ca 9c 3c
       0.18699302 -0.02280191 -0.6773472 0.019139407
0001d0 83 2c 13 bf 35 c8 29 bf 6d 7b 50 3c ee 29 2d bf
       -0.57489794 -0.66321117 0.0127247395 -0.67642105
0001e0 10 c8 b3 3b 7a 51 fd bd 36 cd a2 3d 64 b0 07 bf
       0.005486496 -0.12369056 0.07949297 -0.53003526
0001f0 e7 c8 1e bd ec 6d 9d 3d 26 0e 26 bf 6e 22 c4 be
       -0.038765814 0.076869816 -0.6486534 -0.38307518
000200 12 9d 14 3d 26 38 ba 3d 8c 53 9b 3b 7c 1d 77 3e
       0.036282606 0.09092741 0.004740184 0.24132341
000210 fb 7d 27 bf d8 8f c7 bd 6c bb 3e 3e 44 38 06 3e
       -0.65426606 -0.09744233 0.18626183 0.13107401
000220 04 3b 2d bf b7 ed bc be 97 63 97 bd 7a 7b f6 3c
       -0.67668176 -0.36900112 -0.07392042 0.030088175
000230 18 4b 7a 3e be a7 09 3d dc 59 87 be fb b0 89 3e
       0.24442708 0.033607237 -0.26435745 0.26892838
000240 6e 16 9c bd 7c 1e 23 bd 77 17 ae be 66 f9 18 3e
       -0.076214656 -0.039823994 -0.34002277 0.14938888
000250 4b 2e a3 be 39 9a e6 be 7d 64 25 ba a1 59 45 bf
       -0.31871256 -0.45039538 -0.00063092244 -0.7708989
000260 96 e7 37 3e c4 82 09 3e 12 63 cb 3d 3b 94 c4 be
       0.17959437 0.1342879 0.099310055 -0.3839434
000270 37 c7 e0 bd cd d2 c7 3d fa ba 75 be 7e 33 dd be
       -0.10975497 0.09757004 -0.23997107 -0.43203348
000280 ef 06 81 be 31 c0 8c 3b 05 7a 6d 3d ea 2b 39 3d
       -0.25200602 0.004295372 0.057977695 0.045207895
000290 80 97 ea 3e c8 9b 35 be b9 5f 8e 3e af 3e 54 be
       0.4581871 -0.17735207 0.27807406 -0.20727037
0002a0 46 55 1d 3f 2a fb e5 3e 1b 45 20 ba 5d ce 37 be
       0.6145824 0.44918185 -0.0006113813 -0.17949815
0002b0 43 03 fa 3d 0b ac 85 be f5 07 ca 3d 93 25 c4 3d
       0.122076534 -0.2610782 0.09864799 0.09577479
0002c0 ad 24 1d bd 7e 8a 1f be da 70 61 3e 8c 88 87 be
       -0.038365055 -0.15580174 0.22015706 -0.26471364
0002d0 fd 63 99 3e 07 81 ef 3d f0 44 db 3d 15 23 21 3f
       0.29959098 0.11694532 0.10706508 0.62944156
0002e0 68 50 6a bd 36 a4 e5 bd 26 4c 28 3e 32 5e 0f 3f
       -0.057205588 -0.112129614 0.16435298 0.56003106
0002f0 59 f7 73 be 1d 76 d3 3a e7 0e 41 3e 76 10 d3 3e
       -0.23824824 0.0016133223 0.18853341 0.41223496
000300 69 bc 8d bd be 9c d2 3d 84 3f ec bc 28 94 76 bd
       -0.06920702 0.102838024 -0.02883888 -0.060199887
000310 57 54 14 be f5 26 c5 3c 66 a1 db bd 04 cc 28 3e
       -0.14485298 0.024066428 -0.10724144 0.16484076
000320 cd 91 86 3d 69 bc 10 3e 45 51 d5 3c 98 f6 8f bd
       0.06570778 0.14134373 0.026039729 -0.07029456
000330 f1 42 8f 3c df 9f 8d bd d4 11 11 bd 03 df c3 bd
       0.017487975 -0.069152586 -0.035417393 -0.095640205
000340 00 2d 1d be 21 33 bd 3c ab c0 8a 3d 66 4d 01 be
       -0.15349197 0.02309567 0.0677503 -0.12627181
000350 8b a6 f9 3d 6d 18 b5 bd 1f 15 11 3c 9b c2 1a 3e
       0.12189969 -0.088425495 0.008855133 0.15113299
000360 da 66 04 be 25 e5 73 bc 42 13 17 be f0 e7 32 bd
       -0.1292986 -0.014886175 -0.1475344 -0.043678224
000370 8c ef bc 3d ac ed b0 3c 98 de 87 bd e8 a1 3e bd
       0.092253774 0.021597706 -0.06634253 -0.046541125
000380 84 5a 8b 3d b4 e9 51 3e ea 0a 08 3e 2c 9a e9 3c
       0.06804374 0.20499307 0.13285413 0.028515898
000390 5f d6 d4 be 26 11 13 b8 bd 49 1c 3d 13 9d b5 3e
       -0.41569802 -3.5063502e-05 0.03815626 0.354714
0003a0 bd 9f f5 be 12 6a e1 be 8d 40 da bd 1a 09 5b 3d
       -0.47973433 -0.44026238 -0.10656843 0.053475477
0003b0 84 12 b3 3d f9 f9 bc bc b8 59 37 be f8 ec 4b 3e
       0.08743766 -0.023068415 -0.17905319 0.19914615
0003c0 07 57 32 3e 30 8d 12 be 93 50 fa be e9 b8 76 3d
       0.17416011 -0.14311671 -0.48889598 0.060234938
0003d0 8d 5d 93 be 49 fb b5 be ca 60 8b 3e 1c e6 33 bf
       -0.2878231 -0.35543278 0.27222282 -0.70272994
0003e0 c1 86 ba bc 36 8b 47 bd ae 54 3f 3e ea 0e ed be
       -0.022769334 -0.048716746 0.18684646 -0.4630044
0003f0 bc b7 38 3e 67 5e a0 3d 99 ed 9c be bc b3 c9 be
       0.18038839 0.07830506 -0.30650023 -0.3939494

layers.6.bias f4 [16]
000000 04 02 6c 3e 41 75 ea 3d 1c 75 8d 3e 8c cd f8 3e
       0.23047644 0.11448146 0.2762841 0.4859432
000010 1a de 88 3e 2d 8a 8f 3d b0 48 3c be 85 f1 3f 3e
       0.2673195 0.07008777 -0.18387103 0.18744476
000020 65 86 9b 3e 25 31 96 3e aa 70 8e 3e f5 d5 ef 3e
       0.30375972 0.2933437 0.2782033 0.46842924
000030 e7 e0 f5 bd d7 dd e2 3e 95 3e be 3e 10 44 a5 3e
       -0.12005787 0.44309875 0.3715712 0.3227849

layers.9.weight f4 [1, 16]
000000 4d 08 01 bf b5 d0 8e be 84 5f e9 be b8 a6 26 3f
       -0.5040329 -0.27893606 -0.45580685 0.6509814
000010 fc 51 10 3f dc 27 bd be 44 a5 1d be b5 1e ee 3e
       0.563751 -0.36944473 -0.15395075 0.46507803
000020 ae d4 ee be 03 47 98 3e 1d 69 03 bf 07 6e e7 3e
       -0.46646637 0.29741678 -0.51332265 0.45201132
000030 9f df aa bd e8 3c ab 3e fa 80 d6 3e 37 96 e3 3e
       -0.083434336 0.33444905 0.41895276 0.44450542
