models/Delete/pion_2.pt (torch, 18437 bytes, 7 tensors)

layers.0.weight f4 [64, 19]
000000 04 a1 05 3f 20 38 af 3d 7f 92 a0 3d 60 39 ae be
       0.52198815 0.08555627 0.07840442 -0.3402815
000010 ca d7 93 be bd 09 5d bc 1c 20 c7 bc 1c 9d 9d 3c
       -0.2887557 -0.013491091 -0.024307303 0.019239955
000020 0d 30 1e 3d 2f be cf bd 7a 24 5a bf 6f 07 32 bd
       0.038620044 -0.101436965 -0.8521191 -0.04346412
000030 c4 e5 28 be 35 3b 0f bd ca e0 82 3d 87 86 98 bc
       -0.16493899 -0.034968574 0.06390531 -0.018618835
000040 41 77 a7 bd e4 ba 2b 3d 81 47 15 3e 53 01 92 bf
       -0.08177043 0.04192628 0.14578058 -1.1406654
000050 a9 8c 87 be 94 55 c2 38 a3 20 26 be fc 65 0c bf
       -0.26474503 9.266581e-05 -0.16223387 -0.54843116
000060 7b 3e eb 3d 01 0f 21 3e 0a ef 23 bc db 99 5c 3b
       0.114865266 0.1572838 -0.010005722 0.003366104
000070 95 d7 95 bb a3 61 88 bf 58 8d ba 3a e7 18 62 3c
       -0.0045728185 -1.0654796 0.0014232798 0.0137998825
000080 63 54 aa bb 7b 3c 13 3b 1d 02 e5 3a 7b 8a 2d 3c
       -0.005198048 0.002246647 0.0017471943 0.010592098
000090 d9 5f 12 bc 2d b6 e3 bb a0 cb 98 bd 95 7d 18 be
       -0.008933985 -0.0069492073 -0.074607134 -0.14891656
0000a0 96 78 32 be 68 98 9b bd 5c 4a 01 3d b0 17 85 bc
       -0.17428812 -0.075974286 0.031565055 -0.016246647
0000b0 6e 29 d1 bd 8e 8e 39 be 02 bb bc 3d 7c d7 1c bd
       -0.1021298 -0.18120787 0.092153564 -0.03829144
0000c0 e3 f7 69 3e da d4 fb 3d d6 ef cc 3d 24 f0 6e bd
       0.22848468 0.122964576 0.100066826 -0.058334485
0000d0 80 9a b4 ba c7 dd ff bd d3 2e 37 3e e2 07 e9 3d
       -0.0013778955 -0.124934725 0.17888956 0.11378457
0000e0 9c 8f 6e bd e9 64 80 bf cf d1 75 be 76 c5 de 3a
       -0.058242425 -1.0030795 -0.24005817 0.0016996104
0000f0 56 da e0 bd 1a a1 4a bf 05 5d 65 3e 04 0f 99 3c
       -0.10979144 -0.7915207 0.22398765 0.018683918
000100 85 57 d4 3a ac f1 68 3d 99 ed 96 3b da 67 58 bf
       0.0016200399 0.0568711 0.0046059606 -0.84533465
000110 f1 1b 12 bd 26 de bb 3c 38 cc 8f ba 4d 21 7c bb
       -0.03567118 0.022933077 -0.0010970896 -0.0038471997
000120 cb e0 fb 3a 12 d9 cd 3c a0 08 45 be 45 a3 ea bc
       0.0019216774 0.025127921 -0.19241571 -0.028642306
000130 29 fd 20 40 2a 42 ce 3e c2 37 ae bb 51 ce 9d 3e
       2.5154517 0.40284854 -0.0053167054 0.3082147
000140 3d 60 c1 be a4 fc 0f 3e 1a ed 2a 3e 84 24 0f 3d
       -0.37768736 0.14061219 0.1669201 0.034946933
000150 b8 16 05 3d 74 bb 07 bd 1f 90 c0 3e 72 1a b6 bd
       0.03249237 -0.033137754 0.37609956 -0.08891763
000160 92 ca 7c bd b5 8f 7a bc f4 4e a5 3c d3 52 f3 b8
       -0.061716624 -0.0152930515 0.02017925 -0.0001160257
000170 68 2c 15 3d 10 33 26 3d 68 c3 11 3e fd f3 48 3f
       0.036419302 0.04057604 0.14234698 0.78497297
000180 09 91 9d 3c a0 e2 3f 3b d0 32 0b bf fc b0 4d 3f
       0.019234197 0.0029279366 -0.5437441 0.8034818
000190 fe ce d6 bb e8 68 0d 3d a8 da ce 3c 4a 36 3a bd
       -0.006555437 0.034523875 0.025250748 -0.04546193
0001a0 35 ae 95 3c f2 ba 2e 3f 84 be 99 3b 98 14 09 bd
       0.018271545 0.68254006 0.0046919007 -0.033466905
0001b0 63 ca 73 bc 97 5c d5 3c 62 d2 71 bb 21 74 16 bc
       -0.014879796 0.026045127 -0.003689908 -0.009182961
0001c0 e0 54 ef bd d2 46 ab bc 05 ee 1a 3e 00 06 b4 3e
       -0.116861105 -0.020907793 0.1512986 0.35160828
0001d0 ff 6b 88 be 9e d0 48 be 3a 58 83 be 19 c9 be bd
       -0.26644894 -0.19610831 -0.2565325 -0.093157
0001e0 38 06 81 3e 70 5b e7 bb e9 b5 52 bd 75 81 ad 3d
       0.25200057 -0.0070604607 -0.051443014 0.084719576
0001f0 c6 2e 0d bf 14 08 1f be 2a 59 2b 3e 13 a9 2c 3d
       -0.55149496 -0.15530425 0.16733232 0.04215343
000200 11 53 19 be d5 71 9a 3b c0 22 53 be 5b 53 fd bd
       -0.14973094 0.004713277 -0.20618725 -0.123694144
000210 44 01 91 3c b8 5c f9 bd e1 c3 57 3e 38 ab 2d bd
       0.017700799 -0.12175888 0.21070816 -0.042399615
000220 78 37 f0 3c 2f 14 58 3e 39 14 09 3e d8 42 01 be
       0.029323325 0.2110145 0.1338662 -0.12623155
000230 b9 3d 55 3e 34 a3 1d be b9 de 2e be a0 0b 12 bc
       0.20824327 -0.15394288 -0.1707715 -0.008913904
000240 0c e5 36 be f2 d7 14 be d3 61 23 3e 00 27 5e ba
       -0.17860812 -0.14535502 0.15955286 -0.00084744394
000250 f1 97 5f be 7f 4c 44 be fd b8 39 3e f0 05 40 bc
       -0.21835305 -0.19169806 0.18136974 -0.011720166
000260 ab ff c5 3e 8d 3b 05 3f 8e ae 3f 3c d6 d9 f3 3d
       0.38671622 0.5204399 0.011699332 0.11906783
000270 a9 09 b9 be 6e 3f 08 be 25 a3 21 be 76 96 1a be
       -0.36140183 -0.13305447 -0.15784891 -0.15096459
000280 98 4b 00 bc 79 4f 03 be 13 17 10 3f 08 dc c7 bd
       -0.007830523 -0.12823285 0.5628521 -0.097587645
000290 a7 16 1e 3e e7 4e 06 3d b0 43 18 bc 3a 19 f3 3a
       0.15438329 0.03279009 -0.009293482 0.0018546947
0002a0 06 5c 07 3c a5 42 34 3d 0a 73 82 bc 93 77 c3 3f
       0.008261686 0.04400887 -0.015923996 1.5270866
0002b0 b6 4a 50 be 1b a2 20 3b 83 89 a7 3d f1 5f b7 3e
       -0.20341 0.0024510685 0.08180525 0.35815385
0002c0 ce cc a4 be 3a 77 e5 be 91 8b 21 bc a3 c2 4c bd
       -0.32187504 -0.44817525 -0.009859935 -0.049990308
0002d0 72 60 09 3d ed 0a 82 bc ec 40 ff 3d 0a 44 44 bd
       0.033539243 -0.01587435 0.12463555 -0.04791645
0002e0 8a 51 5e bd dc 2a db bd 22 1c 08 3c 5f 1a 4b 3c
       -0.05427698 -0.10701534 0.008307489 0.012396424
0002f0 40 07 69 be ac 84 a2 bd 77 f8 cd 3e 29 a5 03 3e
       -0.22756672 -0.079354614 0.40228626 0.12855972
000300 4b 60 62 be fa 04 fa 3e 6a 3e 07 bf 78 cc 35 be
       -0.22107045 0.48831922 -0.5282961 -0.1775378
000310 49 70 05 3d 23 23 9e bd 06 0e d1 bd b8 4a d4 bd
       0.032577787 -0.077215455 -0.10207753 -0.10365814
000320 ab 3c 8b be fe fa 3e be 06 61 15 3e da 80 34 3d
       -0.27194723 -0.18650433 0.14587793 0.044068195
000330 90 d7 9e 3d 4d 6e 9c bb da 37 85 3c 61 75 95 3d
       0.07755959 -0.004773891 0.016261984 0.07297779
000340 6a 85 c9 3d 5d bb 87 3c 38 a8 1e 3d d8 b5 f6 3c
       0.098399 0.016568834 0.038734645 0.030116007
000350 02 b4 29 be 88 6c 64 bd 31 fd 2c 3e 35 d3 da 3d
       -0.16572574 -0.055767566 0.1689346 0.10684816
000360 c6 01 24 3e 8b 89 85 3e 1b f2 6d be b0 21 1f be
       0.16016302 0.260815 -0.23236887 -0.15540195
000370 19 7d f2 bd 55 b7 18 3e 3e 66 f7 bd cd ac a5 bd
       -0.11840267 0.14913686 -0.12080048 -0.080896
000380 5d b2 34 bc d6 4c 08 bc 64 3d 2a 3e ca 00 91 3e
       -0.011028853 -0.0083191 0.16624981 0.28320915
000390 7f 88 65 bf 67 a3 06 bd ef 8b 33 ba eb 4b b1 be
       -0.896614 -0.032870676 -0.000684916 -0.34628233
0003a0 7c 5b 7b 3e 82 8e 60 bf 01 3b 34 bf 02 ad c7 3d
       0.24546617 -0.8771745 -0.7040253 0.097497955
0003b0 00 80 16 3d c7 65 41 bc 51 ca 6f 3f 7a 5c 3a bd
       0.036743164 -0.011804051 0.93668085 -0.04549835
0003c0 00 de 1a bd 1b eb 20 bc b5 0a d5 3b e5 18 20 3b
       -0.037809372 -0.0098216785 0.0065015205 0.00244289
0003d0 0a d1 c6 b9 77 40 c0 bc 5f 3c 20 bc d5 d8 36 3e
       -0.0003792125 -0.02346824 -0.009780019 0.17856152
0003e0 bc 9b 9b bd 70 f1 dd bc b9 a4 ec bd 22 3c e9 3d
       -0.07598063 -0.027092665 -0.11554856 0.113884225
0003f0 88 40 ca 3c 80 d7 0e 3b a8 c5 a9 bc ff fb 24 3e
       0.024688974 0.0021795928 -0.020724133 0.16111754

layers.0.bias f4 [64]
000000 74 7d 19 3e 14 39 93 bc ef 01 3f 3e 7d 8e fa bd
       0.14989263 -0.017971553 0.18653081 -0.12234209
000010 b2 82 9f be ff 4f 47 3e 66 63 9f be 10 e1 39 3c
       -0.311544 0.1946411 -0.31130522 0.011345163
000020 2d 00 01 3d 33 6e 3e 3d 0e 87 cd be ff 90 6f 3e
       0.03149431 0.046491813 -0.401421 0.23395155
000030 33 3d 90 3a 60 32 02 bd 6f 2f 39 be 00 09 a6 ba
       0.0011004567 -0.031786323 -0.180845 -0.0012667477
000040 d6 89 a4 3d 7d 8b 84 be 6e 45 f6 bd fa a9 78 be
       0.080341026 -0.2588767 -0.120249614 -0.24283591
000050 d2 4e 43 be b6 02 a7 3d 7c d0 80 3d e8 65 ca bd
       -0.19073036 0.08154814 0.06289765 -0.09882718
000060 eb fc 30 3e 0b 1b 9d 3d 40 b7 ae be 4c ca 16 be
       0.1728398 0.07671174 -0.34124184 -0.14725608
000070 b7 aa 8d 3d 6d 88 79 3d f3 17 53 3e 70 24 84 be
       0.06917327 0.06092112 0.20614605 -0.2580905
000080 88 cb 33 bc a0 54 c2 bb ce 57 f2 3d ab fb 19 3e
       -0.010973819 -0.0059304982 0.11833154 0.1503741
000090 e5 ba 49 be de 80 c0 3d 7c 5c 43 bd a9 53 76 be
       -0.19700201 0.093995795 -0.04769562 -0.24055351
0000a0 ac 91 49 be e7 66 64 3e 6f ae 8b be 8c ed a6 be
       -0.19684476 0.22304879 -0.2728152 -0.3260311
0000b0 f7 14 17 3e 6a 8f 97 3d 0d aa 59 be c5 ec 21 3e
       0.14754091 0.07400401 -0.21256275 0.15812977
0000c0 10 1b 88 bd cc d5 95 bd f6 91 a3 be 97 c5 81 3d
       -0.06645787 -0.07316169 -0.31947297 0.063365154
0000d0 6a cd fb bc e4 ca 2e 3d ea e2 08 be 2b e6 d0 37
       -0.030737597 0.04267396 -0.13367811 2.4902713e-05
0000e0 80 4b f7 bc 5a b0 22 be 34 f9 5c 3c a3 53 44 3e
       -0.030187368 -0.15887585 0.013487149 0.1917253
0000f0 92 16 cc 3d 13 d0 cc be 19 c9 71 be ec b7 61 be
       0.099652424 -0.40002498 -0.23611869 -0.22042817

layers.3.weight f4 [32, 64]
000000 16 5c b0 ba dc 8b fe be d0 f2 34 3d fe a6 d7 bd
       -0.0013455178 -0.4971608 0.044176877 -0.10529898
000010 e1 f5 f0 3d cd 45 b9 3c 0f ed 82 bd 54 26 e5 bd
       0.11765648 0.022616291 -0.063928716 -0.11188951
000020 1d 93 51 bc 7b 72 81 3d 4a 33 ee 3c b6 87 ee 3d
       -0.012791422 0.063206635 0.02907719 0.116469786
000030 25 dc 0a 3f 38 0a dc 3c a8 10 48 3d 62 5b f0 3d
       0.54242164 0.026860341 0.04884401 0.1173618
000040 8a 81 85 bd 05 e5 2d bf 2f ad 19 3d d0 2d 9c 3e
       -0.06518848 -0.6792758 0.037518676 0.30503702
000050 33 f4 91 3e e2 31 97 bd 3f 1f c7 ba 7e 10 fd 3c
       0.28506622 -0.07382561 -0.0015191807 0.030891653
000060 49 61 97 bd b1 12 0e 3d 9a ce 69 bd c6 02 90 bd
       -0.073916025 0.034685794 -0.057081796 -0.07031779
000070 06 e7 41 3f 90 a1 17 bf 28 d2 f2 3d 9b ec 29 3d
       0.7574314 -0.592309 0.118564904 0.04148541
000080 01 f6 89 bc 70 6a 68 bd 30 47 04 3c 80 42 3f 3d
       -0.016840937 -0.05674213 0.008073613 0.04669428
000090 38 33 9f 3d 30 30 2d bc 10 c2 59 bd 93 4a a7 ba
       0.07773441 -0.010570571 -0.053163588 -0.0012763314
0000a0 b3 4e 2f bd f0 3d 11 bd 1e ed 58 3c 16 7b c8 bd
       -0.042799663 -0.03545946 0.013240127 -0.09789102
0000b0 39 f6 8f be a0 7b 8f 3c 54 a1 09 be 78 b6 ae 3c
       -0.2811754 0.017515004 -0.13440448 0.021327242
0000c0 71 c7 32 3d 68 45 dd bd 4f 84 21 3d 8a 95 b1 bd
       0.043647233 -0.10804254 0.03943282 -0.086711004
0000d0 fe 35 a5 3d 8c ee 73 3d 4c 76 7a bd 24 d9 0f 3d
       0.08066939 0.059553668 -0.061147973 0.03511919
0000e0 16 b5 f0 bd 29 65 26 3e b0 d5 e9 3c 80 f4 aa bd
       -0.117532894 0.16249527 0.028544277 -0.08347416
0000f0 75 3e a8 3d 75 fc 17 bb 64 7d d6 bd a0 2c 75 bc
       0.08215038 -0.0023191248 -0.10473135 -0.014964253
000100 88 0b 81 bd 40 ca 12 bf 56 74 e5 3d 60 ea 0d be
       -0.063010275 -0.5733986 0.1120383 -0.13858938
000110 f7 42 ff bc c4 ba bf 3d b0 5b d8 3b aa ec f0 bd
       -0.031159861 0.093617946 0.006602727 -0.1176389
000120 3c c3 6c bc 13 96 57 3d 1e 1f 25 bd ac 8f 0c bd
       -0.014450844 0.052633356 -0.04031288 -0.034316704
000130 2d 8e d5 3e cc 84 3b bd 02 0b d9 bd 66 f6 ec bd
       0.41710034 -0.04578094 -0.10597803 -0.11570434
000140 a8 02 cc bc f2 c7 18 bf 86 86 8e bd eb cb 3d 3d
       -0.02490361 -0.5968009 -0.06959252 0.04633705
000150 c1 b2 7d 3d f0 57 04 bc 6a 33 79 bd f5 af 4d bd
       0.06193805 -0.008077607 -0.060840048 -0.050216634
000160 fc d0 79 bd ca 05 34 bd 68 b4 f4 3b d8 b6 02 3d
       -0.06099032 -0.043950833 0.007467795 0.031912655
000170 3d 81 8b 3e e4 27 ba be 1e 52 ea 3d 28 54 a1 3d
       0.27247038 -0.3635856 0.11441444 0.0787738
000180 6c 4e d4 bc e8 cc d8 bd 45 92 08 bd fa a2 c3 3d
       -0.0259163 -0.10585958 -0.03334262 0.0955257
000190 9c 98 7b 3d 6c a5 40 3d 20 68 e1 bd 26 95 35 3c
       0.061424837 0.04703276 -0.110061884 0.011082923
0001a0 f7 ad 05 3d 80 92 78 3b 8c 5c 94 3d e2 24 11 be
       0.03263661 0.0037929118 0.072442144 -0.14174226
0001b0 ce c9 eb be 50 65 50 bd ee 0d e5 bd 18 79 fb 3d
       -0.46052402 -0.05087787 -0.111842975 0.12278956
0001c0 7a 32 62 bc 58 59 f2 bd 89 cd 82 bc f9 ef 17 3e
       -0.01380598 -0.11833447 -0.015967147 0.14837636
0001d0 e0 26 d2 3d ba b8 bf bd ef 84 e6 3c ab 09 64 3d
       0.10261321 -0.09361406 0.02813956 0.055673283
0001e0 e2 84 0a bd 13 4c c0 bd 87 c9 67 bd a0 fa 0b bc
       -0.033818133 -0.0938951 -0.056588676 -0.00854364
0001f0 87 25 99 3d e6 db af 3d 44 47 0c 3c 58 3d fd bc
       0.07477861 0.08586864 0.008561913 -0.03091304
000200 ee 3c 17 be 92 32 86 be 48 45 d2 bd 56 8c 99 bd
       -0.14769337 -0.26210457 -0.102671206 -0.0749747
000210 65 d4 a9 3d 67 8f bb 3d 9f a5 77 bd 02 ad e1 3d
       0.08292464 0.09158211 -0.060460683 0.11019327
000220 96 73 bc 3d c6 a4 ba bd b3 f3 66 3c 47 8d aa 3d
       0.09201734 -0.09113459 0.014096188 0.08327728
000230 94 c8 06 3e 80 3e 0e bd 14 7e b3 bd 20 ad 0a 3c
       0.13162452 -0.034727573 -0.08764282 0.008464128
000240 d4 15 71 bd ac 21 8c be 19 a1 b1 3d 39 01 bc 3d
       -0.058858708 -0.2736944 0.08673305 0.09179921
000250 53 4d ab 3d 06 76 8e 3d 13 c0 42 bc 02 4e ab 3d
       0.08364358 0.06956105 -0.011886614 0.08364488
000260 64 06 66 3c ec 15 82 3d 44 7d 4e 3b 7a 2d 92 bd
       0.01403961 0.063518375 0.003150777 -0.0713758
000270 94 f5 c4 3e cc f5 d5 be 90 70 ed 3c 5a 45 4f 3d
       0.3846861 -0.4178909 0.028984338 0.05060325
000280 a5 bd 8b bb 58 6f b5 3d 41 5e 35 bd 7c 81 cb 3d
       -0.0042645507 0.08859128 -0.04427934 0.099368066
000290 c0 b0 cf bb b0 61 9e 3d de 0c 93 3d 09 32 f8 bb
       -0.006338209 0.07733476 0.071801886 -0.007574324
0002a0 1a 4f 3c bb 3c 16 22 bd bb c6 e7 3d 84 36 07 be
       -0.0028733672 -0.039571986 0.11317202 -0.1320439
0002b0 71 d3 7d be d8 c1 a9 bd df 23 1e bd f2 6b ac 3d
       -0.2478769 -0.08288926 -0.038608428 0.084190264
0002c0 cb 92 09 bc 90 0a 3c 3d bc f1 dd bc 29 b7 1f 3c
       -0.008396815 0.04590851 -0.027092807 0.009748259
0002d0 91 f8 89 3d d8 94 d8 3d 24 6a 48 bc b4 95 ab bc
       0.067368634 0.10575265 -0.012232337 -0.020945407
0002e0 11 74 05 be dd db 34 bc 5a d2 33 3d a1 25 e5 3d
       -0.13032557 -0.011038748 0.04390178 0.11188818
0002f0 b1 d0 b9 3d fe dd a4 3d 71 00 30 bd 50 b7 aa 3c
       0.09073008 0.08050154 -0.04296917 0.020839363
000300 c5 0b fa 3b 74 b8 94 be f0 56 47 3c 50 ac 12 be
       0.0076307976 -0.29046977 0.012166724 -0.14323545
000310 47 d6 dc bd cd d8 07 3e 1e 8a 6f bd e8 17 de 3d
       -0.10783058 0.13266297 -0.05848133 0.108444035
000320 75 e9 3a 3c df 58 7d 3d 49 c9 14 3d ec 96 d7 bd
       0.0114082 0.061852332 0.036324773 -0.10526833
000330 c1 48 e0 3e 78 87 9f bd 76 28 af bd 40 06 1f 3d
       0.43805507 -0.077895105 -0.08552639 0.03882432
000340 68 85 79 3d be 2e ae be 41 d8 53 3c e2 a4 66 3e
       0.06091824 -0.34020036 0.012929977 0.22523835
000350 54 e4 5f 3e 74 5a 87 bd 42 29 9f 3d 06 a0 85 bc
       0.21864444 -0.066090494 0.07771541 -0.016311657
000360 13 ee bf 3c 31 0e 2b 3d 83 04 83 3d 32 eb a5 3d
       0.023428952 0.04176158 0.06397345 0.081015006
000370 8a 65 cf 3e 6d 1b e5 be 0c 93 66 3d 52 04 05 3d
       0.40507156 -0.44747487 0.05629258 0.032474823
000380 f8 17 b0 3d a8 82 c5 3d e0 40 c3 bc 40 db df 3c
       0.08598322 0.09644061 -0.023834646 0.027326226
000390 0c 68 f6 bd 68 de fc 3d c8 66 c5 3c ca 07 4b bd
       -0.12031564 0.12347108 0.024096861 -0.049567975
0003a0 9b 8a 63 3c b0 6c bc bc d8 81 c1 bd a9 67 48 bd
       0.013888027 -0.023001045 -0.09448594 -0.048926983
0003b0 d0 33 61 be 80 89 fb 3b d9 13 b4 bd 30 91 cc 3c
       -0.21992421 0.0076763034 -0.08792848 0.024971575
0003c0 bc 82 e3 bc b0 16 bf 3c 00 34 57 bc b3 2c 3b 3d
       -0.0277723 0.023326248 -0.013134956 0.045696925
0003d0 1a 94 f8 bd c0 ba f5 3c 07 2e 97 bb 4d 1f 88 3c
       -0.12137623 0.029996276 -0.004613641 0.016616488
0003e0 65 a4 60 3c 7d c2 9d 3d d1 b3 99 bd 73 d8 c1 3d
       0.01371107 0.07703111 -0.075050004 0.094651125
0003f0 ed 28 aa bd 6e 61 8f 3d cd a1 97 3d 92 cf 93 bd
       -0.08308587 0.07001005 0.07403908 -0.07217325

layers.3.bias f4 [32]
000000 59 b0 8f 3d d6 57 72 3e 00 84 14 3d 04 4a da 3d
       0.070160575 0.23666319 0.036258698 0.106586486
000010 91 aa 79 3c f6 ec 06 3c ef 16 16 3e 10 5e c4 3e
       0.01523842 0.008235207 0.14657186 0.38353014
000020 e2 10 13 be f4 6a ae 3e 33 b6 ce 3e 46 90 25 3e
       -0.14361909 0.34065974 0.40373382 0.16168317
000030 cb 2d 5f bd 26 98 7f 3e 10 34 96 3d a7 fe 95 3d
       -0.05448703 0.24960384 0.07334149 0.07323962
000040 5c 8f 6d 3d e1 2a ea 3d 49 5a 25 bd f5 4e 57 3d
       0.057998046 0.1143396 -0.040369306 0.052565534
000050 bd fe 3f be d0 23 b2 3d fe a8 a0 3e 69 02 1b 3e
       -0.18749519 0.08698237 0.3137893 0.15137638
000060 28 05 2a 3c b1 22 b8 bd 04 da cf 3d a4 cb bd 3e
       0.010377206 -0.08990992 0.10149005 0.37069428
000070 72 bc 1b 3e 35 8d 0a 3e f5 7b 25 be 06 e9 8d 3d
       0.15208605 0.13530429 -0.16160567 0.06929211

layers.6.weight f4 [16, 32]
000000 0b 25 d6 be fe cc e6 be 4e ed a3 3d 69 0c e9 be
       -0.41825137 -0.45078272 0.08004247 -0.4551728
000010 54 32 97 bc 0c f0 3a be 81 f4 73 be a6 cb c8 3d
       -0.018456616 -0.18255633 -0.2382374 0.09804468
000020 17 7a 34 bd ef 0f 2d 3e af 60 c8 3d 23 9c a0 be
       -0.044061746 0.1690061 0.09784066 -0.31369123
000030 17 21 7c 3d 27 96 2c 3c 8b e9 dc 3b ac e2 04 3f
       0.061554994 0.010533846 0.0067417077 0.51908374
000040 9d 0f 20 be 2d 5f 12 3e 5a e8 82 3c 20 22 07 be
       -0.15630956 0.14294119 0.015979934 -0.13196611
000050 cf b4 b8 3e 24 64 a9 bc 33 2d 4d 3e 7c 49 0a 3f
       0.36075446 -0.020677634 0.20036773 0.5401838
000060 d7 31 5b be c6 84 0f be bb 15 c9 3e e8 a9 24 bd
       -0.21405731 -0.14015493 0.39274392 -0.040201098
000070 a5 ab 1a 3e 43 1e 39 be b0 a0 8b 3c 99 f7 57 b9
       0.1510454 -0.1807795 0.017044395 -0.00020596235
000080 5b af 06 3e 3f 82 18 bc c5 59 d8 bb 8e 3e a1 bd
       0.1315283 -0.009308397 -0.0066024982 -0.078732595
000090 48 3b 6b 3e 1b 50 2c 3e 32 bf 8d bd 02 da 4d 3e
       0.22971833 0.16827433 -0.06921233 0.20102695
0000a0 8f c6 95 bc 84 a3 36 3e d8 2a 42 3d d1 ff 23 3e
       -0.018283157 0.17835814 0.04740414 0.16015555
0000b0 b1 cd d2 bc e1 92 cb 3e 05 c1 d4 3d a3 66 e9 be
       -0.025732847 0.39760497 0.10388378 -0.45586118
0000c0 15 95 69 bc b2 05 09 bf a9 ef 89 3e 01 83 87 3e
       -0.014256735 -0.53524315 0.2694066 0.26467136
0000d0 93 ea d5 be ee 70 7f bd 5f c7 43 3e c1 c9 d5 be
       -0.41780528 -0.062363558 0.19119023 -0.4175549
0000e0 46 fd 33 3c 08 e2 8f 3d c4 2f 94 be cf 81 a2 3d
       0.010985678 0.07025534 -0.28942692 0.07934915
0000f0 23 da 49 3e 86 28 b7 3e 98 a2 14 3d 7d 49 af be
       0.19712119 0.35773104 0.036287874 -0.34235755
000100 1b 5b f1 3d 74 b0 53 3d 47 12 2b 3e 2b 9e aa bb
       0.11784955 0.05168195 0.16706191 -0.0052068434
000110 f2 39 83 3e 81 68 c9 3d 57 37 9b bd 7c f5 a6 3e
       0.25630146 0.09834386 -0.075789146 0.32609165
000120 a4 11 c0 bd 7f 18 26 3e fa 94 c8 3d b1 6c d2 3c
       -0.09378365 0.16220282 0.0979404 0.025686594
000130 77 2f 35 3e b4 fa 99 3e 99 8a 23 3e d1 41 b3 be
       0.17693888 0.30074084 0.1597084 -0.3501115
000140 31 91 a6 3d 8c 8f 82 be 97 cd aa bd 0f 9f 7b 3e
       0.08133162 -0.25500143 -0.083399944 0.24572395
000150 9c fb 00 bf ae 9f b0 3c 99 86 38 3d 1e b5 06 bf
       -0.50383925 0.021560516 0.045050237 -0.5262011
000160 e8 b5 25 3e 57 a3 08 3e 52 18 e5 be 42 6f 9b 3d
       0.16182673 0.13343559 -0.44745117 0.0758958
000170 a5 38 d6 3c a5 7d e7 3e c8 40 c6 3d 57 0f 81 be
       0.026150057 0.45213047 0.09680325 -0.25207016
000180 fb 32 76 3e 39 37 00 3e d7 74 c4 3c 6b 42 ad 3d
       0.24042885 0.12521066 0.023981495 0.08459934
000190 f5 46 96 3d 6c 5c eb 3e a8 71 a2 3d af 39 ad be
       0.07337753 0.4596895 0.079318345 -0.33833072
0001a0 4a f9 e3 bd 91 ef 28 bf d3 83 c6 be eb 8e f9 3d
       -0.111315325 -0.6599055 -0.3877245 0.121854626
0001b0 f5 55 0a 3d 2a a3 eb be 36 ba 01 3e 93 dc fa 3e
       0.03377338 -0.46022922 0.1266869 0.4899641
0001c0 8d 53 1a 3d eb 27 79 bd 87 dc 0c be e6 c4 58 bc
       0.037677336 -0.060829084 -0.13756 -0.013230538
0001d0 5b 76 1c 3f db 91 97 3e b9 98 8c be 90 e6 c1 3e
       0.61118096 0.29603466 -0.27460268 0.37871218
0001e0 04 0f 2d 3e 14 11 bf 3c c4 d8 9a 3e 21 26 00 bf
       0.1690026 0.023323573 0.30243504 -0.5005818
0001f0 52 f7 af bd 02 63 29 be ad 51 aa 3d 1b 33 c8 3d
       -0.085920945 -0.16541675 0.0831636 0.097753726
000200 4d 91 c2 be 0a 94 50 be cd ae fc bd 58 ae 4b be
       -0.3800148 -0.20368972 -0.12338028 -0.19890726
000210 fd 62 64 be b6 bc 88 be da aa e8 bd b8 a6 23 3e
       -0.22303386 -0.26706475 -0.11360712 0.15981567
000220 89 3a e8 bb 6d 4b 57 3e a1 84 b5 3d 46 fe 7e be
       -0.007087056 0.21024866 0.088631876 -0.24901685
000230 ca ce c1 3c 41 ae 1c bd 31 84 aa be 72 9d a7 3e
       0.023658175 -0.03825212 -0.3330398 0.3273731
000240 76 9c c4 bd 74 06 7a 3e cc e3 0d be 32 7d 17 be
       -0.09600155 0.24416524 -0.13856429 -0.14793852
000250 49 53 b6 3d 7d a9 e6 be 26 85 e4 3c 45 33 a1 3e
       0.08902604 -0.45051184 0.027895521 0.31484428
000260 6f e7 e0 be 84 51 b4 be 70 e8 9e 3e 62 b9 a9 3d
       -0.4392657 -0.3521844 0.3103671 0.08287312
000270 98 f3 bf 3d a1 1b a8 bd fa 79 e6 bd 29 f6 9c 3e
       0.09372634 -0.08208395 -0.11253734 0.30656555
000280 1d 1b 7c be 63 f0 12 be 8e 03 f9 bd 26 97 d5 be
       -0.24619718 -0.14349513 -0.12158881 -0.4171688
000290 11 6d d3 be e6 8c c4 be e5 23 a2 be a0 45 01 3e
       -0.4129415 -0.38388747 -0.3166801 0.12624216
0002a0 06 f5 51 be 18 43 0c 3e f8 77 dc 3d 64 bf 63 be
       -0.20503625 0.13697469 0.1076507 -0.22240978
0002b0 83 6f bc bc 66 c5 87 bd 81 aa 0a be 9a df 91 3e
       -0.023002392 -0.06629448 -0.13541605 0.28490907
0002c0 e5 7c 4e be 69 f2 11 3e fb d2 1a be 32 8d af be
       -0.20164831 0.14252628 -0.15119545 -0.3428741
0002d0 0c 83 bd 3e 13 3f 9b be 3c 2b 1e 3e e8 cc 62 3e
       0.37014043 -0.3032156 0.1544618 0.22148478
0002e0 93 9f eb be 43 97 c0 be 2e 34 ac 3e 93 54 3e 3e
       -0.46020183 -0.37615404 0.3363356 0.1858695
0002f0 60 63 a5 3c a5 af b7 bd 0f 67 97 be 5b aa 8e 3e
       0.020188987 -0.089690484 -0.29570815 0.27864346
000300 89 76 33 bc 74 b6 cc 3d a7 77 25 3d ee ee 4d 3e
       -0.010953554 0.09995738 0.040397312 0.20110676
000310 7a 7b 9f 3d 07 c3 f8 bd 78 4a 39 3e a5 eb 4a 3e
       0.07787223 -0.121465735 0.18094814 0.19816454
000320 b0 c7 ce 3c 20 97 21 3e 93 3c b4 3d a6 36 f2 bd
       0.025241703 0.15780306 0.08800616 -0.118268296
000330 84 e0 4a bd 81 20 b5 3e 11 5d f2 3d d8 2f b8 be
       -0.04953052 0.3537636 0.11834157 -0.35974002
000340 a9 26 a7 3d c4 cd 89 be 65 f9 00 bc 6c e7 0b 3d
       0.08161671 -0.269148 -0.00787196 0.034156248
000350 63 0f de be 9f 01 bc 3d f1 5c 3e 3d b7 9a 86 be
       -0.43371114 0.09179997 0.046475355 -0.26289913
000360 96 ea 07 3e 7c 84 ef bd 29 b2 04 bf 42 14 57 3d
       0.13273081 -0.11695191 -0.5183435 0.052509554
000370 a1 e4 41 3e 79 0d ef 3e 38 c3 d7 bd d1 78 f1 be
       0.18934871 0.46689966 -0.10535282 -0.47162488
000380 34 56 4a 3c c9 47 6c bd 1a 8c cf 3d 13 be 27 3e
       0.012349654 -0.057685647 0.10134144 0.16381101
000390 98 15 2d 3e ec 3b d0 bd a6 7e 6b 3d ec 72 21 3e
       0.16902769 -0.10167679 0.05749383 0.15766495
0003a0 cc f9 f5 bb 5f 71 e8 3d 69 84 41 3c 7c 7d 19 3b
       -0.0075065847 0.11349749 0.011811354 0.0023420742
0003b0 08 8f a4 3d cf 63 a9 3e 55 b9 09 3e 11 f2 cf be
       0.080350935 0.3308396 0.13449605 -0.4061437
0003c0 42 8a 27 3e 00 03 63 be 9a e8 fc 3d 79 11 4a 3e
       0.16361335 -0.22169113 0.12349053 0.19733228
0003d0 61 c3 eb be ab e4 3e 3d 9c 1e c3 b4 7d 84 a9 be
       -0.460475 0.046604794 -3.6343852e-07 -0.33108893
0003e0 98 ff d6 3d be 4a a7 bc ec fb 0c bf 31 5d e5 3d
       0.104979694 -0.020421382 -0.550719 0.111994155
0003f0 ce 5e 8b 3d 32 f6 bd 3e e9 7e 0d 3c ed e5 14 bf
       0.06805192 0.37101895 0.008636215 -0.5816334

layers.6.bias f4 [16]
000000 c4 21 89 3e 04 b5 92 3e 85 15 eb 3e f3 91 c1 be
       0.26783574 0.2865373 0.45914856 -0.37806663
000010 b7 70 c3 3e 6c 56 b7 3e b2 29 1a 3e fd 33 9a 3e
       0.38171932 0.35808122 0.15054968 0.3011779
000020 bc a7 b7 3e 05 09 b5 3e 75 c6 97 3e d1 02 77 3e
       0.3587016 0.35358444 0.29643598 0.24122168
000030 b4 36 b1 3e 42 dc be 3e 76 8b 78 3e cc c8 22 3e
       0.34612048 0.37277418 0.2427195 0.1589691

layers.9.weight f4 [1, 16]
000000 23 78 e4 be 96 70 e5 3e c0 54 a4 3e b2 6f 3c bf
       -0.44622907 0.4481246 0.3209591 -0.73607934
000010 b6 54 00 bf 33 d0 0b bf 77 e4 cb 3e 11 ff d3 3e
       -0.5012926 -0.5461456 0.39822742 0.41405538
000020 8d 6e 16 bf 38 d9 43 bf d5 f1 cc 3e b9 75 3a bf
       -0.5876244 -0.76503325 0.40028253 -0.7283588
000030 af 6a a4 3e f5 95 dc 3e b0 87 9c 3e 25 2c a4 3e
       0.32112643 0.43083158 0.3057227 0.3206493
