models/Mean/antikaon_0.pt (torch, 18925 bytes, 7 tensors)

layers.0.weight f4 [64, 19]
-2.016925 -0.216382 0.0012444856 -0.5027055 -0.85453016 0.20898803 0.27048606 -0.019297775
0.049899865 -0.0066602738 -0.6620436 -0.018647382 0.034892607 -0.0012326925 -0.008118707 -0.007178758
0.009831883 -0.025572473 -0.007449794 -0.2499107 0.09787744 -0.08214583 -0.19213118 0.15590012
-0.1426714 0.06884178 0.0996123 0.21859391 0.07758162 4.740329e-05 -0.10660275 -0.12420565
-0.22535403 -0.07469039 -0.05053326 0.18847412 -0.1913316 0.1665811 0.7379669 -0.28148177
-0.020516098 0.24663894 -0.48613283 -1.2440622 -0.9852677 0.012963994 0.13147414 0.028106106
-0.83114487 -0.12856409 -0.0013706336 0.062146973 0.0681585 -0.022566447 -0.1325506 0.042496823
-0.06011536 -0.14369789 -0.22019634 0.13245179 -0.07934865 0.16681479 -0.07675134 -0.070473194
-0.1417768 -0.16771342 -0.19171458 -0.065271735 0.053802088 -0.21399835 0.11364694 0.050048187
-0.09114356 0.121485844 0.099228755 0.22763793 -3.4758158 0.016845897 -0.0021967115 -0.62851334
0.028370017 -0.6598723 -0.34760118 -0.02066585 0.012332113 0.010423059 0.96498495 -0.011956056
0.05791349 -0.01032853 0.011302332 0.011047858 -0.11897933 -0.0016158535 0.02879491 -0.029865924
0.04864412 -0.0004496476 -0.44869968 -0.20728174 -1.5399092 -1.5730516 0.0058359085 0.060744856
-0.0013912914 -0.25705203 -0.0017424412 -0.0001732124 -0.0034330236 -0.010590122 0.006307566 0.0015283044
0.008832336 -0.0008762445 0.1789065 0.032342665 0.0025573382 0.5722911 0.06427599 0.9081553
1.0402616 -0.0039148196 -0.037434004 0.022231532 0.22768493 0.04659208 0.0015381495 -0.012666258
-0.0072970027 -0.0042814724 0.005436683 0.025551118 0.008900289 0.18145747 -0.063091874 0.0005221507
0.18556802 -0.5054599 0.6896421 0.8064374 0.0357941 -0.0065019205 0.01724092 1.1617919
0.0010822378 -0.038555365 0.010879653 -0.0039661275 -0.0073513696 0.0032763688 -0.007777835 -0.022255415
-0.12433582 -0.13077456 0.09014432 0.07666756 -0.080146715 0.21534143 0.0013035983 -0.0055306256
0.03334956 0.13288368 -0.07886119 -0.035280064 -0.17674878 0.1818598 -0.041042373 -0.082070515
-0.049668923 0.013673723 0.06390391 -2.6746454 -0.33484387 0.0009218171 -0.49743202 0.5664721
-0.7526409 -0.5925234 -0.03157773 0.0735784 -0.0017467744 0.946099 -0.030800894 0.027061868
0.012223865 -0.00692969 0.009222791 0.009445956 0.011427844 0.011193187 -0.2242019 -0.0405901
-0.08509532 -0.0088244025 0.5681209 -0.14642331 -0.07578568 -0.066234015 0.14009489 0.03718892
0.7484045 -0.1037661 0.22554624 -0.06879859 -0.12192809 0.0007111506 -0.058968097 0.13033581
0.20725465 0.18830712 0.019626858 0.007133208 0.35323212 0.79902756 1.1939441 0.89713466
-0.02270714 0.1494506 -0.077868775 0.53781486 -0.028316101 0.040458385 -0.0129727 -0.043650176
-0.0046144193 -0.01767698 0.039740495 0.010423803 -0.2607615 0.0248002 0.0038387552 -0.6813526
2.6676497 -0.177689 -0.31983346 0.053548455 -0.044592515 0.00294796 1.0359527 0.12782101
-0.13173713 -0.010290442 -0.07020142 0.0049167895 0.083509445 0.15305752 0.048465364 0.3617203
0.08583097 -0.0132288495 0.5482651 1.477966 0.9034131 0.55778235 0.024832675 -0.042768847
00000000: 4d15 01c0 3e93 5dbe 021e a33a 4fb1 00bf
00000010: 7dc2 5abf f500 563e 267d 8a3e 5e16 9ebc
00000020: cd63 4c3d 6d3e dabb b07b 29bf 65c2 98bc
00000030: 8deb 0e3d 4c92 a1ba 5304 05bc c93b ebbb
00000040: e815 213c 5d7d d1bc 671d f4bb 97e8 7fbe
00000050: f873 c83d 133c a8bd 09be 44be 48a4 1f3e
00000060: 7418 12be ebfc 8c3d 8901 cc3d 15d7 5f3e
00000070: 1de3 9e3d e5d2 4638 8b52 dabd 885f febd
00000080: 35c3 66be 46f7 98bd f7fb 4ebd 5cff 403e
00000090: 6eec 43be 3c94 2a3e 66eb 3c3f 611e 90be
000000a0: 6011 a8bc eb8e 7c3e 67e6 f8be 6e3d 9fbf
000000b0: 813a 7cbf ef66 543c 28a1 063e c73e e63c
000000c0: e9c5 54bf 4ea6 03be d5a6 b3ba d38d 7e3d
000000d0: af96 8b3d 45dd b8bc 58bb 07be 2611 2e3d
000000e0: 863b 76bd 8a25 13be 267b 61be 71a1 073e
000000f0: 8c81 a2bd 7fd1 2a3e ce2f 9dbd 4054 90bd
00000100: f02d 11be 11bd 2bbe d450 44be 30ad 85bd
00000110: 945f 5c3d 6222 5bbe babf e83d 54ff 4c3d
00000120: 7aa9 babd 92cd f83d 7238 cb3d eb19 693e
00000130: c473 5ec0 6800 8a3c b4f6 0fbb 40e6 20bf
00000140: 3d68 e83c 64ed 28bf c8f8 b1be 6e4b a9bc
00000150: a20c 4a3c 7ac5 2a3c 4109 773f 55e3 43bc
00000160: b236 6d3d ff38 29bc 6b2d 393c 1302 353c
00000170: 6fab f3bd 0ccb d3ba 4ee3 eb3c 62a9 f4bc
00000180: 0f3f 473d aebe ebb9 f7bb e5be aa41 54be
00000190: bf1b c5bf c159 c9bf 263b bf3b 99cf 783d
000001a0: fe5b b6ba 539c 83be a062 e4ba 59a0 35b9
000001b0: 94fc 60bb 3182 2dbc b3af ce3b 6351 c83a
000001c0: 81b5 103c c6b3 65ba 4433 373e be79 043d
000001d0: 0499 273b ab81 123f 21a3 833d de7c 683f
000001e0: 4b27 853f e347 80bb 6654 19bd e71e b63c
000001f0: 3d26 693e 56d7 3e3d bc9b c93a 2386 4fbc
00000200: b21b efbb 984b 8cbb 3426 b23b 9450 d13c
00000210: 85d2 113c fdcf 393e 5036 81bd f1e0 083a
00000220: 8b05 3e3e d265 01bf 628c 303f ae72 4e3f
00000230: d69c 123d 100e d5bb d43c 8d3c 99b5 943f
00000240: e0d9 8d3a 3bec 1dbd 9240 323c 4af6 81bb
00000250: c2e3 f0bb 59b8 563b 35dd febb fd50 b6bc
00000260: c7a3 febd c4e9 05be 969d b83d e203 9d3d
00000270: f623 a4bd 7782 5c3e 80dd aa3a 403a b5bb
00000280: 8c99 083d a912 083e fa81 a1bd d481 10bd
00000290: a2fd 34be 7539 3a3e 0c1c 28bd 9614 a8bd
000002a0: a471 4bbd c007 603c 0ee0 823d 642d 2bc0
000002b0: a870 abbe 19a6 713a 69af febe 5104 113f
000002c0: 13ad 40bf 9daf 17bf a657 01bd 46b0 963d
000002d0: 06f4 e4ba 8b33 723f 2852 fcbc dab0 dd3c
000002e0: 9b46 483c 7412 e3bb 301b 173c 36c3 1a3c
000002f0: da3b 3b3c a163 373c 2f95 65be ce41 26bd
00000300: 7546 aebd 3a94 10bc 5f70 113f feef 15be
00000310: 8635 9bbd b3a5 87bd 0975 0f3e 6953 183d
00000320: 7097 3f3f 5283 d4bd 98f5 663e 46e6 8cbd
00000330: 6fb5 f9bd 826c 3a3a 8888 71bd c076 053e
00000340: 903a 543e 95d3 403e 81c8 a03c b0bd e93b
00000350: d7da b43e 128d 4c3f 29d3 983f 9eaa 653f
00000360: 5304 babc 9409 193e aa79 9fbd 3cae 093f
00000370: 2bf7 e7bc b1b7 253d 738b 54bc 87ca 32bd
00000380: 8e34 97bb 50cf 90bc eec6 223d 99c8 2a3c
00000390: 8882 85be ca29 cb3c a093 7b3b 206d 2ebf
000003a0: c6ba 2a40 1bf4 35be 36c1 a3be a055 5b3d
000003b0: a4a6 36bd 9032 413b 199a 843f 83e3 023e
000003c0: 19e6 06be 3e99 28bc c3c5 8fbd 051d a13b
000003d0: 0007 ab3d 1cbb 1c3e 9e83 463d 6733 b93e
000003e0: 26c8 af3d d1bd 58bc 1a5b 0c3f fd2d bd3f
000003f0: 1546 673f d3ca 0e3f e56d cb3c 632e 2fbd

layers.0.bias f4 [64]
0.06636689 -0.15824877 0.059383348 0.0011167228 -0.36670667 -0.24091695 -0.2957374 0.19947547
0.056823477 -0.15225802 -0.22223856 0.11782183 -0.0775012 -0.18246582 0.2186554 -0.049780715
-0.036240112 -0.3079398 0.11084575 -0.021971557 -0.08485008 0.015856901 -0.29987508 -0.17335507
0.14282604 0.008231461 -0.14239536 -0.14758989 -0.2437486 -0.1953069 -0.3022306 0.16068624
0.05233441 -0.24221125 0.17001145 -0.16393082 -0.15757596 -0.08482352 0.13956246 -0.0705493
0.16827066 0.13997503 0.022528488 0.07685317 -0.12549604 -0.18920425 -0.1871828 -0.058364883
0.169235 -0.116845556 -0.11502803 0.07560454 -0.18084085 -0.14526664 -0.3095466 -0.107242875
0.029100833 0.05250804 0.22105323 -0.16158545 0.06009845 -0.23114501 -0.02646245 -0.07672708
00000000: 5deb 873d f70b 22be f43b 733d 005f 923a
00000010: fac0 bbbe efb2 76be e46a 97be 4c43 4c3e
00000020: bcbf 683d 87e9 1bbe 8192 63be 924c f13d
00000030: f3b8 9ebd 52d8 3abe 34e7 5f3e dde6 4bbd
00000040: 8370 14bd 49aa 9dbe 1903 e33d b2fd b3bc
00000050: e1c5 adbd 55e6 813c 3a89 99be fe83 31be
00000060: fd40 123e 40dd 063c 17d0 11be ce21 17be
00000070: 3c99 79be 88fe 47be f8bd 9abe ef8a 243e
00000080: 9b5c 563d 3a06 78be 7b17 2e3e 7bdd 27be
00000090: 985b 21be f4b7 adbd 76e9 0e3e 277c 90bd
000000a0: 254f 2c3e 9d55 0f3e aa8d b83c 3265 9d3d
000000b0: 0982 00be c2be 41be d9ac 3fbe 0410 6fbd
000000c0: f14b 2d3e b94c efbd d193 ebbd 8ed6 9a3d
000000d0: 582e 39be c7c0 14be e47c 9ebe 27a2 dbbd
000000e0: df64 ee3c ac12 573d c75b 623e a876 25be
000000f0: cb29 763d 47b1 6cbe c8c7 d8bc 1623 9dbd

layers.3.weight f4 [32, 64]
-0.047824062 0.02085406 0.024118334 0.029151306 -0.12283241 0.014156334 -0.02288557 -1.4904587
-0.022493184 -0.55054903 0.048694298 -0.031013472 0.038116094 -0.07714417 0.052653093 -0.15923622
-0.124627635 -0.008873127 -0.03500752 0.042401895 -0.054742746 -0.30759865 0.08349916 -0.09642039
-0.009275079 0.1196617 0.09044546 -0.031076813 0.079178415 -0.18031509 -0.17634574 -0.26747248
0.026167028 -0.04562419 -0.0835346 0.030006275 -0.81750727 -0.10531542 -0.93640155 -0.87065613
-0.09107359 0.03502761 0.013797089 -0.044974774 0.08199835 0.14054774 -0.08256765 -1.2272007
-0.95147806 -0.116985336 -0.11738315 0.09590311 -0.09562102 -0.13462482 0.027214704 -0.049962737
0.1178249 -0.056893576 -0.03315966 -0.061001886 -0.784163 -0.0036375856 -0.0009855181 -0.12122506
-0.38128752 0.087154515 -0.18511312 0.041119233 -0.20621006 -0.67379314 0.004756475 0.023257602
0.037565723 -0.6530082 0.0008470336 -0.01507999 0.054616187 0.029298274 0.008583504 -0.13754322
0.11369088 -0.004168551 0.152794 -0.022303013 -0.6851857 0.035322513 -0.10703188 0.066228315
-0.11588742 0.082556725 0.08415313 0.03223718 -0.10640999 -0.06548073 -0.6013698 0.0818919
0.013265131 0.0048863417 0.013901353 0.10908051 -0.028869445 0.052547768 -0.25425333 -0.3773371
0.034924224 0.03854695 0.09963095 -0.119254544 -0.07155096 -0.0726787 0.11504932 -0.025600763
-0.39899388 0.060399428 -0.047377735 0.021448925 0.01217538 0.00043819798 0.036078874 0.033859663
0.013226583 0.05431831 0.11929092 0.0027195641 0.016030217 -0.350867 -0.0486926 -0.077160835
0.10032359 0.12578444 -0.047739096 0.053716436 -0.13782676 -1.0699774 0.018867055 0.6065321
-0.023084655 0.39348215 0.06396234 -0.067841664 -0.0075827125 0.081575945 -0.008143843 0.27036223
0.13629466 -0.036827326 0.28098294 0.08262093 -0.1168968 -0.20078373 0.029331993 0.1099363
0.051648557 0.038855553 0.024964869 0.07798783 -0.6054267 0.0658756 -0.2143735 0.17970072
0.11532456 -0.01858387 -0.12130007 -0.07723938 0.4902756 -0.026897505 0.47572836 0.44624698
0.0959042 0.09892519 0.06074551 -0.090005785 -0.39179382 -0.20934223 0.016002253 0.5457682
0.6246005 0.034061342 -0.11608778 0.04938361 0.045116592 0.09426032 -0.07780957 0.040269066
0.08753999 0.114086166 0.08168928 0.023072772 0.10248448 -0.00916849 0.059614927 -0.01638411
-0.1608693 -0.027026031 -0.32466853 -0.057522565 -0.09974594 0.07659638 -0.40336496 -0.17916949
-0.12167142 -0.08026186 -0.06926487 -0.018805472 0.08828892 -0.11482263 0.08955876 -0.0946198
0.031904835 -0.15253137 0.06396034 0.059427835 0.015408047 0.17183243 -0.016172191 0.100960314
-0.068973586 -0.054231256 0.06209916 0.02920628 -0.02251125 -0.23213953 -0.40162948 -0.2100616
0.071098424 -0.008566103 -0.09653093 0.032246545 -0.13878319 -0.07173324 -0.17877235 -0.07307016
-0.06256452 -0.059370354 0.10092433 0.121402055 -0.0672677 -0.107318714 -0.07065968 -0.21462667
-0.24437076 -0.007172361 -0.029735297 0.040293977 -0.31836024 -0.14010799 -0.030886445 0.09830605
-0.094078325 -0.05738489 -0.026243478 -0.103308976 -0.24537836 -0.27249405 -0.08401927 0.013728708
00000000: 2ae3 43bd 22d6 aa3c d093 c53c b8ce ee3c
00000010: 8f8f fbbd f8ef 673c 857a bbbc 5ac7 bebf
00000020: a043 b8bc c8f0 0cbf ac73 473d f70f febc
00000030: 9f1f 1c3d c3fd 9dbd c5aa 573d d20e 23be
00000040: c63c ffbd 9860 11bc 0c64 0fbd 9cad 2d3d
00000050: ee39 60bd 927d 9dbe 9c01 ab3d 0e78 c5bd
00000060: 80f6 17bc 3211 f53d 783b b93d cd94 febc
00000070: 4b28 a23d 85a4 38be fa93 34be 27f2 88be
00000080: 3c5c d63c 6ee0 3abd 3014 abbd b8cf f53c
00000090: 2848 51bf 9caf d7bd 03b8 6fbf 52e3 5ebf
000000a0: ca84 babd 1c79 0f3d 300d 623c 7837 38bd
000000b0: c0ee a73d bfeb 0f3e 3a19 a9bd ea14 9dbf
000000c0: 1194 73bf 0296 efbd 9466 f0bd da68 c43d
000000d0: f4d4 c3bd 17db 09be 5ff1 de3c baa5 4cbd
000000e0: 2e4e f13d 3d09 69bd 6cd2 07bd 1ddd 79bd
000000f0: e8be 48bf 8f64 6ebb 802c 81ba d844 f8bd
00000100: 1e38 c3be 117e b23d 4b8e 3dbe a46c 283d
00000110: bb28 53be b57d 2cbf 34dc 9b3b ba86 be3c
00000120: 84de 193d 8c2b 27bf 760b 5e3a 1012 77bc
00000130: 39b5 5f3d ef02 f03c d3a1 0c3c 21d8 0cbe
00000140: c4d6 e83d 5798 88bb 0876 1c3e cfb4 b6bc
00000150: 5468 2fbf 57ae 103d 8833 dbbd b6a2 873d
00000160: 6256 edbd 8013 a93d 7a58 ac3d 220b 043d
00000170: 7bed d9bd c31a 86bd 5ff3 19bf f1b6 a73d
00000180: fe55 593c 9b1d a03b 80c2 633c 9a65 df3d
00000190: 9d7f ecbc 543c 573d 7e2d 82be 5432 c1be
000001a0: b40c 0f3d 68e3 1d3d 500b cc3d ba3b f4bd
000001b0: 4f89 92bd 92d8 94bd fa9e eb3d b1b8 d1bc
000001c0: ed48 ccbe 6465 773d 280f 42bd a8b5 af3c
000001d0: 3f7b 473c f0bd e539 71c7 133d 6eb0 0a3d
000001e0: 4fb4 583c e07c 5e3d cc4e f43d b73a 323b
000001f0: cd51 833c d7a4 b3be e471 47bd 8006 9ebd
00000200: 7476 cd3d a3cd 003e 128a 43bd c405 5c3d
00000210: 7522 0dbe 05f5 88bf 158f 9a3c b045 1b3f
00000220: 081c bdbc 7e76 c93e b0fe 823d 92f0 8abd
00000230: 6778 f8bb 4a11 a73d c16d 05bc eb6c 8a3e
00000240: d490 0b3e 40d8 16bd ffdc 8f3e 2a35 a93d
00000250: 9767 efbd 409a 4dbe a649 f03c 4826 e13d
00000260: 708d 533d 0027 1f3d 2083 cc3c 15b8 9f3d
00000270: 3ffd 1abf c9e9 863d ba84 5bbe 7703 383e
00000280: 482f ec3d 333d 98bc 2c6c f8bd ae2f 9ebd
00000290: 6705 fb3e 2858 dcbc ab92 f33e 7c7a e43e
000002a0: 6c69 c43d 4a99 ca3d 49d0 783d f454 b8bd
000002b0: 3399 c8be cf5d 56be 2817 833c 77b7 0b3f
000002c0: d2e5 1f3f e883 0b3d 6ebf edbd 7846 4a3d
000002d0: 2dcc 383d 8e0b c13d a05a 9fbd 2df1 243d
000002e0: 2b48 b33d 02a6 e93d b64c a73d 1c03 bd3c
000002f0: 62e3 d13d 6f37 16bc c82e 743d f837 86bc
00000300: ecba 24be b265 ddbc f43a a6be c89c 6bbd
00000310: 9947 ccbd 90de 9c3d da85 cebe 3578 37be
00000320: de2e f9bd 5460 a4bd bdda 8dbd ef0d 9abc
00000330: d2d0 b43d 2128 ebbd 956a b73d 07c8 c1bd
00000340: a5ae 023d 2f31 1cbe a4fd 823d 9a6a 733d
00000350: 0872 7c3c d7f4 2f3e 8b7b 84bc 48c4 ce3d
00000360: 0642 8dbd 9821 5ebd b05b 7e3d 0242 ef3c
00000370: 8369 b8bc fcb5 6dbe 61a2 cdbe 631a 57be
00000380: 0d9c 913d d758 0cbc 02b2 c5bd f414 043d
00000390: 2e1d 0ebe e0e8 92bd 1910 37be cfa5 95bd
000003a0: d421 80bd 542e 73bd 6ab1 ce3d a4a1 f83d
000003b0: a6c3 89bd eac9 dbbd 06b6 90bd 18c7 5bbe
000003c0: 543c 7abe 2006 ebbb 7097 f3bc 4c0b 253d
000003d0: 1d00 a3be 7878 0fbe 9205 fdbc af54 c93d
000003e0: 23ac c0bd 6b0c 6bbd 90fc d6bc a893 d3bd
000003f0: 7744 7bbe 5784 8bbe 4c12 acbd 60ee 603c

layers.3.bias f4 [32]
0.32366046 0.18598314 0.0010288049 0.17015658 -0.12533754 -0.07259024 0.054770384 0.04589658
0.22401246 -0.032133274 0.07794068 0.21896525 0.15464327 -0.11137663 -0.20044135 0.19155681
0.47226018 -0.12001224 0.29086322 -0.2667041 -0.18818082 0.004190613 0.19934188 0.118995905
0.15389986 -0.13645947 0.016043974 0.15409337 -0.020553779 0.048401367 0.31901786 0.31396744
00000000: d3b6 a53e 5d72 3e3e f7d8 863a 873d 2e3e
00000010: 7c58 00be 31aa 94bd e956 603d 0dfe 3b3d
00000020: 8663 653e 2e9e 03bd 5d9f 9f3d 6d38 603e
00000030: ce5a 1e3e 6e19 e4bd 7f40 4dbe 7827 443e
00000040: 16cc f13e fac8 f5bd 06ec 943e 718d 88be
00000050: 79b2 40be 6951 893b 4720 4c3e 20b4 f33d
00000060: ed97 1d3e 08bc 0bbe a76e 833c a7ca 1d3e
00000070: 6660 a8bc 8340 463d 4f56 a33e 57c0 a03e

layers.6.weight f4 [16, 32]
-0.4733251 0.5351966 -0.09978043 -0.44800118 -0.0042306012 0.02068283 0.11224557 0.3502488
-0.18004929 0.0975904 0.26745015 0.46410468 -0.00460443 0.16620037 0.29543778 0.53444684
0.29048425 0.08182159 -0.41295138 0.6066691 0.44367766 0.18702658 -0.47646043 -0.28960237
-0.24660335 0.023055907 -0.38172626 -0.3314409 0.01463632 0.17934197 0.32446462 0.06135629
-0.4031411 0.4162218 -0.013042559 -0.19237319 -0.03532528 0.15278922 0.16036828 0.41850135
-0.08060219 0.23500504 0.18335411 0.5193941 0.080547206 0.22619157 0.291848 0.42955747
0.15220755 0.0586047 -0.5248774 0.66653484 0.4233995 0.24805824 -0.20307584 -0.17642137
-0.17265679 -0.036897175 -0.23732139 -0.1549158 0.09767018 0.13609372 0.31539133 0.15013628
0.285492 0.088375896 -0.7357733 0.39004195 -0.3602608 -0.44056106 -0.12296697 -0.4633648
0.1611939 -0.10134095 -0.5485032 0.11847377 -0.35653582 -0.23871085 -0.63886285 -0.024488641
0.022591656 -0.07603162 0.2344038 -0.54518235 -0.23627089 -0.1431451 0.26704282 0.09673286
0.1778379 -0.51315254 0.07333026 0.41473547 -0.692841 -0.4909861 0.13652489 0.20181437
0.3539839 -0.074689716 -0.23634394 0.3309989 0.070834585 -0.6164952 -0.2873783 -0.4112824
0.18920879 -0.29902843 -0.63302356 0.006285841 -0.40840727 -0.082637146 -0.867174 -0.2937724
0.055353 0.17858246 0.3612159 -0.5905169 -0.26140904 -0.23029819 0.3259078 0.20868912
0.35385242 -0.078489475 0.22281845 0.3585431 -0.53143716 -0.50376225 0.14578044 0.058305133
0.371271 0.058177598 -0.52905315 0.42472684 -0.41633564 -0.31390226 -0.10974496 -0.4899635
0.02435932 -0.3688389 -0.5706396 -0.030828066 -0.18093513 -0.22897312 -0.540341 -0.113245286
0.2742711 -0.015030891 0.48203307 -0.59990317 -0.2682469 -0.18028021 0.35642725 0.40200278
0.026668385 -0.49631357 0.24027841 0.41825935 -0.68312466 -0.26648217 0.23567423 0.0989549
-0.7577214 0.28661785 -0.037324008 -0.3918975 -0.11899797 0.10677834 0.21395014 0.3677506
-0.624492 0.24097122 0.16516924 0.61162573 -0.036834378 -0.0040141805 0.23137054 0.4631405
0.26805213 0.05881017 -0.6073792 0.52824515 0.3080403 0.19236378 -0.90718037 -0.64407384
-0.27526882 -0.12486908 -0.42930266 -0.19787247 0.002029589 -0.082121134 0.3531423 -0.04740751
0.19092467 -0.03230751 -0.14751832 0.22087264 -0.0098925475 -0.511622 -0.19739139 -0.43916652
0.14411026 -0.4727846 -0.22161283 -0.008987433 -0.29400352 -0.18908486 -0.93897706 -0.1603975
-0.0802473 -0.015781289 0.36497638 -0.6130532 -0.3409745 -0.34816226 0.56892395 0.243586
0.51942384 0.24535178 0.0662329 0.293669 -0.27129522 -0.36284623 -0.0016078012 -0.1258295
0.29822865 0.039105337 -0.6458646 0.2343634 -0.60874844 -0.73209614 -0.37988177 -0.6256348
0.1628169 -0.33476895 -0.4627165 0.07685335 -0.39037487 -0.18181796 -0.8416871 -0.029013544
0.20784138 0.2813294 0.17219695 -0.81122154 -0.69343126 -0.20139185 0.4876895 0.28655428
0.1259633 -0.72998875 0.24343774 0.27655283 -0.68752587 -0.49241316 0.16501758 0.13262157
00000000: ab57 f2be a502 093f af59 ccbd 6960 e5be
00000010: dba0 8abb 0a6f a93c 01e1 e53d d053 b33e
00000020: d75e 38be 7add c73d 3aef 883e 219f ed3e
00000030: c2e0 96bb 6e30 2a3e 9f43 973e 82d1 083f
00000040: 5aba 943e 1492 a73d 5d6e d3be ab4e 1b3f
00000050: b829 e33e e583 3f3e 9ff2 f3be c346 94be
00000060: 9785 7cbe bedf bc3c a071 c3be 9fb2 a9be
00000070: 2dcd 6f3c 6ca5 373e 3a20 a63e bc50 7b3d
00000080: 8368 cebe 061b d53e 75b0 55bc 7afd 44be
00000090: 3eb1 10bd c774 1c3e 9537 243e cf45 d63e
000000a0: c312 a5bd 29a5 703e 2ec1 3b3e 03f7 043f
000000b0: eff5 a43d c39e 673e 1a6d 953e f5ee db3e
000000c0: 4cdc 1b3e 7b0b 703d 5e5e 06bf 07a2 2a3f
000000d0: d2c7 d83e fb02 7e3e 1df3 4fbe cea7 34be
000000e0: f1cc 30be 7e21 17bd 6104 73be 3fa2 1ebe
000000f0: 4e07 c83d 275c 0b3e f97a a13e 53bd 193e
00000100: 022c 923e 6cfe b43d a45b 3cbf 94b3 c73e
00000110: 1b74 b8be 3891 e1be 1bd6 fbbd 273e edbe
00000120: 0410 253e d88b cfbd b56a 0cbf 60a2 f23d
00000130: dd8b b6be 9e70 74be 848c 23bf 679c c8bc
00000140: 2312 b93c 77b6 9bbd 8d07 703e 1291 0bbf
00000150: fff0 71be a194 12be d6b9 883e e11b c63d
00000160: 231b 363e f75d 03bf 2d2e 963d 3558 d43e
00000170: 075e 31bf 8862 fbbe 2ecd 0b3e 6da8 4e3e
00000180: 613d b53e ecf6 98bd 2504 72be b078 a93e
00000190: b911 913d a1d2 1dbf 4023 93be 9b93 d2be
000001a0: f3bf 413e 411a 99be d50d 22bf 75f9 cd3b
000001b0: c21a d1be aa3d a9bd 1eff 5dbf 5669 96be
000001c0: d4b9 623d 52de 363e 4af1 b83e 1e2c 17bf
000001d0: 68d7 85be 4ad3 6bbe 63dd a63e 9ab2 553e
000001e0: 252c b53e 17bf a0bd 852a 643e f692 b73e
000001f0: 440c 08bf 90f6 00bf 7847 153e 5dd1 6e3d
00000200: 3c17 be3e a24b 6e3d 0770 07bf cc75 d93e
00000210: f229 d5be ccb7 a0be f7c1 e0bd 7fdc fabe
00000220: 328d c73c 74d8 bcbe 7015 12bf 248b fcbc
00000230: 0f47 39be ee77 6abe ca53 0abf 25ed e7bd
00000240: 436d 8c3e 2044 76bc 0acd f63e 4193 19bf
00000250: a857 89be 609b 38be a27d b63e 4fd3 cd3e
00000260: a877 da3c d01c febe 8b0b 763e 1726 d63e
00000270: 42e1 2ebf 5a70 88be 9654 713e dea8 ca3d
00000280: 08fa 41bf 93bf 923e 0fe1 18bd caa6 c8be
00000290: 35b5 f3bd 9aae da3d bf15 5b3e cf49 bc3e
000002a0: b5de 1fbf 29c1 763e 2022 293e 8193 1c3f
000002b0: a5df 16bd 6389 83bb 66ec 6c3e c020 ed3e
000002c0: 213e 893e efe2 703d 347d 1bbf 133b 073f
000002d0: 75b7 9d3e 03fb 443e f93c 68bf 06e2 24bf
000002e0: 09f0 8cbe 5cbb ffbd 8fcd dbbe 159f 4abe
000002f0: da02 053b 202f a8bd 11cf b43e 612e 42bd
00000300: c281 433e e154 04bd 0b0f 17be 702c 623e
00000310: 5a14 22bc a9f9 02bf f820 4abe 6fda e0be
00000320: a491 133e d310 f2be 79ee 62be 0740 13bc
00000330: a187 96be 769f 41be cd60 70bf 3e3f 24be
00000340: b258 a4bd c347 81bc 2fde ba3e 0ef1 1cbf
00000350: 3694 aebe 5342 b2be 00a5 113f 9c6e 793e
00000360: f6f8 043f 7f3d 7b3e 1da5 873d c85b 963e
00000370: 35e7 8abe fbc6 b9be dbbc d2ba 73d9 00be
00000380: 6db1 983e eb2c 203d 6257 25bf f6fc 6f3e
00000390: f0d6 1bbf a76a 3bbf dd7f c2be 9a29 20bf
000003a0: 79b9 263e d666 abbe 2de9 ecbe 4a65 9d3d
000003b0: 37df c7be 7d2e 3abe ce78 57bf d0ad edbc
000003c0: 5fd4 543e 680a 903e 6654 303e 37ac 4fbf
000003d0: b684 31bf aa39 4ebe 70b2 f93e 3eb7 923e
000003e0: 86fc 003e 8be0 3abf be47 793e 5598 8d3e
000003f0: b201 30bf 941d fcbe 5efa 283e f3cd 073e

layers.6.bias f4 [16]
0.110631496 0.11282535 0.3045411 0.24321093 0.24135008 0.2632184 0.33856115 0.26113236
-0.17297724 0.21440032 0.16246136 0.10803755 0.05808462 0.1309353 0.31476837 0.12734947
00000000: c492 e23d fa10 e73d d0ec 9b3e 490c 793e
00000010: 7a24 773e 90c4 863e e357 ad3e 24b3 853e
00000020: f220 31be c28b 5b3e 455c 263e ca42 dd3d
00000030: 23ea 6d3d e713 063e 5229 a13e e667 023e

layers.9.weight f4 [1, 16]
-0.6086677 -0.49817848 0.92127246 0.9113444 0.70668364 -0.72424823 0.7164755 0.97189456
0.40412512 1.4765443 -0.2972342 -0.58462423 -0.862148 -0.5419974 0.85690284 -0.5750534
00000000: a5d1 1bbf 4011 ffbe 83d8 6b3f de4d 693f
00000010: 38e9 343f 5568 39bf f06a 373f 15ce 783f
00000020: 7de9 ce3e 67ff bc3f 152f 98be efa9 15bf
00000030: bbb5 5cbf 57c0 0abf fc5d 5b3f b336 13bf
