models/Mean/antipion_0.pt (torch, 18925 bytes, 7 tensors)

layers.0.weight f4 [64, 19]
000000 95 0c ab 3f 1a 8b b5 3c 09 ce de 3a 27 80 20 3e
       1.3363215 0.022161055 0.0016998659 0.15673886
000010 1f 19 87 3d 85 d5 ff bd 9b 28 f6 be c4 71 e3 bd
       0.06596588 -0.124918975 -0.48077855 -0.111056834
000020 a4 40 34 bd 50 8d e1 3c c1 c3 db 3e 6a 69 52 3b
       -0.04400696 0.027533203 0.42922786 0.0032106289
000030 ac a3 b6 3d 3f df 24 3b cf ff 21 3d 4a 5d ac 3b
       0.08917937 0.002515748 0.0395506 0.0052601444
000040 7d fd 9c be 58 aa c9 be 01 25 05 3d b2 71 c1 3f
       -0.30662146 -0.39387774 0.032505993 1.5112822
000050 a5 67 89 3c 86 e2 6a ba 4c b4 32 bc 91 69 37 bd
       0.016773054 -0.0008960146 -0.010907244 -0.04477841
000060 43 7b 90 be 2e e9 13 be dc 81 92 bb cf a3 e1 3c
       -0.2821904 -0.1444442 -0.004471047 0.02754393
000070 c8 b3 e3 ba a4 a8 87 3f 1b 4e 92 bc d6 58 91 3a
       -0.0017372305 1.059834 -0.01785951 0.0011089097
000080 eb ac 0c 3b c4 c1 a1 bb c7 8a db 3b 0d 36 08 3b
       0.0021465372 -0.0049364287 0.006699893 0.002078417
000090 c8 d7 57 3d 19 3d 65 bc 65 4f 44 bd a1 23 04 bf
       0.05269602 -0.013991618 -0.04792728 -0.51616865
0000a0 8f 3c 14 bd 2a 2a c7 3d a3 94 aa bc 2c 9a 01 c0
       -0.036190566 0.09724839 -0.020822829 -2.025035
0000b0 9c 4f d6 bf 3d 55 a4 be 85 b3 4e bd 4e d3 15 bc
       -1.6743045 -0.32096282 -0.050464172 -0.009144617
0000c0 fb b8 eb be 75 f6 93 3c a4 5d 19 3d 63 49 9a bb
       -0.46039566 0.018061856 0.03744282 -0.0047084554
0000d0 be 2e d9 bb e2 40 f3 3b 15 fb 2f 3d 9a 92 65 3b
       -0.0066278866 0.007423506 0.04296406 0.0035030008
0000e0 89 dc 26 3b 59 ef da bf 3a e6 d4 bc 4e 4a 11 ba
       0.002546104 -1.7104293 -0.025988687 -0.00055423833
0000f0 14 05 94 be 4c b4 20 bd fa fd 77 3e 80 23 c1 3c
       -0.28910124 -0.039234444 0.24217978 0.023576498
000100 55 14 4e ba 8e f8 1e 3b ac 88 66 bb 63 3d 8c 3f
       -0.0007861306 0.0024257037 -0.0035176678 1.0956234
000110 a1 d7 33 3a 41 40 ae b9 09 00 63 bb 6c 25 21 3b
       0.00068604393 -0.0003323574 -0.0034637472 0.0024588956
000120 89 75 4e 3a a0 1d 36 3b cb f5 75 3b 6d d9 73 bc
       0.00078757905 0.0027788654 0.0037530537 -0.014883381
000130 5d 1b 69 3e 0e 1c 01 be 75 b2 5c 3e bd 48 2a 3e
       0.22764345 -0.12608358 0.21552451 0.1662931
000140 92 68 aa 3d e7 41 52 3e 34 1a 0d be c4 3c 71 bd
       0.083207265 0.20532952 -0.13779527 -0.05889584
000150 57 e2 19 3e e6 42 f6 bd 98 09 7a bd 6b b3 1f 3e
       0.15027748 -0.120244786 -0.061044306 0.15595786
000160 98 9f bc 3c a6 ac de bd d0 7d 81 bd 47 34 dd bd
       0.023025319 -0.10872774 -0.06322825 -0.10800987
000170 67 bb 44 3e 7e 25 a5 bd 17 81 02 3e 50 b6 3e bc
       0.19212113 -0.08063792 0.12744556 -0.011640146
000180 12 50 f9 3d 6f 15 05 be 5d 5a 5b 3e 86 14 92 3d
       0.12173475 -0.12996458 0.2142119 0.07132821
000190 02 e3 e1 3d a2 e7 58 be 8e 1d c0 3d 95 62 27 3e
       0.110296264 -0.21182111 0.09380637 0.163462
0001a0 e4 1c 69 3d 52 eb ab 3d 62 6b bc 3d 0e f6 b9 bd
       0.056912318 0.08394493 0.09200169 -0.09080134
0001b0 e4 c3 3c be 39 81 44 3e 96 e3 22 be 56 6b 1b be
       -0.18434101 0.1918992 -0.1590713 -0.15177664
0001c0 94 88 19 3d 7e 2b c1 bd d6 4b 84 bf 0c fe 71 bb
       0.037483767 -0.094321236 -1.0335643 -0.0036925105
0001d0 0e f8 db 38 70 73 3e bf 26 82 a7 bd e2 45 43 bf
       0.000104889376 -0.74394894 -0.08179121 -0.7627851
0001e0 93 21 2b bf 7f 0c 73 bd 4b a2 a7 3c cb 94 ae 3b
       -0.66848105 -0.05933809 0.02046313 0.005327796
0001f0 18 e4 80 bf 0e 3b b0 bb 64 e3 8f 3c 39 e9 f1 3a
       -1.0069609 -0.0053781336 0.017564483 0.0018456347
000200 6d e1 f4 3b 46 28 1c 39 3e d0 fe 3a 32 fb b1 3b
       0.007473162 0.00014892322 0.0019440723 0.005431556
000210 1d a9 1c bc 79 bf da bf 1a 68 ad be f9 c4 e2 b8
       -0.009561804 -1.7089683 -0.33868486 -0.00010813209
000220 56 7b 48 bf 70 6b 3a 3e f5 f1 c5 3d 34 31 78 be
       -0.78313196 0.18205047 0.0966529 -0.2423752
000230 c3 51 89 ba 46 1b 92 bd a8 21 ce bc f9 2f 09 3f
       -0.0010476637 -0.07134108 -0.025162533 0.53588825
000240 30 02 da 3d 33 9f bd bb d1 d9 95 bb 76 2f e6 bc
       0.106449485 -0.0057868003 -0.004573085 -0.028098803
000250 a3 bc 9a 3b ad 96 1a 3d 8b 71 38 bd f3 75 3c 3c
       0.0047221943 0.037741352 -0.045030158 0.011502731
000260 2b a6 02 be 04 71 59 3e 79 49 3a 3e 01 10 c8 3d
       -0.127587 0.21234518 0.1819209 0.097686775
000270 d9 6e 2c 3c c3 d7 16 3e 5b b5 57 be c4 f5 21 bc
       0.010524475 0.14730744 -0.21065275 -0.009885255
000280 8e 25 3b bd fa a4 32 be b4 21 87 3d 67 3b bd bd
       -0.04569011 -0.17445746 0.06598225 -0.09239846
000290 99 0e 1d 3e e0 32 41 3e 74 9e 93 3d 4c b4 da bd
       0.153376 0.18867064 0.07207957 -0.1067892
0002a0 d8 ac 9a bc d6 fa c1 bd 32 a2 69 bd cc 2a 07 be
       -0.018881246 -0.09471671 -0.057039447 -0.1319992
0002b0 74 d0 9f be 43 ac 8f bd f4 e3 de be 71 05 88 bd
       -0.31213725 -0.07015278 -0.4353329 -0.06641663
0002c0 0f 77 30 bf 2f 44 73 be 43 a5 1b 3c e6 a3 bd 3d
       -0.6893167 -0.23756479 0.009499851 0.09259777
0002d0 70 5d 83 3d 94 c0 95 3b 7d 73 5e bc 16 d5 1e 3d
       0.06414306 0.0045700762 -0.013577339 0.038777433
0002e0 30 6b a3 3d 6f 4f bf 3d fa 9f 04 3c 73 18 30 3d
       0.07979429 0.09341323 0.008094782 0.042992067
0002f0 e2 11 85 bc c8 32 89 3c a1 0c 87 bf b7 85 bf 3c
       -0.016243879 0.016747847 -1.0550729 0.02337919
000300 44 41 8f bb c5 fb e8 bc 2e 01 47 be 40 72 ae bf
       -0.004371794 -0.028440366 -0.19434044 -1.3628616
000310 55 d6 a5 bf d0 6d 76 3c f6 2a 24 bd c9 2f 42 3d
       -1.2956034 0.01504083 -0.040080033 0.047408853
000320 19 bd 82 bf 59 28 79 3c 54 59 06 3c 6a 60 96 3a
       -1.0213958 0.015207374 0.008200008 0.0011472825
000330 87 73 90 bc 31 b9 6a 3b af 0c bf 3c 19 65 e2 3c
       -0.017633213 0.003581595 0.023321478 0.027636098
000340 b1 55 0d bc 18 75 00 bf f9 8b 85 be 46 e3 2e be
       -0.008626387 -0.5017867 -0.26083353 -0.17078885
000350 f1 ed a3 3d 50 18 83 3d 29 34 0b bf 42 ae a4 be
       0.08004368 0.064011216 -0.54376465 -0.32164198
000360 0a 83 05 be b2 54 45 3d ce 1f 0e 3e 10 28 26 bf
       -0.13038269 0.048176475 0.1387932 -0.6490488
000370 e9 eb a3 bc 4c 98 11 3e 1b f7 4b bd 79 88 af bc
       -0.020009952 0.14218253 -0.049796205 -0.02142738
000380 67 14 8f 3b 1b 02 14 3e cd ca 6b 3d 08 59 88 bc
       0.004366446 0.14453928 0.057566453 -0.016644016
000390 80 23 3f bc 70 db 4e bd 10 b4 46 be c9 18 3c be
       -0.011666179 -0.05050224 -0.19404626 -0.1836883
0003a0 60 c0 98 bc ac df fa bd 00 e2 1c 3b db 95 1a be
       -0.018646419 -0.12249693 0.0023938417 -0.15096228
0003b0 fc 86 08 3d e8 6e 1b be d0 84 50 be 30 83 43 be
       0.033331856 -0.15179026 -0.20363164 -0.19093013
0003c0 77 9e 25 be 2e 10 3e be a9 3d 4c 3e 5a d5 0f be
       -0.16173731 -0.1856086 0.19945396 -0.14046231
0003d0 c3 fe 09 3e 56 12 ff 3d 20 83 21 3c 6c e8 5a 3d
       0.1347609 0.12454669 0.009857923 0.05344431
0003e0 ea c2 e9 3d b2 4a d1 3d 96 48 d3 bd d3 45 30 3e
       0.1141413 0.10219325 -0.10316579 0.17214136
0003f0 ea ce bc bd 16 60 a4 3d a7 5d 05 3e 91 09 52 3e
       -0.09219153 0.080261394 0.13024007 0.20511462

layers.0.bias f4 [64]
000000 69 14 a8 be 50 77 1c bd 49 a6 b0 be 6d 47 d2 3d
       -0.32828072 -0.038199723 -0.34501866 0.1026753
000010 7a 9f 88 3d 68 05 03 bd d2 67 6e bd 85 e5 87 be
       0.06671043 -0.031987578 -0.05820448 -0.26542297
000020 ff 99 aa bd c1 cc 0d 3d ef 96 8d be dc 67 b2 be
       -0.08330154 0.034619097 -0.27654216 -0.34844863
000030 34 ba 55 3d 22 63 55 be de 3c 6c be 06 d4 98 be
       0.05217953 -0.20838597 -0.23070094 -0.2984926
000040 56 3c 8b bd e4 7e bb 3b 2a 85 cb 3d 2f b8 6b be
       -0.067986175 0.0057219137 0.099375084 -0.23019479
000050 fc 90 63 3d 70 d0 56 bd 7d fa 88 3c f0 ee 7f 3c
       0.05555819 -0.052444875 0.016721005 0.015620932
000060 67 b3 e2 bd 1f 03 2c be 31 3a 05 be ac 46 1d 3e
       -0.110693745 -0.16798066 -0.1301048 0.1535899
000070 69 6f 1f 3e a0 ac 08 be 10 a5 9b bd 5a 69 c8 bd
       0.15569843 -0.13347101 -0.075998425 -0.09785719
000080 6a 03 0e be b0 ed ca bd 14 d9 e3 bd 17 5b a7 bc
       -0.1386849 -0.099086165 -0.11125389 -0.020429177
000090 c4 0f 67 3d 75 6d 01 be b3 1e 54 3e 9a 76 ca be
       0.05641152 -0.12639411 0.20714836 -0.3954361
0000a0 e1 f6 47 be c2 d4 fc 3a 94 1f 33 be 7b 10 b6 3d
       -0.1952777 0.0019289481 -0.17492515 0.08889862
0000b0 48 08 62 be 32 f3 80 be d8 cc 49 be 2c 7b 0d 3e
       -0.22073472 -0.25185543 -0.19707048 0.13816518
0000c0 97 cc a5 bd e8 ce 5a 3d a0 6e 35 be 3e 41 aa 3d
       -0.08095663 0.053419977 -0.17717981 0.08313225
0000d0 24 18 4a 3d 41 d2 74 bc d1 05 e8 3d 9a 6d 8b be
       0.04933943 -0.014942707 0.113292344 -0.27232057
0000e0 2a 6b 89 be 2b b5 49 3e 20 2c 47 be 70 a4 02 3c
       -0.26839572 0.19698016 -0.19450426 0.007973775
0000f0 ec 01 6f bd b8 b9 42 be f7 a8 4b be 04 83 da be
       -0.058351442 -0.19016159 -0.19888674 -0.42678082

layers.3.weight f4 [32, 64]
000000 53 24 e2 3c fe c3 08 3e 91 a4 2f bf e1 1a 65 3e
       0.027605211 0.13356015 -0.68610483 0.22373535
000010 50 7e af bc a8 08 73 3d 13 90 49 bf 13 ec 53 bc
       -0.021422535 0.059334427 -0.78735465 -0.012934702
000020 e7 3a 1f bb bd d4 4f 3b b2 fd 2d bf 88 35 5a 3c
       -0.0024296583 0.0031712495 -0.67965233 0.013318427
000030 f0 33 9a bd 48 5f 96 3d b1 11 32 bd a3 c0 f3 bd
       -0.075294375 0.07342392 -0.043473903 -0.11901977
000040 20 b2 08 be 7c 39 82 3e 14 6b 27 bd 2d 77 13 3e
       -0.133492 0.25434482 -0.040873602 0.1440093
000050 40 9e 29 3d 14 97 fb bd a2 af 2f 3d c8 d7 8c 3d
       0.041410685 -0.12284675 0.042892106 0.068770945
000060 a1 6e c1 be 85 7a d0 bd 92 2a af bf ad 41 29 3f
       -0.37779716 -0.10179619 -1.3684866 0.6611584
000070 ee 24 fd bd 00 7f 78 bb 76 d8 70 bc d9 08 88 bc
       -0.123605594 -0.0037917495 -0.014700046 -0.016605781
000080 7f c3 a8 be bc 4f c4 3d 04 94 df bd 68 21 95 bd
       -0.32961652 0.095855206 -0.109169036 -0.07281762
000090 6e dd d8 bd d2 cc 8d 3a 04 07 23 bd 48 dd 6d bb
       -0.10589109 0.0010818487 -0.039801612 -0.0036295224
0000a0 fe 27 82 bd a1 3d 98 be e4 27 ba bd 13 9a 9c be
       -0.06355284 -0.2973452 -0.0908964 -0.305863
0000b0 d1 82 26 bd 45 1f 3d bf 07 f5 da 3d 8f b5 40 3e
       -0.0406521 -0.7387584 0.106912665 0.18819259
0000c0 90 f2 ba 3e 0e c7 c1 bc 54 f4 48 bd fa 5a cd bd
       0.36513186 -0.023654487 -0.049061134 -0.10027118
0000d0 88 15 1a 3d 6d 38 8c bc 07 64 5e bf e6 d9 d4 3d
       0.03761819 -0.01711675 -0.8687138 0.10393123
0000e0 ae e0 fa b8 e9 c8 21 bd a4 e4 8d bc c6 12 ff bd
       -0.00011962779 -0.039498243 -0.017320938 -0.124547526
0000f0 fa 99 a0 bd 20 4b f8 bb 3a 61 23 be 8c c7 88 3d
       -0.07841869 -0.007577315 -0.15955058 0.066786855
000100 6f 22 1c 3d d8 2d 36 be 95 80 73 3e 4b 9d 46 bf
       0.038118776 -0.17790926 0.23779519 -0.7758376
000110 f0 e1 69 bc e8 d6 f9 bd ad 0b 86 3e 40 99 36 bd
       -0.014275059 -0.12199193 0.26180783 -0.044579744
000120 30 10 cc 3c 71 ee a2 3a 84 39 67 3e 01 ed f1 bd
       0.024910063 0.001243068 0.22580534 -0.11812783
000130 48 e4 86 3d 58 5b 96 3d 92 31 92 3d f6 49 30 be
       0.0658651 0.07341641 0.07138361 -0.17215714
000140 1a e7 60 be a2 d6 9b 3e cc 16 d9 bd 00 27 58 be
       -0.21963158 0.3043719 -0.10600051 -0.21108627
000150 90 5b 9b 3c f4 43 9b 3d e9 8d 58 be 5c 53 ba 3d
       0.018964559 0.075813204 -0.21147884 0.09097931
000160 5e 2a b9 bd e7 94 62 be 00 4f 83 3f 81 36 12 3f
       -0.09041284 -0.22127114 1.0258484 0.57114416
000170 b8 7d 76 3d 52 ea cb bd 70 3f 48 3d 44 bb fe 3b
       0.06017849 -0.099568024 0.048888624 0.0077737886
000180 4d 0c 34 3e d0 30 a0 bd 30 bb bc bc 9c d5 40 bd
       0.17582817 -0.0782181 -0.023038477 -0.047078714
000190 04 c3 61 3d 8f 17 86 bd a4 51 5b 3d 7c fc 85 3d
       0.055117622 -0.06547462 0.053544655 0.06542298
0001a0 ef d9 f5 3b 2c d4 38 3d 28 d0 a0 3d da 5a b7 3e
       0.0075027863 0.045124218 0.07852203 0.35811502
0001b0 22 90 40 be 9c 22 36 3e 85 70 49 be 61 a9 a6 3d
       -0.18804982 0.1778664 -0.19671829 0.08137775
0001c0 0e 8f 60 bf 26 58 26 bc 00 07 56 3a 5c c0 65 bd
       -0.87718284 -0.010152852 0.0008164495 -0.05609165
0001d0 08 df a5 3d db 19 d4 3b 9c 44 c3 3e 0b 2b 98 bc
       0.080991805 0.006472809 0.38138282 -0.018575212
0001e0 1a ba 56 bc 3a b5 11 3f e9 1c 3f bd 50 8a b8 3d
       -0.0131058935 0.56917155 -0.04665843 0.09010756
0001f0 e0 0a 27 bd 16 1f 32 bc 3e 29 6c 3a a5 c2 d5 bc
       -0.040781856 -0.010871669 0.0009008831 -0.02609379
000200 09 e7 80 be 48 ea 1f bf 08 91 53 3e 40 05 1f bd
       -0.25176266 -0.6246686 0.20660794 -0.038823366
000210 fc e7 5a bd 74 1a b5 3d 25 f0 75 3e ce 43 4f bd
       -0.053443894 0.08842936 0.24017389 -0.050601773
000220 3d 13 c4 bc 9d 62 08 3e c7 24 a8 3e bc 2a d8 3d
       -0.023934955 0.13318868 0.3284056 0.10555026
000230 40 bc ad 3b 94 c6 44 3d 61 a6 bc 3d b3 ad ad bd
       0.005301982 0.04804094 0.09211422 -0.08480396
000240 ad 86 1b bb 3b b6 83 be 66 73 ea bd 38 f1 60 3d
       -0.0023731396 -0.25724968 -0.11447792 0.054917544
000250 f4 b8 44 3d a0 d1 a5 bc 7a 7c 16 bd e8 5c 17 bd
       0.048027948 -0.020241559 -0.036739804 -0.036953837
000260 b6 b6 16 3d 70 ac 5b bd 03 83 be be f2 27 19 bf
       0.03679534 -0.053631246 -0.3720933 -0.59826577
000270 d0 f8 bf 3c 16 49 81 bd 28 33 5c bd 88 d6 0d 3e
       0.023434073 -0.06312768 -0.053759724 0.13851368
000280 8c 89 ad 3e ea 1b d6 bd a0 37 eb bb 63 d8 a3 bb
       0.33894002 -0.10454543 -0.007178262 -0.0050001605
000290 9a 88 c9 bd 3f 4a 0c bd c0 d8 20 bd 2f 19 fa bc
       -0.09840508 -0.034250494 -0.03926921 -0.030529587
0002a0 97 19 b9 3d 4b 53 d1 3d d2 64 bd bd e7 f7 9f 3e
       0.09038084 0.10220965 -0.092477456 0.31243822
0002b0 d6 58 44 bd b6 93 63 3e 9b f1 38 bf 94 20 19 3e
       -0.047936283 0.22224316 -0.7224366 0.14953834
0002c0 77 69 96 bb 70 a8 3e bd 90 5c 35 3d a6 f2 8a 3d
       -0.004590209 -0.046547353 0.044277728 0.06784563
0002d0 30 90 c3 bc f7 ce 1c 3d 64 04 94 3c 27 ac 13 3e
       -0.023872465 0.038283315 0.0180685 0.1442114
0002e0 d8 c7 50 3d 7e 0e e6 bd da 52 83 3d 00 46 98 3b
       0.050971836 -0.11233233 0.06412287 0.0046470165
0002f0 86 8e fe 3d 94 76 df bc 4a 4a 27 bd 8f 70 fb bd
       0.12429528 -0.027278222 -0.040842332 -0.12277328
000300 ee 37 40 bd 21 48 3b 3d 35 22 4d bd 49 06 91 be
       -0.04692834 0.045723084 -0.05008145 -0.28325108
000310 5c 88 8b 3d a8 61 bc bd 85 a9 10 3e 03 19 6d 3d
       0.06813118 -0.09198314 0.14127167 0.05788518
000320 ce 4b 43 bd 22 c7 af 3d d9 76 e2 3d 3a 0c 48 bd
       -0.047679715 0.085829034 0.11057825 -0.048839785
000330 e0 8d 56 3d bc 8f 58 bd 36 e5 f1 bd 3b 40 1c be
       0.052381396 -0.05287145 -0.11811297 -0.15258877
000340 03 67 e2 bd 2d 45 0b bf 56 4b f2 3d a4 58 a1 be
       -0.11054804 -0.5440243 0.118307754 -0.3151294
000350 3e 13 85 3d 86 c9 8e 3d 32 eb 1d 3e 08 4b 8d 3c
       0.06497811 0.06972031 0.15421751 0.017247692
000360 10 88 f4 bd f1 7f b3 bd 3a 77 0a bf 0b d2 d4 be
       -0.11940014 -0.08764637 -0.54088175 -0.415665
000370 3a 87 ff 3d d8 08 c2 bc fc dd 18 bd 66 80 a8 bc
       0.12476964 -0.023685858 -0.037321076 -0.020569038
000380 93 22 36 bd e6 f2 cb bd 4c 8c 55 bd ff 88 5e bd
       -0.044466566 -0.099584386 -0.05213575 -0.05432987
000390 c8 d1 7e 3d 91 6c 43 bd 26 f3 c3 3d 91 f2 5f 3d
       0.06221178 -0.04771096 0.09567861 0.05467469
0003a0 be f2 4e 3d 0c ee 5e be 0c 6c c6 bd 08 af b2 bc
       0.050524466 -0.21770495 -0.09688577 -0.021811977
0003b0 ea 91 3d 3a 51 56 28 3e 6b 1c b6 3c 21 ff 9d bd
       0.0007231521 0.16439177 0.022230348 -0.077146776
0003c0 eb 1f c6 be b4 75 d4 bc 88 25 cc bc 5e 89 9c 3d
       -0.38696226 -0.025935031 -0.02492024 0.07643388
0003d0 10 43 2a bc 1a 9e 70 3d 29 47 ad bd d9 a6 63 bd
       -0.0103919655 0.058744527 -0.08460838 -0.05557904
0003e0 c6 09 de 3c 87 f0 e7 be 1b 33 bc bd d6 46 8c 3d
       0.02710427 -0.45300695 -0.09189435 0.068494484
0003f0 f8 86 20 bd 5e e6 7c 3d bc b3 c7 be d6 bd 13 bd
       -0.039191216 0.061743133 -0.39004314 -0.036069714

layers.3.bias f4 [32]
000000 62 4e f4 3d 07 d1 0b bf d5 b8 99 3d 7f 62 73 3e
       0.11929013 -0.54615825 0.07505957 0.23768042
000010 1a 0f a4 be 25 b6 7e be f4 1b 63 3e 7c 35 ae 3e
       -0.32042772 -0.2487417 0.22178632 0.3402518
000020 70 ab eb 3d be 92 05 be c2 8a 91 be ce 07 13 bd
       0.115073085 -0.13044259 -0.28426176 -0.035896115
000030 be 01 10 3e 35 d1 d9 3c c8 80 ee 3c 9d 39 a6 3c
       0.14063165 0.026589015 0.029114142 0.020291144
000040 d8 47 0c 3e c8 68 b2 3d 36 77 42 3e 27 64 48 3d
       0.13699281 0.08711392 0.18990788 0.048923638
000050 24 a6 85 3b 89 89 2d bd 8c 9f 50 3e 8b 5d bb 3e
       0.0040786434 -0.042367492 0.20373362 0.36594805
000060 67 aa be 3d 99 e0 f3 3e 23 9f 0a 3f 84 75 e1 be
       0.093098454 0.47632292 0.54149073 -0.4403497
000070 7b 1f f1 3d ed 92 07 3e ee 7e f2 3d f9 35 4f bd
       0.117735825 0.13239641 0.11840616 -0.05058858

layers.6.weight f4 [16, 32]
000000 48 87 8f 3e 79 bd 41 3e ee 04 83 be f7 8c 1a bd
       0.280329 0.18919934 -0.255897 -0.03773209
000010 97 b5 0b bf 29 34 9c be fa e6 ae be 38 5a 9b 3d
       -0.5457396 -0.30508545 -0.34160596 0.07585567
000020 df b0 ab be 05 ee de be a0 fb 07 bf 0c 86 67 be
       -0.3353338 -0.4354097 -0.53118324 -0.22609729
000030 0f 38 37 be 65 cd e0 bd 46 f3 1d 3e 6c 67 ec 3e
       -0.17892478 -0.10976676 0.15424833 0.46172655
000040 f9 ae 9f 3d 2d 4e 82 3e ce 3a 3b be 7d 67 86 be
       0.07797045 0.25450268 -0.18284151 -0.2625083
000050 7f 5d df be 4f 32 c3 be 70 7f a6 be f3 7c 69 3e
       -0.4362602 -0.3812432 -0.32519102 0.2280157
000060 e5 d4 49 be 51 56 1f 3e ce 40 23 3e 1d 29 22 bf
       -0.19710119 0.15560271 0.1594269 -0.63343984
000070 73 8e 75 3e 9b 35 8c be ca 0a a3 3d b4 a4 2d 3e
       0.23980121 -0.27384648 0.07961042 0.1695736
000080 cf 3b 89 bf 57 85 68 bf 6e b4 e5 bb c5 0d b6 3d
       -1.0721377 -0.9082846 -0.0070100343 0.08889345
000090 5e a7 23 3e 7a 5e d9 3c c3 05 85 3d 4a ab c9 3d
       0.15981814 0.026534308 0.064952396 0.09847124
0000a0 34 58 09 3e 0f 3d 88 3c 0c 3f c7 be 6f 7c de 3e
       0.13412553 0.016630678 -0.38915288 0.4345431
0000b0 d7 f9 ca bd 3a 13 b3 be 1d 64 56 bf d9 6a c0 be
       -0.099109344 -0.34975606 -0.8374651 -0.37581518
0000c0 f5 f5 11 bf d5 4c 9e 3e db 02 a4 be 31 ea 89 3e
       -0.57015926 0.30917993 -0.3203343 0.26936486
0000d0 4e 0c ce bb 76 2e c9 bd 4f 0a 18 3e 46 fd 60 3e
       -0.006288088 -0.09823315 0.14847682 0.21971616
0000e0 d9 19 09 3e 78 1f 0c 3e 94 09 96 3e 6c d9 c9 be
       0.13388766 0.1368388 0.29304183 -0.39423692
0000f0 40 70 2d bf 80 17 78 bc c2 fa 19 bf c1 42 38 bf
       -0.67749405 -0.015142322 -0.6014825 -0.7197686
000100 b0 ca c8 3e d6 ca 88 3e 37 c6 b3 be 87 9e 05 bd
       0.39217138 0.26717252 -0.35112163 -0.032621887
000110 88 cd 01 bf 78 b7 ba be 16 38 56 be 40 c7 26 3d
       -0.5070424 -0.364681 -0.20919833 0.040717363
000120 f4 a7 9a be 34 37 d8 be 39 9a 0e bf a8 2b 8e be
       -0.30206263 -0.42229617 -0.55704075 -0.27767682
000130 52 56 b4 bd c9 51 c4 3d b3 20 5d 3d ec 3f 02 3f
       -0.08805527 0.09585912 0.053986263 0.5087879
000140 d0 82 13 3e 58 ab 24 3e 61 bd 2e be e3 9c 78 be
       0.1440537 0.16080987 -0.1706443 -0.24278598
000150 91 48 b1 be 07 16 1b bf 97 7d 80 be 58 27 ab 3d
       -0.34625676 -0.60580486 -0.25095817 0.083571136
000160 06 12 c0 bd 33 13 ef 3d ee c1 06 3e 28 dd 49 bf
       -0.09378438 0.11673584 0.13159916 -0.7885308
000170 3a 40 9e 3e ea 2f 13 be f7 f0 86 39 e0 f1 3c 3e
       0.30908376 -0.14373747 0.00025738004 0.18451643
000180 8c 9b 54 bf a3 41 31 bf 61 a6 d4 bd 0e 1a 8b 3d
       -0.83049846 -0.6924078 -0.10383297 0.06792079
000190 06 de 05 be 87 3d 97 3d de 56 4f 3d c6 e3 e0 3c
       -0.13072976 0.07384782 0.050619952 0.02745236
0001a0 2a 1a db 3d 02 fe 9e 3d dd 13 96 be eb 3d c3 3e
       0.1069835 0.07763292 -0.2931203 0.38133177
0001b0 73 a7 a2 3d bc 69 fe be 34 18 26 bf f8 65 03 bf
       0.07942095 -0.49690044 -0.6488068 -0.51327467
0001c0 a1 06 10 bf 49 57 bb 3e 09 68 75 be 5e 98 83 3e
       -0.56260115 0.3659003 -0.23965468 0.25702184
0001d0 e6 16 a2 bd f9 7d 34 be 58 23 03 be b8 01 f7 3d
       -0.07914524 -0.1762618 -0.12806451 0.12060875
0001e0 48 c4 bd 3c ec 16 85 3d b9 fb cb 3d 4b 8f c9 be
       0.023164883 0.064985126 0.09960122 -0.39367136
0001f0 b5 bb 2c bf a0 65 1f 3e d3 75 33 bf 71 59 41 bf
       -0.6747392 0.1556611 -0.7010166 -0.755271
000200 88 1c db 3e 35 58 b5 3e 9f 80 8b be 48 ec 72 bd
       0.42795205 0.3541886 -0.27246568 -0.059307367
000210 6b ac fc be ef d3 9e be 22 ee 8c be 95 b1 19 3e
       -0.49350294 -0.31021068 -0.2752543 0.15009148
000220 71 4d a5 be ea 03 ad be 1d f0 17 bf e1 2b 90 be
       -0.32285646 -0.3379205 -0.5935076 -0.28158477
000230 df c6 46 be 40 c3 45 3e eb 1c f8 3d 69 14 1d 3f
       -0.19411801 0.19312763 0.12114891 0.6135927
000240 7b e0 6e bd 4d 2c 52 3e d5 5b db bd 5f 02 73 be
       -0.05831955 0.20524712 -0.10710875 -0.23731373
000250 c6 e0 22 be 29 41 e5 be 9b d6 94 be 32 06 88 3e
       -0.15906057 -0.44776276 -0.2906998 0.26567227
000260 da 66 6a 3b f5 9d 31 3e ed 01 00 3e 3b f6 3c bf
       0.003576687 0.17345412 0.12500735 -0.7381322
000270 5d 46 05 3f 7c 5f 33 be e0 da 4e 3e 31 d2 5f 3d
       0.5206049 -0.17516893 0.20200682 0.054643814
000280 d8 28 03 bf 58 2b 59 bf 86 5a 2a bd 7e 69 d3 3c
       -0.512342 -0.8483176 -0.041590236 0.025807139
000290 43 23 dd be 4f b4 26 ba 29 07 28 3e 43 3f 93 3e
       -0.43190965 -0.00063592655 0.16408981 0.28759202
0002a0 87 83 39 3e 68 2a 12 3e 24 39 3c 3d ea 6b a9 3e
       0.1811658 0.14273989 0.04595293 0.33090144
0002b0 80 b0 44 3e 60 d0 a5 be a2 67 a3 3c 0b fe 12 bf
       0.19207954 -0.3238554 0.019946877 -0.5741889
0002c0 97 f7 f9 be 9f 19 f8 3d 5b 41 4d be 69 32 2a 3e
       -0.4882171 0.12114262 -0.20044462 0.16620792
0002d0 40 ed 34 bd cd 87 8d bd 07 37 a8 bd 08 57 26 3e
       -0.04417157 -0.069106676 -0.08213621 0.16244137
0002e0 f6 f7 2b bc ca 2d 81 3e 02 42 b8 3d 7d ec 3d be
       -0.01049613 0.25230247 0.08996965 -0.18547244
0002f0 d8 76 2d bf 1d 10 f3 bc 67 c3 bc be 87 0d 81 be
       -0.67759466 -0.02967077 -0.3686783 -0.25205633
000300 a8 02 04 3f fd 3f 9e 3e 4c 12 b3 be ce 2c b5 bd
       0.51566553 0.30908194 -0.34974897 -0.088464364
000310 c8 fe 4f be 6c 9d ad bd 09 51 96 be ad 74 39 3e
       -0.20312035 -0.084772915 -0.293587 0.18110915
000320 c6 d4 07 bf f3 ca a2 be b8 94 a2 be 16 12 8a be
       -0.5305904 -0.31795463 -0.31754088 -0.26966923
000330 ee a7 7b be 60 5a 99 bd 00 79 99 bd cf 7d 25 3f
       -0.24575779 -0.07487941 -0.07493782 0.64645094
000340 44 f5 6d 3c ce e3 64 3e 7d 36 6b bd 0a a9 b3 be
       0.014523808 0.22352526 -0.05742501 -0.35089904
000350 3a f5 90 bc db e0 d6 be 04 8b cf be 70 f5 a8 3d
       -0.017695058 -0.41968426 -0.40535748 0.082499385
000360 da 6c 6c be 4b 8b 6d 3e f7 3e 6c 3e 63 19 d0 be
       -0.23088399 0.23197667 0.23070894 -0.4064437
000370 bc fd 86 3e fa eb c8 be 53 95 55 bb 2a 80 db 3d
       0.2636546 -0.39242536 -0.0032590225 0.10717805
000380 5e 78 0f 3f da bf 95 3e 95 01 2c be 77 b1 95 3c
       0.5604304 0.29247934 -0.16797478 0.018273098
000390 5a 1f 2c bf 2d 73 8f be 92 60 44 be 0b 5f 17 3e
       -0.6723534 -0.2801756 -0.19177464 0.1478235
0003a0 dd ed 94 be 72 33 b7 be 5f 55 58 bf bd 91 a4 be
       -0.29087725 -0.35781437 -0.84505266 -0.3214244
0003b0 74 7a 62 bd d2 fa 96 bd c7 81 51 bd 78 b7 47 3f
       -0.05529256 -0.07372059 -0.051149156 0.78014326
0003c0 b8 ae 42 3d 83 f4 09 3e 22 79 00 be c5 b0 ea bd
       0.047529906 0.1347218 -0.12546209 -0.11459497
0003d0 d9 b4 d4 bd e5 ab 45 bf 89 b1 78 be 76 9b 0e 3e
       -0.103860565 -0.77215415 -0.24286474 0.13926491
0003e0 c4 c0 8d bc 79 60 84 3d cd 4e 3c 3e 06 f6 86 bf
       -0.017303832 0.06463713 0.18389435 -1.054383
0003f0 f2 bb 00 3f 35 9a 3e be 49 cc c3 3c 96 fe 11 3e
       0.5028678 -0.18613513 0.023901122 0.14257273

layers.6.bias f4 [16]
000000 7c 53 b0 3e 0e ea fa 3e 6e 00 99 3e 21 a1 0c 3f
       0.34438694 0.49006695 0.2988314 0.54933363
000010 db fd 44 3e e1 91 c8 3e 72 02 ac 3e bb 75 1b 3e
       0.19237463 0.39173797 0.33595616 0.1518163
000020 7c 36 af 3e a9 f3 b4 3e bc 39 b7 3e 76 45 07 3e
       0.34221256 0.35342148 0.35786235 0.13210091
000030 b4 8d e6 3e 59 fb b1 3e d7 4e 8f 3e 09 f0 53 3d
       0.45029986 0.34762076 0.27989838 0.051742587

layers.9.weight f4 [1, 16]
000000 42 07 2f bf 0b 89 30 3f 26 e0 3c bf 2f 59 53 3f
       -0.6837045 0.6895911 -0.73779523 0.8255796
000010 68 e9 04 bf 4f 08 16 3f 47 0b 33 bf 2f 29 80 bf
       -0.5191865 0.5860643 -0.6993908 -1.0012568
000020 5e 54 12 3f 79 e1 3c 3f 10 66 cd 3e 9b 0e 16 bf
       0.57159984 0.73781544 0.4011693 -0.58616036
000030 b3 20 50 3f 30 06 c1 bf c0 6c 6d bf 5e 4e b5 be
       0.81299895 -1.5080013 -0.92744064 -0.35411352
