models/Mean/antiproton_2.pt (torch, 18945 bytes, 7 tensors)

layers.0.weight f4 [64, 19]
00000000: f54a 56be 88ce 9fbc ef03 30b7 71c4 0ebf
00000010: ba59 0cbe 5868 abbf 7b5a 7ebf b671 e23d
00000020: e730 3abe 3e15 df3b df42 8a3f 4bfe 803d
00000030: 4cfc 7cbd 57ac b4ba 9f5d bc3a c9ae 4b3c
00000040: 53fc fd3a 128a 923c 7629 be3b 9976 75be
00000050: d54e 963c 09af 963a 18bf 25bf 38e9 6240
00000060: d2f5 5d3e d829 e03d 0813 503c fe1a 20bc
00000070: 1053 953b e774 683f 9950 bc3c 0582 75bc
00000080: 7f3d 173c 569a 8b3c 27fc 463a fad2 d83b
00000090: 8dd6 b63b f1bd 153c 6402 24be 8134 e0bd
000000a0: e797 1f3e 688c 83bd 28f4 65be 824f c93d
000000b0: a0f2 963c 5103 10be 4e96 bfbd 94f3 12be
000000c0: 0489 693d 3718 f3bd f56f 1d3e da88 4bbe
000000d0: abca 673e a71c 54be d8d7 02be 23e6 1e3e
000000e0: 90b7 84bd cf5f 31c0 8997 acbb 4309 5dba
000000f0: c625 5b3e 72e3 45be 0f7a 073a 267f 103e
00000100: 729d 9ebc b4b5 193d 2aee 85bb 9937 243f
00000110: 4393 4fbd dacd 073d 593d 82bc 4695 943c
00000120: 8504 c03a dcec 03bc eb3e 43bd 47c1 0b3d
00000130: c850 4dbd e8e1 f93c c402 8ebd 68fa 02bd
00000140: 4cda 2a3d c373 603e 912d 633e f657 56be
00000150: a5b3 033e ad9c 113e d32c 1e3e 705e dfbc
00000160: aea1 5ebe 6187 583e 80c3 e83b 2c32 23be
00000170: f4d5 653d 37bb 503e 280c b2bd 79e1 433d
00000180: d270 993d b547 d13a f5fe f13e ef5e ce3e
00000190: 08d8 1c3f 1388 f63e ac45 9bbd bed1 05be
000001a0: 8b89 ac3d cce7 42be 032b 3a3d a58a 563d
000001b0: d77a 473d cfbe 4d3d 2d0e 8fbb 20ba a63d
000001c0: 7d6e 643c 68b5 b4ba c876 c43e ca2d 2b3e
000001d0: 0971 6f3c b127 52be ae12 61bf 6df1 96bd
000001e0: 10f6 c8be 4864 85bd eb97 423e aecd 69bc
000001f0: fed8 87bf c151 01bd d1f4 df3d 0724 753d
00000200: 41da d2bd d12b b9bb b049 cb3c 9243 6a3e
00000210: 4446 d83b accb 79bf a380 9abe 9e58 303b
00000220: b87b 10be 63d5 61bf 3dd3 973e 7e9c d33e
00000230: c54d 00bd 5c92 833b d987 55bb 5365 c9bf
00000240: f36f 9f3c 0e4d 743d ea72 3bbb 388f a1bc
00000250: 31ca 60bc 76da 13be e122 b03c 0137 05bd
00000260: 936d 87bf b770 65bb eea5 733a 2c32 83be
00000270: e7bd 5c40 d859 e23d c362 743e e26c 44bd
00000280: 2026 c1bd 5451 3a3b 2676 723f 17d7 e93d
00000290: 33ac 6c3d ade2 f3bb 5c65 09bd a7b9 0e3b
000002a0: 2ead 7cbd 0793 af3d 885b ca3c fdd1 00be
000002b0: 6023 e1bb fc2d 11be c456 77bd 7aa3 ad3d
000002c0: c611 5bbe e535 3d3e 742b 113d 7158 3a3e
000002d0: 4f7e 543e fc53 4bbd 8093 293b bfc6 183e
000002e0: 9eda 00be 9a96 b73d 76a5 bcbd 90db 2cbd
000002f0: a9a7 ffbd 1065 ecbc 5d97 8fbc e1e5 afbb
00000300: 8f4f b6bb 5768 1abe f1bc 5a3e 619c 99bf
00000310: 72d5 b2bf e323 a9bd 677a 9b3d bef3 593c
00000320: 5c68 d73f 3beb babb 224e f03c c528 2cbb
00000330: 8b8a b7bb f93b 503c 5ef5 9dbb cb29 4aba
00000340: 5468 4ebb e2bc e5bf d538 64bd 2216 3738
00000350: 306d 1ec0 53ed e13f 47b9 17bf ed4b cdbe
00000360: f95d 4f3d 6e9c 12be dc31 35bc 7a3b 813f
00000370: 1627 ef3d 1edf 77bd 8dd3 b63a 6f9c 273c
00000380: 856a 173c d84a 3e3c 370f 2a3d 6f13 973c
00000390: 2182 18bc ed70 ce3d 8e5a 623c cd51 a7bd
000003a0: 34f6 b53d 951c 61be 8f41 c5be a2b3 a4bd
000003b0: 30b9 dc3d 0d97 7d3d d66f dc3e 82f0 0fbe
000003c0: ce95 2f3d 1273 ffbd 7419 4e3d 6c32 003c
000003d0: 676d f83d 9964 09be c6c8 a23d 0670 5b3e
000003e0: ca31 4f3e 658e 273b 1e02 e63e 0a54 90bf
000003f0: 354f 063f 3c30 d83e bf53 5dbd 48f3 983b
-0.20927031 -0.019507661 -1.0491333e-05 -0.55768496 -0.13706103 -1.3391218 -0.9935681 0.11056845
-0.18182717 0.006807952 1.0801657 0.062985025 -0.061764047 -0.0013784271 0.0014371163 0.012431809
0.0019377567 0.017888103 0.0058032824 -0.23971023 0.018348137 0.0011496256 -0.6474471 3.5454845
0.21675804 0.10945481 0.01269985 -0.00977206 0.004557021 0.9080338 0.02298765 -0.014984612
0.00923097 0.017041367 0.0007590674 0.0066169472 0.0055797757 0.009139524 -0.16016537 -0.10947514
0.1558529 -0.06423265 -0.2245642 0.09829618 0.01842624 -0.14063765 -0.0935484 -0.1435073
0.057015434 -0.11869853 0.1537474 -0.19876423 0.22635905 -0.20714055 -0.1277765 0.15517478
-0.06480324 -2.7714727 -0.005267088 -0.0008431861 0.21401128 -0.19325045 0.00051680295 0.14111003
-0.019362185 0.0375268 -0.0040872293 0.64147335 -0.05067755 0.0331553 -0.015898393 0.018137585
0.0014649784 -0.008052077 -0.047667425 0.03411987 -0.050125867 0.030503228 -0.06934121 -0.031977087
0.04171209 0.2191916 0.22185351 -0.20931992 0.12861498 0.14219923 0.15446787 -0.027266711
-0.21741363 0.21145393 0.0071033835 -0.15937108 0.056112245 0.20383917 -0.08693725 0.04782245
0.07492222 0.0015966805 0.4726483 0.40306804 0.6126714 0.4815069 -0.07581648 -0.13068292
0.08424672 -0.19033736 0.045451175 0.052378315 0.048701134 0.050230797 -0.0043657036 0.08140969
0.013942358 -0.0013786973 0.38371873 0.16716686 0.014614352 -0.20522954 -0.8791913 -0.07370267
-0.3925023 -0.06513268 0.19003265 -0.014270229 -1.0613096 -0.031572107 0.10935367 0.05984881
-0.10295535 -0.0056509753 0.02481541 0.22877339 0.006600173 -0.97576404 -0.30176267 0.0026908289
-0.14109695 -0.8821623 0.2965335 0.41330332 -0.031324167 0.00401525 -0.0032582192 -1.5734047
0.019462561 0.059643798 -0.002860243 -0.019721612 -0.013720081 -0.14438805 0.021501007 -0.03252316
-1.0580314 -0.003500981 0.000929444 -0.25624216 3.4490907 0.110522926 0.238658 -0.0479554
-0.094311 0.0028429823 0.9471153 0.11417978 0.05778141 -0.0074427933 -0.03354393 0.0021778138
-0.061688595 0.08572965 0.024701849 -0.12580104 -0.006870672 -0.14177698 -0.06038548 0.08478446
-0.21393499 0.1847759 0.03544183 0.181978 0.20751308 -0.04964064 0.002587527 0.14919566
-0.12583396 0.08964272 -0.09211247 -0.04220158 -0.124831505 -0.028856784 -0.01752823 -0.00536798
-0.0055636833 -0.15078865 0.21361138 -1.2000848 -1.3971388 -0.08258798 0.07591706 0.013302742
1.6828723 -0.005704311 0.029334132 -0.0026269418 -0.0056012324 0.012709611 -0.00482051 -0.0007711916
-0.003149529 -1.7948267 -0.05571826 4.3651213e-05 -2.4754143 1.7650551 -0.59267086 -0.4009699
0.05062673 -0.14317486 -0.011059251 1.0096276 0.11677377 -0.060515516 0.0013948545 0.010230168
0.009241705 0.011614524 0.041518416 0.018441884 -0.009308369 0.10080133 0.013815535 -0.08169899
0.0888485 -0.2198356 -0.3852658 -0.08042075 0.10777509 0.06191163 0.43054074 -0.1405659
0.042867474 -0.1247312 0.050317243 0.0078245215 0.12130242 -0.13417281 0.07948451 0.21429452
0.20233837 0.0025567051 0.4492349 -1.1275647 0.5246461 0.422243 -0.054034945 0.0046676733

layers.0.bias f4 [64]
00000000: 1d2c f7bc 81ca 363e 1aa6 82bd b624 0fbe
00000010: 481d 73bd f588 b7bc 1e48 093b e1d0 1dbe
00000020: 95d3 b13d 0d9d d8bd 3eb4 07be a103 0d3e
00000030: e4b0 cebe 8f0e ffbd 7d3b 4c3e dc7f 1ebd
00000040: dd62 59be 4cf9 92bd 1229 8b3d dc63 8ebd
00000050: 8cb2 743d dbf5 77be 23ad acbc 5005 35be
00000060: 700b 713c 1cbb d5bd dea0 b73d 1293 b23d
00000070: be35 e13d 7ee1 8cbd cc42 30be 557a 183e
00000080: 2b6f 303e 67b3 14be 8e0c 1fbe 641a 30be
00000090: 4378 55bd 1007 1bbd 655c acbd c864 e23d
000000a0: d872 94be 1117 7fbd e725 2abe 0715 183e
000000b0: c05e 64bd 7537 143c d3a2 8abe 77b4 83be
000000c0: b6e2 703e 6c25 01bd ab44 583e 10fb 273e
000000d0: c87c f63c 922d a7be b04c 15bd e01b 103c
000000e0: 10df ccbd 78f7 4abe f23c b9be f973 ac3d
000000f0: 6603 0dbe 4c19 33bc 9770 12bd 4429 4fbd
-0.030172402 0.17850687 -0.063793376 -0.13978848 -0.059354097 -0.022404173 0.0020947526 -0.15411712
0.08682934 -0.1057683 -0.1325235 0.13770916 -0.40369332 -0.12453949 0.19944568 -0.038696155
-0.2122912 -0.07176456 0.06794943 -0.069526404 0.059740588 -0.2421488 -0.021078652 -0.17677808
0.0147122 -0.10436079 0.0896623 0.08719458 0.10996579 -0.06878947 -0.17212981 0.14890416
0.17229907 -0.14521562 -0.15532133 -0.17197567 -0.052116644 -0.037848532 -0.0841606 0.11054379
-0.2899387 -0.062277857 -0.16616021 0.14851771 -0.055754423 0.009046425 -0.2707735 -0.2572362
0.23523983 -0.03152983 0.21119945 0.16404366 0.030088797 -0.32651955 -0.036450088 0.008795708
-0.10003483 -0.19820964 -0.3617931 0.084205575 -0.13770828 -0.010931324 -0.035751905 -0.050576463

layers.3.weight f4 [32, 64]
00000000: edc1 69be d032 213e 9885 513d e852 e03e
00000010: 8079 543d 9215 67ba 92b7 5a3d ae5a 9c3c
00000020: 4e14 373e 1c54 0b3d 5420 d6bc 34fb d93d
00000030: ebbc ebbd 34e1 003d b069 653d a2a1 2fbe
00000040: 4fad 263b 16a6 883b 76d4 a3bd e0cb 68bd
00000050: ae64 83bd 0da8 b43d a52d 8f3d dd8a 32be
00000060: 1264 ef3d da5f 9a3d 6869 34bd e0fa f93b
00000070: 9034 46bd 2de4 5abe 84c0 81bd c6a8 c4bd
00000080: 9831 f4bd 946e b4bd 8dcf 213c 1ce5 8cbd
00000090: 97b0 94be 2ec7 e1bd 7c89 dbbc fb1e 3f3d
000000a0: 368b 9e3d 556e 48bd c617 f4bd 8086 b03d
000000b0: 209d 943d 92ba 963d e830 d8bd 026a 1ebe
000000c0: e66c 8b3d 3180 c2bd c82d 9b3c d922 953d
000000d0: a09a 9b3d 29e4 6e3e e485 abbd 00b8 aebd
000000e0: fe40 b4bd 6ef3 98be 0bda 323c 2ec8 f3bd
000000f0: c626 9bbe c56d 143e 4c0b 33bf 7650 f7bd
00000100: 95d8 d03e f5e9 833d 66b4 fb3d 54f0 e33d
00000110: 3813 34bd 9a74 07bd bafc 39bd 768b e0be
00000120: 836c 3e3e d466 51bd 1cdd 563e 068c 3f3d
00000130: d42c f8bb 81bc 8cbe e81f 6abd b9a2 79bd
00000140: 14ea 3abd d23b b13d 304f 1fbc 0538 c0bd
00000150: 786b b93d 08c5 b0bd cba0 a23d aa0c 083f
00000160: a876 6b3d b1ee df3d d4f3 8b3d 145a 88bd
00000170: 48d2 713d c598 193f 6225 af3d 9cc8 4bbd
00000180: 5818 b5bd ddef 763d 9310 a43d f949 f4bc
00000190: ca30 983e 70c7 bf3c 734d 833c 672b 133d
000001a0: 4685 8e3c 982b 713d 904f 0a3c 286e ffbc
000001b0: 6827 633d 6321 b3be 5d86 413c 2468 8a3c
000001c0: 51cb 443c 3b42 9c3d 1ce2 8cbd 807b f0ba
000001d0: bae1 e13d 7081 f7bd b05f ea3c d026 cbbd
000001e0: ce46 e0bd 7153 573d cdd4 01bd 4b01 61be
000001f0: eb81 5c3e d5c3 bf3d 10ae 953e 02c4 cfbd
00000200: e04f 023f 1e19 99bd c40e c83d 1b05 32bf
00000210: 24a2 f0bd f366 b93d 0d01 0fbd a6f2 43be
00000220: a513 34bd 229f f0bd 4bb7 513e 0739 d63d
00000230: 81bb 883a d40c 9b3c de18 ba3d 1080 b2bb
00000240: 07c7 fc3b e7cd 843d 7087 7d3d 906a a23c
00000250: 6ce4 ffbd 20b4 943d 706d b03d 796b 9f3e
00000260: 50ab 56bd 6bb5 36be f298 a9bd 9402 c5bd
00000270: 60cb adbd 5a5a 8c3e e009 34bd cada c5bd
00000280: 6240 86bd 9fa5 bdbc 87a6 c0bd ef03 c63c
00000290: be56 b53d 703b 273d d61d de3c 6d39 493c
000002a0: 5865 dfbd 2b5c 833c 362d ba3d 1c89 58bd
000002b0: 881d 603d d084 87bd 2b68 4f3d 4a21 8f3b
000002c0: 6e47 bb3d 38fd 81bc 6246 babd 0487 41bd
000002d0: 08b6 cabc 1be8 d3be 4022 66bd f6ff fb3d
000002e0: e08b 7abd ab9d 07be 12a0 4e3d a9aa 36bc
000002f0: f4af 523e 45e5 14bd a5c3 1d3f f0c9 c9bc
00000300: 55e9 8fbd 077d 34be e022 ae3c 1470 13bf
00000310: b46e 7e3d 1bf1 593c 5fad 98bd 6d47 87bc
00000320: d224 083c 68b4 b0bd 094d cbbc 1cb6 383e
00000330: cc3d f9bc 0e58 aa3c d0a8 83bd 294c 8ebc
00000340: 55a5 4abd 8a52 d03d 0cab 0fbd d84c 443e
00000350: 18e9 ab3d 4081 56bd 6779 983c 266f af3a
00000360: a424 b83d 2d81 d7bd f0ee a3bd 3e36 e8bd
00000370: 5c36 de3d 8649 923d aa18 963d dac0 f5bd
00000380: f462 0abd 4551 d33d 0a3b a4bc 38ed 463d
00000390: cff0 113e 0826 8fbd 6064 173d dbc9 08bd
000003a0: 5ade 9abc 93dd d93b 0a1d 8b3d 6c6d 28bd
000003b0: 70f4 793d 178d af3d 9347 8bbc 5265 ecbd
000003c0: a13e cb3d 7ffe 32bb 5453 47bd 1274 ea3d
000003d0: b685 f5bd 9018 8bbe f033 f7bc 0835 90bd
000003e0: bc11 d63d 9559 14be 6374 f3bd 0f5e 47ba
000003f0: f37a 983e e206 803d b940 923e 54fe 643d
-0.22827883 0.1574204 0.051152796 0.43813252 0.051873684 -0.0008815165 0.053397723 0.019086208
0.1787884 0.03401576 -0.026138462 0.10643616 -0.115106426 0.03146477 0.056008995 -0.17151502
0.002543289 0.0041701896 -0.07999508 -0.056835055 -0.064156875 0.08821116 0.06991128 -0.17435785
0.11689009 0.075378135 -0.044045836 0.0076287836 -0.04838997 -0.21376105 -0.063355476 -0.096025035
-0.11923522 -0.088101536 0.009876144 -0.06879637 -0.29040977 -0.11024319 -0.026798956 0.046660405
0.07741396 -0.048933346 -0.11918597 0.08619404 0.07256532 0.07359804 -0.10556203 -0.15470126
0.0680788 -0.09497107 0.018942729 0.07282037 0.07597852 0.23329224 -0.08375147 -0.08531189
-0.08801459 -0.29873222 0.010916243 -0.119034156 -0.3030302 0.14494999 -0.6993911 -0.120758936
0.4079024 0.06441108 0.12290268 0.11129823 -0.04396364 -0.033070184 -0.045407034 -0.438564
0.18596081 -0.051123455 0.20982784 0.046764396 -0.0075737033 -0.27487567 -0.057159334 -0.0609462
-0.04563339 0.08653988 -0.00972347 -0.09385685 0.09053701 -0.08631331 0.07940825 0.53144324
0.057486206 0.10934199 0.06833616 -0.06657806 0.05903843 0.5999873 0.08552052 -0.049751863
-0.08842534 0.060287345 0.08010974 -0.02982043 0.29724723 0.023410529 0.016028142 0.035930064
0.017397534 0.058879465 0.008441821 -0.031180456 0.055457503 -0.3498641 0.01181182 0.016895361
0.012011365 0.0762982 -0.068790644 -0.0018347353 0.11029382 -0.12085235 0.02861008 -0.09919512
-0.10951005 0.05256981 -0.031697083 -0.2197315 0.21533935 0.09363524 0.29234362 -0.101448074
0.5090313 -0.07475494 0.09768441 -0.6953904 -0.11749676 0.09052839 -0.03491311 -0.19135532
-0.043964047 -0.11749102 0.20480077 0.10460096 0.0010431857 0.018927015 0.09086774 -0.005447395
0.0077141556 0.06484585 0.06189674 0.019826204 -0.1249474 0.072609186 0.086146235 0.31136683
-0.05240947 -0.17842643 -0.08281125 -0.09619632 -0.08486056 0.27412683 -0.04395473 -0.09660871
-0.06555249 -0.023150263 -0.094067626 0.024171798 0.088544354 0.04082817 0.027113836 0.012281758
-0.10908002 0.01603516 0.090906546 -0.052865133 0.054715663 -0.06617129 0.05063645 0.004367982
0.091444835 -0.015867814 -0.09095456 -0.0472479 -0.024745002 -0.4138802 -0.056185007 0.1230468
-0.06116855 -0.1324374 0.050445624 -0.011149087 0.20574933 -0.03635146 0.61626655 -0.024632424
-0.070269264 -0.17625819 0.021256864 -0.5759289 0.062117293 0.013302113 -0.07454943 -0.01651355
0.00830956 -0.0862816 -0.024817007 0.18038219 -0.030424975 0.02079394 -0.06428683 -0.0173703
-0.04947408 0.10171993 -0.035075232 0.19169939 0.083940685 -0.052369356 0.018612577 0.0013384565
0.08991364 -0.10522685 -0.08004558 -0.11338471 0.10850212 0.0714293 0.07328923 -0.11999674
-0.033785775 0.10318235 -0.020047683 0.048566073 0.14252017 -0.06989676 0.03696096 -0.03339563
-0.018904854 0.006648728 0.06792648 -0.041119978 0.06102413 0.085718326 -0.017001903 -0.11542763
0.09924055 -0.0027312336 -0.048663452 0.1144792 -0.11988394 -0.27167177 -0.030176133 -0.07041365
0.10452601 -0.14487298 -0.118874334 -0.00076052634 0.29781303 0.06251313 0.28565004 0.05590661

layers.3.bias f4 [32]
00000000: 7883 b3bd deeb 013e 1574 ab3d fcef 5e3e
00000010: 7826 55bd 5e7f 553e afed 99bd 8edb 97be
00000020: 3126 d63d 0113 b23e ae71 8e3d bb4c a3bd
00000030: 7313 7b3e 43e2 423e 0e17 c73d f9a9 983e
00000040: 6364 71be 91f6 abbc 4cd4 4cbe bac2 dd3d
00000050: 5871 c13d 58a3 5a3e 75c9 4b3e 1010 8fbc
00000060: 0080 863d 29f7 15be cd42 123d 3670 5abe
00000070: b4cb adbc 08f3 213e 95bc 153e f3a6 9a3d
-0.0876531 0.12687632 0.0837175 0.21771234 -0.05203864 0.20849368 -0.07516038 -0.29659694
0.10456503 0.34780124 0.069552764 -0.079736196 0.24519138 0.19031624 0.09721194 0.2981718
-0.2357345 -0.020991595 -0.2000286 0.10828157 0.09445447 0.21351373 0.19901069 -0.017463714
0.06567383 -0.14645065 0.035708237 -0.21331868 -0.021215297 0.15815365 0.1462272 0.07551374

layers.6.weight f4 [16, 32]
00000000: 8ac9 adbb 0587 b1be 7dc5 3fbe 24eb c0bc
00000010: f958 e2be 4bb6 703e 2eb1 a63c f9a2 033e
00000020: bf0e 34be 3d33 37be fed9 a73e 9ba5 5f3c
00000030: 1ee5 663e 5aab 153e 343b 9bbe 016e 803e
00000040: 56a0 713d c441 33be a52a b9be 9c4e 44be
00000050: 3795 63be da5e 85be 3e15 253f 05f5 b4bd
00000060: 4255 433d 588c b0be 6b0f 3bbe 355c dabe
00000070: 9c35 b1bd 9f19 b73d e3dd 843d b60d 363e
00000080: d99b 1a3e 85ae b4bd f52f f5bd e206 93be
00000090: c767 8fbe 1c5e 963e f095 0c3e 0dac e03d
000000a0: 40f0 84be 621b 453d 0eee ac3e a87d 31be
000000b0: f5e1 883e be78 8ebd f3b7 c3bd 7d87 9b3e
000000c0: a76b b5bd 76ec bdbd 5233 aebd 3056 8c3d
000000d0: 0122 76bd 06d1 70be 596c a53e 496a 10be
000000e0: 0683 b9bd 4865 51be 6a7c 27be ed4f 6cbe
000000f0: 6958 54be ad3c d03d 7a9c cbbd 17f4 1e3e
00000100: 0be5 7cbe 1099 3fbe 9d04 24be 3c33 95be
00000110: ca59 1abf ec24 e53d dc00 3a3c 1b94 6fbe
00000120: 31dd 36bf 9087 d83d d962 8c3e 8d94 abbe
00000130: 23da 093f b50d 1a3e dda8 5fbe 9dac 8d3d
00000140: 0665 0ebe 6347 39be 9c89 3cbf 787b b8be
00000150: c9cc b9bd eba8 12be 2f0a 313e 7902 4cbe
00000160: ae33 fdbe 8188 44bf 1853 8a3d bc6b 34bf
00000170: 2317 99be 814a 403e e4de 18bf 033d 193e
00000180: 715e 3fbe f04a db3c 6f5e df3e 1495 923e
00000190: 13b1 da3e f779 4cbe 31f7 1cbe b0a9 18be
000001a0: d9c3 553e 5d13 6d3d d797 a4be cdf6 dd3d
000001b0: b05b 03bf 45db 8fbd 2552 783e bec0 863d
000001c0: 08ef e0bd e527 143d e1f5 183f fcbe ec3e
000001d0: c46c 713e 2d6d 253f cb58 5dbe bc2a 813e
000001e0: 73e4 543c b9ce df3e c201 043f 87bf d23e
000001f0: 11e3 17bc 3b86 e13d 6515 43bc e837 2ebb
00000200: cc29 d4bd b06a 443e 8d38 ae3e 4800 933e
00000210: af52 a13e 0f28 78bd f5ee 93b9 b4ae 67bd
00000220: bbd4 ac3e 1f45 253d afbd 3fbe 84f3 5f3e
00000230: 8eb0 57be fea1 60bd 995b 7d3e b690 cbbc
00000240: d8d8 06be 8603 ee3d 4f59 fd3e c8c9 9c3e
00000250: 31e3 613e 86d7 1a3f 5a7a 39be 1a38 983e
00000260: 61ab fa3d 28be 103f f341 c73e 71c9 c43e
00000270: 6d25 0b3e 3238 c23d b1dd 1f3d 9331 37bd
00000280: 498e b7bd 4de2 483e 9364 213f bc0b af3e
00000290: 6aad 7a3e 3216 ffbd a174 45bd c01b 4c3e
000002a0: 5b12 ab3e 16dd ef3d 5e82 3cbe 0a6d 823e
000002b0: 9eee a7be 8bd6 ec3c e28f 3f3e 49d8 583d
000002c0: a34b a0bc aa0e 11bd 4a40 0d3f 863a d33e
000002d0: 1f5c 383e df49 f03e 5e12 09be dbdb 893e
000002e0: e8d3 2f3d 97db 1a3f cb08 d43e b22f dd3e
000002f0: a445 c2bd 8715 7f3d 8005 c73d 18dd 05be
00000300: 7ef9 fcbc 3496 7a3c 0e41 efbd 5504 043d
00000310: 14fd 3ebd 4a97 573d 1bce 163e 3aca f0bd
00000320: 95e4 4dbd aee3 33be 148b 5b3d ad81 133c
00000330: 18a5 30be 11fd 6fbe fe82 0fbd b13d bbbd
00000340: a597 7cbd c781 20be 12a3 e2bd 02ee bb3c
00000350: 19d3 483d 51e9 d43d 0441 7cbd 18d2 f7bd
00000360: 283e aabd 2795 81bd ea0d 80bd a957 4c3d
00000370: d302 54bc 996d 483c 1a10 3abe 983b 0b3e
00000380: 527b 553d cb8f 8cbe 7433 88be a5af 9cbd
00000390: b7f3 a1be 09e1 afbe 8205 033d 85da 38be
000003a0: 340f 0b3e 38eb 66be 562a 96be 4ae4 29be
000003b0: 7e2d 3dbd 20db 47be d6eb 9fbe fc91 b73c
000003c0: 02a3 0f3d 9c2b 0cbe 459d 81be 15f8 43be
000003d0: 5874 53be 57d7 53be f909 00be 1c2c 4d3e
000003e0: faed d13d e001 80be 5dbe 6cbe 8336 01bf
000003f0: 6b7a 1fbd 01f2 58be 3965 833e a0a2 283c
-0.0053035663 -0.34673324 -0.1872768 -0.023549624 -0.44208506 0.23507039 0.020348158 0.12855138
-0.1758375 -0.1789064 0.32783502 0.013650323 0.22548339 0.14616147 -0.30318606 0.25083926
0.0589908 -0.17505556 -0.36165348 -0.19170612 -0.2222489 -0.26048928 0.6448554 -0.08835796
0.04768873 -0.34482074 -0.182676 -0.42648473 -0.08652803 0.08940434 0.06487634 0.17778668
0.15098514 -0.088223495 -0.11972038 -0.2871619 -0.28008863 0.29368675 0.13729072 0.10970316
-0.25964546 0.048121817 0.3377537 -0.1733309 0.26734892 -0.069566235 -0.0955657 0.30376807
-0.08858424 -0.09273617 -0.08505882 0.068523765 -0.060091022 -0.23517236 0.32309225 -0.14103045
-0.09058194 -0.20448792 -0.16356054 -0.23077364 -0.20736851 0.10167823 -0.09941955 0.155228
-0.24696748 -0.18710732 -0.16017385 -0.2914065 -0.6029326 0.11188683 0.011352744 -0.23396342
-0.7143126 0.105727315 0.27419165 -0.33511773 0.53848475 0.15044291 -0.2184176 0.06917689
-0.13905725 -0.18093638 -0.73647475 -0.360317 -0.09072263 -0.1432225 0.17289041 -0.19922818
-0.4945349 -0.7677079 0.0675413 -0.7047689 -0.29900464 0.18778421 -0.59715104 0.1496468
-0.1868837 0.026769131 0.43626735 0.28629363 0.42713222 -0.19968401 -0.15328671 -0.1490848
0.20875491 0.057879794 -0.32147095 0.10838089 -0.5131178 -0.07024244 0.24250086 0.065797314
-0.109830916 0.03617086 0.5975018 0.4623946 0.23576647 0.64619714 -0.21615903 0.25227916
0.01299392 0.43712404 0.5156518 0.4116175 -0.009270445 0.110119306 -0.011906956 -0.0026583616
-0.103595346 0.19181323 0.3402752 0.28711152 0.31508395 -0.060585078 -0.00028216062 -0.056563094
0.3375605 0.040349122 -0.18724702 0.21870238 -0.21063444 -0.054841988 0.24741973 -0.024849277
-0.13168657 0.11621766 0.494822 0.30622697 0.22059323 0.6048511 -0.1811308 0.29730302
0.12239719 0.56540155 0.38917503 0.38434938 0.13588496 0.09483375 0.03902978 -0.044725012
-0.089626856 0.19617577 0.6304409 0.3418864 0.24480215 -0.12455405 -0.04820693 0.19932461
0.33412442 0.11712091 -0.18409106 0.25473815 -0.32799238 0.028910896 0.1870723 0.05294064
-0.019567316 -0.035414375 0.5517622 0.41255587 0.18003891 0.4693136 -0.13385913 0.2692555
0.0429267 0.6049132 0.41412959 0.4320045 -0.09485939 0.06227639 0.09717846 -0.13072622
-0.030880686 0.0152946 -0.1168233 0.032230694 -0.046628073 0.052634515 0.1472706 -0.11757322
-0.05026682 -0.17567322 0.053599432 0.009003085 -0.17250478 -0.23436381 -0.035037033 -0.09142626
-0.061668057 -0.15674506 -0.110662594 0.02294064 0.049029443 0.10396064 -0.06158544 -0.12100619
-0.083126366 -0.06327277 -0.06252654 0.049888287 -0.0129401265 0.012233161 -0.18170205 0.13596952
0.05211956 -0.27453455 -0.26601756 -0.07650689 -0.31631252 -0.34351376 0.031987675 -0.18052109
0.13580018 -0.22550666 -0.29329175 -0.16590992 -0.046185963 -0.19517183 -0.31234616 0.022408478
0.035067566 -0.1368851 -0.253153 -0.19137605 -0.2064985 -0.20687614 -0.12503804 0.20036358
0.102504686 -0.2500143 -0.23119493 -0.50473803 -0.038935106 -0.21186067 0.25663164 0.010292679

layers.6.bias f4 [16]
00000000: 96fc 943e 89a9 453e 894b 083f f78b bc3d
00000010: 39e1 a53d 78c6 1ebd 77bd 0abe 80d0 10bd
00000020: 5a74 003f 88ae 8c3e 3b90 6c3d 9444 393d
00000030: 2510 b53e 3d6d 983d 64f3 e13e aa11 d93e
0.29098958 0.19302954 0.5324026 0.09206384 0.080995984 -0.038763493 -0.13548838 -0.03535509
0.5017754 0.27476907 0.057754736 0.045231417 0.3536388 0.074427105 0.44131005 0.4239629

layers.9.weight f4 [1, 16]
00000000: e691 163f b224 0b3f 3747 5a3f 043f 0bbf
00000010: 0768 e2be 1a10 00bf d6ec 323e 00bd cb3e
00000020: 9db7 693f 4a87 833f 11d1 edbe 306a 03bf
00000030: 6e08 8e3f ad76 08bf 6b93 673f 3ec9 123f
0.58816373 0.5435287 0.85264915 -0.5439303 -0.44219992 -0.5002457 0.17473158 0.39792633
0.91295797 1.0275662 -0.46448568 -0.51333904 1.1096323 -0.53306085 0.90459317 0.5733832
