models/Mean/antikaon_2.pt (torch, 18925 bytes, 7 tensors)

layers.0.weight f4 [64, 19]
-0.040713936 -0.18162864 0.020583078 -0.0033469945 0.20844345 0.15805472 -0.07809052 -0.18851432
0.17165257 0.20027183 0.036714688 0.18329708 0.18111213 0.08093692 0.10459198 -0.108388536
0.18171336 -0.077817604 -0.14447667 0.9617965 0.06675563 0.0010414134 0.4678617 -0.022161568
0.6584997 0.7955036 -0.055130973 -0.064358816 -0.031268913 -0.26682696 0.06435984 0.031797405
0.0057877195 -0.051521387 -0.0077390987 0.04587125 0.020457182 0.0065969694 -0.016266495 -0.036041334
-0.14875725 -0.15070975 -0.07520716 0.053419307 -0.22528854 0.124799356 -0.04305035 0.050568357
-0.1130517 0.19815634 0.030197188 -0.12041566 -0.16175637 -0.055386648 0.19818158 -0.19432811
-0.003382951 0.2338491 -0.02605832 -0.14858824 0.16551936 0.3042673 -0.652734 -0.62924176
0.13070105 -0.1732143 -0.062045652 0.2777279 0.13830383 -0.13314591 0.013590613 0.012892457
0.008458919 0.066206895 -0.4309837 0.028661488 0.0760385 -0.07444979 -0.0003910385 0.18696217
3.0700536 0.01380463 -0.046443436 0.05236791 -0.14348362 -0.027449982 0.6680404 0.10344122
-0.08673398 0.0035121576 0.014068364 0.0048977607 -0.18591121 0.082238376 -0.00092722516 0.19332083
-0.03902246 -0.18003552 0.19055219 -0.17515989 -0.050631538 0.02788122 -0.14077675 -0.10895768
0.16096894 -0.08936527 -0.21848345 0.053849146 -0.08400771 -0.10258846 -0.19112477 0.2208995
0.13342707 0.1595615 0.1347663 0.22373088 -0.07340123 -0.20278312 -0.060069665 0.22735415
0.1414118 -0.0833493 0.15769534 -0.2293793 0.063169345 0.17451377 -0.2172675 -0.062749
0.13499598 -0.16812088 -0.090363964 0.10103516 0.03312327 -0.10227546 -0.09535113 0.22803365
0.0026749223 -0.1295535 0.07380946 -0.20083667 0.15288131 0.034951106 0.12842153 -0.06783135
-0.16628158 -0.08811523 -0.099696144 0.047573045 -0.22003931 0.1818953 -0.07688786 0.10830347
-1.0651588 0.009447302 -0.00037438603 -0.97673243 2.5340014 -0.68547726 -0.31932774 -0.045562252
-0.124095894 0.010266047 1.2461356 0.07351035 -0.008270763 0.009217824 0.0061443513 0.007268891
0.0011526447 0.0006089659 0.002264286 0.08458876 -0.18317208 -0.008537269 0.08195579 0.73772734
-0.0077741533 0.14843026 0.27241933 -0.17299385 -0.15707755 1.4883293 0.0901157 -0.0041498737
-0.031848077 0.14576428 0.0022335923 0.070646815 -0.028729461 0.12792027 -0.17527986 -0.08861035
0.08663974 0.067010194 0.14928092 0.1532759 -0.08034518 -0.13573003 0.16715519 -0.21077935
-0.17555743 -0.13323314 0.048946254 -0.0247507 -0.09750506 -0.0485403 0.08907059 0.20491214
-0.16553028 0.5158135 -0.5897193 -0.016448617 0.33584476 -0.40981397 -1.4335067 -1.1042037
-0.021519748 -0.15637664 0.086752184 -1.183846 0.073283225 0.038513415 0.015952265 -0.13287914
-0.014881833 -0.20026113 0.06876971 0.021694638 -0.2756933 0.011889106 0.00021727312 0.19733956
-0.07758256 -1.325105 -1.1517711 0.03194957 0.09720944 -0.00075959734 1.0561355 -0.011690746
-0.0033390815 0.008866132 -0.0066186325 0.009784382 0.00044844495 -0.00932451 -0.00018753202 0.113489695
0.013831234 -0.00078685425 0.68878186 3.431026 0.5205807 0.3079102 -0.07849474 0.10600055
00000000: a8c3 26bd dcfc 39be d89d a83c 4059 5bbb
00000010: 3372 553e 19d9 213e eced 9fbd e609 41be
00000020: b1c5 2f3e 0f14 4d3e 2462 163d 3bb2 3b3e
00000030: 7575 393e 42c2 a53d 5234 d63d cffa ddbd
00000040: 1113 3a3e d65e 9fbd b1f1 13be 4c38 763f
00000050: 2db7 883d 0980 883a 928b ef3e 2d8c b5bc
00000060: 7093 283f 20a6 4b3f 04d1 61bd 8ece 83bd
00000070: d513 00bd 8b9d 88be 17cf 833d ff3d 023d
00000080: e9a6 bd3b 1708 53bd 4498 fdbb 7ee3 3b3d
00000090: d295 a73c 642b d83b 5041 85bc 14a0 13bd
000000a0: d253 18be a853 1abe 3606 9abd 34ce 5a3d
000000b0: 0ab2 66be ce96 ff3d 9055 30bd c420 4f3d
000000c0: a687 e7bd 7fe9 4a3e 1860 f73c 7c9c f6bd
000000d0: 76a3 25be 1cdd 62bd 1df0 4a3e f3fd 46be
000000e0: 80b4 5dbb 2376 6f3e 4278 d5bc 8427 18be
000000f0: e87d 293e ecc8 9b3e 9319 27bf fd15 21bf
00000100: 7fd6 053e 175f 31be 9523 7ebd 5a32 8e3e
00000110: 859f 0d3e 6757 08be 2aab 5e3c e23a 533c
00000120: 4797 0a3c 7b97 873d e5a9 dcbe 7fcb ea3c
00000130: 13ba 9b3d 2279 98bd 4d04 cdb9 0373 3f3e
00000140: c27b 4440 d12c 623c 793b 3ebd bc7f 563d
00000150: 5fed 12be c9de e0bc b204 2b3f fed8 d33d
00000160: 96a1 b1bd 3a2c 663b ff7e 663c 657d a03b
00000170: 825f 3ebe 986c a83d 0711 73ba e5f5 453e
00000180: 04d6 1fbd 3b5b 38be 1d20 433e 1d5d 33be
00000190: 0463 4fbd 2867 e43c c827 10be 3425 dfbd
000001a0: 0bd5 243e 2405 b7bd 20ba 5fbe ec90 5c3d
000001b0: 3c0c acbd e619 d2bd 36b6 43be 7b33 623e
000001c0: 1ba1 083e 1764 233e 2d00 0a3e b519 653e
000001d0: 6253 96bd 61a6 4fbe 9c0b 76bd 87cf 683e
000001e0: 41ce 103e 0ab3 aabd e37a 213e 68e2 6abe
000001f0: ee5e 813d bdb3 323e 5f7b 5ebe 8c82 80bd
00000200: 633c 0a3e e127 2cbe be10 b9bd 86eb ce3d
00000210: 44ac 073d cc75 d1bd 7447 c3bd a781 693e
00000220: c04d 2f3b aca9 04be 6a29 973d 21a8 4dbe
00000230: eb8c 1c3e e428 0f3d ef80 033e 2aeb 8abd
00000240: b845 2abe c275 b4bd 7e2d ccbd f4db 423d
00000250: fc51 61be c342 3a3e 6277 9dbd 36ce dd3d
00000260: 2057 88bf dbc8 1a3c 3e49 c4b9 230b 7abf
00000270: 142d 2240 707b 2fbf ed7e a3be 7c9f 3abd
00000280: fd25 febd ec32 283c 5f81 9f3f 988c 963d
00000290: 1882 07bc 5b06 173c 8e56 c93b e12f ee3b
000002a0: 5714 973a 02a3 1f3a 6a64 143b df3c ad3d
000002b0: 7691 3bbe e7df 0bbc 70d8 a73d b3db 3c3f
000002c0: 53be febb 1afe 173e 8c7a 8b3e 4d25 31be
000002d0: f0d8 20be 9381 be3f 958e b83d aafb 87bb
000002e0: 2173 02bd 3b43 153e 7661 123b 47af 903d
000002f0: 0c5a ebbc 88fd 023e 907c 33be 5879 b5bd
00000300: 2d70 b13d a43c 893d 19dd 183e 5cf4 1c3e
00000310: 048c a4bd d0fc 0abe bb2a 2b3e 8bd6 57be
00000320: 54c5 33be 456e 08be de7b 483d fbc1 cabc
00000330: bcb0 c7bd 32d2 46bd a46a b63d 7dd4 513e
00000340: c580 29be 5b0c 043f d8f7 16bf 40bf 86bc
00000350: d8f3 ab3e 23d3 d1be 267d b7bf 8c56 8dbf
00000360: 2f4a b0bc 3321 20be 21ab b13d 4488 97bf
00000370: 8415 963d 3ec0 1d3d 53ae 823c 7811 08be
00000380: efd2 73bc 4111 4dbe 22d7 8c3d f4b8 b13c
00000390: ac27 8dbe 86ca 423c cfd3 6339 6213 4a3e
000003a0: 9be3 9ebd 0a9d a9bf 3c6d 93bf 8ddd 023d
000003b0: be15 c73d b71f 47ba 732f 873f 8b8a 3fbc
000003c0: 7ed4 5abb 4143 113c 1de1 d8bb ac4e 203c
000003d0: 431d eb39 d4c5 18bc 3ea4 44b9 496d e83d
000003e0: 669c 623c e544 4eba 0254 303f ee95 5b40
000003f0: c744 053f 68a6 9d3e dac1 a0bd d116 d93d

layers.0.bias f4 [64]
-0.03573203 0.08495476 0.047434017 -0.04433271 -0.11583264 0.116537556 0.18390475 0.075595185
0.100436926 -0.17731495 -0.11765423 -0.31531355 -0.012532394 -0.060840197 -0.3636809 0.19788547
0.17704584 0.130087 -0.05370417 -0.18310662 0.2246037 0.050418288 -0.29857764 0.17221889
-0.08449857 0.21501692 0.11638306 -0.16080828 -0.08530354 -0.29877526 0.19892259 -0.027652515
0.21513896 0.022590026 0.083231464 -0.0029286603 -0.03533504 -0.104021676 -0.05298944 -0.19678321
-0.1330118 0.16167633 -0.102205776 -0.31007373 -0.18645649 -0.21454106 -0.04359747 -0.12516953
-0.04598552 -0.27945718 -0.3205247 0.071992874 -0.28526658 -0.14732581 -0.17730482 -0.11048785
0.16256239 0.16145162 -0.09337196 -0.27321133 0.050198812 0.19163226 -0.16456074 0.068738304
00000000: c05b 12bd c3fc ad3d 2c4a 423d 3796 35bd
00000010: aa39 edbd 3eab ee3d 8751 3c3e a6d1 9a3d
00000020: e0b1 cd3d 0d92 35be b3f4 f0bd c770 a1be
00000030: ac54 4dbc 9233 79bd 6234 babe 7da2 4a3e
00000040: 814b 353e 8735 053e e7f8 5bbd 4d80 3bbe
00000050: 83fe 653e 6883 4e3d 2bdf 98be 265a 303e
00000060: 960d adbd 652d 5c3e 3e5a ee3d edaa 24be
00000070: 9fb3 aebd 12f9 98be 5db2 4b3e 8787 e2bc
00000080: 634d 5c3e b80e b93c 4275 aa3d c4ee 3fbb
00000090: 7abb 10bd 5109 d5bd 740b 59bd 8a81 49be
000000a0: 3f34 08be 7b8e 253e 4351 d1bd fcc1 9ebe
000000b0: 73ee 3ebe a7b0 5bbe 4393 32bd 712c 00be
000000c0: 505b 3cbd 0315 8fbe d01b a4be 0071 933d
000000d0: 760e 92be 94dc 16be 658f 35be 7447 e2bd
000000e0: c176 263e 9353 253e cc39 bfbd 5be2 8bbe
000000f0: 459d 4d3d 3f3b 443e 9c82 28be abc6 8c3d

layers.3.weight f4 [32, 64]
0.0051994175 -0.29630798 -0.03261736 0.032691814 -0.19443707 0.08329089 0.06313062 0.10119061
0.26613694 -0.003887158 0.098083414 0.083945036 0.8497133 -0.27989826 0.106441505 0.01529786
0.078213125 0.08080733 0.06840169 -0.017953828 0.024074927 0.0058313785 0.3959891 0.3233668
-0.32532173 -0.07352722 -0.029343843 -0.26969 0.14616172 0.23300213 -0.10728656 0.017501842
-0.06917195 -0.023605973 0.008476593 -0.06505742 -0.079099335 -0.020009505 -0.06214066 0.112872705
0.022985632 -0.05671309 0.044704452 0.025493266 0.8441631 0.44147623 0.12720428 0.12153734
0.0633218 0.0053254506 0.014997324 0.38396147 -0.052122552 0.0033044526 -0.007932283 -0.03260803
0.10631052 0.056082606 -0.0030946524 0.038948037 -0.52800953 0.10556811 -0.032032922 0.022018056
0.04735166 -0.07108732 0.055061415 0.0151617965 -0.06527711 0.09413259 0.05380492 0.06639385
-0.65099627 0.12249724 0.03605862 0.07803651 -0.077881545 -0.45184982 0.06600249 -0.081569165
0.00338687 0.051303238 0.28568017 -0.08124322 0.115375906 -0.86351925 0.079606876 -1.0228803
-0.07532942 0.010116145 0.0055659264 -0.051659495 -0.20038204 0.052864417 0.11347455 0.012897726
0.087160066 -0.03505853 -0.0014693843 0.003611891 0.011297788 -0.4999268 0.010158002 -0.07801212
-0.17074914 0.043465108 -0.14170842 -0.13374077 -0.3233462 -0.11755906 -0.04081227 0.043626428
-0.107186094 -0.51279193 0.0713105 0.24599506 -0.0028975098 0.06457788 0.08769245 -0.024279248
0.17086957 0.025118977 0.09934262 -0.027041258 -0.007398225 0.029913217 -0.3744939 0.07679652
0.08970754 -0.1031118 -0.0875901 0.018825864 -0.10432019 -0.07038739 -0.009362221 0.06163414
0.5104416 0.104857944 0.04281014 0.054423008 1.1005188 -0.4472436 0.0749967 0.014317885
-0.046140254 0.0477549 0.2954404 0.097568944 -0.073986694 -0.010464515 0.27287546 0.1506369
-0.04948935 0.10990152 -0.10215512 -0.15599217 0.02466285 0.08887727 0.045450315 -0.028508049
-0.061305597 0.011265382 0.03893587 -0.0039682584 -0.030501287 -0.027603423 -0.103256136 -0.015723422
-0.0060334746 0.09755583 -0.055622276 -0.0103276055 0.9026905 0.3744815 0.08108157 0.26155612
0.020669773 -0.043633595 -0.060716193 0.40866572 -0.06816487 -0.020298896 -0.036945038 -0.017356
0.028759344 -0.09581807 0.15756078 0.061097942 -0.13912362 0.038284138 0.084291086 0.006390277
0.052003577 0.0807088 0.034939885 -0.09909482 0.047623683 -0.06480715 0.053600386 -0.08402628
0.29977763 -0.07081504 -0.0077355057 0.17046838 0.20221187 0.020939188 0.08511039 -0.047779694
0.0291024 0.019704059 0.54098064 -0.08701976 -0.04843414 0.039181665 0.65452504 0.1792857
-0.032830898 0.1131165 -0.10041286 0.045645133 -0.023691619 -0.4931165 -0.103413865 -0.059202965
-0.0519889 -0.031145379 0.01684798 0.04071187 -0.050074197 0.10252442 -0.12047109 0.10780169
0.302577 -0.063825294 0.009636918 -0.07756821 -0.02823681 -0.3517871 -0.042043492 -0.29414707
0.120870784 0.30069613 0.041536324 0.72686714 0.012669201 -0.060097158 -0.098324865 0.0034427838
0.010557474 -0.020354435 0.008715046 0.19600682 0.023885561 0.02985087 0.29559898 -0.059569888
00000000: e05f aa3b aeb5 97be c899 05bd dae7 053d
00000010: 831a 47be 6a94 aa3d a04a 813d 063d cf3d
00000020: 1a43 883e b0bf 7ebb f5df c83d 60eb ab3d
00000030: d086 593f d34e 8fbe 01fe d93d e0a3 7a3c
00000040: 342e a03d 507e a53d 2f16 8c3d e813 93bc
00000050: c838 c53c 2615 bf3b 15bf ca3e 5590 a53e
00000060: 9290 a6be 7095 96bd 8062 f0bc cf14 8abe
00000070: 6bab 153e 1c98 6e3e 0eb9 dbbd 0660 8f3c
00000080: 06aa 8dbd 5061 c1bc 68e1 0a3c d33c 85bd
00000090: d5fe a1bd f9ea a3bc 3487 7ebd ce29 e73d
000000a0: 5d4c bc3c fc4b 68bd 041c 373d 41d7 d03c
000000b0: 131b 583f 2c09 e23e d741 023e 92e8 f83d
000000c0: dcae 813d 1e81 ae3b 56b7 753c 9996 c43e
000000d0: 757e 55bd 848f 583b 68f6 01bc ff8f 05bd
000000e0: 54b9 d93d e0b6 653d a7cf 4abb fa87 1f3d
000000f0: a22b 07bf 1834 d83d f434 03bd 365f b43c
00000100: d0f3 413d 3b96 91bd 1488 613d 2f69 783c
00000110: 01b0 85bd 96c8 c03d 8c62 5c3d 80f9 873d
00000120: b1a7 26bf d5df fa3d 34b2 133d 9bd1 9f3d
00000130: 5c80 9fbd dc58 e7be 502c 873d bc0d a7bd
00000140: 40f6 5d3b 5823 523d ac44 923e d862 a6bd
00000150: 344a ec3d 990f 5dbf ee08 a33d beed 82bf
00000160: 5046 9abd 30be 253c 6062 b63b e898 53bd
00000170: f330 4dbe 5c88 583d 5865 e83d fc50 533c
00000180: fa80 b23d 8899 0fbd 5b98 c0ba 7ab5 6c3b
00000190: 5b1a 393c 68f6 ffbe c06d 263c d2c4 9fbd
000001a0: ddd8 2ebe 7808 323d 031c 11be 57f3 08be
000001b0: a28d a5be cec2 f0bd c42a 27bd a0b1 323d
000001c0: 6284 dbbd 5546 03bf 3d0b 923d 21e6 7b3e
000001d0: 26e4 3dbb 6841 843d 1998 b33d 46e5 c6bc
000001e0: 6ff8 2e3e 50c6 cd3c 2574 cb3d a185 ddbc
000001f0: cf6c f2bb 900c f53c aabd bfbe 7e47 9d3d
00000200: 96b8 b73d 482c d3bd 7062 b3bd b338 9a3c
00000210: d3a5 d5bd 4427 90bd 0064 19bc 1474 7c3d
00000220: 4dac 023f c3bf d63d af59 2f3d a9ea 5e3d
00000230: cddd 8c3f 1dfd e4be df97 993d 9095 6a3c
00000240: 90fd 3cbd a49a 433d f743 973e 3ad2 c73d
00000250: 5686 97bd 5b73 2bbc 55b6 8b3e 8f40 1a3e
00000260: 58b5 4abd 0c14 e13d b436 d1bd 69bc 1fbe
00000270: bf09 ca3c 4905 b63d 1c2a 3a3d b689 e9bc
00000280: 941b 7bbd 7092 383c 387b 1f3d 2a08 82bb
00000290: d6dd f9bc 9320 e2bc f477 d3bd 68ce 80bc
000002a0: 74b4 c5bb 5acb c73d 2fd4 63bd 1e35 29bc
000002b0: b916 673f 0abc bf3e 180e a63d afea 853e
000002c0: a853 a93c 24b9 32bd 8bb1 78bd a23c d13e
000002d0: 069a 8bbd df49 a6bc ae53 17bd 2c2e 8ebc
000002e0: b798 eb3c 443c c4bd 9d57 213e d641 7a3d
000002f0: 6c76 0ebe d4cf 1c3d cea0 ac3d 8765 d13b
00000300: b401 553d a84a a53d 201d 0f3d 3af2 cabd
00000310: 0d11 433d 9cb9 84bd 148c 5b3d f815 acbd
00000320: 747c 993e 7a07 91bd 207a fdbb 438f 2e3e
00000330: a110 4f3e a988 ab3c 5b4e ae3d a4b4 43bd
00000340: 2868 ee3c 686a a13c b57d 0a3f 6a37 b2bd
00000350: e062 46bd f47c 203d f48e 273f ac96 373e
00000360: b179 06bd a0a9 e73d 42a5 cdbd 64f6 3a3d
00000370: ed14 c2bc c479 fcbe a6ca d3bd cf7e 72bd
00000380: 50f2 54bd 9824 ffbc c604 8a3c 7dc1 263d
00000390: 9a1a 4dbd 53f8 d13d 8cb9 f6bd 22c7 dc3d
000003a0: 5feb 9a3e d6b6 82bd 2ae4 1d3c 15dc 9ebd
000003b0: e250 e7bc 701d b4be cc35 2cbd 729a 96be
000003c0: 1a8b f73d d8f4 993e fe21 2a3d f713 3a3f
000003d0: 7b92 4f3c 7028 76bd 8c5e c9bd 54a0 613b
000003e0: 41f9 2c3c 58be a6bc 8dc9 0e3c 03b6 483e
000003f0: a7ab c33c d089 f43c c058 973e 8eff 73bd

layers.3.bias f4 [32]
-0.22958814 0.18425077 -0.29327455 -0.38377634 -0.11647027 0.11661605 0.32507452 -0.2754204
-0.14575855 -0.12525736 0.23289047 0.2724832 0.28309622 0.11074398 -0.25990066 0.15248159
0.08457853 -0.085569315 0.40696564 0.013283118 0.10960266 0.25438762 -0.07348084 0.024938902
0.020286394 -0.22828205 0.26942685 0.03193606 0.047281835 -0.21961734 -0.3385928 0.00077015354
00000000: 2719 6bbe 3cac 3c3e 1528 96be 557e c4be
00000010: f787 eebd 65d4 ee3d 2b70 a63e e703 8dbe
00000020: bb41 15be 7743 00be d77a 6e3e eb82 8b3e
00000030: fdf1 903e bdcd e23d b311 85be 2224 1c3e
00000040: 8237 ad3d f73e afbd cd5d d03e 6fa1 593c
00000050: 5c77 e03d 183f 823e 1f7d 96bd ab4c cc3c
00000060: a72f a63c c5c2 69be 51f2 893e 63cf 023d
00000070: 99aa 413d 5ee3 60be 095c adbe 21e4 493a

layers.6.weight f4 [16, 32]
0.33937076 0.07595372 0.33894777 0.12498889 0.30760968 0.06332427 0.057699405 0.59955907
0.29465687 0.47483826 0.31324694 0.6477479 0.023555454 0.08932767 0.53231126 0.73343486
0.036246087 0.27950943 0.19969323 0.17604963 0.28383142 0.04131118 0.18809529 0.38934222
0.2049461 0.33921385 0.12115026 0.18723547 0.2269706 0.48047006 0.034345515 0.14218867
-0.5233003 0.35995984 -0.5720605 0.23635836 -0.16135044 -0.06302371 -0.1715683 0.012345824
-0.028006872 -0.26350957 -0.15031515 -0.1839754 0.19777657 -0.2691592 -0.46055484 -0.26753187
-0.64986444 -0.11894848 0.41966143 -0.9208454 -0.32011262 0.3924004 -0.74019426 -0.6570325
-0.27409917 -0.13915063 0.46339715 0.13603227 -0.24869533 -0.44576764 -0.58222884 -0.5025547
-0.59239566 0.29462266 -0.44932836 -0.0005003629 -0.28030905 -0.21855111 -0.12523212 -0.1749648
-0.32489544 -0.18477081 -0.3619971 -0.15587988 0.15887135 -0.2887546 -0.5049978 -0.25847858
-0.72553897 -0.19863126 0.33120286 -0.8847477 -0.41390917 0.4293444 -0.68276733 -0.52701426
-0.4382213 -0.17869098 0.42416605 0.4451731 -0.3189622 -0.38594288 -0.69430953 -0.34516037
-0.6628178 0.23022231 -0.5496478 -0.021241145 -0.4965805 -0.26490062 -0.29377028 -0.24394675
-0.30078438 -0.3862509 -0.2833963 -0.102586284 0.25116986 -0.39971042 -0.5895569 -0.24860542
-0.7155261 -0.2693887 0.37270695 -0.9746409 -0.33051094 0.30362874 -0.75163823 -0.4669781
-0.31649658 -0.4242533 0.48130515 0.38400277 -0.37207735 -0.45642102 -0.8981502 -0.59023154
0.4618251 -0.15185887 0.40886933 -0.21262285 0.3738211 0.07820084 0.46677715 0.6783286
0.4738656 0.21286027 0.0009387797 0.5298429 -0.12987478 0.2716924 0.5576966 0.8941453
0.15292192 0.31767142 0.13409199 0.31926522 -0.023137894 0.013023217 0.1369214 0.42034218
0.05303557 0.13854328 -0.07305086 -0.40394607 0.13555196 0.34091663 0.12866437 0.28348246
0.047619957 -0.7479303 -0.1736757 -0.113467515 -0.016430896 -0.13991475 -0.033199288 -0.15139043
-0.12523915 -0.024790486 -0.077233665 0.12260301 -0.13455646 0.09114878 -0.17621934 0.076942
0.111171246 -0.14094664 -0.07665592 -0.00022119225 0.22909656 -0.11997119 0.21876968 -0.0954633
-0.27964172 -0.10208877 -0.2256315 -0.36773753 0.07870963 -0.31811813 0.27583206 0.3131149
-0.6318795 0.31326127 -0.6893396 -0.08231637 -0.37039015 -0.5257708 -0.20539889 -0.36152124
-0.14192893 -0.34668845 -0.41858032 -0.03344746 0.12815742 -0.24586484 -0.8561132 -0.14172952
-0.8941861 -0.307873 0.25472116 -0.88193387 -0.2633811 0.24719092 -0.8003364 -0.68126035
-0.78836286 -0.30774164 0.53044266 0.24214421 -0.79162455 -0.30753493 -0.75832754 -0.4457399
0.047922235 -0.9085906 0.0053733652 -0.21978505 -0.0022039283 0.007954255 0.39337042 -0.006228647
0.33573863 0.11901746 0.055516586 0.26405922 -1.0317787 0.21323313 -0.22335683 0.6757658
0.20513715 -0.28923875 0.33909848 0.24528107 0.27652633 -0.2392146 0.26998433 0.30363604
-0.101644106 -0.053687166 -0.20774034 -0.38018408 -0.21478225 -0.25296864 -0.11888106 0.13889931
00000000: 01c2 ad3e a08d 9b3d 908a ad3e 2dfa ff3d
00000010: 047f 9d3e 28b0 813d 3656 6c3d b47c 193f
00000020: 44dd 963e 001e f33e e761 a03e ced2 253f
00000030: 5ef7 c03c 6df1 b63d 8d45 083f 63c2 3b3f
00000040: c776 143d dc1b 8f3e 627c 4c3e 5b46 343e
00000050: 5a52 913e e935 293d 0d9c 403e dd57 c73e
00000060: 64dd 513e 70ad ad3e a11d f83d a8ba 3f3e
00000070: fb6a 683e 2c00 f63e e2ad 0c3d e899 113e
00000080: 02f7 05bf a84c b83e 8f72 12bf ed07 723e
00000090: 0d39 25be 9312 81bd 9aaf 2fbe 2446 4a3c
000000a0: ab6e e5bc baea 86be 37ec 19be 0c64 3cbe
000000b0: f185 4a3e 3ccf 89be d8cd ebbe f0f9 88be
000000c0: 845d 26bf 439b f3bd dddd d63e 86bc 6bbf
000000d0: cde5 a3be b5e8 c83e 5f7d 3dbf 4833 28bf
000000e0: ba56 8cbe 817d 0ebe 6442 ed3e 0b4c 0b3e
000000f0: fda9 7ebe a83b e4be f30c 15bf 6da7 00bf
00000100: 3ea7 17bf c8d8 963e 5e0e e6be c92a 03ba
00000110: ab84 8fbe ddcb 5fbe d93c 00be f929 33be
00000120: b258 a6be 8f34 3dbe af57 b9be fa9e 1fbe
00000130: 2caf 223e a5d7 93be 8947 01bf 4e57 84be
00000140: ecbc 39bf fe65 4bbe 6c93 a93e d37e 62bf
00000150: e7eb d3be 07d3 db3e d7c9 2ebf 68ea 06bf
00000160: 8b5e e0be c5fa 36be 4b2c d93e bbed e33e
00000170: 034f a3be 4e9a c5be 45be 31bf dcb8 b0be
00000180: 6dae 29bf 66bf 6b3e b8b5 0cbf e901 aebc
00000190: cd3f febe 0ea1 87be 0f69 96be 2dcd 79be
000001a0: 6900 9abe aec2 c5be 5219 91be c218 d2bd
000001b0: 5699 803e d8a6 ccbe 33ed 16bf 6b92 7ebe
000001c0: b82c 37bf 51ed 89be 72d3 be3e 1182 79bf
000001d0: bb38 a9be 3a75 9b3e 5d6b 40bf c117 efbe
000001e0: d70b a2be bb37 d9be a16d f63e 039c c43e
000001f0: ec80 bebe 04b0 e9be 2ced 65bf 6a19 17bf
00000200: 5774 ec3e e480 1bbe 5257 d13e ceb9 59be
00000210: 7b65 bf3e c327 a03d 6afd ee3e f1a6 2d3f
00000220: 839e f23e 0bf8 593e 7018 763a c9a3 073f
00000230: e5fd 04be 441b 8b3e 34c5 0e3f b5e6 643f
00000240: 9097 1c3e d4a5 a23e 694f 093e bb76 a33e
00000250: ae8b bdbc 555f 553c 2035 0c3e 1737 d73e
00000260: d33b 593d 4ade 0d3e b09b 95bd 05d2 cebe
00000270: 22ce 0a3e a08c ae3e 98c0 033e 9d24 913e
00000280: 250d 433d 5c78 3fbf 0bd8 31be a861 e8bd
00000290: 169a 86bc d045 0fbe fafb 07bd 1806 1bbe
000002a0: b13e 00be 6b15 cbbc af2c 9ebd 4917 fb3d
000002b0: 2bc9 09be 36ac ba3d d872 34be c493 9d3d
000002c0: c0ad e33d 5154 10be c7fd 9cbd d8ef 67b9
000002d0: 4a98 6a3e 75b3 f5bd 2905 603e 4382 c3bd
000002e0: 332d 8fbe eb13 d1bd f20b 67be 1848 bcbe
000002f0: 8432 a13d 61e0 a2be dc39 8d3e 9950 a03e
00000300: dbc2 21bf c863 a03e 8f78 30bf 7c95 a8bd
00000310: c7a3 bdbe ea98 06bf 1654 52be 5019 b9be
00000320: d155 11be 2681 b1be 2950 d6be 3400 09bd
00000330: b33b 033e fec3 7bbe 3c2a 5bbf 8b21 11be
00000340: 61e9 64bf 88a1 9dbe d06a 823e 6bc6 61bf
00000350: e3d9 86be 9e1f 7d3e d9e2 4cbf 1467 2ebf
00000360: 26d2 49bf 5090 9dbe 17cb 073f a7f4 773e
00000370: e8a7 4abf 3875 9dbe c121 42bf 0538 e4be
00000380: 1b4a 443d 6599 68bf 0e13 b03b 550f 61be
00000390: c86f 10bb 9052 023c d967 c93e ae19 ccbb
000003a0: efe5 ab3e 6dbf f33d 5c65 633d c532 873e
000003b0: 5311 84bf c959 5a3e a7b7 64be fdfe 2c3f
000003c0: 790f 523e 1a17 94be 519e ad3e f62a 7b3e
000003d0: dc94 8d3e acf4 74be 633b 8a3e 2f76 9b3e
000003e0: c92a d0bd 13e7 5bbd e2b9 54be 7da7 c2be
000003f0: e1ef 5bbe 1b85 81be ea77 f3bd 9f3b 0e3e

layers.6.bias f4 [16]
-0.19621617 0.33754146 0.35225326 0.34143424 0.06319891 -0.42746457 0.37507695 0.21850538
0.049186684 0.09900956 0.009619793 0.21794488 0.1501842 0.09587522 0.12562346 -0.15073434
00000000: e4ec 48be 3cd2 ac3e 8a5a b43e 78d0 ae3e
00000010: 6e6e 813d a3dc dabe 160a c03e e0bf 5f3e
00000020: fa77 493d 86c5 ca3d 569c 1d3c f12c 5f3e
00000030: e3c9 193e 3a5a c43d 70a3 003e 1a5a 1abe

layers.9.weight f4 [1, 16]
-0.55345833 0.7153442 0.9548196 1.0940877 -0.5652788 0.34442082 1.281512 -0.8089839
-0.58861226 -0.5196048 -0.60143757 1.515098 -0.96706337 -0.61316425 -0.64634424 0.3001953
00000000: 72af 0dbf cc20 373f 0f6f 743f 110b 8c3f
00000010: 1db6 10bf ed57 b03e 9608 a43f 9219 4fbf
00000020: 4baf 16bf d204 05bf d0f7 19bf bbee c13f
00000030: 7791 77bf 55f8 1cbf d176 25bf 33b3 993e
