models/Mean/antipion_2.pt (torch, 18925 bytes, 7 tensors)

layers.0.weight f4 [64, 19]
000000 94 64 34 3f a2 7b a7 3a eb f1 8d ba f0 6a de 3d
       0.7046597 0.0012777934 -0.0010829543 0.108602405
000010 c1 fe c6 bd 53 86 5d be 53 f0 10 bf 04 af ac bc
       -0.09716559 -0.21633272 -0.56616706 -0.021079548
000020 6d 7c 21 bc 55 5f 9a 3b 1f 98 4b 3f 56 e1 59 3c
       -0.009856326 0.0047110715 0.79528993 0.013298353
000030 da 2d ea 3c 41 b1 05 3c cc 49 fc bb a9 88 0a 3c
       0.028586317 0.008159936 -0.007699227 0.008455434
000040 7b 6d 2c bd be 98 39 be 9e b4 52 bb 78 2c 62 bf
       -0.042096596 -0.18124673 -0.0032151113 -0.88349104
000050 be 79 3e be 9d 63 2e bb 91 13 90 be e5 fd 06 be
       -0.18601128 -0.0026609667 -0.28139928 -0.1318279
000060 37 98 8d bf 58 a7 67 bf d6 23 e5 3c e1 42 a0 bc
       -1.1062077 -0.9048972 0.02797119 -0.01956314
000070 21 b5 fd 3c 6b 0a f1 be 8d 94 9d 3c 22 d9 dd bc
       0.030970158 -0.4707826 0.019235874 -0.027081076
000080 2c 84 99 bb 3b 1b 32 bc e3 02 62 3b fd 71 9f bb
       -0.0046849456 -0.01087075 0.0034486584 -0.0048658834
000090 9f bc 2e 3d fb 65 06 bb b6 48 2f bd 5f 6b d5 bd
       0.04266035 -0.0020507562 -0.042793952 -0.1042087
0000a0 3a 7b 43 bc 89 db 91 be f6 d6 5b bc f7 c3 fc bf
       -0.011931235 -0.28487805 -0.01341795 -1.9747304
0000b0 0f cb c8 bf 4c 50 07 be 3f f4 01 3e 40 47 93 3b
       -1.5686969 -0.13214225 0.12690829 0.0044945776
0000c0 61 3a 65 be e5 2f 04 bc 25 23 81 3c 88 87 b4 ba
       -0.22385551 -0.00806806 0.015763829 -0.0013773302
0000d0 62 4c a1 bb 60 df 7b 3b 21 40 41 3c 79 47 99 3b
       -0.0049224356 0.0038432702 0.011795075 0.0046777097
0000e0 b1 ce e4 b9 54 a7 0f be 4c 5c 41 3d 47 c9 2f 3e
       -0.00043641546 -0.14028674 0.04720716 0.17166625
0000f0 e4 df f3 bd 5c 2e 7c 3d 08 d3 44 bd 20 c2 a5 bd
       -0.11907938 0.06156765 -0.048052818 -0.08093667
000100 70 49 05 3c f0 20 66 3c 70 83 1a bd 8c 88 7b 3d
       0.008135185 0.014045939 -0.037723005 0.061409518
000110 68 8a b7 bc 2e b5 fe 3d 60 54 f6 3b 0e a6 ee bd
       -0.022404864 0.12436901 0.0075173825 -0.11652766
000120 32 14 36 be ae a5 09 be c3 62 39 3e d0 29 88 bc
       -0.17781141 -0.13442108 0.18104081 -0.0166215
000130 98 10 8e bc e2 df f4 3d cb c3 4e 3e e6 57 bf bd
       -0.017341897 0.11956765 0.20191877 -0.09342937
000140 07 b9 61 3e 45 51 5e be 1d 52 56 3e 9d 1d 15 3e
       0.22043239 -0.2171069 0.20929761 0.14562078
000150 55 5a 10 3e da 19 d9 3d 63 04 68 be 4e 8e 93 bd
       0.14096959 0.10600634 -0.22657923 -0.07204877
000160 f8 9b b6 bd cc 75 64 be 87 62 5f 3e 74 03 28 be
       -0.089164674 -0.22310561 0.21814929 -0.16407567
000170 94 5e 2d 3d 4f 2f 25 3e 5e 64 ed 3d 36 da fa 3d
       0.042326525 0.16131328 0.11591409 0.12248652
000180 70 59 50 bd 80 d7 6d bb 27 5c 20 be a8 31 2c bd
       -0.050866544 -0.0036291778 -0.15660153 -0.042039543
000190 0b e2 2f be 3f 3d 35 be 68 e7 83 bc 5c 16 bf bd
       -0.17176072 -0.17699145 -0.016101554 -0.093304366
0001a0 1e 28 42 be ea 92 ea 3d 3a bf d3 3d bc ba 76 bd
       -0.18960616 0.11453803 0.10339208 -0.060236678
0001b0 80 3b ad bc 7a f9 e9 3d fa 3b 54 be 42 f9 17 be
       -0.021146536 0.11424537 -0.20726004 -0.14841178
0001c0 fc 52 8f bd 64 80 55 3d 40 7f d1 bd 36 02 c9 3d
       -0.0699825 0.052124396 -0.10229349 0.09814875
0001d0 8d 9b 02 be c8 1c 26 be fa 6a cd 3d c2 de cd bd
       -0.1275465 -0.16221917 0.1003017 -0.10052253
0001e0 36 a6 5a be 30 35 95 bd 66 35 a7 3d 72 2f b8 3d
       -0.21352467 -0.07285535 0.08164482 0.089934245
0001f0 76 dd 41 be 95 56 52 3e 66 cf d0 3d e8 9b 98 bd
       -0.18932137 0.20540841 0.10195808 -0.07451612
000200 c4 0a 0a 3d e9 b0 62 be 0a 52 50 be f9 a3 63 3e
       0.033701673 -0.22137798 -0.20343795 0.2223052
000210 ac a6 6d 3d 33 2c 51 be c8 75 be be da ab 62 3c
       0.05802028 -0.20427017 -0.37199235 0.013834918
000220 be b9 c7 3d 8e 4c 3c 3e 19 61 e2 bf 1c 25 de bf
       0.097522244 0.18388578 -1.7685882 -1.7355075
000230 d4 c1 b4 bd 43 c5 1a be 9b 1b 39 bc aa a8 a0 be
       -0.08826032 -0.15114312 -0.011298086 -0.3137868
000240 cd a6 d2 3c aa 67 dd 3b dd a1 1b bb 82 26 3f bb
       0.025714302 0.0067567425 -0.00237476 -0.002916724
000250 9a 23 a0 3a 31 36 f8 3b a1 3d c1 3b 88 75 64 ba
       0.0012217641 0.0075748195 0.0058972393 -0.0008715023
000260 c2 98 98 be b7 e1 0f be d3 a6 e7 bb 0e 58 82 3c
       -0.29804045 -0.14050947 -0.0070694475 0.015911128
000270 31 de 31 be 03 a3 c7 bf 2a 61 b5 bf 9a d8 03 be
       -0.17369916 -1.5596622 -1.4170277 -0.12875596
000280 97 26 c1 bd 96 3e 75 bd a7 ef 4b bf a5 21 54 bb
       -0.094311886 -0.05987414 -0.79662555 -0.0032368687
000290 f2 56 0b bc 27 8d 59 bb ea 16 f3 bb f3 79 77 bb
       -0.008504616 -0.0033195706 -0.007418503 -0.0037761896
0002a0 8e e8 93 3c 12 d7 2b 3d 6c f0 25 3d 4c 40 6f 3d
       0.018055227 0.041953154 0.040512487 0.058410928
0002b0 29 4b e2 bd c4 f3 e2 ba 65 63 76 3e bd 1d 4d bf
       -0.11049492 -0.001731508 0.24061354 -0.801235
0002c0 73 5b ca 3e 77 57 62 3e a1 69 8e 3d 7d 6c b0 3c
       0.39522895 0.22103678 0.06953741 0.021536106
0002d0 34 50 40 3c d8 18 5e bf 57 a3 d3 bd 0f 22 a7 bd
       0.011737872 -0.8675666 -0.10333889 -0.08160793
0002e0 e5 8c 95 3d 59 f0 9f 3d ae 43 25 bc 92 92 ce bc
       0.07302264 0.078095146 -0.010086937 -0.025216375
0002f0 b1 29 a9 be 47 2d 11 3f ab e0 64 bf 7f ab d7 be
       -0.3303962 0.5670971 -0.89405316 -0.4212303
000300 14 cd ab 3b d5 e3 42 be ce 04 67 bf 2e 0e a0 3e
       0.005242953 -0.19032224 -0.90241706 0.31260818
000310 5c 9b ff 3d 6f e9 2c bc 25 a1 b5 3d 34 ac d0 bb
       0.12480804 -0.010553702 0.088686265 -0.0063681845
000320 f7 41 58 3e df 43 a6 bc f9 a1 50 bc 7f 02 38 bc
       0.21118914 -0.020296035 -0.01273393 -0.011231064
000330 de fd 03 bd 3a 34 e1 3a c6 27 bf 3d 32 a2 dd 3d
       -0.03222453 0.0017181702 0.09333758 0.10821952
000340 2f 49 25 bc 88 6e 17 be 31 83 0a 3e 0e 03 21 be
       -0.010088249 -0.14788258 0.13526608 -0.15723822
000350 84 75 58 3d 90 ca 83 3c cb 30 2a 3e a0 c0 1d bd
       0.052846447 0.0160878 0.16620176 -0.03851378
000360 50 3c e9 bd a1 bb 68 3e a5 90 27 3e 4d a3 63 3e
       -0.11388457 0.22727825 0.16363771 0.22230263
000370 a6 71 a6 3d 32 b9 c3 bd d0 c4 20 bd f3 14 2a 3e
       0.081271455 -0.095568076 -0.039250195 0.16609554
000380 62 b3 e4 bd 28 c4 94 bd 00 8b 66 ba b4 1d 34 3d
       -0.11167027 -0.07263976 -0.00087945163 0.04397364
000390 4d a4 0d 3e 48 39 7a be 9f 26 ac bd 66 f0 8d be
       0.13832207 -0.24435914 -0.08405804 -0.27722472
0003a0 fb 01 87 bd c4 3c 14 bf ae 3e 0b bf 9b ee ff bd
       -0.065921746 -0.5790522 -0.54392517 -0.12496682
0003b0 2b 6e 43 bc 9d 21 cc bd 7b 38 2a 3f e0 2a f6 3d
       -0.011928122 -0.09967349 0.6649243 0.120198965
0003c0 8b fb 9f 3d db 6b 1a 3c 7a 8e 08 be 97 7b cf 3b
       0.0781165 0.009425129 -0.133356 0.0063318717
0003d0 7a e5 fe bc 3f 7f 3a be ee d8 7e 3d 37 73 3a c0
       -0.031115282 -0.18212603 0.0622186 -2.9132822
0003e0 9d fb dd 3c c1 d4 64 bb f4 8c d6 3c 9e ac 0f bd
       0.027097518 -0.003491685 0.026190259 -0.03507673
0003f0 0f d2 47 3e 7e be c8 bd 1e f7 50 3c 78 5b 0d bc
       0.19513725 -0.098019585 0.01275423 -0.008627765

layers.0.bias f4 [64]
000000 81 5c 51 3d a3 7c 0c 3d ea a1 7c bd 82 47 c4 3d
       0.05111361 0.03429855 -0.06167785 0.095839515
000010 38 24 f1 3c 31 75 16 3e 50 b6 15 be eb 1b 3d be
       0.029436216 0.14693142 -0.14620328 -0.18467681
000020 4d 16 78 bc 33 9f a8 be b2 0b 02 be a4 1c 70 bd
       -0.015142036 -0.3293396 -0.12699774 -0.058621064
000030 44 6e dc be 09 7c 04 3d 0f dc 60 3e 69 60 19 3e
       -0.43052876 0.03234485 0.21958946 0.14978184
000040 b0 30 34 bd f5 4d 1b 3e 2b 77 02 3e ad 64 20 3e
       -0.043991745 0.15166457 0.12740771 0.15663405
000050 76 16 63 3e ac 7d 02 3d 27 66 87 3c 60 63 39 be
       0.22176537 0.03185813 0.016528202 -0.18104315
000060 6d eb f1 bd cb 31 45 bc 4d 97 33 3e 4e 5f 78 be
       -0.11812482 -0.012035797 0.17538185 -0.24255106
000070 d8 b5 35 be 86 1b 3e be 9f 4c a5 be a5 71 31 3e
       -0.17745149 -0.18565187 -0.3228502 0.17328508
000080 2a ca a7 3d 4b ee 37 3e 3c f7 67 3e 32 11 82 3d
       0.081928566 0.17961995 0.22652906 0.06350936
000090 74 23 c7 3a 0d c4 cf 3d c6 09 45 be 00 7d 1c bd
       0.0015193061 0.101448156 -0.1924201 -0.038205147
0000a0 b0 d0 05 bc af c8 3f 3e 0f 53 a6 be 77 86 2a be
       -0.008167431 0.18728898 -0.32485244 -0.16652857
0000b0 a9 27 30 3e 29 a2 5e be 4f 89 0e 3e a3 75 9e be
       0.17202629 -0.21741547 0.13919567 -0.30949125
0000c0 f9 17 e2 bd 26 c8 57 be 1a 18 da bd e5 b5 53 3d
       -0.11039729 -0.21072444 -0.10649128 0.05168714
0000d0 69 49 06 be a7 3d 28 3e 9a 4f 89 3d b9 0c 58 be
       -0.13113941 0.16429769 0.06704636 -0.21098603
0000e0 e0 da 51 be 11 42 a1 be 8c e6 cd bd 43 d7 10 3e
       -0.2049365 -0.31495717 -0.10053739 0.14144616
0000f0 5c 78 c2 bd 99 c4 37 be 89 2a 26 be 76 80 6e be
       -0.09495613 -0.1794609 -0.16227163 -0.23291191

layers.3.weight f4 [32, 64]
000000 a9 97 50 bc fa e1 b9 3e e8 86 a1 bf d0 14 65 bd
       -0.012731471 0.3630522 -1.2619295 -0.05592805
000010 66 24 e1 bd 18 3c b9 3c 60 f6 b8 3c 43 e2 ff be
       -0.109932706 0.022611663 0.022578418 -0.49977311
000020 57 4c 33 be 72 8e ac bd 0e f1 e9 bc 68 38 d5 3d
       -0.1750959 -0.08425607 -0.028557327 0.10411149
000030 8e 5a d3 3a 54 35 f5 bd a8 ba fb 3d 37 cb af bd
       0.001612501 -0.11973062 0.12291461 -0.08583682
000040 56 9a ac 3c 4d d8 35 bf e0 ec 1d bd 08 ed 98 3c
       0.021069687 -0.71033174 -0.03855598 0.018667713
000050 fa 5b e1 3d 50 52 4c 3d 72 44 fd 3d b4 57 82 bd
       0.11003871 0.049883187 0.123665705 -0.06364384
000060 bd 0a b5 3d f4 f7 84 3e 5a e6 57 bf 1e b9 e9 be
       0.08839939 0.25970423 -0.84335864 -0.45649046
000070 9b c2 60 3d 06 73 c9 3d 83 7d bf 3d 78 91 fa 3d
       0.05487309 0.09836392 0.09350111 0.12234777
000080 aa 2c ef 3d 83 69 3d bd 1c bd f3 3e e6 32 c2 3d
       0.11678441 -0.046243202 0.47605217 0.09482364
000090 0f 42 e7 be d0 42 96 3c d4 67 94 3d 30 54 f1 bd
       -0.45167586 0.018342406 0.07246366 -0.117836356
0000a0 2a 43 cb 3d fa f9 bf bd 42 c5 03 bc 60 f4 8c 3c
       0.0992492 -0.09373851 -0.008042635 0.01720637
0000b0 50 53 9f bd 04 9d e2 3d 81 6d cb bd af d3 91 be
       -0.077795625 0.110651046 -0.099329956 -0.28481814
0000c0 b2 77 ed bc d2 9e 58 bc 63 99 a4 be dc 56 5a be
       -0.02898774 -0.013221459 -0.32148275 -0.21322197
0000d0 20 65 f7 3b b6 91 fa bd 40 64 20 bc aa cf da bd
       0.007549897 -0.122348234 -0.009789526 -0.1068414
0000e0 fc 31 f4 bd 84 b1 50 bd bc 04 ee bd 98 7e 99 bc
       -0.11923596 -0.050950542 -0.11621997 -0.018737122
0000f0 d9 09 52 3c 9d 0f 6f 3d 5a ad 83 3d c1 4b ad bc
       0.012819731 0.0583645 0.064295486 -0.021154286
000100 da 68 b5 bd 17 61 e1 3d 72 54 64 bf f0 c0 e1 bc
       -0.088578895 0.110048465 -0.89191353 -0.02755782
000110 ea 2f ab bd 60 b5 88 3c f0 59 3c bc 20 f7 05 bf
       -0.08358748 0.016688049 -0.011496052 -0.5233021
000120 e6 81 a7 bd 4b 8c e3 be ff b2 0e bc 8e 46 bf 3d
       -0.08179073 -0.44442973 -0.008709668 0.09339629
000130 b6 a5 6c 3d bd cc 4b 3d 40 1f f1 bc 18 d0 71 bd
       0.05777522 0.0497558 -0.029433846 -0.059036344
000140 c1 d4 bf 3c 63 5f 8e be e8 d4 d1 3c c4 36 97 bd
       0.023416879 -0.2780715 0.025614217 -0.073834926
000150 25 d7 37 3e fc 6f 6b 3d 8e e5 55 3d 90 45 05 3c
       0.17953165 0.057479843 0.052220874 0.008134261
000160 20 08 c7 3d 9e 6e ed 3c 84 b5 9c be 4b 97 d6 be
       0.097183466 0.02898341 -0.30607235 -0.41912302
000170 55 af f8 3b 68 fa eb bc 66 77 44 3d 72 7a f8 3d
       0.0075892606 -0.028805926 0.04796543 0.121327296
000180 e8 cf 75 bd b4 42 17 bc 09 ed c1 3e 24 42 bd 3d
       -0.060012728 -0.009232212 0.37876156 0.09241131
000190 e5 ff 68 be cc bd 68 be d4 d3 0c bd 10 c4 a3 3c
       -0.22753866 -0.22728652 -0.034381703 0.01999095
0001a0 c0 c3 ac bb 3c e6 bb 3d 06 70 8a 3d 56 ad bc 3d
       -0.0052723587 0.09174773 0.06759648 0.09212749
0001b0 88 e8 6c 3d 42 68 a2 3c cb 61 0d be 78 38 5c be
       0.057838947 0.019825105 -0.13806836 -0.21505916
0001c0 92 9f 1d bc f0 7f f4 3b 7b e9 35 bf 31 fe 3e be
       -0.009620564 0.0074615404 -0.7105939 -0.18651654
0001d0 08 47 d3 bd 80 53 de ba 8c 96 81 3d 83 90 0a 3d
       -0.103162825 -0.0016962141 0.06327543 0.033829223
0001e0 74 db 81 bd 00 1d 20 be c8 b2 c3 3c ec f2 d8 3d
       -0.063406855 -0.15636063 0.02388896 0.10593209
0001f0 9a 34 62 3d 32 69 80 bd 97 3d 86 3e bf cb 57 bd
       0.055225946 -0.062700644 0.26218864 -0.05268454
000200 a7 00 ac ba eb a8 ac bf 7e bd bb be 5a ea 9f bd
       -0.0013122753 -1.348905 -0.3666801 -0.07808371
000210 5c 3f dd 3d d8 c9 8c 3d fc ce ed bd 31 8c 43 bf
       0.108031005 0.06874436 -0.11611745 -0.7638579
000220 eb 32 d2 be 9f e5 08 be 7d 21 10 3e ce bd b8 3d
       -0.41054472 -0.13368843 0.14075275 0.09020577
000230 9a 13 47 bd c1 0b ec 3e a8 34 2c 3d bc 1a 9c bc
       -0.048602678 0.46102718 0.042042404 -0.019055717
000240 02 98 af 3c e9 bf 55 bf 90 06 49 bc 04 f8 31 3d
       0.021434788 -0.83495957 -0.012269631 0.043449417
000250 b0 18 51 3d 48 33 83 3d 6d 67 0e bc 50 82 d8 3d
       0.051048934 0.064062655 -0.008691651 0.1057173
000260 9b 76 e1 be ad e0 17 bf a3 a3 fb 3d 92 9d 9c be
       -0.440358 -0.59327203 0.122870706 -0.30588967
000270 a9 db ee 3c 80 e8 8a bb 45 c1 0a bd 4c 14 34 bd
       0.029157476 -0.004239142 -0.033875722 -0.04396467
000280 00 62 fc ba de 6d cf bd b4 eb cd bf a0 7c 54 bd
       -0.001925528 -0.101283774 -1.6087556 -0.051876664
000290 47 1b 7c 3d a9 2a de 3d b6 31 ac 3d 00 68 28 39
       0.06154945 0.108479805 0.08407919 0.00016060472
0002a0 02 f0 db 3d 14 6b 25 bd 5b 2a f3 bc b4 54 37 bd
       0.10739137 -0.04038532 -0.029683283 -0.044758514
0002b0 20 cd fa 3c 6d e2 a6 3c d8 9b 9c be ce 80 82 be
       0.03061539 0.02037164 -0.3058765 -0.25488895
0002c0 a2 83 13 3e f0 57 d2 bd 3c 11 ed bc ad e9 6f 3d
       0.14405683 -0.10270679 -0.028938882 0.05857246
0002d0 58 14 92 bc 48 83 9a 3d a0 c3 ad 3c 88 a4 5c bc
       -0.017831966 0.07544571 0.021211445 -0.013466962
0002e0 20 dc 81 bc 84 62 96 3d 80 4b a2 bd b0 95 97 3c
       -0.015852034 0.07343009 -0.07924557 0.018503994
0002f0 d0 86 3c 3e 7e 7d a1 bd f3 16 2e bf 45 56 56 bc
       0.18410802 -0.07885264 -0.6800377 -0.013082092
000300 21 47 43 3c 09 8e bd 3d 17 c5 59 3e 80 48 a3 bc
       0.011918814 0.09255607 0.2126659 -0.019932032
000310 c4 89 13 3d 68 94 bb bd 72 67 cc 3d c8 3e f0 3e
       0.036020055 -0.091591656 0.09980668 0.46922898
000320 58 73 60 3e 7d 1f 10 39 8a dc 10 3c a2 f4 91 3d
       0.21919 0.0001374464 0.008841643 0.07126738
000330 e9 f9 bd 3d 9d b5 3a be c8 7b 03 bd 14 ab 86 3e
       0.09276182 -0.18233342 -0.03210047 0.26302397
000340 41 9a 3e 3d 64 85 c1 3c 4c c2 a1 bd e8 15 d2 bd
       0.046533827 0.023623176 -0.07898387 -0.102580845
000350 86 f5 ed 3d e6 b0 bf bd 10 7f 12 bd 58 1e 40 3d
       0.116190955 -0.093599126 -0.035765707 0.046903938
000360 2b 5b 3f be f8 f4 97 3d c8 1a 81 bf 23 f8 f2 bc
       -0.18687122 0.07419771 -1.0086298 -0.029659336
000370 61 a2 64 3d b0 c2 54 bd 90 3e 04 be 92 52 dc bd
       0.05581892 -0.05194348 -0.1291449 -0.107579365
000380 68 40 ae bd c3 31 2b 3e d8 aa fc 3e 28 e7 81 3d
       -0.08508378 0.16718201 0.49349093 0.06342918
000390 15 10 11 bf b5 a3 20 be 3e a8 cb bd 66 a7 b2 3d
       -0.56665164 -0.1568745 -0.09944199 0.08723335
0003a0 c0 dc a9 3d 2c bd a8 3d 05 5e 7e 3d d8 ca 76 bd
       0.08294058 0.08239207 0.062101383 -0.06025204
0003b0 68 a1 46 3d ef d6 10 be bd dd 9b be 3f 5d 77 3d
       0.048493773 -0.1414449 -0.3044261 0.06039166
0003c0 34 8f 13 3d 48 80 5d 3e a4 dd 06 bd 4f 87 a9 3c
       0.03602524 0.21630967 -0.032926217 0.020694403
0003d0 7a 84 b2 bd 10 3b d1 bc b0 90 5b bd f9 89 91 3c
       -0.08716674 -0.025540859 -0.05360478 0.017765986
0003e0 80 96 87 bd 1a cd cd bc c0 eb e8 bc 00 5a be 3d
       -0.066205025 -0.025122214 -0.028432727 0.0929451
0003f0 73 b2 ac bd d1 35 2f bd 5d 7a 7e 3e 55 ad 6a 3c
       -0.08432474 -0.042775933 0.24851365 0.014323552

layers.3.bias f4 [32]
000000 c2 7f 83 3c 4c fc 3a 3e de 0b 48 3e 71 f2 77 bd
       0.01605213 0.18260306 0.19535777 -0.060533945
000010 db d7 7c be 86 71 86 3d e3 05 43 3e 54 bd 78 3e
       -0.24691717 0.065646216 0.19045214 0.24290973
000020 50 19 0e bf a1 df 1b 3e 15 e3 85 3e bc d4 7d 3d
       -0.55507374 0.15222026 0.26149812 0.061970457
000030 5f 64 91 bd 5e e1 4e 3d f6 e1 20 3e 17 d3 35 3d
       -0.070992224 0.050507896 0.15711197 0.044390764
000040 bc c8 3a be 4c 29 a1 3d ab 73 29 3e 7e bf 8d 3e
       -0.18240637 0.07869205 0.1654803 0.2768516
000050 f4 c7 86 3e a5 4b ec bc df 72 ae 3d 50 7b 0d 3f
       0.26324427 -0.028844664 0.08518004 0.55266285
000060 8c 67 cb 3d c9 3f 9a 3d 96 f1 fd 3d e0 c9 e6 be
       0.099318594 0.07531697 0.123995945 -0.45075893
000070 1f 3e ce 3d 33 e9 88 3b 9a 77 ef 3e 18 99 93 3e
       0.100704424 0.00417819 0.46770936 0.2882774

layers.6.weight f4 [16, 32]
000000 a2 e2 19 3e 02 51 2f 3e 58 8b d9 be 81 81 08 bb
       0.1502786 0.17120746 -0.42489123 -0.0020829143
000010 06 5e 0d bf 64 bd 50 bf 9f 47 96 3d 62 a1 ad be
       -0.55221593 -0.8153899 0.073378794 -0.33912188
000020 a3 18 80 bf ba 33 fa be 77 44 00 bf 1d 61 d1 be
       -1.0007519 -0.4886759 -0.5010447 -0.40894404
000030 67 c8 3a bf a6 18 04 3f 62 72 cc 3d ba 48 d0 bc
       -0.7296204 0.5160011 0.09982754 -0.025425304
000040 8d c6 11 bf 14 c9 5e bf e1 6a 34 bf 3b 43 05 bf
       -0.5694359 -0.8702557 -0.70475584 -0.5205571
000050 96 aa 27 3e 89 7b 93 3d ab 66 ef 3d 4a 33 ac 3d
       0.16373667 0.07201297 0.11689504 0.0840822
000060 bb 86 0f 3e 8b d9 79 bd b2 5b ac be a9 a7 06 bf
       0.1401624 -0.06099848 -0.33663708 -0.5259958
000070 ac a8 f8 be 6d c0 05 3e 83 3a 8f 3e 90 91 d9 be
       -0.48566186 0.13061686 0.27974328 -0.42493868
000080 94 08 bc be 78 b5 45 be b8 ee 2b be 04 dd c0 be
       -0.36725295 -0.19307506 -0.16790283 -0.37668622
000090 de d6 77 3f 80 f7 b8 3e c3 4d ca bd 5a c4 30 3e
       0.96812236 0.36126328 -0.09878113 0.17262402
0000a0 e6 85 e9 be 80 b6 a4 3e eb 69 d7 bd c0 2b b7 3e
       -0.4560997 0.32170486 -0.10518249 0.35775566
0000b0 10 f6 01 3f 85 bd dd be df 08 20 be 69 d5 88 bc
       0.50766087 -0.43308654 -0.15628384 -0.016703324
0000c0 72 9f f8 3e 07 67 5d 3f d1 f5 97 3e a1 1b a3 3d
       0.48559147 0.8648533 0.2967973 0.07964254
0000d0 58 2b 24 3e 8f 3c 3e be 38 95 dd bd 67 be 21 3d
       0.1603216 -0.18577789 -0.10819477 0.039488222
0000e0 01 36 be be d5 41 9a be a3 53 d8 3e 61 66 5c be
       -0.37150577 -0.3012835 0.4225131 -0.2152343
0000f0 c4 63 10 3f 69 78 67 be 32 a8 c8 3d f5 19 81 3d
       0.5640223 -0.22604527 0.09797706 0.06303779
000100 ae d9 49 3d fd b4 4f 3e 90 9a 4d be b6 a5 bd bd
       0.04927986 0.20283885 -0.20078492 -0.092601225
000110 e7 bc bc be 3b 5f 16 bf ae e4 85 bd 7e 7e be be
       -0.3686287 -0.5873906 -0.06537758 -0.3720588
000120 8a b7 24 bf fc df 14 bf 7b ce af be f0 8b 96 be
       -0.6434256 -0.58154273 -0.3433722 -0.2940364
000130 9f 06 4c bf 6a d9 f0 3e bc 1e e7 3c 91 10 5f 3d
       -0.79697603 0.47040874 0.028212897 0.05445916
000140 36 56 01 bf db fc 77 bf d0 3d 04 bf a5 99 26 bf
       -0.5052217 -0.968702 -0.5165682 -0.6507819
000150 e6 d4 b1 3e c0 04 f7 3d 5d 41 de bd ab a6 c2 3e
       0.3473274 0.12061453 -0.10852311 0.38017783
000160 7c ec 71 3d ad 5d 04 3e b6 19 00 bf cb b6 ae 3d
       0.05906342 0.1292636 -0.5003923 0.08530959
000170 57 33 d4 be a9 e8 77 3e c3 3d 6e 3e 30 46 06 bf
       -0.4144542 0.24209847 0.23265748 -0.5245085
000180 d8 6e 99 bd 90 c0 97 be 0f 1f 51 3e d5 c9 6b bd
       -0.07491845 -0.296391 0.20422004 -0.05756553
000190 10 07 04 be a7 5b 91 3e 39 f0 8f be 09 fe 0a 3e
       -0.12893319 0.28390238 -0.28112963 0.13573469
0001a0 46 3b ef be 1e 35 df bc d1 7a 54 bd de 26 c8 3d
       -0.4672491 -0.027247008 -0.05187494 0.09773038
0001b0 bf 02 64 3d 49 13 a4 be 56 e5 3b be c3 79 e0 3d
       0.05566668 -0.32045963 -0.18349203 0.10960724
0001c0 26 89 9c 3e 1d 9c 61 3e b5 cd 5e 3d ec 57 10 3e
       0.30573386 0.22032209 0.054395396 0.1409604
0001d0 83 03 aa 3d db 0a e8 bd a1 7c a6 bd 48 05 bf 3b
       0.08301451 -0.113301955 -0.0812924 0.005829487
0001e0 9d a2 5e be 82 21 03 bf 09 89 fc 3e a7 9c 7d be
       -0.2174172 -0.51223004 0.493233 -0.2476679
0001f0 39 ad 1d bc 68 cb a8 bd aa 48 d7 bd e0 9a 46 3d
       -0.009623819 -0.08241922 -0.105119064 0.048487544
000200 a5 3b eb be 3a 9a 2d be 37 c5 95 bd 90 a4 4a be
       -0.45943943 -0.16953364 -0.07313006 -0.19789338
000210 03 da c5 3e 57 cc cf 3d 50 68 70 be 82 69 23 3e
       0.38642892 0.101463966 -0.23477292 0.15958217
000220 e8 bf 1c bf 4b 90 ca 3e 19 82 0a be 5a f0 97 3e
       -0.61230326 0.39563212 -0.13526191 0.2967556
000230 30 f4 5d 3e 4a 73 f1 be 33 fa 60 be 41 cb 1a bd
       0.21675181 -0.4715827 -0.21970443 -0.037791494
000240 77 a8 a6 3e d0 48 55 3f fb 25 c4 3e 85 3c 99 3d
       0.32550403 0.8331423 0.38310227 0.07482246
000250 8c 9e 03 3e c3 41 b6 bd 1a af 02 be aa 52 b6 3d
       0.1285345 -0.08899262 -0.12762108 0.08902486
000260 d5 73 cb be 53 ab 76 be 89 37 db 3e a8 e4 ff be
       -0.3973681 -0.24088793 0.42815807 -0.49979138
000270 38 48 f9 3e d9 aa 5f be 55 52 d4 3d db 52 28 3d
       0.4868791 -0.21842517 0.10367266 0.041094642
000280 56 6d 48 bf b4 16 3b bf 1f e7 36 3e bd 63 3c bf
       -0.78291833 -0.7308152 0.17861603 -0.7358969
000290 a7 3d 0b 3f 3a ce ad 3e 7e 98 3c bf e4 ca 53 bd
       0.5439095 0.339464 -0.73670185 -0.051707163
0002a0 19 62 c9 be 0e d7 c8 3e a2 7c f1 3d 24 8e 10 3f
       -0.39332655 0.39226574 0.1179135 0.5646689
0002b0 45 cc a5 bd 93 f4 c8 bd 36 98 4d bf 4b 9b fa be
       -0.08095602 -0.09812274 -0.8031038 -0.48946604
0002c0 ad 8e 0d be 33 4d 25 3f 75 8c 96 3e 8c 6d 4a 3e
       -0.13823958 0.6457092 0.29404035 0.19768351
0002d0 c5 41 03 3e 23 d1 37 bf 55 b0 28 bf 32 73 89 ba
       0.12818058 -0.7180349 -0.6589406 -0.0010486601
0002e0 9f 5d 08 bf 5b 1d d5 be 3f 6b 42 3e 43 6a f9 bd
       -0.53267854 -0.4162396 0.18986224 -0.12178471
0002f0 d7 ab ef 3e b8 4a 88 be e0 de 30 3d aa df 2a 3d
       0.4681079 -0.26619506 0.0431813 0.04171721
000300 65 f7 7b be f5 a5 aa bd 87 c1 c9 3c 68 50 81 be
       -0.24606092 -0.08332435 0.024628414 -0.25256658
000310 b8 b7 19 3e 44 7a 62 3e e0 39 80 be 6f 85 4b 3d
       0.1501149 0.22116953 -0.25044155 0.0496878
000320 68 4a ed be d7 81 f8 3d e4 83 b2 3c 00 87 a6 3e
       -0.4634583 0.1213414 0.021791406 0.32524872
000330 e5 61 eb bd 8a b4 f3 be 88 dc 4a be 4a bf 40 bd
       -0.11493281 -0.47598678 -0.19810688 -0.047057427
000340 94 ba b6 3e e5 bc 1d 3f 7a 9f 9b 3e c8 53 70 3e
       0.35689223 0.61616355 0.30395108 0.2346946
000350 f9 02 b8 3d 32 f7 21 be f2 63 eb bd ce aa 96 3d
       0.08984942 -0.15816954 -0.114936724 0.07356797
000360 c7 ca 42 be f6 f5 f0 be 77 5b c2 3e d5 b2 8a be
       -0.19022666 -0.47062653 0.37960407 -0.27089563
000370 b5 73 db 3c 49 dc b9 bd 8d 63 f9 3d e7 1e 27 bc
       0.026788572 -0.09075219 0.12177191 -0.010200239
000380 d8 e6 a3 be f2 a4 d2 bd fd 4a 9e 3b e1 8a 2c be
       -0.32012057 -0.10285367 0.0048307166 -0.16849853
000390 09 ef 37 3f 16 eb 0e 3f d1 e6 19 be 8d 00 28 3e
       0.71849114 0.5582746 -0.15029456 0.1640646
0003a0 69 aa 13 bf 66 fc 89 3e c8 87 77 3d e6 d4 ed 3e
       -0.576819 0.26950377 0.060432225 0.4645149
0003b0 67 ee 9b 3e 81 47 eb be 0a 20 48 be ac 2f 3c 3b
       0.30455324 -0.4595299 -0.19543472 0.0028714938
0003c0 b8 6c 94 3e 72 5d 2f 3f d9 eb ac 3e 6b 9f af 3e
       0.28989196 0.6850196 0.33773687 0.34301314
0003d0 e4 a2 4b 3e 3a 0e 33 be ad 62 17 be dd 95 1e 3e
       0.19886357 -0.17485896 -0.14783736 0.15486856
0003e0 f2 96 9a be 58 09 ad be ce 97 f8 3e 13 c2 27 be
       -0.30193287 -0.3379619 0.48553318 -0.16382627
0003f0 90 15 a0 3e 17 83 8b bd 49 03 ae 3d 94 77 d6 3d
       0.3126645 -0.06812113 0.0849672 0.104720265

layers.6.bias f4 [16]
000000 99 e2 0a 3f 71 f2 c5 3e 02 bb ec 3e 20 47 ba 3e
       0.5425201 0.3866153 0.46236426 0.3638239
000010 55 fc cd 3e 9e 7e 7a 3e ba 8c a6 3e 16 96 80 3e
       0.40231577 0.24462363 0.3252924 0.25114506
000020 90 82 b4 3e 04 72 7b 3e b1 9c 1a 3f 27 e6 ea 3d
       0.3525586 0.24555212 0.6039534 0.11469679
000030 2c 83 89 3e 6f 2f 05 3f c5 2b b9 3e 2a f8 d1 3e
       0.2685789 0.520255 0.36166206 0.41009647

layers.9.weight f4 [1, 16]
000000 ac f6 31 3f 88 38 f7 be b4 57 19 3f 06 2d d3 be
       0.69517016 -0.48285317 0.5989945 -0.41245288
000010 02 ea fb be 96 68 a2 bf b5 23 07 bf fe e1 d0 be
       -0.4920197 -1.2688167 -0.5278886 -0.40797418
000020 e2 50 cc bf 6f b4 3c bf 48 ae 05 3f ac 21 9e bf
       -1.5962183 -0.7371282 0.5221906 -1.2354026
000030 44 1f 54 bf 6e eb 3c 3f 52 0a 0e bf 51 8d 6b 3f
       -0.8286021 0.7379674 -0.554845 0.92012507
