models/Proposed/antikaon_2.pt (torch, 167723 bytes, 35 tensors)

emb.layers.0.weight f4 [128, 20]
0	0x3e49e060	0.19714499
1	0xbd9e37ff	-0.07725524
2	0xbe44109d	-0.19146962
3	0xbc8fa176	-0.017533045
4	0x3d96f8ee	0.07371698
5	0x3d61d792	0.055137224
6	0x3ccb9e46	0.024855744
7	0x3e4b2943	0.19839959
8	0xbce1a4a4	-0.027544327
9	0xbe9685d2	-0.29398972
10	0xbad86b62	-0.0016511495
11	0x3e115e7a	0.14196196
12	0x3dd04ab4	0.101704985
13	0x3e24ac9a	0.16081467
14	0xbe1ef27f	-0.15522192
15	0x3e3f86ca	0.18703762
16	0x3daa0606	0.0830193
17	0x3e0188c5	0.1264983
18	0x3dfc8189	0.12329394
19	0xbdcee0fc	-0.10101506
20	0x3de03634	0.109478384
21	0xbe42c592	-0.1902068
22	0xbe38f2d5	-0.18061383
23	0x3e179936	0.14804539
24	0x3e41168b	0.18856256
25	0x3c044a77	0.008074394
26	0x3dfed07f	0.12442111
27	0xbde0f765	-0.10984687
28	0x3b92cede	0.004480227
29	0xbe3d1512	-0.18465069
30	0x3e3ec1fe	0.1862869
31	0x3dee5ecc	0.11639175
32	0xbe412901	-0.18863298
33	0xbd77388c	-0.06035666
34	0xbd8d32e7	-0.068944745
35	0xbe27e0b1	-0.16394307
36	0xbe8ab5ad	-0.27091733
37	0x3d4590b7	0.048233714
38	0xbe5c1db2	-0.21495703
39	0x3de8a2ef	0.11359202
40	0x3c2fe5bd	0.010735926
41	0xbde34b30	-0.11098325
42	0xbe1e3a4e	-0.15451929
43	0xbd464beb	-0.048412245
44	0xbde2b0b6	-0.11068861
45	0x3ca8e01e	0.02061468
46	0x3dfebffd	0.124389626
47	0x3e23bed5	0.15990765
48	0xbd8e530f	-0.06949436
49	0xbe719ab0	-0.23594165
50	0xbd9e6ef8	-0.07736009
51	0x3ddf1bd1	0.108939774
52	0xbd87d7f5	-0.066329874
53	0x3daac273	0.083378695
54	0x3cc6fee5	0.024291465
55	0xbdd040a3	-0.101685785
56	0x3c07ab9a	0.008280659
57	0x3cc10dd1	0.023566158
58	0xba9d28e4	-0.0011990336
59	0xbd21a632	-0.039465137
60	0xbf1ba359	-0.60796124
61	0x3e55e992	0.20889881
62	0x3ea854cc	0.32877195
63	0x3df5cea2	0.12002303
64	0x3d67b977	0.056573357
65	0xbf03a673	-0.51425856
66	0xbee57c7d	-0.4482154
67	0x3e7ebeb6	0.24877438
68	0xbe6298ed	-0.22128649
69	0xbe007b7a	-0.12547103
70	0xbdddb8e5	-0.108262815
71	0xbce2a092	-0.027664457
72	0x3e42dc53	0.1902936
73	0x3d8e02ce	0.06934129
74	0x3e5a131b	0.2129635
75	0x3e01fa8f	0.12693237
76	0x3e7fbb45	0.24973781
77	0x3dc89fd7	0.09796112
78	0x3d7575bf	0.059926745
79	0x3e2a6a31	0.16642071
80	0xbe21545a	-0.15754834
81	0x3e26ce7d	0.16289707
82	0x3dc416d3	0.09574666
83	0xbe5f348f	-0.21797393
84	0x3cbf3133	0.02333889
85	0xbe3fd65b	-0.18734114
86	0x3d8637d7	0.06553619
87	0xbe1d2b00	-0.15348434
88	0x3d902a4f	0.0703932
89	0xbe8f4cfb	-0.2798842
90	0x3d192ab1	0.03739423
91	0x3d96ac88	0.073571265
92	0x3e827936	0.25483102
93	0x3e578572	0.21046999
94	0x3e33702e	0.17523262
95	0x3de7983c	0.11308333
96	0xbcc2adf2	-0.023764584
97	0x3e158e36	0.1460503
98	0x3e7e1e56	0.2481626
99	0xbe2b1dd0	-0.16710591
100	0xbdc14734	-0.09437409
101	0xbe0a6788	-0.13516057
102	0x3e21be04	0.15795141
103	0xbcc36ae9	-0.02385469
104	0xbdc531eb	-0.09628662
105	0xbe62a1d6	-0.22132048
106	0x3d2a0c7d	0.041515816
107	0xbe5af132	-0.21381071
108	0x3dc6c735	0.097059645
109	0x3dff1b97	0.12456434
110	0xbeb64511	-0.35599568
111	0x3e2fc178	0.17163646
112	0x3dd6e19e	0.10492252
113	0xbe8346a9	-0.25639847
114	0x3e6bcbe8	0.23027003
115	0x3de1922b	0.110142075
116	0xbe0adc95	-0.13560708
117	0x3e3b2039	0.1827401
118	0x3e48cee3	0.19610171
119	0x3e2ece6b	0.1707093
120	0xbe4250a6	-0.18976077
121	0x3e7e4718	0.24831808
122	0xbde934a0	-0.113869905
123	0xbcfd8e88	-0.030951753
124	0xbe0fe1c0	-0.1405096
125	0x3d928f00	0.07156181
126	0xbe4c3452	-0.19941834
127	0xbd804274	-0.06262675
128	0xbc6253cd	-0.013813925
129	0xbcd159eb	-0.025555572
130	0x3e2d5561	0.169271
131	0xbe2ace27	-0.16680203
132	0xbe60b5b3	-0.21944313
133	0xbe1129e4	-0.14176136
134	0x3e7767f0	0.24160743
135	0xbda1a7d4	-0.07893339
136	0xbe466ac0	-0.1937666
137	0x3e2b62ee	0.16736957
138	0x3e22c347	0.15894805
139	0xbe06cc48	-0.13163865
140	0x3e50b350	0.20380902
141	0x3e3c8505	0.18410118
142	0xbdac6b11	-0.08418859
143	0x3d9dfcf1	0.0771426
144	0xbd96ee5a	-0.07369681
145	0xbd7b726d	-0.06138842
146	0x3e57859e	0.21047065
147	0x3d4bc13c	0.04974483
148	0xbc0edda3	-0.0087198345
149	0xbd388ff1	-0.04505915
150	0xbd90baf7	-0.07066911
151	0xbdbd3b78	-0.092398584
152	0x3d24d35a	0.040240623
153	0xb9f62f56	-0.00046956044
154	0xbe20c41e	-0.15699813
155	0x3cacdcc8	0.02110137
156	0x3da248da	0.079240516
157	0xbccdb785	-0.025111923
158	0x3e263510	0.16231179
159	0xbdafa091	-0.085755475
160	0x3d683b45	0.05669715
161	0x3e37e1d7	0.17957245
162	0x3e80a26f	0.25123927
163	0xbe1da301	-0.15394212
164	0xbdc7618c	-0.097354025
165	0xbd93a945	-0.0721002
166	0x3a9dcd96	0.0012039419
167	0xbdeb0b72	-0.114767924
168	0xbdf60e07	-0.12014394
169	0xbc3e594f	-0.0116179725
170	0x3e339ba8	0.17539847
171	0xbe584735	-0.21120913
172	0xbe5a1312	-0.21296337
173	0xbbbc4da4	-0.00574656
174	0x3e352bb7	0.17692457
175	0xbe9b4259	-0.30324057
176	0xbd88cc50	-0.066795945
177	0x3d77650a	0.060399093
178	0xbe1d2fcb	-0.15350263
179	0xbbb58939	-0.00554004
180	0x3e659434	0.22419816
181	0xbebcecf5	-0.36899534
182	0xbf090110	-0.53517246
183	0x3df7c822	0.12098719
184	0xbdb68c8e	-0.089135274
185	0x3e3ad558	0.18245447
186	0x3e2fca33	0.17166977
187	0x3da72f79	0.081633516
188	0x3e12ec71	0.14348008
189	0x3e25e5a9	0.1620089
190	0xbe64adba	-0.22331896
191	0xbe1645ad	-0.14675017
192	0xbdd8bdc9	-0.10583074
193	0xbdd33305	-0.103124656
194	0xbe2613e9	-0.16218533
195	0x3d990e07	0.07473379
196	0xbe4c7cb0	-0.1996944
197	0x3e5c6e91	0.21526553
198	0xbec271ef	-0.3797755
199	0x3dc2a1ff	0.095035546
200	0xbba8c387	-0.005150262
201	0xbf1cdf47	-0.61278194
202	0x3e13cfaa	0.14434686
203	0xbf019b42	-0.5062753
204	0x3d6274f4	0.055287316
205	0xbcfac17d	-0.03060984
206	0xbce06f9e	-0.027396973
207	0x3d9b215e	0.07574724
208	0x3e6d343c	0.23164457
209	0x3a45e48e	0.0007549011
210	0xbe2d562b	-0.16927402
211	0xbe55a0cf	-0.20862125
212	0x3e8f41b5	0.27979818
213	0xbcfc93bc	-0.030832164
214	0x3dd5f3cd	0.10446892
215	0x3ea07a5f	0.31343362
216	0xbf32ee56	-0.6989492
217	0x3e843c78	0.25827384
218	0x3e14aef6	0.14519867
219	0x3dd79e15	0.10528199
220	0x3dd835b1	0.10557116
221	0x3dc9b0cb	0.09848174
222	0xbcfc3a63	-0.03078956
223	0xbd36299d	-0.04447328
224	0x3e22f529	0.15913834
225	0xbd8acb3b	-0.067770444
226	0x3e6e3bf0	0.23265052
227	0xbe0803c1	-0.13282682
228	0xbe0006fd	-0.12502666
229	0x3e46cdab	0.19414394
230	0xbe3c5842	-0.18393043
231	0x3dda7dfd	0.106685616
232	0xbcf8ea80	-0.030385256
233	0x3e087a08	0.13327801
234	0xbe4ca2b8	-0.19983947
235	0x3dc4d2ce	0.0961052
236	0xbcfd35db	-0.03090947
237	0xbdc0ab1d	-0.09407637
238	0x3e71faa8	0.23630774
239	0xbd057b26	-0.032588147
240	0xbddfa3dd	-0.10919926
241	0x3db1f908	0.08690077
242	0xbe05a6c6	-0.130519
243	0x3d81b449	0.06333215
244	0xbda774cd	-0.08176575
245	0x3de9adae	0.1141008
246	0x3e1aa00e	0.15100119
247	0xbd8beed0	-0.06832659
248	0xbe033301	-0.12812425
249	0x3e431459	0.19050731
250	0xbe7d0b27	-0.24711286
251	0x3e29199b	0.16513674
252	0x3e1f07c0	0.155303
253	0xbdadb437	-0.08481639
254	0xbd012bde	-0.031535976
255	0x3d340112	0.043946333

emb.layers.0.bias f4 [128]
0	0x3e091e8c	0.13390559
1	0x3d80b9c4	0.06285432
2	0x3e1610db	0.14654867
3	0xbe7d691f	-0.24747132
4	0x3dff98bb	0.12480303
5	0x3e3cbfb4	0.18432504
6	0xbdadd7e4	-0.084884435
7	0x3e1d6d1e	0.15373656
8	0x3df22c02	0.118248
9	0xbe3c2944	-0.18375117
10	0x3c6fc961	0.014635415
11	0xbe1dd6cc	-0.1541397
12	0x3e31d791	0.17367388
13	0xbe097ff1	-0.13427712
14	0x3db42842	0.08796741
15	0x3e09f1d3	0.13471155
16	0xbd8eace1	-0.06966568
17	0x3e2553b9	0.16145219
18	0x3e374aed	0.17899676
19	0xbb6c7b4f	-0.003608424
20	0x3e09b96a	0.13449636
21	0xbd4e91e9	-0.05043212
22	0xbd95c2cd	-0.07312546
23	0x3d7e5cb5	0.06210013
24	0xbd17ebb5	-0.037090022
25	0x3dc8f8b0	0.098130584
26	0xbe55762d	-0.20845862
27	0xbe277d76	-0.16356453
28	0xbe1d971c	-0.15389675
29	0xbe207e10	-0.15673089
30	0xbe8c1bcb	-0.27364954
31	0xbe16a3cb	-0.1471092
32	0x3de3019b	0.110842906
33	0xbe00fbb2	-0.12596014
34	0xbda9dce7	-0.08294087
35	0x3e0c48c3	0.13699631
36	0xbd92dc8e	-0.07170974
37	0xbd0cb018	-0.034347624
38	0x3ddb84f5	0.10718719
39	0x3e416780	0.18887138
40	0x3d1d2178	0.038361996
41	0x3e33e3fe	0.17567441
42	0xba28530f	-0.0006421068
43	0x3e1a93fc	0.15095514
44	0xbe21cb0b	-0.15800111
45	0xbcb49e96	-0.022048276
46	0x3e2d012c	0.16894978
47	0xbde6befe	-0.112668976
48	0x3dfc2a50	0.12312758
49	0x3e043031	0.12909009
50	0x3b0863f2	0.0020811525
51	0x3db59cde	0.08867811
52	0xbdd34936	-0.10316698
53	0x3c037006	0.008022314
54	0x3da8ee76	0.08248608
55	0x3e4157f6	0.1888121
56	0xbe1314a3	-0.14363341
57	0xbd384da8	-0.044995934
58	0x3e115807	0.14193736
59	0xbcb79131	-0.0224081
60	0x3e434255	0.19068272
61	0x3bffe542	0.007809312
62	0xbdbf2984	-0.0933409
63	0x3c3936cf	0.011304571
64	0x3e45f608	0.19332135
65	0xbe046383	-0.12928586
66	0x3dee3c8c	0.11632642
67	0xbd1cfe4b	-0.03832845
68	0x3dfa0878	0.122086465
69	0xbd8f49a5	-0.069964685
70	0xbcd42ee4	-0.025901265
71	0xbe2bda0a	-0.16782394
72	0xbd894936	-0.06703417
73	0x3e3df309	0.18549742
74	0x3dcfd1a7	0.1014741
75	0x3e4da628	0.20082915
76	0xbde48faf	-0.11160218
77	0xbe40235b	-0.18763487
78	0x3dff7268	0.12472993
79	0xbdcf153a	-0.101114705
80	0x3e387828	0.18014586
81	0x3ddfc612	0.10926451
82	0xbe49fa81	-0.19724466
83	0xbe17da65	-0.14829405
84	0xbe0965f6	-0.13417801
85	0xbda36685	-0.079785384
86	0x3d1bb1f3	0.038011502
87	0xbe87715d	-0.26453677
88	0x3c79122b	0.0152020855
89	0x3c7d1613	0.015447157
90	0x3d69053c	0.056889758
91	0x3e0839b5	0.13303263
92	0x3d629342	0.055316217
93	0x3d32aaf0	0.04362005
94	0x3defd420	0.117103815
95	0xbd44e669	-0.0480713
96	0x3e6c5f6f	0.2308328
97	0x3e5f7f21	0.2182584
98	0x3d9abceb	0.075555645
99	0x3dd0644b	0.10175379
100	0x3e3ae892	0.18252781
101	0x3e14a1cb	0.14514844
102	0x3deed6be	0.116620526
103	0xbe61b123	-0.22040229
104	0x3dc09782	0.09403898
105	0xbe1e4e0c	-0.1545946
106	0x3d5488cd	0.051888276
107	0xbd75d8fa	-0.060021378
108	0x3e0844d8	0.13307512
109	0xbdfd522a	-0.12369187
110	0x3d4f6ee2	0.050642855
111	0x3e2f9212	0.17145565
112	0x3e1372fe	0.14399335
113	0x3e453570	0.19258666
114	0xbe0355b0	-0.12825656
115	0xbda2d711	-0.07951177
116	0xbdd752ac	-0.10513815
117	0x3e2611d3	0.16217737
118	0xbe003207	-0.12519084
119	0xbd43cd96	-0.047803484
120	0x3e478efa	0.19488135
121	0xbd1e74d1	-0.038685624
122	0x3df5f9df	0.1201055
123	0x3ceddfdb	0.029037407
124	0x3e2c9567	0.16853867
125	0x3da49f9d	0.08038256
126	0x3daa19a3	0.08305671
127	0x3d961f66	0.073302075

emb.layers.2.weight f4 [32, 128]
0	0xbd69902d	-0.057022262
1	0xba8f820f	-0.0010948795
2	0x3b3a1902	0.0028396253
3	0xbdae05a9	-0.08497173
4	0x3d4bf3c0	0.049793005
5	0xbde7862f	-0.1130489
6	0xbd4c6fa6	-0.049911164
7	0x3c5d4513	0.013505238
8	0xbc5803c9	-0.013184496
9	0xbcc98243	-0.024598246
10	0xbdc4626c	-0.09589085
11	0x3d28d545	0.041219015
12	0xbda81808	-0.082077086
13	0x3d306123	0.043061387
14	0x3d484a8c	0.04889922
15	0xbc63892b	-0.013887684
16	0xbe282125	-0.16418894
17	0x3d22f124	0.03978075
18	0x3d4da135	0.050202567
19	0xbbb0f92a	-0.0054007964
20	0xbd207fdb	-0.039184432
21	0x3d650cda	0.05592046
22	0x3d7088fa	0.05872438
23	0xbca54e77	-0.020179017
24	0xbdbef886	-0.09324746
25	0x3db5611a	0.08856411
26	0xbe019101	-0.12652971
27	0xbddbdc20	-0.10735345
28	0xbd03b788	-0.03215745
29	0xbe0dbc7b	-0.13841431
30	0xbce4395e	-0.027859386
31	0x3d8e7d34	0.06957474
32	0xbd5909ee	-0.052987985
33	0xbceeef62	-0.029166881
34	0x3c8f6833	0.01750574
35	0xbda41e72	-0.080136195
36	0x3db0fe11	0.08642209
37	0x3d23d90a	0.040001906
38	0x3d384277	0.04498526
39	0xbcd32e79	-0.025778996
40	0x3d325660	0.043539405
41	0xbd0a25c2	-0.033727415
42	0x3bca1b38	0.0061677955
43	0x3dabfcfc	0.08397862
44	0xbd370979	-0.04468677
45	0xbc61773b	-0.013761337
46	0xbc72aeb3	-0.014812159
47	0x3dc2caa5	0.095113076
48	0xbd65520e	-0.055986457
49	0xbbe9d3a2	-0.0071358243
50	0x3acc4be8	0.0015586587
51	0xbde61694	-0.11234775
52	0x3abe5a42	0.0014522749
53	0x3c213554	0.009839375
54	0xbbc055f0	-0.0058696195
55	0x3d61fcea	0.05517284
56	0xbe1c3e8e	-0.15258238
57	0xbd48b871	-0.049004022
58	0x3d2f6f08	0.042830497
59	0xbd8e18ef	-0.069383495
60	0x3dd5a662	0.10432126
61	0xbd0de14c	-0.034638688
62	0x3e1c4c33	0.15263443
63	0xbd591797	-0.053001013
64	0xbd936981	-0.07197858
65	0xbcdec084	-0.027191408
66	0xbd1507bd	-0.036384333
67	0xbdf2e365	-0.11859778
68	0xbd8fe872	-0.07026757
69	0xbd646acc	-0.055765912
70	0xbd5aa1fb	-0.053377133
71	0xbe05faad	-0.13083906
72	0xbd329277	-0.04359671
73	0xbd4c765d	-0.049917568
74	0x3d550010	0.052002013
75	0xbdb88fd8	-0.09011811
76	0xbae42d15	-0.0017408455
77	0x3e3a48b4	0.18191797
78	0xbd8286ac	-0.06373343
79	0x3c0417cc	0.008062314
80	0x3d8a5d7b	0.06756111
81	0x3d8b6729	0.068067856
82	0xbdd62e8d	-0.104580976
83	0xbaf06748	-0.0018341327
84	0xbd2ef7cb	-0.042716783
85	0xbe31f826	-0.17379817
86	0xbdcaae0a	-0.098964766
87	0x3ca9d589	0.020731704
88	0xbc12a4ff	-0.008950471
89	0xbd898622	-0.06715037
90	0xbd959c46	-0.073051974
91	0x3c7dbb27	0.015486515
92	0xbc6aae11	-0.014323727
93	0xbd66cd6e	-0.056348257
94	0x3d7ecb46	0.062205575
95	0xbe097da9	-0.13426842
96	0x3dad85a4	0.084727556
97	0x3d8c6e15	0.06856934
98	0x3d70a2d8	0.05874905
99	0x3d0e8910	0.03479868
100	0x3d48685a	0.048927642
101	0x3d03366d	0.032034326
102	0xba4f5e49	-0.0007910473
103	0x3d19b7d6	0.037528835
104	0xbc079798	-0.008275889
105	0x3dc812d6	0.09769218
106	0x3da440d3	0.08020177
107	0xbe2cefb2	-0.16888312
108	0x3c6b8ff5	0.014377584
109	0x3d543812	0.051811285
110	0xbd7688c1	-0.060189012
111	0xbc02e1b4	-0.007988382
112	0x3d64e77e	0.05588483
113	0x3d19b65e	0.037527435
114	0x3d7da198	0.061921686
115	0x3e1e2460	0.15443563
116	0xbb627086	-0.0034551932
117	0xbc568732	-0.0130937565
118	0xbd1dce88	-0.03852704
119	0xbe1d05a9	-0.1533419
120	0x3cf78df8	0.030219063
121	0xbdb3e792	-0.08784403
122	0x3c25fac0	0.010130584
123	0xbc99c57f	-0.018770931
124	0xbd4a30de	-0.04936301
125	0xbda030e0	-0.07821822
126	0x3c303da3	0.010756883
127	0xbd6b351f	-0.057423707
128	0x3d328e9f	0.043593045
129	0x3d234f70	0.03987068
130	0xbdb04bf0	-0.08608234
131	0x3dde1a9b	0.10844918
132	0xbcd2aefc	-0.025718205
133	0xbc9a6ae5	-0.0188498
134	0xbdc2087c	-0.094742745
135	0xbba8be6c	-0.005149653
136	0x3d44c676	0.04804083
137	0xbe14d267	-0.14533387
138	0x3da73cd6	0.081659004
139	0xbcac8edf	-0.02106422
140	0xbdd2061a	-0.1025507
141	0xbd7e1467	-0.062031176
142	0x3ccaae6b	0.024741372
143	0x3d8db0a9	0.06918461
144	0x3c900451	0.017580183
145	0xbd5bdbd8	-0.053676456
146	0xb992d5a1	-0.00028006456
147	0x3d9af2bc	0.07565829
148	0x3ca316df	0.019908367
149	0xbe1fdeb5	-0.156123
150	0xbddb8bdc	-0.107200354
151	0xbc8d4187	-0.01724316
152	0xbd8e6c81	-0.06954289
153	0x3ce5af40	0.028037667
154	0x3e8f3306	0.27968615
155	0x3d9311a1	0.07181097
156	0xbcf8c9af	-0.030369608
157	0x3dd4c385	0.10388855
158	0xbd3ecd6d	-0.046582628
159	0xbda0c6b9	-0.07850403
160	0x3d757a36	0.059931003
161	0x3dd8f882	0.10594274
162	0x3ce96e7c	0.028495066
163	0x3da4d4f4	0.0804843
164	0xbdf57570	-0.1198529
165	0xbd5c27b4	-0.0537488
166	0x3d4042bf	0.046938654
167	0x3cbe04a6	0.023195576
168	0xbd86d644	-0.06583837
169	0xbcdbf64b	-0.02685084
170	0x3db93d5f	0.09044909
171	0x3d5152c2	0.051104315
172	0xbcfe931c	-0.031076007
173	0xb88d6456	-6.742093e-05
174	0xbc2ed671	-0.010671244
175	0x3ca1f868	0.01977177
176	0x3d5d6fec	0.054061815
177	0xbdd3441b	-0.103157245
178	0x3b703931	0.0036655182
179	0xbcc08b1b	-0.02350383
180	0xbd208eba	-0.039198615
181	0xbac83125	-0.0015273435
182	0x3ce22785	0.027606735
183	0xbd945427	-0.07242613
184	0x3abbbfa9	0.0014324087
185	0x3d1df314	0.038561895
186	0xbdd3c167	-0.10339623
187	0x3d8f36e8	0.069928944
188	0x3c1a698b	0.0094245775
189	0xbdd38b69	-0.10329325
190	0x3cd81281	0.02637601
191	0xbdd3f605	-0.10349659
192	0x3d1fd581	0.039021973
193	0x3aaab0be	0.0013022644
194	0xbdc219c0	-0.09477568
195	0x3d8f3a9e	0.06993602
196	0xbcf09a53	-0.029370463
197	0xbdd1bc3d	-0.10240982
198	0xbd80a6f7	-0.06281846
199	0x3c8de3ce	0.01732054
200	0xbdccc9a7	-0.099994
201	0x3d30bcaf	0.043148693
202	0x3d53c7e8	0.051704317
203	0x3d8197bd	0.0632777
204	0x3da374ae	0.07981239
205	0x3da29c86	0.07940011
206	0xbd871a17	-0.06596773
207	0xbd98c6ef	-0.074598186
208	0x3d5c15d2	0.053731747
209	0x3cc29ff9	0.023757922
210	0x3d68a2b2	0.056795783
211	0x3d2feb3a	0.04294894
212	0x3de82a6e	0.11336218
213	0xbc3d0bfc	-0.011538502
214	0xbc2a1c4b	-0.010382722
215	0xbc866759	-0.016406702
216	0x3d778c05	0.060436267
217	0x3c5faadd	0.013651577
218	0xbd358cc3	-0.044323694
219	0x3d8e565f	0.06950068
220	0xbc986f7f	-0.018607853
221	0x3caf23a6	0.021379303
222	0xbd133304	-0.035937324
223	0x3d3c2338	0.045932025
224	0xbb4dcae6	-0.0031401454
225	0x3d1db423	0.03850187
226	0xbcd9f0e8	-0.02660413
227	0xbdc3bb2b	-0.09557184
228	0xbd35bc8b	-0.04436926
229	0xbd3af7d3	-0.0456465
230	0xbdb121ca	-0.08649023
231	0x3df6fdfe	0.12060164
232	0xbdb42e1f	-0.087978594
233	0xbcfd605c	-0.030929737
234	0x3d113b19	0.03545675
235	0x3e1378f1	0.14401604
236	0x3d606a4c	0.054788873
237	0xbd5496cb	-0.05190162
238	0x3c4332ec	0.011913996
239	0x3c70d4a2	0.014699133
240	0xbade7ef2	-0.0016975089
241	0x3ce0ba88	0.027432695
242	0xbe006120	-0.1253705
243	0xbe103fb1	-0.14086796
244	0x3c058b74	0.008150924
245	0x3c45e26f	0.012077912
246	0x3da83353	0.08212914
247	0x3b494ef6	0.003071723
248	0xbdb52f4f	-0.08846914
249	0xbabd711c	-0.0014453265
250	0x3d17871a	0.036994077
251	0xbdbd91d0	-0.09256327
252	0x3c2f2e28	0.010692157
253	0x3c962fe0	0.018333375
254	0xbcae06bd	-0.021243447
255	0x3cdc135f	0.026864706

emb.layers.2.bias f4 [32]
0	0x3c6b48b5	0.014360596
1	0x3d363620	0.04448521
2	0xbcf63b46	-0.03005756
3	0x3ca1844d	0.019716406
4	0xbca2274d	-0.01979413
5	0xbd76a287	-0.060213592
6	0x3ce4cd43	0.027929908
7	0x3d3022ad	0.04300182
8	0x3d3fc928	0.046822697
9	0x3d6228e9	0.055214796
10	0x3d990837	0.0747227
11	0xbd3a849e	-0.04553663
12	0x3d396fce	0.04527264
13	0x3d54df27	0.051970627
14	0xbcca43fe	-0.024690624
15	0xbcd6008a	-0.026123304
16	0xbb16c49a	-0.0023005367
17	0xbd3700d4	-0.044678524
18	0x3d1d423f	0.038393255
19	0x3d7cdd7f	0.061734673
20	0xbd57b655	-0.05266412
21	0xbd6f21f1	-0.05838198
22	0x3d8f276d	0.06989942
23	0x3d82bf47	0.063841395
24	0x3c6f6788	0.014612086
25	0x3d0cb1ee	0.034349374
26	0xbc38b61b	-0.011273886
27	0xbd8f1f53	-0.069883965
28	0x3d1d340e	0.03837972
29	0x3d52f684	0.051504627
30	0xbd5c7443	-0.053821813
31	0x3d5bf069	0.05369607

encoder.layers.0.self_attn.in_proj_weight f4 [96, 32]
0	0xbe4ca043	-0.1998301
1	0x3cb80944	0.022465356
2	0xbe218332	-0.15772703
3	0xbe516df7	-0.20452105
4	0x3e01472c	0.12624806
5	0x3ca6b63b	0.020350566
6	0x3cac2b5f	0.021016775
7	0x3d01915d	0.03163277
8	0x3e7a5dae	0.24449798
9	0xbe029b9d	-0.12754674
10	0xbcfcb884	-0.030849703
11	0x3de40864	0.11134413
12	0xbd78d1f2	-0.060747094
13	0xbe71c8d9	-0.23611774
14	0x3d25b3e4	0.04045476
15	0x3de450e6	0.11148243
16	0x3de0ea58	0.109821975
17	0xbdc488c1	-0.09596396
18	0x3c055fb1	0.00814049
19	0xbe2eafb9	-0.1705922
20	0xbd6cd4b1	-0.057820026
21	0xbc85e8bc	-0.016346328
22	0x3de7fae4	0.113271505
23	0xbdbb52ac	-0.09146628
24	0xbd99f8cc	-0.07518157
25	0x3d8ab095	0.067719616
26	0xbe1017e4	-0.14071614
27	0xbd8ce1c4	-0.06878999
28	0x3d178024	0.03698744
29	0xbde50203	-0.11182024
30	0xbb6c6b91	-0.0036074857
31	0xbe2effb3	-0.17089729
32	0x3e2136ca	0.15743557
33	0x3e09026e	0.13379833
34	0x3dc4f08b	0.096161924
35	0xbe282f0f	-0.16424201
36	0xbe4dbd7d	-0.20091815
37	0xbe168148	-0.14697754
38	0x3bf8b36a	0.007589747
39	0xbdbf5ac0	-0.09343481
40	0x3e42295a	0.18961087
41	0x3c859911	0.01630834
42	0xbc48744f	-0.012234761
43	0xbe269d8d	-0.16271038
44	0xbe18bb2d	-0.14915152
45	0x3d62731d	0.05528556
46	0xbe5269ec	-0.20548218
47	0x3e69a63d	0.22817321
48	0xbd5277d1	-0.051383797
49	0x3c70b3f6	0.0146913435
50	0x3c2cf69d	0.010556844
51	0x3dd0d594	0.10196987
52	0xbd745674	-0.05965276
53	0xbe445dd1	-0.19176413
54	0x3e1079e8	0.14109004
55	0xbe3436ac	-0.1759898
56	0xbe5e1677	-0.21688257
57	0xbdbc38ba	-0.09190507
58	0x3e2b1ab7	0.1670941
59	0xbe376be5	-0.17912252
60	0xbdc308e1	-0.09523178
61	0x3d0a056a	0.03369657
62	0xbdf3df46	-0.119078204
63	0x3e6359ae	0.22202179
64	0xbdf708a2	-0.120621935
65	0xbae73bdd	-0.0017641742
66	0xbdcaa2fd	-0.09894369
67	0x3c530a8e	0.012880934
68	0x3c94e6a1	0.018176379
69	0x3d833264	0.064060956
70	0x3d5fbd2b	0.054623764
71	0x3d8cc306	0.06873135
72	0xbdd88d39	-0.10573811
73	0xbdb1e32f	-0.0868591
74	0xbcc5eaf5	-0.024159888
75	0x3dbef142	0.0932336
76	0xbd8451b0	-0.06460893
77	0x3d470063	0.048584353
78	0x3e34c58f	0.17653488
79	0x3d834a5f	0.064106695
80	0x3e986703	0.29766092
81	0x3e09a73f	0.13442706
82	0x3c1c4d8a	0.009539971
83	0xbc89d498	-0.016825005
84	0x3d88cd50	0.06679785
85	0xbd48cfd2	-0.049026318
86	0xbe7c2e47	-0.24627028
87	0xbd6d83d1	-0.057987038
88	0xbe60086f	-0.21878217
89	0xbc0ff5f7	-0.00878667
90	0xbd7173e5	-0.058948416
91	0xbd4fbbf6	-0.050716363
92	0x3bb56bc4	0.0055365283
93	0xbe3e9b95	-0.18614037
94	0xbcc1804d	-0.023620749
95	0x3e4757bb	0.1946706
96	0x3dfe3f06	0.124143645
97	0xbde8908b	-0.113556944
98	0x3d89d8b5	0.06730787
99	0xbdc03c21	-0.09386469
100	0xbc605868	-0.013692953
101	0x3d9788dc	0.07399151
102	0x3c8dd7fc	0.017314903
103	0x3d9348fa	0.071916535
104	0x3d0c4a56	0.03425058
105	0xbdb1a469	-0.08673937
106	0x3e296841	0.16543676
107	0xbe07e184	-0.13269621
108	0xbe083812	-0.13302639
109	0x3e10c2a7	0.14136754
110	0x3ba5f400	0.0050644875
111	0xbd04f43c	-0.032459483
112	0xbcce9c75	-0.025221089
113	0x3b219ec2	0.0024661277
114	0xbd9b5ee8	-0.07586461
115	0x3dfd319a	0.12362976
116	0x3e05c8e2	0.13064912
117	0xbe981313	-0.29702052
118	0x3e30c470	0.17262435
119	0x3e020547	0.12697326
120	0x3cfc6545	0.030810008
121	0x3e07cbbd	0.13261314
122	0xbdf24ba1	-0.11830831
123	0xbdf9e7be	-0.122024044
124	0x3d40b118	0.04704389
125	0x3e1f33cd	0.15547104
126	0x3d98cbff	0.07460784
127	0xbdadd7e2	-0.08488442
128	0xbe4c244c	-0.19935721
129	0xbde0d4f7	-0.1097812
130	0x3d8d7851	0.06907714
131	0xbdd9e75d	-0.10639832
132	0xbc2ed475	-0.010670771
133	0x3e4d3ed5	0.200435
134	0x3e038096	0.1284202
135	0xbc24c5f0	-0.010056958
136	0x3e420376	0.18946633
137	0xbda428d8	-0.08015603
138	0xbd3c8f3c	-0.046035036
139	0x38ca1bb9	9.637274e-05
140	0x3e02c651	0.12770964
141	0xbe02d0df	-0.1277499
142	0x3db4dc40	0.08831072
143	0x3df0b7d6	0.11753814
144	0xbd8efd80	-0.06981945
145	0xbd91ec56	-0.07125156
146	0x3c34dd41	0.011039079
147	0x3e1df886	0.15426835
148	0xbe2c1ac8	-0.16807091
149	0x3e001d9b	0.12511294
150	0xbd3ac352	-0.04559643
151	0xbe3c647d	-0.18397708
152	0x3e0bb9f7	0.13645159
153	0x3d812e18	0.0630762
154	0x3df3bf31	0.11901701
155	0xbdfa84c1	-0.12232352
156	0x3dfe393f	0.124132626
157	0xbd006d1d	-0.03135406
158	0xbe3d0b7f	-0.18461417
159	0x3d8ca781	0.06867886
160	0x3e2b67e3	0.16738848
161	0xbc96458a	-0.018343706
162	0xbd0a68b2	-0.03379125
163	0xbe03325d	-0.12812181
164	0xbe19b60c	-0.15010852
165	0xbe141cf6	-0.14464173
166	0x3e1e0d70	0.15434813
167	0xbe2e8e6b	-0.17046516
168	0x3dce32ce	0.10068284
169	0x3e4dfcdb	0.20115988
170	0xbe06ba89	-0.13157095
171	0x3e259016	0.16168246
172	0xbd01d564	-0.031697646
173	0x3c583f26	0.0131986495
174	0x3bcf39bf	0.0063240225
175	0xbdd34625	-0.103161134
176	0xbdd9ab17	-0.10628336
177	0x3d3f061d	0.04663669
178	0x3df0c0c2	0.11755516
179	0xbd561c84	-0.05227329
180	0xbd8218a7	-0.06352358
181	0xbe107930	-0.1410873
182	0xbe0541e0	-0.1301341
183	0x3dd117f2	0.10209645
184	0xbdc72273	-0.097233675
185	0xbe20cf76	-0.1570414
186	0xbd9ed95d	-0.077563025
187	0xbe551ae4	-0.20811039
188	0xbe0746d9	-0.1321062
189	0x3c73ee9c	0.014888432
190	0xbd6b7c19	-0.057491396
191	0xbddaf294	-0.10690799
192	0x3bf97806	0.007613185
193	0x3e1a839d	0.15089269
194	0x3d010619	0.031499956
195	0x3e4a69ee	0.19766971
196	0x3c58cc35	0.0132322805
197	0xbcab1ad1	-0.02088681
198	0xbe25ae63	-0.16179805
199	0x3d5c0f5d	0.05372559
200	0x3dfd5492	0.12369646
201	0xbe0e1855	-0.1387647
202	0x3e633d40	0.22191334
203	0xbdd423fc	-0.10358426
204	0xbe00a8c9	-0.12564386
205	0xbdb37254	-0.08762041
206	0xbb3a30e8	-0.0028410498
207	0x3d76d681	0.06026316
208	0xbd9a1b46	-0.07524733
209	0xbd1a561b	-0.037679773
210	0xbe29482c	-0.16531438
211	0x3e3b933d	0.18317886
212	0xbd1ae576	-0.037816487
213	0x3e87fa2b	0.2655805
214	0xbe56f799	-0.20992889
215	0x3bddd4f5	0.006769771
216	0xbe38e675	-0.18056662
217	0xbe22966b	-0.15877692
218	0xbe0fdabe	-0.14048287
219	0xbdc9b972	-0.09849824
220	0xbd2fb1b5	-0.042894084
221	0xbe855170	-0.26038694
222	0x3d783db3	0.060605716
223	0x3e22edd3	0.15911035
224	0x3d9a4f6b	0.07534679
225	0xbe53943b	-0.20662014
226	0xbc9e157d	-0.019297356
227	0x3d7f4798	0.062324136
228	0xbdfbe071	-0.12298668
229	0x3e7c8f58	0.24664056
230	0x3e00db17	0.12583576
231	0xbaa17011	-0.0012316724
232	0x3d12d0b4	0.035843566
233	0x3e3cc4fa	0.18434516
234	0xbde3adbb	-0.11117121
235	0x3b9e350d	0.0048281015
236	0xbe12ae34	-0.14324266
237	0x3dc0dfb5	0.09417669
238	0xbd2dbc40	-0.042415857
239	0x3d99d3f4	0.0751113
240	0x3de17abe	0.11009739
241	0x3dd8d500	0.105875015
242	0xbe0ce968	-0.13760912
243	0x3e23d9d9	0.16001071
244	0xbe08e81d	-0.13369794
245	0x3e7f3713	0.24923353
246	0x3da6d8fd	0.08146856
247	0x3e223087	0.15838824
248	0xbe05ee0f	-0.13079093
249	0x3dfa90d6	0.122346565
250	0x3e36191c	0.17783016
251	0x3e484ee1	0.1956134
252	0x3cf4a509	0.029863851
253	0x3d8d81cf	0.06909525
254	0xbe4adf70	-0.19811797
255	0x3c1dadc3	0.009623948

encoder.layers.0.self_attn.in_proj_bias f4 [96]
0	0x3e197de3	0.14989428
1	0x3d124a34	0.035715297
2	0xbe23344d	-0.1593792
3	0x3e0c143b	0.13679592
4	0x3d8fe447	0.07025962
5	0x3df44643	0.11927464
6	0xbdc63003	-0.09677126
7	0xbdc2fa4b	-0.09520396
8	0xbdb1ac4d	-0.08675442
9	0xbdbb0bdd	-0.09133122
10	0xbdc2a2e7	-0.095037274
11	0xbdcc0048	-0.09960991
12	0x3dcc23a2	0.09967734
13	0xbd613e4d	-0.054991055
14	0xbd9f1569	-0.077677555
15	0xbda8a1a4	-0.082339555
16	0x3e924a17	0.2857215
17	0xbe8e4174	-0.27784312
18	0xbe0397bc	-0.12850851
19	0xbe2642c0	-0.162364
20	0xbe8da660	-0.27665997
21	0xbe829119	-0.25501326
22	0xbdbec653	-0.09315171
23	0x3d2b8f36	0.041884623
24	0xbe6e87e6	-0.23294029
25	0xbe4c8ae7	-0.19974862
26	0x3e1ab718	0.15108907
27	0x3e3f0c71	0.1865709
28	0xbde991a0	-0.11404729
29	0xbdf6b5d1	-0.120463975
30	0x3dcbc3cd	0.099494554
31	0x3ec9c6e1	0.39409545
32	0xb7d2f93e	-2.5150013e-05
33	0x35f64765	1.8349207e-06
34	0x37c10f1b	2.3014427e-05
35	0xb7328092	-1.0639562e-05
36	0xb7582091	-1.2882186e-05
37	0xb7a5dd87	-1.977269e-05
38	0x38619396	5.378163e-05
39	0x36e4f0f6	6.822981e-06
40	0xb836e17a	-4.3602173e-05
41	0x37b767bf	2.186361e-05
42	0xb70e302d	-8.475076e-06
43	0x3717a6c6	9.039131e-06
44	0xb8457689	-4.7078855e-05
45	0x376204f5	1.3471804e-05
46	0x37d594dd	2.5460899e-05
47	0x3762ca69	1.3517777e-05
48	0x3962eb67	0.00021640734
49	0xb91760a6	-0.00014436487
50	0xb8873869	-6.447809e-05
51	0xb93332ca	-0.0001708969
52	0xb935158f	-0.00017269536
53	0xb9144612	-0.00014140483
54	0xb7b8ec9a	-2.2044685e-05
55	0x38087203	3.253111e-05
56	0xb8aac677	-8.143199e-05
57	0xb8d01f31	-9.924023e-05
58	0x38a9f11e	8.1034595e-05
59	0x389fad0e	7.613945e-05
60	0xb887fb2b	-6.484085e-05
61	0xb7eb6b38	-2.806411e-05
62	0xb7e49039	-2.7246877e-05
63	0x398ab908	0.0002645927
64	0x3c57b0e2	0.013164731
65	0xbba3a01c	-0.0049934518
66	0x3c4c955a	0.01248678
67	0x3c490df7	0.012271396
68	0xbbe26041	-0.006908447
69	0xbbcabcd7	-0.0061870622
70	0x3cb21bb5	0.021741727
71	0xbc7957f1	-0.015218721
72	0xbd438ef7	-0.047743764
73	0x3ba3d352	0.0049995566
74	0xbc85cb75	-0.016332367
75	0x3ce9c5e4	0.028536744
76	0xbb31ff36	-0.0027160174
77	0x3c275bfe	0.010214804
78	0xbbf80e96	-0.007570098
79	0xbca5dd67	-0.020247174
80	0x3d727a2e	0.05919855
81	0xbbebd372	-0.007196837
82	0xbc9cfa3a	-0.019162286
83	0x3c2fc219	0.010727429
84	0xbcafdded	-0.021468127
85	0x3c0bfe14	0.008544464
86	0x3d46e478	0.04855773
87	0xbc805265	-0.015664289
88	0x3b0e1a1c	0.0021683043
89	0x3c850e13	0.016242063
90	0xbb2c861d	-0.0026325055
91	0x3d3ced5a	0.046124794
92	0xbc23b938	-0.00999289
93	0xbd65262b	-0.055944603
94	0xbc50cfae	-0.012744827
95	0xbbaa71eb	-0.0052015684

encoder.layers.0.self_attn.out_proj.weight f4 [32, 32]
0	0x3cfa629e	0.030564602
1	0xbac92e51	-0.0015348886
2	0x3e0c9d5a	0.137319
3	0xbdfacb67	-0.12245827
4	0x3de27195	0.1105682
5	0xbd2cdad6	-0.042200886
6	0x3de6101a	0.1123354
7	0xbda8084b	-0.08204707
8	0xbe04bb58	-0.12962091
9	0xbd4d24dc	-0.05008398
10	0xbd082305	-0.033236522
11	0x3e3176d0	0.1733048
12	0x3de74a3b	0.11293455
13	0xbd68350b	-0.05669121
14	0xbd8b1f35	-0.06793062
15	0x3d954ba1	0.07289816
16	0x3d061fe8	0.032745272
17	0xbd2e4cfc	-0.042553887
18	0x3e061a07	0.13095866
19	0xbd0575a5	-0.032582898
20	0x3e120be5	0.1426235
21	0x3d7309df	0.059335586
22	0x3d595674	0.053060964
23	0x3da0640e	0.07831584
24	0xbd929df2	-0.07159032
25	0xbda1a74f	-0.0789324
26	0xbc1fcd9f	-0.009753614
27	0x3cf2d891	0.029644283
28	0xbe020c5e	-0.1270003
29	0x3d824348	0.06360489
30	0x3d1d1ed9	0.038359497
31	0x3e068d54	0.1313985
32	0xbde73da1	-0.11291052
33	0xbd56bdc6	-0.052427076
34	0xbda17d8e	-0.07885276
35	0x3e74cc46	0.23906049
36	0x3e3586e8	0.17727244
37	0x3dc44b2e	0.09584652
38	0x3e08d2aa	0.13361612
39	0x3d84a29e	0.06476329
40	0xbe34f435	-0.17671283
41	0x3db1a1cf	0.08673441
42	0xbc804167	-0.015656186
43	0x3d4b044a	0.049564637
44	0x3ceff26f	0.029290406
45	0xbab6d0c6	-0.0013947717
46	0xbd603d2d	-0.05474584
47	0x3d8eea90	0.06978333
48	0x3df77d77	0.120844774
49	0xbdd50812	-0.1040193
50	0x3d24caf3	0.04023261
51	0x3ceb3f5b	0.028716734
52	0xbdaa4319	-0.08313579
53	0x3da103f4	0.07862082
54	0x3e36b202	0.17841342
55	0xbe769d53	-0.24083452
56	0xbda9715c	-0.08273575
57	0x3dc9054b	0.09815463
58	0xbdabb420	-0.083839655
59	0x3e1bde19	0.15221442
60	0xbbd26676	-0.0064209057
61	0xbd01b045	-0.031662244
62	0xbdf2d262	-0.118565336
63	0xbe15e30a	-0.1463739
64	0xbda0e167	-0.07855492
65	0xbd818813	-0.06324782
66	0x3e31855f	0.17336033
67	0xbda2deee	-0.07952677
68	0x3df626f1	0.12019146
69	0xbccb8687	-0.024844421
70	0xbe0d8d18	-0.13823354
71	0x3c387a03	0.011259559
72	0xbb7ff042	-0.0039053117
73	0xbc153a31	-0.009108112
74	0xbd5c683e	-0.05381035
75	0xbe01bfde	-0.12670848
76	0xbdf18028	-0.11792022
77	0x3b9a89a7	0.0047161165
78	0xbac714ca	-0.0015188691
79	0x3dcf3f10	0.1011945
80	0x3e2300af	0.1591823
81	0xbdd9f13a	-0.106417134
82	0x3d9e690a	0.07734878
83	0xbdc8ea92	-0.09810366
84	0x3dddbe7b	0.10827347
85	0xbdadbab2	-0.08482875
86	0xbe0390e7	-0.12848245
87	0xbe084ee9	-0.13311352
88	0xbcf38678	-0.029727206
89	0x3dc6ee46	0.09713416
90	0xbd617173	-0.055039834
91	0x3deeb83c	0.11656234
92	0xbdaeeb7a	-0.08541007
93	0xbd96cc05	-0.073631324
94	0x3d96eb20	0.07369065
95	0x3dfbdfb7	0.122985296
96	0xbdf71764	-0.12065008
97	0xbdd0ea6e	-0.10200964
98	0x3dc85d31	0.097834
99	0xbd00a9f0	-0.031412065
100	0x3dc37552	0.095438614
101	0xbd778822	-0.06043256
102	0x3e06b200	0.13153839
103	0x3da520fc	0.08062932
104	0xbc2aadfe	-0.0104174595
105	0x3ce29d32	0.027662847
106	0xbdb2a548	-0.08722931
107	0x3de3ca78	0.11122602
108	0x3e563e0f	0.20922111
109	0x3e0e3b06	0.13889703
110	0xbde1da3f	-0.11027955
111	0xbddac19a	-0.10681458
112	0xbd70fd1e	-0.05883514
113	0xbd1787a7	-0.036994603
114	0x3d9c1861	0.076218374
115	0xbde90d27	-0.11379462
116	0xbd80b843	-0.06285145
117	0x3da7f7e4	0.08201578
118	0x3e19abfb	0.15007012
119	0xbe3ccd6f	-0.18437742
120	0x3df47e2c	0.11938128
121	0xbc13da1b	-0.009024168
122	0xbde4273d	-0.111402966
123	0xbdba365b	-0.09092399
124	0x3de94eba	0.11391969
125	0xbe24f210	-0.16107965
126	0xbd985d95	-0.07439724
127	0x3d48a0da	0.048981525
128	0xbdc241d9	-0.09485216
129	0x3df9d847	0.12199455
130	0xbc77a30f	-0.01511456
131	0x3da2ea50	0.07954848
132	0xbaffb28e	-0.001950817
133	0xbe1cee5a	-0.15325299
134	0x3ca931a4	0.020653553
135	0xbb36c3eb	-0.0027887772
136	0xbcb749b8	-0.022374019
137	0x3e0e7a7a	0.13913909
138	0x3e2f08db	0.17093222
139	0x3e156df6	0.14592728
140	0x3de0c9a0	0.10975957
141	0x3b5b5186	0.003346534
142	0xbde339a5	-0.11094979
143	0x3c040182	0.008057
144	0x3dfde8e3	0.12397935
145	0x3dd5f21b	0.104465686
146	0xbd121ae9	-0.035670195
147	0xbd7e6c18	-0.062114805
148	0x3da23774	0.07920733
149	0xbd50c50c	-0.05096917
150	0xbd3c420f	-0.045961436
151	0x3e7117bc	0.2354421
152	0xbdbc6867	-0.09199601
153	0x3e11753c	0.14204878
154	0x3daf00a0	0.08545041
155	0x3e18d35f	0.14924382
156	0x3e010e37	0.12603079
157	0x3d589b05	0.052882213
158	0x3d2c4a05	0.042062778
159	0x3e2fdfc5	0.17175205
160	0xbda17034	-0.07882729
161	0x3e3ef429	0.18647827
162	0x3ddcbbb4	0.10777989
163	0x3c2b1360	0.010441631
164	0xbe0b4706	-0.13601312
165	0x3d364548	0.044499665
166	0x3d8b4a90	0.06801331
167	0xbdac789b	-0.08421441
168	0xbe1db8f0	-0.1540258
169	0x3b86d839	0.004115131
170	0xbcfb14ac	-0.030649506
171	0xbd5351cb	-0.051591676
172	0x3d1ea8f4	0.038735345
173	0x3c9bd91d	0.019024426
174	0x3d70f155	0.058823902
175	0xbca94433	-0.020662403
176	0xbe377de6	-0.1791912
177	0xbdeb9b77	-0.11504262
178	0xbe34d1bd	-0.17658134
179	0xbdacc59f	-0.08436131
180	0x3c662266	0.014046287
181	0xbc1a60a1	-0.009422452
182	0xbc743675	-0.014905562
183	0x3e5804ef	0.21095632
184	0x3e320eae	0.17388412
185	0xbe262e24	-0.16228539
186	0xbc496086	-0.012291079
187	0xbe21140a	-0.157303
188	0xbe372b8a	-0.17887703
189	0xbbb57f1a	-0.0055388333
190	0xbdb04c3f	-0.08608293
191	0x3deb8e6b	0.115017734
192	0x3c9bb37e	0.019006487
193	0xbe099595	-0.13435967
194	0x3df017c3	0.11723282
195	0x3e01a1be	0.12659356
196	0xbb7c13bb	-0.0038463909
197	0x3e310c62	0.1728988
198	0xbd905675	-0.0704774
199	0xbddc75d9	-0.10764665
200	0xbd37ccf3	-0.04487319
201	0xbdae2fde	-0.08505224
202	0xbd8494f8	-0.06473726
203	0xbe2b27fc	-0.16714472
204	0x3e1cd8b0	0.15317035
205	0xbb89deb7	-0.004207458
206	0xbd7c8ba4	-0.06165661
207	0x3d117487	0.03551152
208	0xbac6f06f	-0.0015177856
209	0x3dd39515	0.103311695
210	0x3ca006f3	0.019534564
211	0x3e0c5bea	0.13706937
212	0x3d85db08	0.065359175
213	0x3e381383	0.17976193
214	0x3d2aab44	0.041667238
215	0xbdb2a96a	-0.087237194
216	0xbdd3f3fd	-0.103492714
217	0x3bb7473f	0.00559321
218	0xbe39aeb6	-0.18133053
219	0x3e1fec8e	0.15617582
220	0x3e689099	0.2271141
221	0xbe00753b	-0.1254472
222	0xbb7b32d6	-0.003832986
223	0x3dffb252	0.12485184
224	0xbd881d06	-0.06646161
225	0xbce99f24	-0.028518267
226	0xbd35433a	-0.044253565
227	0x3e1c284e	0.1524975
228	0x3e2c0d0a	0.16801849
229	0x3c190b73	0.009341109
230	0xbe09304e	-0.13397333
231	0x3bf0db21	0.007350341
232	0x3deafe97	0.114743404
233	0xbe0573c1	-0.13032438
234	0x3e3b546c	0.18293923
235	0xbe2d880d	-0.1694643
236	0x3c80054f	0.015627531
237	0x3d8ab8e8	0.06773549
238	0x3c6c3ab9	0.014418297
239	0x3dd0414d	0.10168705
240	0xbda42bd3	-0.08016171
241	0xbd7243c2	-0.05914665
242	0x3e1d549e	0.1536431
243	0x3df286c5	0.118421115
244	0xbc07b3c2	-0.008282604
245	0xbe2cdf03	-0.16881947
246	0x3ceea5f7	0.029131873
247	0xbe189bac	-0.14903134
248	0x3d0f7ffc	0.035034165
249	0xbd6a9310	-0.057269156
250	0xbdd4401e	-0.10363792
251	0x3d138398	0.03601417
252	0x3d0fc4d3	0.035099816
253	0xbd494a2c	-0.049143
254	0xbd843a4e	-0.06456433
255	0x3c1ef2ad	0.009701413

encoder.layers.0.self_attn.out_proj.bias f4 [32]
0	0x3c047e92	0.008086817
1	0x3c9da8c5	0.019245515
2	0xbb3a6453	-0.0028441146
3	0x3a92e5c3	0.001120739
4	0x3cbd1237	0.023079975
5	0xbc812b6f	-0.015767781
6	0x3ccacd2a	0.024756033
7	0xba91a960	-0.00111131
8	0x3cc32c8d	0.023824954
9	0xbd15c9e5	-0.036569495
10	0x3b91a2d3	0.004444459
11	0xbc4525ab	-0.0120329065
12	0xbc84ddc2	-0.016219024
13	0x3b8507eb	0.004059782
14	0xbbdfa551	-0.006825127
15	0x3b40f22a	0.0029441216
16	0xbbab189a	-0.0052214386
17	0xbc1431e3	-0.009045097
18	0xbb8133cc	-0.0039429422
19	0xbc1d20d1	-0.009590344
20	0xbcc21c30	-0.023695081
21	0xbcc028cf	-0.023456959
22	0x3c85fc51	0.016355665
23	0x3c8e5949	0.017376559
24	0x3c3b9768	0.011449672
25	0xbc4ce5b4	-0.012505937
26	0x3ceef34b	0.029168746
27	0xbb4c2932	-0.0031152484
28	0x3c0b0760	0.008485645
29	0x3b1c2d2d	0.0023830638
30	0x3b8efbe3	0.0043635233
31	0xbc9cb4a5	-0.019129107

encoder.layers.0.linear1.weight f4 [128, 32]
0	0x3d1dae04	0.038496032
1	0xbd4aa560	-0.04947412
2	0xbd8acb66	-0.067770764
3	0x3e1558af	0.14584611
4	0xbca147e9	-0.01968761
5	0xbce74297	-0.028229995
6	0xbdba09fa	-0.09083934
7	0x3d1d6730	0.038428485
8	0x3ccdcfac	0.02512344
9	0xbddaa946	-0.106768176
10	0x3d886d0d	0.06661425
11	0x3e3a2efe	0.18181989
12	0xbdbd2b3b	-0.09236761
13	0xbc30dcb4	-0.010794807
14	0x3de2099e	0.110369906
15	0x3d6caea1	0.057783727
16	0xbbb68196	-0.005569647
17	0x3cc1b05c	0.023643665
18	0xbc9a21fa	-0.01881503
19	0xbd6e57e0	-0.058189273
20	0xbdf9b9ca	-0.121936396
21	0xbda8c0ff	-0.08239936
22	0x3d4e2cba	0.050335623
23	0xbd948f57	-0.072539024
24	0xbdb93f38	-0.09045261
25	0x3d99f195	0.07516781
26	0xbe026366	-0.1273323
27	0xbdf1542b	-0.11783632
28	0xbc604300	-0.013687849
29	0xbd878caa	-0.066186264
30	0xbd8170f5	-0.06320373
31	0x3df35b93	0.11882701
32	0x3e82f8a5	0.25580326
33	0xbdf0dec0	-0.11761236
34	0x3daff7f3	0.085922144
35	0x3d792f2d	0.060836006
36	0xbe164b73	-0.14677219
37	0x3c26ad7b	0.010173197
38	0x3b7ae384	0.0038282583
39	0x3d46f599	0.048574064
40	0x3e07706c	0.1322648
41	0xbd6c274b	-0.05765466
42	0x3b7c717a	0.0038519786
43	0x3d05f659	0.03270564
44	0x3d2f82bc	0.042849287
45	0xbdce1647	-0.10062843
46	0xbe69c2df	-0.22828244
47	0xbd7455fe	-0.05965232
48	0x3d11956e	0.035542898
49	0xbd3b7bda	-0.04577241
50	0xbd6d4a83	-0.057932388
51	0xbd68b63a	-0.05681441
52	0x3e38050c	0.17970675
53	0xbddab1a9	-0.10678417
54	0x3c620c1d	0.013796833
55	0x3d21e095	0.03952082
56	0x3d98e763	0.074660085
57	0x3dbb4b52	0.091452256
58	0x3daad3c2	0.08341171
59	0x3d516680	0.051123142
60	0x3e10cd3f	0.14140795
61	0x3e2da792	0.16958454
62	0x3e0baa1e	0.13639113
63	0x3b310316	0.0027009896
64	0xbda03961	-0.07823444
65	0xbdc78c23	-0.09743526
66	0xbe1bf8df	-0.15231656
67	0x3e39345e	0.18086383
68	0xbe17c09d	-0.1481957
69	0x3c94fcb8	0.018186912
70	0x3dc987a5	0.09840325
71	0xbd8b9bf1	-0.06816853
72	0xbe638e3c	-0.22222227
73	0xbe187bc4	-0.14890963
74	0x3dc84507	0.09778791
75	0x3dbe02bf	0.092778675
76	0xbd048409	-0.03235248
77	0xbe3078e2	-0.17233613
78	0x3de54fb0	0.1119684
79	0xbc805f27	-0.015670372
80	0x3d811e37	0.06304591
81	0x3da87656	0.08225696
82	0x3e03a03e	0.12854096
83	0x3e2a72a0	0.16645288
84	0x3d143c5b	0.036190372
85	0x3e5183c1	0.20460416
86	0x3cfcb9e1	0.030850353
87	0x3e178243	0.14795785
88	0x3997ef5c	0.000289793
89	0xbe13daa6	-0.14438877
90	0xbdc283ae	-0.09497772
91	0xbda23968	-0.079211056
92	0x3e268a16	0.16263613
93	0xbd9daff9	-0.0769958
94	0xbe0a4413	-0.13502531
95	0xbcc705d6	-0.024294775
96	0xbdc0868a	-0.09400661
97	0xbdc21dc5	-0.09478334
98	0x3d9b3359	0.07578153
99	0xbd9b66f3	-0.075879954
100	0x3db3de60	0.08782649
101	0xbe37f3aa	-0.17964044
102	0xbe06c86c	-0.13162392
103	0xbe151b1b	-0.14561121
104	0x3d162970	0.03666061
105	0xbdccfdef	-0.100093715
106	0x3e3077f8	0.17233264
107	0xbe275876	-0.16342339
108	0x3dfefe29	0.12450821
109	0xbe0aef69	-0.1356789
110	0x3c8bc73d	0.017062778
111	0xbafddff6	-0.0019369114
112	0x3deccfcb	0.11563071
113	0x3de67f95	0.11254803
114	0xbd5f09d1	-0.05445272
115	0xbdff111b	-0.124544345
116	0xbd5f6b4d	-0.05454569
117	0x3dc8ef32	0.09811248
118	0xbdf69509	-0.12040145
119	0xbd04aa7f	-0.03238916
120	0xbc133faf	-0.008987351
121	0xbe01c527	-0.12672864
122	0xbe0fc92d	-0.14041586
123	0x3de7e9bf	0.113238804
124	0x3ddc02c2	0.107427135
125	0xba94c455	-0.0011350015
126	0xbda5be42	-0.080929294
127	0xbd7a6aac	-0.061136886
128	0x3e5829e8	0.21109736
129	0xbd882fb4	-0.06649724
130	0xbdafff0e	-0.0859357
131	0xbe2f46ca	-0.17116848
132	0x3db7357c	0.08945748
133	0x3d4e2d8e	0.050336413
134	0x3d671c7c	0.05642365
135	0xbe198640	-0.14992619
136	0x3d332b2e	0.04374235
137	0xbd55825c	-0.052126274
138	0x3e3d91d5	0.18512662
139	0x3db70167	0.08935814
140	0x3d447f41	0.04797292
141	0xbd20a240	-0.039217234
142	0x3d32b015	0.043624956
143	0x3c817027	0.015800549
144	0xbb6362f2	-0.0034696427
145	0xbdfe0e7f	-0.12405109
146	0xbd243f35	-0.04009934
147	0x3d50416b	0.050843637
148	0xbc96d257	-0.018410845
149	0x3d3fdc49	0.04684094
150	0x3d6712fd	0.056414593
151	0x3e047ca6	0.12938175
152	0xbda37038	-0.079803884
153	0x3d46589e	0.048424356
154	0x3daf7e44	0.08569005
155	0x3e270261	0.16309501
156	0xbe0b75a0	-0.13619089
157	0xbd028ff6	-0.031875573
158	0x3e4ff10d	0.20306797
159	0xbc7b5b13	-0.015341538
160	0x3de2c297	0.11072271
161	0x3d43c999	0.04779968
162	0x3deb5197	0.114901714
163	0x3e59b366	0.21259841
164	0x3cbb7645	0.022883544
165	0x3e305840	0.17221165
166	0x3dc04997	0.09389036
167	0xbda021d2	-0.07818951
168	0x3cb36e82	0.02190328
169	0x3d5d569b	0.05403767
170	0xbc98d144	-0.018654473
171	0x3d5ad9fc	0.053430542
172	0xbda7e213	-0.08197417
173	0x3dd81240	0.10550356
174	0xbe537aa7	-0.20652257
175	0x3dc989bf	0.09840726
176	0x3d8a7fb4	0.06762639
177	0xbdd66c56	-0.10469882
178	0x3da128fe	0.07869147
179	0xbcd7bbc2	-0.026334647
180	0x3dc5d293	0.096593045
181	0x3d8808c0	0.06642294
182	0xbc2a6502	-0.010400059
183	0xbd99b6df	-0.07505583
184	0xbc823e46	-0.015898835
185	0x39d79459	0.00041118523
186	0x3de1adde	0.11019491
187	0xbd1860b6	-0.037201606
188	0x3df8a965	0.121416844
189	0xbce0cf0b	-0.027442476
190	0x3d88ae53	0.06673875
191	0x3d92ee2a	0.071743324
192	0xbdaf3cbe	-0.085565075
193	0xbd558e34	-0.05213757
194	0xbdc64dbe	-0.09682797
195	0xbe1b1711	-0.15145518
196	0x3dd7cb97	0.105368786
197	0x3e124d25	0.14287241
198	0x3e02ad66	0.12761459
199	0xbdcf2992	-0.10115351
200	0x3e43ea2c	0.19132298
201	0xbe03817b	-0.12842362
202	0x3d37e947	0.044900205
203	0x3dae6399	0.085150905
204	0x3de01d58	0.10943097
205	0xbca71a0d	-0.020398164
206	0xbe5283c3	-0.20558076
207	0x3dc1d557	0.094645195
208	0x3e1664b8	0.14686859
209	0xbd46ae24	-0.048505917
210	0x3df59b38	0.11992496
211	0xbe178e80	-0.14800453
212	0x3dfe660a	0.12421806
213	0x3e161b22	0.14658788
214	0xbe122e01	-0.14275362
215	0x3c7ca738	0.015420727
216	0xbc512503	-0.012765172
217	0x3e10d2a6	0.14142856
218	0xbda5b366	-0.08090858
219	0xbe029a7f	-0.12754248
220	0x3dd3a7cd	0.1033474
221	0x3e15fb93	0.14646749
222	0x3e0928f6	0.13394532
223	0x3d2c1d70	0.04202026
224	0xbda5cb49	-0.08095414
225	0xbc9dd6cf	-0.019267468
226	0x3db87a7b	0.09007736
227	0xbd3cac0f	-0.046062525
228	0xbbe7526c	-0.007059386
229	0xbc9e9ca3	-0.0193618
230	0x3e4ee2a7	0.20203649
231	0x3e20c20c	0.15699023
232	0xbe0d8cf6	-0.13823304
233	0xbd4e1c2e	-0.050319843
234	0x3d8a1bcc	0.06743583
235	0xbd874756	-0.06605403
236	0x3c8ae345	0.016954074
237	0xbd676cd1	-0.05650026
238	0x3bb002a0	0.0053714067
239	0x3d5c14a9	0.05373064
240	0xbb92f216	-0.0044844253
241	0xbd04331c	-0.032275304
242	0x3d82ce7e	0.063870415
243	0xbdba2d8e	-0.0909072
244	0x3d2abafb	0.041682225
245	0x3e6f8c25	0.23393305
246	0x3e316579	0.17323865
247	0x3da66f32	0.081266776
248	0x3e00dd19	0.12584342
249	0xbd84f9b5	-0.0649294
250	0x3d68c2e2	0.05682648
251	0xbd512287	-0.05105832
252	0x3d805bd6	0.06267516
253	0xbe068415	-0.13136323
254	0xbc39493d	-0.011308965
255	0x3e09ae43	0.13445382

encoder.layers.0.linear1.bias f4 [128]
0	0xbd784c60	-0.060619712
1	0x3d4b2411	0.049594942
2	0x3d2e1455	0.04249986
3	0xbdb70902	-0.08937265
4	0xbe3c531c	-0.18391079
5	0x3d3c20b2	0.04592962
6	0xbd9119ce	-0.07085
7	0xbe3bf156	-0.18353781
8	0x3cead846	0.02866758
9	0xbe2c8dbd	-0.16850944
10	0xbd2cadf6	-0.04215809
11	0xbe4eb4dc	-0.2018618
12	0xbc8cb6a1	-0.017176928
13	0xbe2a9d8b	-0.1666166
14	0x3dd486a9	0.10377247
15	0xbe54e298	-0.20789564
16	0x3cfbd1ce	0.030739691
17	0xbe25c2fd	-0.16187663
18	0xbe0dd94c	-0.13852423
19	0xbbf19903	-0.0073729767
20	0xbe3eb500	-0.18623734
21	0x3c67352b	0.014111797
22	0x3da17caf	0.0788511
23	0xbdb4de07	-0.08831411
24	0xbe11e4da	-0.14247456
25	0x3e03df95	0.12878259
26	0xbe461bd4	-0.19346553
27	0xbda8c434	-0.08240548
28	0x3d4bdc5a	0.04977069
29	0x3db58c03	0.08864596
30	0xbd3ef316	-0.046618544
31	0x3df96ea1	0.12179304
32	0x3ca18181	0.019715073
33	0xbc96297a	-0.018330324
34	0x3d0ca4e1	0.03433693
35	0xbe18f1b7	-0.14935957
36	0xbe6870fb	-0.22699349
37	0xbddc6445	-0.107613124
38	0x3d6d716e	0.057969503
39	0xbce3b730	-0.027797312
40	0xbdaaa6f9	-0.08332629
41	0xbe099df0	-0.13439155
42	0xbde39c68	-0.111138165
43	0x3d1abde1	0.03777874
44	0xbdc7d49a	-0.097573474
45	0xbdbd3218	-0.0923807
46	0x3e09b29f	0.13447045
47	0x3e0ee8a1	0.13955928
48	0xbdef722d	-0.11691699
49	0xbe24d473	-0.16096668
50	0x3c93821e	0.01800638
51	0xbd641e08	-0.055692703
52	0x3ca37dac	0.019957386
53	0x3db6b915	0.0892202
54	0xbe0e8779	-0.13918866
55	0xbe2569fb	-0.1615371
56	0xbd9f8205	-0.07788471
57	0x3e0bd38f	0.13654922
58	0xbdef4c97	-0.1168453
59	0x3be204fd	0.0068975673
60	0xbdff0cae	-0.1245359
61	0x3cc491e7	0.023995353
62	0x3db73f57	0.08947628
63	0xbda81ba2	-0.082083955
64	0xbd083a08	-0.033258468
65	0xbdd20eae	-0.10256706
66	0xbdc1a971	-0.094561465
67	0xbd12ca83	-0.03583766
68	0xbd094c15	-0.033519823
69	0x3db57793	0.088606976
70	0x3dce36e6	0.10069065
71	0xbe063fb1	-0.13110234
72	0xbe2f38dd	-0.17111535
73	0x3d968aa6	0.07350664
74	0x3e247c55	0.16063054
75	0x3dd6f692	0.10496248
76	0xbe217e77	-0.15770899
77	0x3d01ffb1	0.031737987
78	0xbca7ff03	-0.020507341
79	0xbe8acc4f	-0.27109
80	0xbdf13b48	-0.11778885
81	0x3dfca180	0.12335491
82	0xbd35b845	-0.044365186
83	0xbe13b360	-0.14423895
84	0xbd0caa5b	-0.03434215
85	0xbd9c4ec0	-0.07632208
86	0xbc9db195	-0.019249717
87	0x3e12dba0	0.14341593
88	0xbda3bba3	-0.07994773
89	0x3ab16f7d	0.0013537254
90	0xbe1ebc6a	-0.15501562
91	0xbc10e894	-0.008844513
92	0xbd921bc3	-0.071342014
93	0x3d129902	0.03579045
94	0x3d4268d2	0.047463246
95	0x3d8da9ae	0.069171295
96	0xbd403787	-0.046927955
97	0xbcf1a70d	-0.029498601
98	0xbd4f8c69	-0.050671015
99	0x3daf1978	0.0854978
100	0xbdbea6e8	-0.093091786
101	0xbd4d2511	-0.050084177
102	0x3cf7ff85	0.030273208
103	0xbd0388dc	-0.03211294
104	0xbc652b1f	-0.013987332
105	0xbe559f6c	-0.20861596
106	0xbdf61e45	-0.12017492
107	0x3bee2fa0	0.007268861
108	0x3cfccc42	0.030859116
109	0xbde2a43d	-0.11066482
110	0xbd3c151d	-0.045918573
111	0xbe498bc4	-0.19682223
112	0xbe50d634	-0.20394212
113	0xbcea7d0f	-0.028624086
114	0xbe3af295	-0.182566
115	0xbe4525a3	-0.19252639
116	0xbe3337f0	-0.17501807
117	0x3c6485b3	0.013947892
118	0x3db0fdb0	0.08642137
119	0xbd2ea6f2	-0.04263968
120	0xbc83c2f7	-0.016084177
121	0x3db60774	0.0888814
122	0xbccab6e9	-0.024745421
123	0x3d49424c	0.04913549
124	0x3d6bcf77	0.0575709
125	0xbe1cb6df	-0.15304135
126	0xbd77a0e0	-0.060456157
127	0x3daaa987	0.08333116
