models/Proposed/kaon_2.pt (torch, 165267 bytes, 35 tensors)

emb.layers.0.weight f4 [128, 20]
000000 2f b8 c5 bd 62 6f 54 3e 4a 26 c8 3d 23 9b 90 3d
       -0.09654271 0.20745614 0.09772928 0.0706084
000010 82 4f b8 3d 41 39 8c 3d 43 9f ef 3c b5 2c ba bc
       0.0899954 0.06846858 0.029250747 -0.022726396
000020 6a 22 cc 3d b7 1a 00 3e 28 d7 1c be e3 a4 b5 3d
       0.099675015 0.12510191 -0.1531645 0.0886934
000030 79 e3 27 bd 1d 21 53 be 99 3a 23 be 20 d9 bd 3d
       -0.04098842 -0.206181 -0.15940322 0.09269929
000040 60 ad c1 3c 8e a5 f7 3b 3f 80 b1 bd 25 47 50 be
       0.023642242 0.0075575775 -0.08667039 -0.2033964
000050 64 c3 5e 3d ea 21 02 3d 94 46 0c be 0e 09 06 be
       0.054385558 0.031770624 -0.13698798 -0.13089392
000060 fa a4 0d bd b6 3e 94 3c 19 45 56 3d 90 f3 32 be
       -0.034581162 0.01809631 0.05231199 -0.17475724
000070 1b ba 68 3d 16 a2 e0 3d de b6 70 be a0 f4 dd 3d
       0.05681811 0.109684154 -0.23507258 0.10837674
000080 bc 1e 58 3d 57 ef d6 3d 26 49 3d be 84 dd e6 bd
       0.052763686 0.10494869 -0.18484935 -0.112727195
000090 4c 1b aa bc 1e 04 1d be 1a cb 6f be 71 bb 3b 3e
       -0.02076497 -0.15333602 -0.23417321 0.18333222
0000a0 52 03 85 3e cd bb 8a 3d 1c 80 44 be 41 c9 83 3d
       0.25979096 0.067741014 -0.19189495 0.064348705
0000b0 13 a7 44 bd 5c bc 26 3e c7 b7 f0 bd 6c d5 52 bd
       -0.048010897 0.16282791 -0.11753803 -0.051473066
0000c0 74 9d 15 be bb 43 1d bd 73 96 7f be 6b d0 6c be
       -0.14610845 -0.03839467 -0.24959736 -0.2312638
0000d0 8f f8 30 bc ba 0b e0 bd 93 53 ad bd ca e4 02 3d
       -0.0108014485 -0.10939737 -0.08463206 0.03195647
0000e0 8f e1 ab be b8 7f df bc f4 0f 30 be 68 d5 20 3e
       -0.33570525 -0.02728258 -0.17193586 0.15706408
0000f0 75 e7 bf be 03 93 49 3e 5c 77 42 3d 97 7e 80 3e
       -0.37481275 0.19684987 0.04747711 0.2509658
000100 d1 26 97 3b 23 31 26 bf 5a 64 32 bf fb 38 dd be
       0.0046127816 -0.64918727 -0.69684374 -0.43207535
000110 14 22 fd be 39 d3 7d be 89 ae 07 be 96 54 71 bd
       -0.49440062 -0.24787606 -0.13250174 -0.058918558
000120 de 1e 3e 3d 9a 1f a1 3d 8e 72 ca 3d 4c fa 14 be
       0.046416156 0.07867356 0.09885131 -0.14548606
000130 7f 45 48 3e c6 5c 3d 3e 0d e9 16 3c 8e b4 38 3e
       0.1955776 0.18492422 0.009210837 0.18037626
000140 b1 7f 08 bf f1 bf 96 3d e8 1b 5e bd e2 a7 1a be
       -0.5331984 0.07360829 -0.054225832 -0.15103105
000150 44 4f 83 3e c1 17 50 3e 5f a3 49 be 19 a6 d4 3d
       0.25646412 0.20321561 -0.19691227 0.10383243
000160 52 f8 1a be 7c b7 c5 3d 81 8d 4d 3c 99 73 15 be
       -0.15133789 0.096541375 0.012545944 -0.14594878
000170 88 1e 6e bd a2 d1 19 3e 4e 44 eb 3d af c0 7f bd
       -0.058134586 0.15021375 0.114876375 -0.062439617
000180 b1 7d 10 3e 46 89 8b bd fa 83 5f bb a2 42 dc 3d
       0.14110447 -0.06813292 -0.0034105764 0.10754897
000190 09 60 cc bc 05 92 08 bd e4 bc d9 bc eb 1a df bc
       -0.024948137 -0.03334238 -0.026579328 -0.027234515
0001a0 5c 8b d7 bd b8 43 00 bf 8b 2d 0b bf 78 1d 52 3e
       -0.105246276 -0.5010333 -0.5436637 0.20519054
0001b0 0c 87 29 3e 93 ac a1 be d5 6f b5 bd ae 19 66 3d
       0.16555423 -0.31576976 -0.08859221 0.056176834
0001c0 50 f6 31 be d3 83 6b 3d 7e 3a 33 3e f1 89 01 3e
       -0.17379117 0.057498764 0.17502782 0.12650277
0001d0 d1 76 fb 3c 8e 6d 5b 3e e3 9f 50 bd 1c 59 82 3d
       0.030696305 0.2142851 -0.05093373 0.063646525
0001e0 a2 a8 6b 3e 43 79 7e 3e 2b 50 87 be 01 21 0c bf
       0.23013547 0.24850945 -0.2642835 -0.5473786
0001f0 c5 cc 22 3c 6b d6 ed 3d 5e 9d e7 3d bd 00 35 bd
       0.009936516 0.116131626 0.11309312 -0.044190157
000200 4a 11 cb 3d 40 30 d0 bd d5 6b 63 3e d9 5b 13 be
       0.09915407 -0.10165453 0.22209103 -0.14390506
000210 ed 2e 11 3d 79 e3 9f be 31 68 27 be 9d 90 4c 3e
       0.035445143 -0.31228235 -0.1634834 0.1997704
000220 37 0b bc bd 2d 12 11 bf 4e 00 5f bd e2 b7 5d 3e
       -0.091818266 -0.5666836 -0.05444365 0.21652177
000230 ac 70 e0 bd ed d8 ed bc 38 d6 2b be 93 a9 95 3e
       -0.109589905 -0.029034102 -0.16780937 0.29230937
000240 99 f3 39 be e4 f4 8c bc 57 a6 bd bc 9a 09 33 3b
       -0.18159331 -0.017206617 -0.023150606 0.0027318955
000250 c2 b5 17 3e 80 df 86 3d c7 10 54 3e 7a 30 e7 3d
       0.14815429 0.06585598 0.20709525 0.11288543
000260 66 f0 e0 3d 5c cc bd ba a7 61 59 be c8 dd 94 3d
       0.10983352 -0.001448046 -0.21228658 0.07268864
000270 a9 e1 08 bf 67 c9 2e be c8 be 78 be a4 e3 10 3e
       -0.5346933 -0.17069016 -0.24291527 0.14149338
000280 58 33 3c 3e 0d 7a e8 bd 75 b0 a4 be 1d 2e a4 3d
       0.18378961 -0.11351404 -0.32165876 0.08016608
000290 8a b2 bd 3d 44 46 a9 3c 41 1a 13 3e 08 ea 4f bd
       0.09262569 0.020663388 0.14365484 -0.0507603
0002a0 49 1d 8b 3d 7b b5 62 3d 8a e7 30 be 6d d6 6a bd
       0.06792695 0.055348855 -0.17275825 -0.0573334
0002b0 bb 37 4c 3e fd 21 a3 3d f4 be c1 bd 6b 5b 01 3e
       0.19943134 0.07965467 -0.094602495 0.1263253
0002c0 13 05 40 3e 59 16 05 3e 86 af 5e be 6d f3 a6 3d
       0.18751936 0.12996806 -0.21746644 0.081518985
0002d0 6f 9f 77 3d 77 a1 d7 3b 9f c3 4c 3d 9b 08 9a 3e
       0.060454782 0.0065805274 0.049991246 0.3008469
0002e0 f4 bc 79 be fb 1a 00 be 9c d2 fe bd fd 34 1b be
       -0.24388486 -0.12510292 -0.12442514 -0.15156932
0002f0 f0 02 65 3c aa a1 81 bd e7 6a 66 3d 4d 1f 07 3e
       0.013977751 -0.06329663 0.056254294 0.13195534
000300 0d 95 ec bd 16 21 f6 3b 5c 03 24 be 47 f2 24 3a
       -0.11551867 0.0075112684 -0.16016906 0.00062922057
000310 ca 42 41 3e 4f ca 2f 3e b5 8c c5 bd 8f 13 50 3e
       0.18873134 0.17167018 -0.09645978 0.20319961
000320 7a 87 0c 3e ad 49 77 3d c0 3f 12 bb 30 c1 6c 3c
       0.13723555 0.060372997 -0.002231583 0.014450356
000330 4d 6f 52 3b b0 13 dd 3c 4c da ab 3d ad 64 c5 be
       0.0032109797 0.026986927 0.08391246 -0.38553372
000340 4c 89 62 be 4b 9d d7 bd 99 e7 e4 bd 2d a7 de 3d
       -0.22122687 -0.10528048 -0.11176986 0.1087173
000350 0c a9 71 bd 58 0d 09 3e 05 23 5c 3d 3c 3c 2b 3e
       -0.058999106 0.13383996 0.053744335 0.16722196
000360 17 6e 59 be 20 f6 33 3e cb 36 10 3e 84 b2 c2 bd
       -0.21233402 0.17574358 0.14083402 -0.095067054
000370 4d 3d 61 bb bb 47 18 bd e8 9c 01 3d bd 90 9f 3e
       -0.0034368814 -0.037177783 0.031643778 0.31165114
000380 80 99 ba bc 98 08 af bd 60 4d d3 3d 85 57 fd 3d
       -0.022778273 -0.08546561 0.103174925 0.12370209
000390 03 b6 34 3e 65 28 aa 3d e8 d8 c4 bd 6d 32 58 bd
       0.17647557 0.08308486 -0.09611684 -0.052782465
0003a0 97 b2 11 3e f5 ff 15 3e 2a 6c 61 3c 08 43 a1 3d
       0.14228283 0.14648421 0.0137586985 0.07874113
0003b0 d0 0c 91 bc 9c 94 4a bd 8f 1c 55 3e 9b 18 62 be
       -0.017706305 -0.04945813 0.20811675 -0.22079699
0003c0 d2 a2 99 3e 76 aa ab bd c6 17 e5 bd b4 3d 30 3e
       0.30007035 -0.08382122 -0.11186175 0.17211038
0003d0 e7 e1 30 3e c0 d1 12 3d 20 71 34 3d 2d ec 58 be
       0.17273675 0.035844564 0.044053197 -0.21183844
0003e0 ec 4e 65 be cb 79 06 bd d6 d9 4b be a8 4c ea 3d
       -0.22393388 -0.032830995 -0.19907317 0.11440402
0003f0 ee de 3b 3e 33 ad 0b 3c 88 ee 11 3d 16 1b 57 be
       0.1834676 0.008525181 0.03562787 -0.21006426

emb.layers.0.bias f4 [128]
000000 0c 85 1d 3e 7d d5 1a 3d f4 71 ba 3d 41 40 3d be
       0.15382785 0.037801255 0.09103766 -0.18481542
000010 73 33 eb bb 7a f9 77 3d 66 63 12 be a5 db 29 3e
       -0.007177764 0.060540654 -0.1429573 0.16587694
000020 f4 09 a5 bd 18 5a b1 3d 62 00 61 be cf 99 c4 bd
       -0.08058539 0.08659762 -0.21972802 -0.09599649
000030 57 ad 3b be e1 8f a1 3d 05 85 bc 3d 85 2c 1b 3e
       -0.18327843 0.07888771 0.09205059 0.15153702
000040 6d 82 56 3e 7c e3 ae bd 24 4f c7 bd 48 5c 65 3d
       0.20948191 -0.08539483 -0.09731892 0.05599621
000050 73 fd 62 bb 78 8d 9a 3d cf 78 c4 3d dc 16 83 be
       -0.003463593 0.07546514 0.09593355 -0.25603378
000060 3d 76 0c ba de ee 91 be 76 22 31 be 87 2b 19 3a
       -0.0005358195 -0.28502554 -0.17298302 0.0005842973
000070 00 e9 74 bd 81 e3 1d be c5 df cb 3d 48 9c 07 3e
       -0.05979252 -0.15418817 0.0995479 0.1324321
000080 c6 b8 86 bd dd 90 fb 3c d7 a2 d4 39 9f 27 13 be
       -0.065782115 0.030708725 0.00040557116 -0.14370583
000090 23 5f d2 3d e2 17 00 3e 69 c6 af 3d d5 9a 90 3b
       0.10272052 0.1250911 0.085827656 0.0044129887
0000a0 51 cf 4f bd cf e9 11 be c6 f2 1c 3d 0d 75 75 bd
       -0.05073482 -0.14249347 0.038317464 -0.05992608
0000b0 31 22 84 bd a0 2e f2 bd 07 84 bc bd 51 aa 2b 3e
       -0.06451834 -0.11825299 -0.0920487 0.1676419
0000c0 98 f7 da 3d 52 69 be 3b 7e 84 60 be 7d ac 9c bd
       0.10691756 0.005810895 -0.21925542 -0.07650087
0000d0 5c 2d 4e 3e 2b bb 34 be 44 35 0c be d1 f0 32 bd
       0.2013449 -0.17649524 -0.13692194 -0.04368669
0000e0 97 04 92 bd 28 4f 3a 3e b2 87 16 3e d8 ed 38 bd
       -0.07129782 0.18194258 0.14700201 -0.0451487
0000f0 0e e2 a4 3d 38 e3 39 3d 9b 7a 08 be 51 65 e8 3d
       0.08050929 0.04538271 -0.1332802 0.113474496
000100 8b 19 b5 3d 21 bf 67 3b 04 e4 9d bd 85 6e ae bd
       0.088427626 0.0035361724 -0.07709506 -0.08517174
000110 f9 5d 36 3e 1a 94 13 3e 5c c9 b3 bd fe 39 3a bd
       0.17809285 0.14411965 -0.08778641 -0.045465462
000120 ec be 20 3d 8a 3b f1 bd d9 11 fa bd e3 73 fd ba
       0.039244577 -0.11778934 -0.122104354 -0.0019336905
000130 a7 e4 86 3c b8 0f 3a be 74 98 5b bd ea 40 11 be
       0.016466452 -0.18170059 -0.053612188 -0.14184919
000140 ad 97 a6 bd e6 14 44 3e e2 1b 07 3e 5e fa b2 bb
       -0.081343986 0.19148597 0.1319423 -0.005461975
000150 bc 06 3c 3e 87 ca 4f 3e fd 47 a6 bd db df 30 bd
       0.18361944 0.20292102 -0.081191994 -0.043182235
000160 e0 de f7 bd 3e 68 b0 bd 7e 6d 1e be 99 61 46 bd
       -0.12103057 -0.086136326 -0.15471455 -0.04843292
000170 85 b6 ac bc 65 91 4e 3c 55 6e 2b be d9 6f fe 3c
       -0.021083126 0.012607907 -0.16741307 0.031059192
000180 c9 b0 bb 3c ce 04 36 3e fd 7e da bd 84 8d dd bd
       0.022911446 0.1777527 -0.10668752 -0.108180076
000190 9e da eb 3d 02 5b aa 3d 28 c2 4b 3d 6c ba dd 3d
       0.11516307 0.083181396 0.04974571 0.10826573
0001a0 34 e2 2f bd aa 09 28 3d 38 43 b0 3d 93 d2 eb bc
       -0.042940333 0.04102484 0.08606571 -0.028786933
0001b0 85 0a b0 bd 65 50 8a bd 08 5a 38 be ef 4c 33 be
       -0.085957564 -0.06753615 -0.18003094 -0.17509817
0001c0 15 07 97 bd 4d 37 19 3e bf db 18 3c 45 c6 0e be
       -0.07374398 0.14962502 0.009329735 -0.13942821
0001d0 dc 69 96 bd 92 41 a8 3d bd c1 12 be 77 04 e3 bd
       -0.0734441 0.082156315 -0.14331718 -0.11084836
0001e0 92 e5 51 3e 74 4f e0 3c 16 4e 05 be 0d 20 1a 3e
       0.2049773 0.027381636 -0.13018069 0.15051289
0001f0 16 f6 a8 bd e4 be e6 bd 02 43 4d be bc 41 02 be
       -0.08250062 -0.11266878 -0.20045093 -0.12720388

emb.layers.2.weight f4 [32, 128]
000000 c9 09 d3 3d 18 bf 52 3d 69 00 5c 3d 6a 69 bd bd
       0.10304601 0.051451772 0.05371133 -0.09248622
000010 e4 e4 01 bd b6 db c0 bb 33 75 80 bd 68 4d f7 bd
       -0.031712428 -0.0058855666 -0.06272354 -0.12075311
000020 31 4c c9 3b 29 e2 83 bb 1b 74 bc bd 3f 4c cc bd
       0.006143116 -0.004024763 -0.09201833 -0.0997548
000030 39 ef 14 3d a8 fe 79 3d 98 3a 06 be 6d 00 36 3d
       0.036360953 0.061033875 -0.13108289 0.044434
000040 ed eb 09 bd 68 9c 38 3d 4f cd 06 be dc d6 2e bc
       -0.033672262 0.045071036 -0.13164257 -0.010671344
000050 de 30 8d bd 52 48 60 bd 82 ef a9 3d cf bb e6 bd
       -0.06894086 -0.05475647 0.082976356 -0.112662904
000060 9c 4d 06 be 69 43 cf bd c7 d9 3c 3d 0c 45 5c bd
       -0.13115543 -0.10120279 0.046106126 -0.053776786
000070 3a d5 be 3d f1 f1 1c be dc f3 02 3c d5 67 a1 bd
       0.093180135 -0.15326668 0.007992711 -0.078811325
000080 ca fd 51 3c e6 f5 ec 3c d5 5b d2 3b a1 41 61 bd
       0.012816856 0.028925847 0.0064196386 -0.05499423
000090 92 e8 55 bc 11 20 6d bd f0 84 6c 3d c2 d3 6b 3d
       -0.013055937 -0.05789191 0.057743967 0.057574995
0000a0 88 63 7d bd 9a 2b 22 bd b4 85 e4 bc 0f f1 62 3c
       -0.0618625 -0.039592363 -0.027895786 0.013851418
0000b0 bc 98 69 bd 31 f8 f2 bc 29 13 04 3d e7 8e 3a 3d
       -0.057030424 -0.029659363 0.032244835 0.04554644
0000c0 7f a8 f2 3b 12 ab 26 3d 79 91 c0 3d 8c 03 fd bb
       0.00740534 0.04069049 0.09402747 -0.00772137
0000d0 32 92 a8 bd 5f 47 72 bd 6e 61 8c bc ad 09 8d bd
       -0.082310095 -0.059150096 -0.017136302 -0.06886611
0000e0 2a 9f 3c bd 55 b7 8b bb 1c 9f e3 bc fa 86 0b 3d
       -0.04605023 -0.0042637982 -0.02778583 0.03406427
0000f0 e1 76 66 bd 95 f2 ec bc 9d 3e 0f bd 04 e7 99 3d
       -0.056265716 -0.028924266 -0.034971822 0.07514766
000100 58 a8 e7 bc f2 b7 b4 3d 57 d9 18 3d 8a 6d 61 3c
       -0.028278515 0.08824147 0.037316646 0.013759026
000110 8f d1 d6 bc 05 b5 21 3d ab e0 b4 bc 65 e3 33 3d
       -0.026222972 0.039479274 -0.022079786 0.043918032
000120 53 c5 eb 3d 5a 16 c7 3d a4 73 d8 bd c1 43 0e 3d
       0.11512246 0.0972106 -0.10568932 0.034732584
000130 11 9b b2 3c 57 93 f9 bd e4 1e b6 3a 64 9e 93 bc
       0.021802457 -0.12186306 0.0013894704 -0.018019862
000140 b5 51 cf bd 05 62 13 3d fb 0a c3 bd 60 71 33 3d
       -0.10123006 0.03598215 -0.09523579 0.043809295
000150 4b 1f 7b bd 2a 97 1f 3d 89 9a 4f bd 58 1e b6 bd
       -0.06130914 0.03896252 -0.050684486 -0.08892506
000160 ab 77 ad 3d ba 2c a7 3d f5 2e d2 3b 86 68 11 bd
       0.084700905 0.08162828 0.006414289 -0.035500072
000170 78 5d a6 bd ea 47 61 bd 9d ec 27 3b 11 fb 43 3d
       -0.081232965 -0.055000223 0.002562321 0.047846857
000180 ec 92 1d bd b4 2c 2c 3d 6f b9 e9 bd 2a 41 90 3c
       -0.038470194 0.04203482 -0.11412322 0.017609198
000190 5e f0 b4 3d 3e 8f c6 bd 32 0a 57 bd 83 84 ca 3c
       0.08834909 -0.0969529 -0.052499957 0.02472139
0001a0 2b fe b9 3d 1f af 20 bc e1 2e c7 3d 38 15 ac 3c
       0.09081682 -0.009807377 0.09725738 0.021006212
0001b0 e3 8b 69 bd b1 75 1f 3d 11 aa f6 3c 84 a7 ea 3d
       -0.057018172 0.0389306 0.03011039 0.11457732
0001c0 ed 91 8f 3d c6 09 62 3c 24 c6 71 bc e0 87 98 3c
       0.07010255 0.0137962755 -0.014756713 0.018619478
0001d0 71 d2 47 be 57 df 7a 3d 94 fc 84 3d 6b d0 75 3d
       -0.19513871 0.06124815 0.06493488 0.060013216
0001e0 51 a7 a9 bd ac 61 f0 3b 2b 54 57 3d 89 26 84 3d
       -0.08283866 0.007335862 0.052570503 0.064526625
0001f0 20 38 04 be 67 8e 3f 3d 8c 37 3b bd a3 2f c1 3c
       -0.12912035 0.046766665 -0.04570727 0.023582285
000200 69 67 5a bd 4d 74 cb bc 69 02 72 bd 56 be 8f bd
       -0.053321276 -0.02483573 -0.05908433 -0.070187256
000210 9b 5f 04 bd 2b 88 8f bd 8d 69 10 bd af ef a3 3d
       -0.03231774 -0.07008394 -0.03525691 0.080047004
000220 ba 90 bb 3c 17 52 75 3d 1f c2 a1 bd 7f bc b2 3d
       0.02289616 0.05989274 -0.07898354 0.08727359
000230 d5 c4 4d bb c3 77 99 bc ab 51 12 3c ce 47 67 bc
       -0.0031397839 -0.018733865 0.008930604 -0.014116241
000240 d0 9a d7 bc 5e bd 61 3d d1 c1 d7 ba 42 48 84 3d
       -0.026318938 0.055112235 -0.001646096 0.064590946
000250 3c 04 df bd d0 10 82 bd d0 af cd 3d 8a 20 5f 3d
       -0.108894795 -0.06350863 0.10043299 0.05447439
000260 47 a2 f1 bd eb 43 55 bc 41 7a e6 bd b5 b0 0c be
       -0.1179853 -0.013016681 -0.11253787 -0.13739283
000270 e0 f1 1d 3d 14 b3 c0 3d 6a 9b 80 ba 30 56 5c bd
       0.038560748 0.094091564 -0.0009811942 -0.053793132
000280 7a c4 9d bd 2b ea 93 bc 21 2b c7 bc 0b 35 cd bc
       -0.077034906 -0.018055996 -0.024312558 -0.025049707
000290 09 52 7c 3d f3 e1 2f bd 49 5c 58 bc d1 a1 d3 3c
       0.061601672 -0.04294009 -0.013205596 0.025833996
0002a0 47 f9 28 3a e5 e7 93 bd 75 f0 0a bc 93 97 11 3d
       0.00064458366 -0.07221965 -0.008480181 0.035544943
0002b0 24 d8 7d bd ba f1 3b bc 84 61 a5 bd 21 27 a1 3a
       -0.061973706 -0.011471206 -0.0807524 0.0012294987
0002c0 46 db e6 3d 66 81 40 3c e7 9c 8d bd 62 7f 78 3d
       0.11272292 0.011749601 -0.06914692 0.060668357
0002d0 37 a5 b8 bd 8f 5a 42 bc 44 79 f3 bc da 78 a5 3a
       -0.09015887 -0.011862411 -0.02972091 0.0012624518
0002e0 de 5c ee bc b4 03 31 bc 83 dc 1a be 95 37 16 bb
       -0.029097017 -0.010804106 -0.15123181 -0.0022921313
0002f0 93 3c cb bc f0 4e 84 bc 76 9b e8 bb 93 cf ae bd
       -0.024809157 -0.016150922 -0.0070986105 -0.085356854
000300 9a 33 90 3d 2a c1 b1 bd d2 1a e9 bd 49 00 6b 3d
       0.07041092 -0.08679421 -0.11382069 0.05737332
000310 17 d8 b1 bd d1 2f 0d be f2 38 ce b8 ef 0a cb 3d
       -0.08683794 -0.13787772 -9.833452e-05 0.09914195
000320 23 83 a7 3c d1 a8 31 3d 73 73 6a bc 5a b8 3a bb
       0.020448273 0.043373886 -0.014309752 -0.002849123
000330 79 61 12 bb d5 1e b5 3b 55 c3 83 3c 50 ec da 3d
       -0.002233593 0.005527357 0.016084353 0.10689604
000340 1d f5 bd bc 1b f0 26 3d 3c 7d 87 bc f0 c5 16 bd
       -0.023188168 0.040756326 -0.016539209 -0.03680986
000350 9c ff 90 bd 3b be a2 3d fa a1 0b bd f0 55 9f 3c
       -0.070800036 0.0794644 -0.03409002 0.019450158
000360 5e 05 c7 bc c6 11 c9 3a 07 26 99 3d 46 bb f8 bc
       -0.024294551 0.001534038 0.07477956 -0.030362736
000370 b8 3a 8d 3b 03 c5 92 bc 14 c5 f8 bc ac 13 32 3d
       0.0043099783 -0.017916208 -0.030367412 0.04347579
000380 24 31 52 ba 1a c5 0c 3d 61 60 29 ba 9b 8b d3 bd
       -0.0008018187 0.03436766 -0.00064612 -0.10329362
000390 58 33 86 3d 70 af a2 ba a1 47 c2 3b dd 61 8d 3d
       0.06552762 -0.0012411904 0.005928949 0.069034316
0003a0 63 a7 88 bd 52 ad a0 bd 6e 65 23 bd 8b b7 5f bd
       -0.066725515 -0.07845558 -0.039891653 -0.0546184
0003b0 f0 6e 0a 3d 06 95 04 3e 18 56 dd 3d 6b 08 98 3d
       0.033797204 0.12947473 0.10807437 0.074234806
0003c0 a2 a0 9a bd 98 a0 93 3d bc 40 f7 3c 8e 58 02 3e
       -0.075501695 0.07208365 0.030182235 0.12729093
0003d0 36 1d fd bd a8 17 b5 bd 65 01 65 bc 63 81 00 be
       -0.12359087 -0.08842403 -0.013977383 -0.12549357
0003e0 7a 91 5c 3d bc 75 20 bc 36 72 e1 3d f7 d6 90 bd
       0.053849675 -0.009793695 0.11008112 -0.07072251
0003f0 61 3b 9a 3d 91 5b 3e ba 6e 9b d7 bd fc cc 86 bd
       0.07530857 -0.0007261569 -0.10527693 -0.065820664

emb.layers.2.bias f4 [32]
000000 b3 d9 8e 3c 60 9c b6 3c c6 ac 85 3d 1a b0 8f bc
       0.017437791 0.022291362 0.065270945 -0.017540026
000010 69 59 53 3d e0 01 14 bd 63 d6 c3 bd 10 34 6d 3d
       0.05159894 -0.0361346 -0.095623754 0.05791098
000020 66 ec 42 3d 7f 04 84 bd 47 e8 3e 3d 53 4f 08 bd
       0.04758873 -0.0644617 0.046608236 -0.033278774
000030 31 0b 1b 3d 59 cd b5 bd 36 01 3a bd 4e 16 ed bb
       0.03785247 -0.088770576 -0.04541131 -0.007235325
000040 0f 84 61 3d 10 15 05 bd 3c da a5 3d 8c 84 5d 3c
       0.05505758 -0.03249079 0.080982655 0.013520371
000050 bf 5d 89 3c c1 f6 cf 3c 61 3b f9 3c 63 da 14 3c
       0.016768334 0.025386216 0.030423822 0.009085271
000060 6f a1 f2 3b e0 c3 5d 3d 10 02 6f 3d 7d 33 0e bd
       0.0074044983 0.05414188 0.058351576 -0.03471707
000070 f2 83 77 bb d3 a5 c6 bb f4 cd ae 3d ba 5c 54 bb
       -0.0037767855 -0.0060622483 0.08535376 -0.0032403902

encoder.layers.0.self_attn.in_proj_weight f4 [96, 32]
000000 1c 86 d5 bd e0 f1 56 3d a3 8e 31 bd d6 7a 84 bd
       -0.1042597 0.052476764 -0.04334892 -0.064687416
000010 83 86 12 be 98 cc 11 3d f7 65 0d 3e 62 43 18 be
       -0.14309125 0.035595506 0.13808428 -0.14869455
000020 01 0a 8c 3c 68 c3 8e 3d ae 22 2a be fe ee 14 3e
       0.017094614 0.069708645 -0.16614792 0.14544293
000030 88 f8 2c 3e 2a 50 02 3e f0 d8 db bc 15 86 e0 bc
       0.16891682 0.12725893 -0.026836842 -0.027407685
000040 3b ee 1d 3d 4c 2b a0 bd 6a cd f4 bd 7c 41 bb 3d
       0.038557272 -0.07820758 -0.11953242 0.091433495
000050 24 37 2f be 7a 25 fb 3d c9 7c a8 be 4d ff 5f bd
       -0.17110878 0.122630075 -0.32907704 -0.054686833
000060 4d 20 49 be b2 6d d8 bd 3c 02 37 be 45 60 ed bd
       -0.19641228 -0.10567798 -0.17871946 -0.115906276
000070 f1 7f 2c 3e 63 a2 ae 3c 6e dd 8d bd 99 e2 cb 3c
       0.16845681 0.021317666 -0.06927 0.024888324
000080 91 fa 96 be 0f 97 5b be 7a 5e 11 3c 43 9c 01 be
       -0.29488042 -0.21444343 0.008872623 -0.12657265
000090 4e f5 4b be 20 63 20 3e 44 b6 49 3d d3 b1 4b be
       -0.19917795 0.15662813 0.049246088 -0.19892053
0000a0 dc 79 29 be f7 44 43 3e 9a 09 41 be f4 66 a5 3e
       -0.16550392 0.19069277 -0.18851319 0.3230511
0000b0 3e 14 43 3e 21 6d 4d be da 51 2b 3e 83 27 55 be
       0.1905069 -0.2006116 0.16730443 -0.20815854
0000c0 8a 76 41 bd a0 3f 2c bd 98 43 f9 bc 38 a7 24 3e
       -0.04723219 -0.042052865 -0.030427739 0.16079414
0000d0 37 8f 0a 3d 10 95 90 3d 97 91 2c 3e a1 eb ce bd
       0.033827987 0.070596814 0.16852413 -0.101035364
0000e0 46 c7 a4 bd 25 08 95 3d 14 77 c8 bd 06 00 e0 3c
       -0.08045821 0.07276944 -0.09788337 0.027343761
0000f0 48 60 d0 bd 61 57 3d 3e d7 e4 8f 3d 3c 4c 14 be
       -0.10174614 0.18490364 0.070260696 -0.14482206
000100 b0 81 ac 3e 34 1f 5c be 06 c3 75 3e 6d d8 65 3d
       0.33692694 -0.21496278 0.24000177 0.056114603
000110 8e 12 d8 3c f5 65 7f be ac 20 40 3b 5b 48 41 3e
       0.026376035 -0.24941237 0.002931635 0.18875258
000120 e7 32 23 3e 16 61 02 be ab e6 f0 3d dd 08 bb 3c
       0.15937386 -0.12732348 0.117627464 0.022831375
000130 f3 2e 6d be db 53 62 3d 4b e5 97 be f4 35 ec 3d
       -0.23162441 0.055255752 -0.29667124 0.11533728
000140 70 7e b3 3d 0f 68 68 bd b7 11 ee bd 56 bc 54 3e
       0.087643504 -0.056739863 -0.116244726 0.2077497
000150 4a 27 bf bc 7f 0b e1 bd 2a 7f bb 3c c3 97 05 3e
       -0.023334164 -0.10988521 0.022887785 0.13046174
000160 5b ef 36 be a7 1a 24 bd 58 84 32 3e c6 4a 58 be
       -0.17864744 -0.04006448 0.17433298 -0.21122274
000170 56 a7 db bd 80 62 45 be d9 e9 41 3e 6b 5c 26 bd
       -0.10725276 -0.19275856 0.18936862 -0.04061548
000180 17 a8 5c bc b8 97 12 3e 0e 46 17 3e e8 47 46 bb
       -0.01346781 0.14315689 0.14772817 -0.0030255262
000190 76 a5 22 3d 5d 09 90 bd 1c 85 53 bd d0 0d d1 3d
       0.039708577 -0.07033036 -0.051640615 0.10207713
0001a0 10 48 b4 bd 00 f6 9d bd c4 fd 5d bc 12 19 2f 3c
       -0.08802807 -0.077129364 -0.013549272 0.01068713
0001b0 f1 c6 3a 3e 51 2a 07 bd 93 53 98 3e a2 3b 00 be
       0.18239953 -0.03299934 0.29751262 -0.12522748
0001c0 52 01 25 3c d9 bb 06 3e b7 7d 42 be 5a 43 39 3e
       0.010071116 0.13157596 -0.18993269 0.18092099
0001d0 d7 bd 1a be b4 53 8f 3e 41 ab 26 bc 64 50 0a be
       -0.1511148 0.27993548 -0.010172666 -0.13507229
0001e0 ba d9 ef 3d f6 b2 2d be d1 f7 14 3e 03 89 00 3e
       0.1171145 -0.169628 0.1454766 0.12552266
0001f0 07 9f 5e 3d 71 8f 57 3e f5 5d da 3d eb 15 96 3d
       0.05435088 0.21050812 0.10662452 0.07328399
000200 a7 6c 66 bd 11 eb 67 3e 50 ae 4d 3c 1a 80 c8 bd
       -0.056255963 0.22648264 0.012553766 -0.097900584
000210 99 02 09 bc 55 a6 90 bc c1 d0 34 3e 66 36 58 be
       -0.008362436 -0.017657438 0.17657758 -0.21114501
000220 a2 82 36 be 50 9d f2 bd ff 35 ec bd 11 4a 3d 3e
       -0.1782327 -0.11846411 -0.115337364 0.18485285
000230 8b db 47 3d 80 37 c6 bd c5 8f aa bc 53 11 88 bd
       0.048793357 -0.096785545 -0.020820508 -0.06643929
000240 e3 0e 4f bd d6 32 34 3d e6 ef 1c 3e ce 98 db bd
       -0.050551306 0.043993793 0.15325889 -0.107225046
000250 12 e7 0f be 2e 2e 1d 3e df 55 d1 3d 5b 62 66 3e
       -0.1405299 0.15349647 0.10221457 0.22498457
000260 a3 fd 8d bd 79 6e 88 bc 6c eb 09 be a5 ef 18 bc
       -0.06933143 -0.01665424 -0.13468713 -0.009334479
000270 b2 89 63 3e f2 85 ad 3c ce 41 fa bd 3a af 73 3b
       0.22220495 0.021182034 -0.122195825 0.00371833
000280 99 cc 7f 3e 1f 32 56 bd 3d e3 39 3e a7 a5 7a 3e
       0.24980392 -0.052293893 0.18153091 0.24477254
000290 13 18 da bd f6 78 7f bd 83 7d cd 3d 35 86 33 3e
       -0.10649123 -0.062371217 0.10033705 0.17531665
0002a0 f0 96 4b 3e b4 9a 3b 3d 8d 6b 22 3e dc bc 7b 3d
       0.19881797 0.045801833 0.1586134 0.061459407
0002b0 68 f8 13 3d 4f 80 5a 3d e1 4d 32 bc 46 37 8d 3d
       0.03612557 0.05334502 -0.010882826 0.06895308
0002c0 cd 64 6f 3d ab 72 81 be 77 a0 20 3e 43 94 71 bd
       0.05844574 -0.25282797 0.15686212 -0.058979284
0002d0 4b 59 92 bd bd 79 e6 3d a3 c9 42 bd 2d f9 e3 3d
       -0.071459375 0.112536885 -0.047555577 0.11131511
0002e0 1a 65 36 be 4e 3b de 3d f8 53 be bc fb c3 ab 3b
       -0.17812005 0.10851155 -0.023233399 0.0052418686
0002f0 eb 9d 78 3b d3 b9 94 bd bb bd 42 3d 7c 37 b5 bd
       0.0037935923 -0.07262006 0.047544222 -0.088484734
000300 1a 3f 0c bc 4a 7b 05 3d 50 43 4d be 93 29 69 3d
       -0.008559966 0.03258828 -0.20045209 0.056924414
000310 ed 11 e5 3d a3 ec 8b 3e f9 e0 b1 bd 09 21 b6 3d
       0.1118506 0.27328977 -0.08685488 0.0889302
000320 ae 90 b7 bc d7 97 ed 3c d2 af e8 3d c2 95 a3 3e
       -0.022407856 0.029003067 0.1136166 0.31950194
000330 c4 39 17 3c 7e 69 4f be 5c 32 1e 3e 73 18 34 3c
       0.009230081 -0.20255086 0.15448898 0.010992157
000340 f7 21 e1 bd 44 6c b5 3d 56 2e 6a 3a a6 a6 1a 3e
       -0.109928064 0.08858541 0.0008933296 0.15102634
000350 b3 4c a3 bd 51 d4 6a 3d c9 03 2a be f8 a5 0a 3d
       -0.079736136 0.057331387 -0.16603006 0.033849686
000360 7d 40 b9 bd 92 46 84 bd 66 a0 04 be ba 9b 32 3e
       -0.09045503 -0.06458773 -0.12951812 0.17442217
000370 07 dc 00 bc dc 86 1c 3d 2d 8e 19 3e c8 bf 8b bb
       -0.007864959 0.03821455 0.14995642 -0.0042648055
000380 98 2e 04 bd 7f fa fa bd 7c 5d 86 3d 0e c9 20 be
       -0.032270998 -0.122548096 0.065607995 -0.15701696
000390 a5 1d 4e be 00 54 53 3d 6f 9e c3 3c b9 f2 9d bd
       -0.20128496 0.05159378 0.023879258 -0.07712311
0003a0 58 ea a0 3d fc 1f 96 3d 0a 8a 03 be 42 4f 97 3e
       0.078571975 0.07330319 -0.12845626 0.29552656
0003b0 82 9e 09 3d 66 4a b4 bc 30 27 91 3d f6 75 25 be
       0.03359843 -0.022008132 0.070875525 -0.1615828
0003c0 b8 48 e1 3d 3e cd 95 bc 2f 67 48 be ae 1e 54 be
       0.11000198 -0.018286344 -0.19570611 -0.20714828
0003d0 1e 9e b3 bd 34 f4 8b 3e 1a b2 37 be 00 e6 0e be
       -0.08770393 0.2733475 -0.17939034 -0.13954926
0003e0 f7 71 0f 3e c9 aa 5a 3d b5 68 76 3d 8b 10 02 be
       0.14008318 0.05338553 0.06015845 -0.12701623
0003f0 99 45 1b 3e 12 a1 7f bd 30 0e 95 bd ad 16 47 3e
       0.15163268 -0.062409468 -0.07278097 0.19442244

encoder.layers.0.self_attn.in_proj_bias f4 [96]
000000 b1 84 3c be 93 71 cf bd d5 6d 29 3e c7 34 26 be
       -0.18409993 -0.101290844 0.16545804 -0.1623107
000010 2d c6 17 be 9c ab c0 3d 99 d3 ea bd 12 7a a8 bd
       -0.14821692 0.09407732 -0.1146614 -0.08226408
000020 6c ab bf bd a1 5e 1b be 86 08 94 bd 99 28 23 3e
       -0.09358868 -0.15172817 -0.07228188 0.15933456
000030 a0 b0 14 3e 3e 20 26 3e 95 66 e1 3d d3 9d 19 be
       0.14520502 0.16223237 0.11005894 -0.15001611
000040 45 24 e7 3d 79 01 b2 bd ee 2e fd 3d 12 9e 69 3d
       0.11286215 -0.08691687 0.12362467 0.057035513
000050 a2 cc c8 bd 2e b0 92 bd 98 f7 30 3e ed 2d 02 bd
       -0.098046556 -0.0716251 0.1728195 -0.03178208
000060 70 96 b7 bd 05 2e 1b be da 82 02 3d 06 36 b5 3d
       -0.089642406 -0.15154274 0.03186307 0.08848195
000070 cd bf 88 bd 62 88 b9 bd a2 61 08 3e 51 e7 0a 3e
       -0.06677208 -0.09059216 0.13318494 0.13564803
000080 59 7e 05 38 17 cd ff b8 f3 99 05 b9 bd a9 b1 38
       3.182734e-05 -0.000121975485 -0.00012741219 8.471634e-05
000090 f7 28 d3 38 cb a0 81 b7 d8 73 d2 38 a4 02 28 b9
       0.00010068894 -1.5452873e-05 0.00010035158 -0.00016022712
0000a0 0b 70 79 b7 4c 9c 0b 39 49 29 f1 37 2b b8 51 b9
       -1.4867644e-05 0.00013314298 2.8748664e-05 -0.00020000401
0000b0 04 fd 14 b9 8c 2a c0 b8 07 f9 74 b8 94 52 20 b9
       -0.00014208636 -9.1631984e-05 -5.8406058e-05 -0.00015289552
0000c0 a3 d5 0f b7 d3 a5 86 37 f9 5f 60 b8 d8 84 ed b6
       -8.573205e-06 1.6051263e-05 -5.3495143e-05 -7.0786155e-06
0000d0 5d e5 9f 38 ac c4 93 38 95 f3 07 b8 79 87 db 36
       7.624433e-05 7.046139e-05 -3.241336e-05 6.5424797e-06
0000e0 84 0e 81 36 45 58 13 b6 55 d1 52 37 6f 48 36 37
       3.8461894e-06 -2.1956087e-06 1.2565714e-05 1.086491e-05
0000f0 f3 f5 c2 37 74 80 61 38 e6 bd 42 b8 b7 c0 c6 b8
       2.3241131e-05 5.376381e-05 -4.643006e-05 -9.477272e-05
000100 75 df b2 3c 96 fd 2a 3c ac 57 e8 ba b9 5d 09 bc
       0.021835068 0.010436436 -0.0017726324 -0.008384162
000110 59 4c f8 3c ff ea 85 bc 69 d6 4f bc 60 97 88 bc
       0.030309843 -0.016347406 -0.012685397 -0.016673744
000120 c9 6e 65 3c 79 4d 16 3d 28 fe 14 bc 87 00 5d bb
       0.014003464 0.036694977 -0.009093799 -0.0033722238
000130 0a fe 05 3d 0c 1d 2d bc 55 bf 05 3d 38 2a c5 3c
       0.032712974 -0.010566007 0.03265317 0.024067983
000140 ed eb 71 3c 7b bb 80 bc 1f f6 a5 3c c3 d5 46 bd
       0.014765722 -0.015714398 0.020258961 -0.048543703
000150 99 bf a0 39 f0 b5 ab 3c cc 1a 02 bd 79 5e d4 3c
       0.0003066033 0.020960778 -0.031763837 0.025923954
000160 fb dc 0e 3d cb 4b c4 bc 6e f8 17 3c 14 77 fa 3c
       0.034878712 -0.023961922 0.009275539 0.030574359
000170 df 61 04 3c 92 52 2e bc 7e f4 a8 3c 0a 38 a4 ba
       0.008079975 -0.0106398035 0.020624395 -0.0012528908

encoder.layers.0.self_attn.out_proj.weight f4 [32, 32]
000000 e0 c8 93 3d 68 59 07 be cb 2c b7 3b c0 79 61 3d
       0.07216048 -0.132177 0.0055900565 0.05504775
000010 2e 63 83 bd 50 90 1f bc 72 cd bd 3d 11 bf e7 bd
       -0.064154014 -0.009738997 0.09267701 -0.1131574
000020 a1 78 f8 bd a0 5a 6d 3d 12 db 41 bd 69 9d e2 3d
       -0.12132383 0.057947755 -0.047328062 0.1106518
000030 61 e7 b3 bc 34 5b 8d 3d d8 1a 19 3e f7 ff 64 3d
       -0.021960916 0.06902161 0.14951646 0.05590817
000040 3b 0f e2 3d 9a 4f 13 3e a4 43 a7 3d 7d 17 45 bd
       0.11038061 0.14385834 0.08167198 -0.048118103
000050 c0 33 30 3e 65 ce 1b 3e e2 fe 1f be 25 bc ee bd
       0.17207241 0.15215452 -0.15624574 -0.116569795
000060 c4 dc 56 bc 4c da a5 bd ab 71 21 3e 93 78 d1 bd
       -0.013114158 -0.080982774 0.15766017 -0.10228076
000070 2f 29 c8 3d 98 c1 ac 3c 9e 49 29 3d 76 b2 4d bd
       0.0977348 0.021088406 0.041329972 -0.05021902
000080 d1 4c 8b bb 1e a7 a7 3d 5c 2d 9d 3d 2a 44 45 bd
       -0.0042511006 0.08186172 0.07674667 -0.04816071
000090 26 95 99 bc 94 62 f3 bd cb 32 19 be 27 ff 63 3d
       -0.018747877 -0.11884037 -0.14960782 0.055663254
0000a0 1c c5 75 bd fd 63 90 3d 77 4b 99 3d 84 41 41 3e
       -0.06000243 0.07050321 0.07485097 0.18872648
0000b0 bf c5 cb bd fd 50 44 bd 51 3b 06 bd c1 cd fc bc
       -0.099498264 -0.0479288 -0.032771412 -0.03085983
0000c0 22 6e d5 3d 52 ad 0d 3d d4 03 11 3a 95 18 18 3e
       0.10421397 0.03458912 0.00055318815 0.14853127
0000d0 48 ec fa 3d 80 e8 e6 bc 06 2e 38 bc 61 5c f6 3d
       0.12252098 -0.028187037 -0.011241442 0.12029339
0000e0 c9 26 01 3e b4 a9 a4 bd 4d 6e db bd df 7c f4 3c
       0.12612452 -0.08040181 -0.107143976 0.0298447
0000f0 49 d3 ce bd d0 36 01 be 6a 7a 45 3d 00 09 3b 3d
       -0.10098893 -0.12618566 0.048212446 0.04566288
000100 28 06 0f be a3 e2 4f bd 9d 5f 0a be 35 4e 18 be
       -0.13967192 -0.050753247 -0.13513036 -0.14873584
000110 86 10 38 3d 60 67 d4 bc 9d 48 ee bd 04 d1 16 3d
       0.044937633 -0.0259282 -0.11634944 0.036820427
000120 7d 9d 08 bc 54 b1 e1 3c 85 29 f2 3d 31 ad f8 bc
       -0.008338329 0.027550377 0.118243255 -0.030356022
000130 34 2b 64 bd 60 1d bd bb c6 58 a3 bd 8d 5f 11 be
       -0.055705264 -0.005771324 -0.079759166 -0.14196606
000140 5f a7 42 bd 54 59 4a 3e ee 1c 8c bd c6 e2 c2 bd
       -0.0475229 0.19760638 -0.068414554 -0.0951591
000150 53 a7 15 be 93 5a 12 be f7 29 85 bd f7 87 9d bd
       -0.1461461 -0.14292364 -0.06502145 -0.07691949
000160 ea 60 19 be 09 e2 ad bd 5c b4 5f bd 02 29 23 be
       -0.14978376 -0.084903784 -0.054615363 -0.15933612
000170 ec 4d c8 bd b8 05 bd 3d 0e 3e 95 bd 5c 02 3d 3d
       -0.097804874 0.092296064 -0.072872266 0.04614483
000180 ec 73 fc bc 9d 9e c7 bd a2 d9 04 be 72 43 70 3d
       -0.030816995 -0.0974705 -0.12973645 0.05865807
000190 fb fb b2 bb 0c 3a 28 be c1 bf 1a be 40 92 0f be
       -0.0054621673 -0.16428393 -0.15112211 -0.14020634
0001a0 07 c7 84 3d 8f dc 72 3d b6 da 2e 3d c4 21 a1 3d
       0.06483274 0.059292372 0.042689048 0.078677684
0001b0 0a 18 1a 3e b8 da e3 bd 4d 3d e7 b9 d4 c4 6a 3d
       0.15048233 -0.11125702 -0.00044105426 0.057316616
0001c0 50 48 0e be fe ab 0c 3e 65 7a 14 3e 95 94 81 bd
       -0.13894773 0.13737485 0.14499815 -0.06327168
0001d0 d2 6e e9 bc 51 62 1d be 5e 4d 49 3d d5 71 6e 3d
       -0.028495226 -0.15369536 0.04914605 0.058214027
0001e0 94 de 6f bd ee 68 22 bd c9 be 21 3d d4 79 96 bd
       -0.058561876 -0.03965085 0.039488588 -0.073474556
0001f0 1d 97 64 bc d6 39 27 3e 46 9d 23 be f7 20 87 3d
       -0.013952044 0.16330656 -0.15977964 0.065980844
000200 2c 26 bf 3a 6d 38 ec 3d f0 75 65 3d d0 29 df bb
       0.001458352 0.115342 0.056020677 -0.0068104044
000210 03 0b e3 bd 38 dc d4 3d c4 fd 1a 3e 59 de fd 3b
       -0.11086085 0.10393566 0.15135866 0.007747453
000220 d9 35 48 3e 18 98 bd bd c4 9c 8d 3c bf 23 21 3e
       0.19551791 -0.09257525 0.017286666 0.15736292
000230 85 0c 69 bc 4a 7e d4 3d 85 ab d1 3d bc 49 5a bc
       -0.014224176 0.1037565 0.10237793 -0.013323244
000240 f1 eb 66 3d 1a e8 cb 3d 06 6e e6 3d 08 a6 0e 3e
       0.056377355 0.09956379 0.11251454 0.13930523
000250 dc e9 3b 3e 8d c3 84 3c fe 5a da 3d dc 9e db 3c
       0.18350929 0.016206527 0.10661887 0.026809148
000260 16 86 87 bd c3 c0 69 bd 2d c6 e8 3d cb 41 0b bc
       -0.06617372 -0.057068598 0.11365924 -0.008499573
000270 04 2a 21 3d b2 fe 64 bc 5b 52 c3 3d 8c f9 46 bd
       0.03934671 -0.01397674 0.095371924 -0.04857783
000280 3c 9a cc bc 2c 43 22 be 52 29 19 be 61 6e 11 bd
       -0.024975888 -0.15845937 -0.14957169 -0.035505656
000290 b1 b9 7e bd 3b f0 b2 3c 65 d3 95 3c e0 99 d5 bd
       -0.062188808 0.021843066 0.018289277 -0.1042974
0002a0 fa 5c dc bd 97 bb b0 3d 85 6c ef 3d 79 74 c0 bc
       -0.10759921 0.0862953 0.1169062 -0.023493038
0002b0 9d 39 17 bc a7 8e 9b 3d 16 ad 30 3e 43 bd d1 3d
       -0.009230045 0.07595568 0.17253527 0.10241177
0002c0 76 0e d0 bc a3 a5 18 3e f7 91 36 bd 0f 4a a4 3d
       -0.02539752 0.14906935 -0.044572797 0.08021938
0002d0 72 b4 55 bd ee 41 e1 3d 78 1b cc 3c 74 3f 05 bd
       -0.05217404 0.10998903 0.024915442 -0.032531217
0002e0 2e 96 c8 bd 08 34 e1 bd 5c 48 96 bd ad fd ff bd
       -0.097942695 -0.10996252 -0.0733802 -0.12499557
0002f0 b6 f6 12 bd 3a e5 05 3e ee c3 79 3d 84 2c f9 3d
       -0.035879813 0.13075724 0.06097787 0.12166694
000300 cb f7 03 3e eb c9 83 3d 6c 6c c0 3d 7c f8 00 3e
       0.12887494 0.06434997 0.0939568 0.1259479
000310 87 d2 d7 3b 50 a2 8c bc 4a 45 06 3e 60 09 2b bc
       0.006586376 -0.01716724 0.13112369 -0.010439247
000320 90 a4 01 be f9 9b 0d bc 40 0b a5 bc 64 47 90 3d
       -0.12660432 -0.008643144 -0.020146966 0.07044867
000330 62 91 d3 3a 0f 0d ef 3d 5f 09 84 3d 8f 3d 1d 3d
       0.001614135 0.116724126 0.064471 0.038388785
000340 6f b1 50 bd 40 59 03 bd 25 b9 09 3e 61 b3 ea 3c
       -0.050950464 -0.032067537 0.13449533 0.028649988
000350 aa 6f 02 be 95 db 20 3e 76 b5 f0 3d 05 9a ba 3c
       -0.12737909 0.15708764 0.11753361 0.02277852
000360 38 dd c8 bd ca 1a f4 3d 89 89 b1 bd 2e f5 95 3d
       -0.09807819 0.11919172 -0.08668811 0.07322155
000370 56 2c 2e 3c 08 54 de 3d 2c 16 4b 3c 0d ba a9 bd
       0.010630688 0.108558714 0.012395423 -0.082874395
000380 ce d3 87 bd b2 b7 72 3c 46 46 7e 3d 52 58 67 3c
       -0.066321954 0.014814304 0.062078737 0.014120178
000390 40 0d c2 3d 4b d2 19 bd d9 cc e7 bd 53 4f f6 bd
       0.094751835 -0.037554067 -0.113183685 -0.12026849
0003a0 ed 7f d3 3d 6a b0 57 3e be 11 eb bd 75 a6 12 be
       0.10327134 0.2106339 -0.114779934 -0.14321311
0003b0 08 8f 16 3e 73 e4 13 bd be 53 85 3d 5a e6 e4 bd
       0.14703 -0.036106538 0.06510113 -0.111767486
0003c0 6c 6b 24 bd 6f 93 15 be 09 ae 10 3e e4 f9 1e bd
       -0.040141508 -0.14607023 0.14128889 -0.038812533
0003d0 9d 60 f6 3d 39 8f 07 3d b6 a6 ab bd a9 dd 42 3d
       0.12030146 0.033095572 -0.08381407 0.047574673
0003e0 bf 6c 40 3e da 54 02 be 92 f1 bf bd 1d f1 f1 3d
       0.18791483 -0.12727681 -0.09372248 0.11813567
0003f0 07 6b 9c bc 71 36 d9 3d 8a 57 f5 3d c6 07 01 be
       -0.019094003 0.10606087 0.119795874 -0.12600622

encoder.layers.0.self_attn.out_proj.bias f4 [32]
000000 9d 90 05 3c 8a 2e 89 bc 2c 86 1f 3c bb f0 e2 ba
       0.008152154 -0.016745824 0.009736579 -0.0017314175
000010 87 72 3c bb 58 24 50 bc f2 c2 1d bc 63 d4 01 3d
       -0.0028754787 -0.0127039775 -0.009628998 0.03169669
000020 c9 02 bd 3b 04 3d 23 3b 25 31 88 3b 2a 2a f1 bb
       0.0057681543 0.0024908194 0.004156249 -0.0073597627
000030 4a c7 91 bc 39 6b 0b bd 9a df ac bc 6e 00 f6 ba
       -0.017795224 -0.034037802 -0.021102715 -0.0018768439
000040 14 80 69 bc 80 e8 62 bc 54 54 9f 3c 51 c6 e6 3a
       -0.014251728 -0.013849378 0.01944939 0.001760671
000050 d3 41 81 3c f9 81 09 3c 6d a7 8f 3c cd d2 5a bb
       0.015778458 0.008392804 0.01753589 -0.0033389807
000060 8a 6f a0 bb c6 e7 05 3d 1e 6c 46 bb 08 e3 d6 bc
       -0.004896109 0.03269174 -0.0030276845 -0.026231304
000070 7a 42 82 bc d5 17 c5 bc 83 26 cf bb 7f a7 66 3c
       -0.01590084 -0.024059216 -0.0063217296 0.01407802

encoder.layers.0.linear1.weight f4 [128, 32]
000000 d0 7c 1c bd 08 ed 76 bd 76 18 0b be 48 55 2a be
       -0.038204968 -0.060284644 -0.1358355 -0.16634095
000010 67 8a 12 3d c8 8e c0 bd f1 22 5a 3d bc 9d 2b be
       0.035776522 -0.09402233 0.05325598 -0.1675939
000020 cb 8e 97 bd b9 27 8b 3d ed 88 27 3e 22 15 2c be
       -0.074002825 0.06794686 0.16360827 -0.16804937
000030 87 57 ca bc 52 ea 48 3d 7b b7 39 bc 3a 75 dc 3d
       -0.02469994 0.04905159 -0.011335249 0.10764547
000040 9e 1d ed bd 8c 70 bd bd 6e 83 f4 3d 6c 3f 5c 3c
       -0.11577915 -0.09249982 0.11939131 0.013442855
000050 da f9 13 be b0 9f 8f bd b8 64 7e bc 1b ce 63 bc
       -0.1445078 -0.0701288 -0.015526943 -0.01390412
000060 b4 23 3c be 4e b3 8e bd 28 d2 04 be ee a8 fa bd
       -0.18372995 -0.069677934 -0.12970793 -0.12239252
000070 63 e3 f9 bc fd ec ba bd 98 50 8b bd 0e 9f 50 3d
       -0.030503934 -0.09127233 -0.068024814 0.050932936
000080 1f e0 39 bd d9 76 82 3c 52 cc b9 3d 2d 5f 82 bd
       -0.045379754 0.015925812 0.09072174 -0.063658096
000090 03 90 d1 bd 1f 7e 3d 3e a7 f2 dc 3d 3f ee db 3d
       -0.10232546 0.18505143 0.1078847 0.10738801
0000a0 86 15 15 be 2f 90 36 3e d1 cd 79 bd 77 f2 ac bc
       -0.14558992 0.17828439 -0.060987297 -0.02111171
0000b0 d9 44 00 be bf 74 25 bd a4 14 f7 bd 5c 2b 4f be
       -0.12526263 -0.04039454 -0.12064484 -0.20231384
0000c0 43 15 58 3d 80 99 a6 3d b1 53 20 3e a9 7d bc 3d
       0.05275465 0.081347466 0.15656926 0.09203655
0000d0 0a 92 e5 bd d8 e9 9d 3d 90 af 3c bd 93 5f 14 3e
       -0.11209495 0.07710618 -0.046065867 0.14489584
0000e0 e9 3d 49 3e 4b 69 3d bd 0c e3 e0 bd b3 2b 67 3d
       0.19652523 -0.046242993 -0.10980806 0.05643816
0000f0 3f 0d 96 3d 10 ff e4 3d 70 5b fc bb cb 17 69 3e
       0.07326745 0.11181462 -0.00770133 0.22762983
000100 71 f7 1c 3e f4 76 e9 bd 77 1a 45 bd 38 3e 08 be
       0.15328766 -0.11399642 -0.048120942 -0.13304985
000110 6c d2 b7 bd 10 ae 22 be 1a 5d b0 3d fa f6 0e 3e
       -0.08975682 -0.15886712 0.08611508 0.13961402
000120 54 ca 1f be 44 b6 29 3e f3 7b 30 be 64 3b 1b 3d
       -0.15604526 0.16573435 -0.17234783 0.037898436
000130 af 5f 10 be 42 92 00 3d 2f e3 2a be 9f 96 d4 3d
       -0.14099 0.031389482 -0.16688226 0.10380291
000140 5d 2f b7 bd 91 24 67 bd 12 c6 07 be b9 dc 2a 3e
       -0.08944581 -0.056431357 -0.13259152 0.16685762
000150 08 6a df 3c 76 ca 5e 3e e9 a4 39 be 93 69 86 3d
       0.02727224 0.2175692 -0.18129314 0.065631054
000160 4f bf d1 3d e9 06 04 3e a5 aa d1 3d e5 0d f4 bd
       0.10241567 0.12893261 0.10237626 -0.11916713
000170 c1 6d bb 3d 33 d4 18 3e c9 6e fe 3d 75 ac be 3d
       0.09151793 0.14924698 0.12423474 0.09310237
000180 11 de c6 3d 65 33 fa 3d 0c 71 17 be d1 6a 0a 3e
       0.097103246 0.12216834 -0.14789218 0.1351731
000190 ee a3 48 bd 25 bd 45 3c b1 2d 13 bd 9f 46 3a bd
       -0.04898446 0.012069021 -0.035932247 -0.045477506
0001a0 bf 26 b3 3d f5 be 9a bd 87 71 57 3d da 69 5d be
       0.087476246 -0.075559534 0.052598502 -0.2162241
0001b0 a7 39 ea 3d bd 66 d6 3d 27 a1 35 bb a5 d8 3b be
       0.114367776 0.104688145 -0.0027714462 -0.18344362
0001c0 63 f0 df 3d a5 36 f5 3d 92 ec aa 3d ed d0 de bd
       0.10934522 0.11973313 0.083459035 -0.10879693
0001d0 09 58 f8 3d 7d 52 25 bd 6a 72 d0 3c 41 f7 0a 3e
       0.121261664 -0.04036187 0.025445182 0.13570882
0001e0 f6 09 93 3d ce ad a5 3c fe b7 07 be 60 5b 43 be
       0.07179634 0.020224478 -0.13253781 -0.19077826
0001f0 97 52 2a 3e fd 5b 35 3e 1e e5 04 be 97 43 79 3e
       0.16633068 0.17710872 -0.12978026 0.2434219
000200 e7 db b1 bc 95 93 a3 3c 6f 28 b9 bd 5e e8 be bc
       -0.021711303 0.019967834 -0.09040915 -0.02330416
000210 54 ce a8 bd 7d 99 a1 bd 20 21 da 3d 5e 2b 48 bd
       -0.08242479 -0.07890604 0.10650849 -0.048869483
000220 32 7d 88 bd 79 8d f9 3c a4 74 35 3c 88 23 b3 3d
       -0.06664504 0.030462967 0.011075173 0.087470114
000230 17 bf 82 3d ad 25 fd 3d 6d 71 73 3e 61 0e ce bd
       0.06384104 0.12360702 0.23773737 -0.10061336
000240 ef 3f 90 bd 1d 30 93 bd e8 0e 86 bd dc 3b 99 bd
       -0.07043444 -0.07186911 -0.06545812 -0.074821204
000250 8f b5 26 be 72 5d 9e bc 6a f7 63 be 1c 97 29 be
       -0.16280197 -0.019331668 -0.2226235 -0.1656155
000260 0b 8a 08 3d 1c 38 b0 3d aa 35 94 bd 6f 04 bb bd
       0.033334773 0.08604452 -0.07236798 -0.09131705
000270 90 cd 62 bd 00 49 1c 3d 5a dd d8 3d 67 82 d9 bd
       -0.05537182 0.038155556 0.105890945 -0.106205754
000280 ca 8a 38 bd c6 08 cc bd f4 ad e7 bc 9d 95 58 bb
       -0.045054235 -0.09962611 -0.02828119 -0.003304816
000290 72 0c 42 bd be 36 d2 3d 04 4d d1 bd 17 c9 aa 3c
       -0.04737515 0.102643475 -0.10219768 0.02084784
0002a0 2e 7e 37 3d b7 5a 87 3d 7d 82 29 be a9 da 32 3e
       0.04479807 0.06609099 -0.16553684 0.17466225
0002b0 5d 1a f7 3c 2d 94 95 bd ca 80 bd bd b6 9b a6 3c
       0.030163938 -0.07303653 -0.0925308 0.02033792
0002c0 e8 58 23 be 72 0f 3d be d8 c6 9c 3d 60 17 11 3e
       -0.15951884 -0.18462923 0.07655114 0.14169073
0002d0 3a 02 b4 bd 68 10 00 3d 95 0f 9e 3c 44 2d c7 bc
       -0.08789487 0.031265646 0.01929454 -0.024313577
0002e0 4d 06 ec bc e2 a6 65 be 47 cd 92 bd 4b 80 5c bd
       -0.028811598 -0.22426942 -0.0716806 -0.053833287
0002f0 dd a8 bf bd ed 09 09 be 3d 67 a2 3c 91 57 e7 bd
       -0.0935838 -0.13382693 0.019824618 -0.11295999
000300 26 a6 9d bc 43 50 77 bb 56 d7 f4 3d 9e df 57 be
       -0.019244265 -0.0037737049 0.119551346 -0.21081397
000310 e6 46 d0 3c 48 08 65 3e 1e 61 4a be 09 0c 8f 3c
       0.025424432 0.2236644 -0.1976361 0.017461793
000320 94 a0 b4 bd 95 9b 0a 3d 34 6a b9 bd 14 f6 fd bc
       -0.0881969 0.03383978 -0.0905346 -0.031001128
000330 b8 dc 1b 3e c2 93 6f bd 07 29 dd 3d 68 9f 11 bd
       0.15220916 -0.058490522 0.10798841 -0.035552412
000340 ba 6c 24 3e db 55 a4 bd 10 30 b2 bc fd 5e d9 bd
       0.16057101 -0.08024188 -0.021751434 -0.10613821
000350 ff e0 0e 3d 3a 14 84 bd bd c9 3c bd e5 7b 33 be
       0.03488254 -0.064491704 -0.04609083 -0.17527731
000360 97 59 9d bc 35 b4 39 bc 61 e0 18 3e 75 90 c8 bd
       -0.019207759 -0.011334469 0.14929344 -0.09793178
000370 e5 84 29 3e cd 96 1e 3d 55 7f b5 bd 88 d9 86 3d
       0.16554601 0.038718034 -0.08862177 0.065844595
000380 78 76 af 3c 39 ed 94 bd f5 6b cb 3c 85 50 d1 3d
       0.021418795 -0.07271809 0.024831751 0.10220436
000390 f3 da bb bc 58 c0 13 be e0 2d 1e 3d 6c a3 a2 3d
       -0.022931552 -0.14428842 0.03861797 0.079413265
0003a0 04 89 0e 3e 55 e5 28 3e 60 a1 eb bd 5a 92 94 3c
       0.13919455 0.16493733 -0.11505389 0.018136192
0003b0 7a f7 28 3d 12 5a af 3d 7b f2 1c be c4 ad d5 3d
       0.041251637 0.085621014 -0.15326874 0.10433534
0003c0 c0 0a 1a 3e 12 0e b4 bd 72 21 fd 3b 0d fd 09 3e
       0.15043163 -0.08791746 0.0077249343 0.13475437
0003d0 ff af 0b be 00 a3 e7 bd 73 97 3b be 16 4f 74 3d
       -0.13641356 -0.11310387 -0.18319492 0.059645735
0003e0 21 b9 8e bd cc f3 cc 3d 66 cc 90 3c 97 1b 28 3e
       -0.06968904 0.10007438 0.01767559 0.16416775
0003f0 ad a9 02 3d 7b 16 fe 3d d6 f8 ca bd 87 28 a2 bd
       0.031900097 0.124066316 -0.09910743 -0.07917886

encoder.layers.0.linear1.bias f4 [128]
000000 c2 02 88 3d f5 83 1d 3e ab c4 c9 bc 2a 88 03 3e
       0.06641151 0.15382369 -0.024629911 0.12844911
000010 b9 98 0d ba f7 b0 be bc 05 6e 4e be 61 9a 25 be
       -0.00054014806 -0.023277743 -0.20159157 -0.16172172
000020 b9 a9 09 3e 5b 88 d4 3c f8 de ab 3c a3 fa 04 3d
       0.1344365 0.025943926 0.020980343 0.03246559
000030 1f 26 97 b8 f4 b3 29 be 44 72 6f 3d 9b 63 8f bc
       -7.207342e-05 -0.16572553 0.05845858 -0.01750355
000040 70 d6 be bc 12 11 12 3d 5f 04 d0 3d 16 28 59 be
       -0.023295611 0.03566081 0.10157084 -0.21206698
000050 75 59 0f 3d a2 3b c3 bd 68 ba 16 be 8b 03 b8 3d
       0.034997422 -0.095328584 -0.14719546 0.08985051
000060 11 6f 2e bd 90 16 af bd 51 da a4 3d 85 91 f8 3d
       -0.04258639 -0.08549225 0.08049453 0.12137131
000070 41 92 f5 3d 93 80 0f 3d 1f 89 45 be 2b 7e 1f 3e
       0.11990786 0.035034727 -0.19290589 0.15575473
000080 4e 4e f3 3d b4 2e e7 bc 78 00 93 bc fa 86 38 bd
       0.1188017 -0.028220512 -0.01794456 -0.0450506
000090 e4 93 24 be 16 0e 40 be be 1a 30 be 3f f9 c2 3d
       -0.16072041 -0.18755373 -0.17197701 0.09520196
0000a0 09 6e 40 3d 55 d8 95 bd e9 97 70 bd 6b aa 20 be
       0.046979938 -0.07316653 -0.058738623 -0.1569001
0000b0 36 0b 3d 3e 3e c8 f5 3d 84 d0 ad bd f9 50 e7 bd
       0.18461308 0.12001084 -0.08487037 -0.11294741
0000c0 f2 06 fd 3c a4 02 bb 3d cf 3b 0d bd 11 7a 88 bd
       0.0308871 0.09131363 -0.034480866 -0.06663907
0000d0 46 61 b1 bd db 55 2b be 51 5d 48 3d 3e 67 0a 3d
       -0.086611316 -0.1673197 0.04891712 0.033789866
0000e0 c5 1e 8a bd 42 30 32 bd 4f 38 5a 3c 3e 7b 11 bd
       -0.0674415 -0.043503053 0.013319089 -0.035517924
0000f0 19 e3 32 bd 73 cc 01 bc 96 e4 f9 3b df 59 75 3d
       -0.04367361 -0.00792228 0.0076261265 0.05990016
000100 00 54 a2 3d 3a bf 20 be 7e 1a 86 bd a8 6d 13 ba
       0.07926178 -0.15697947 -0.06548022 -0.0005623945
000110 ab 5b 46 3d 6c b8 2c be f7 66 be bc 6f 17 ed bd
       0.048427265 -0.16867226 -0.023242457 -0.11576735
000120 d3 34 f3 bd ee 7f 1f be bd 65 e6 3d a1 9a 94 bd
       -0.1187531 -0.15576145 0.11249874 -0.072560556
000130 2a eb af 3b a3 5b 89 bd 23 18 5c bd 7c 74 ea bd
       0.00536861 -0.067069314 -0.053733956 -0.11447999
000140 b3 6e a1 3b 0a 24 a3 bd e6 f3 d1 bd f5 9b f7 ba
       0.0049265265 -0.07965858 -0.10251598 -0.0018891083
000150 0c 05 76 bd 28 14 29 be 3c 49 b5 ba af a8 c8 bb
       -0.060063407 -0.16511595 -0.001383103 -0.0061236243
000160 83 b0 cf bc b6 b9 ae bd 01 42 d1 3c e3 01 15 be
       -0.025352722 -0.08531515 0.025544168 -0.14551501
000170 d1 7e e1 3d 86 6f da 3b a8 a5 94 3d 95 c0 90 bc
       0.110105164 0.0066661267 0.07258159 -0.017669955
000180 c2 e9 9e 3d b5 2b 7a bd 78 32 f8 bd 5e 36 09 3e
       0.077594295 -0.06107684 -0.12119001 0.13399646
000190 79 0e 27 3e 06 16 87 3c 6c 1f af bd be 97 0d 3e
       0.16314115 0.016489994 -0.08550915 0.13827416
0001a0 a8 65 82 bd fa 6a af bd ac 2d 11 3e 66 21 32 bd
       -0.06367046 -0.08565326 0.14177579 -0.043488882
0001b0 52 e2 8d bd 36 15 bb bc ef 7c 1c be 29 42 55 bd
       -0.06927933 -0.022837263 -0.15282033 -0.05206505
0001c0 ec da e3 bd 22 2c a2 bd 0b 74 12 3e 03 f1 e0 3d
       -0.111257404 -0.07918574 0.1430208 0.10983469
0001d0 9c 01 20 bd 39 ae c9 bd 93 26 b6 3d b0 96 ec 3d
       -0.039064035 -0.098476835 0.08894076 0.11552179
0001e0 1b c0 90 3d d3 26 09 bd 54 e7 cf bd 53 de 2f be
       0.07067891 -0.03348429 -0.10151544 -0.17174654
0001f0 7b 41 e4 3d 62 b4 85 bd 69 8a 0b be 21 95 be bd
       0.11145302 -0.06528546 -0.13627018 -0.09305788
