models/Proposed/kaon_0.pt (torch, 165267 bytes, 35 tensors)

emb.layers.0.weight f4 [128, 20]
-0.6953716 0.12004704 0.117440164 0.15582272 0.31758413 -0.22431971 -0.27808696 -0.15114985
0.1326752 -0.16286299 0.007641509 -0.13087645 -0.023182744 -0.09901131 -0.0022880733 -0.064660214
0.14353503 0.060529333 0.06179209 0.043898616 -0.012413737 -0.015422348 0.00087886525 -0.048743363
-0.31578985 -0.19963795 -0.19600427 0.13880427 0.010972143 0.1184345 -0.028286165 0.084754586
0.06390647 0.09048157 -0.090747714 -0.10844307 0.023257334 0.016805919 -0.055105735 0.22284153
0.13144201 -0.0723038 0.16733205 -0.08323796 0.22445735 0.1871632 -0.051935494 -0.31484172
-0.35994664 0.16652203 -0.0634506 -0.09264089 -0.0991022 -0.08460222 0.06694083 -0.11160731
0.023417965 -0.11188524 -0.10823074 -0.14418703 -0.09506114 -0.05385012 0.22134021 -0.34193248
-0.020151854 -0.103261 -0.08134474 -0.13554567 -0.081412554 0.007286086 -0.112158015 0.16838096
0.16280147 0.15458842 0.18262818 -0.05967137 -0.2975002 -0.3547172 -0.27643248 0.05845289
-0.22150786 0.19082719 0.0701738 0.23559935 0.30825096 0.16600275 -0.0057651103 0.216915
0.24022137 0.22885878 -0.15020075 -0.03256764 0.026432231 0.22803727 -0.0047106827 0.05540201
-0.02676329 -0.19792037 0.026769627 -0.25131088 -0.14703086 -0.14242971 0.18705755 -0.11308662
-0.0010661499 -0.10527217 0.044890463 -0.28927216 0.18601169 -0.14514397 -0.17957456 -0.035288215
-0.012699648 0.14298455 -0.11220188 0.13408753 -0.20295857 0.07697226 0.15085784 -0.11450776
-0.036840312 -0.12759556 0.25139442 0.13490407 0.14266758 -0.16735917 0.030022023 -0.06833173
0.0067287097 -0.00615379 -0.33197808 0.14819819 -0.35954773 -0.1652093 -0.035522178 -0.151318
0.034403484 0.046243124 0.029016413 -0.22773719 -0.6041256 -0.1689356 0.30821803 -0.28191078
0.0067382287 -0.16259022 -0.15454756 0.08898638 -0.011226192 0.13933383 0.07482111 0.1586167
-0.02898684 -0.23307592 -0.08875881 -0.13145296 0.064255774 -0.030498113 -0.018681653 0.13095959
0.21351793 -0.028541684 0.10101563 -0.405273 -0.090497866 -0.023678057 0.10163337 -0.03388513
0.10721885 0.10018172 0.28317037 -0.21133979 0.15087341 0.16653329 -0.20271198 -0.0065631727
-0.5746612 0.16799709 0.19094302 0.09834663 0.14386971 0.13045329 -0.21589868 0.1653411
-0.091186106 -0.16941002 0.1382113 -0.13564147 0.018522803 0.045967277 0.04056759 0.12029352
-0.08204764 0.2568432 0.0033572793 -0.046884984 -0.22190192 -0.03362903 0.1761714 -0.14343959
0.13355704 0.123556376 -0.004295715 -0.09913627 -0.2553618 0.13246007 0.07220293 0.13434447
-0.12275401 -0.43668523 0.030705024 0.018648474 0.028349955 -0.17783889 0.15033938 0.17104337
0.039828062 -0.14448652 -0.12851325 -0.07913894 0.19691391 0.17701311 -0.06337425 0.12970252
-0.08849769 0.14096034 -0.008819725 0.12553129 -0.09372716 -0.052194193 -0.0051628617 -0.18357597
-0.13517044 -0.05478542 0.09981029 0.0035871267 -0.1322684 0.073467076 -0.1278298 -0.113604836
0.116562836 -0.032055184 0.3388112 -0.11266874 0.028181046 -0.42042565 0.0563963 -0.2554635
0.09719982 -0.30738214 -0.14237791 -0.1781213 0.049677186 0.10751857 0.09314225 -0.18818897
00000000: e003 32bf 39db f53d 7884 f03d fe8f 1f3e
00000010: 639a a23e 11b4 65be 6a61 8ebe 07c7 1abe
00000020: 02dc 073e 8ec5 26be a065 fa3b 7a04 06be
00000030: bde9 bdbc 71c6 cabd 80f3 15bb 936c 84bd
00000040: d9fa 123e 9bed 773d b419 7d3d 09cf 333d
00000050: fd62 4bbc 04ae 7cbc a663 663a 1fa7 47bd
00000060: 35af a1be e46d 4cbe 58b5 48be b522 0e3e
00000070: 81c4 333c ca8d f23d 63b8 e7bc d093 ad3d
00000080: 65e1 823d 674e b93d f0d9 b9bd 6617 debd
00000090: 2a86 be3c 91ac 893c 8db6 61bd 9230 643e
000000a0: bc98 063e 0414 94bd 1859 2b3e aa78 aabd
000000b0: 26d8 653e b6a7 3f3e 50ba 54bd ef32 a1be
000000c0: ed4a b8be c084 2a3e 63f2 81bd 82ba bdbd
000000d0: 18f6 cabd ee43 adbd 4618 893d 6092 e4bd
000000e0: 08d7 bf3c 1724 e5bd 14a8 ddbd c4a5 13be
000000f0: 6aaf c2bd f291 5cbd 02a7 623e c611 afbe
00000100: 8015 a5bc 817a d3bd 1298 a6bd 7ccc 0abe
00000110: a0bb a6bd 1fc0 ee3b 1ab3 e5bd 0f6c 2c3e
00000120: 6eb5 263e 6d4c 1e3e e202 3b3e f769 74bd
00000130: f251 98be 7e9d b5be 8f88 8dbe 4c6c 6f3d
00000140: f5d2 62be 3468 433e 48b7 8f3d f540 713e
00000150: 12d3 9d3e a0fc 293e 40e9 bcbb f71e 5e3e
00000160: 97fc 753e f559 6a3e 3ace 19be a565 05bd
00000170: 6888 d83c 9a82 693e 125c 9abb 38ed 623d
00000180: b03e dbbc a3ab 4abe fa4b db3c d2ab 80be
00000190: 428f 16be 18d9 11be 048c 3f3e f599 e7bd
000001a0: 0ebe 8bba ef98 d7bd 10df 373d 7b1b 94be
000001b0: d979 3e3e 9fa0 14be 65e2 37be 608a 10bd
000001c0: 2f12 50bc 8b6a 123e 19ca e5bd 3e4e 093e
000001d0: 5fd4 4fbe a2a3 9d3d 7a7a 1a3e 0b83 eabd
000001e0: dee5 16bd 69a8 02be c5b6 803e 4b24 0a3e
000001f0: 7317 123e 3460 2bbe bff0 f53c 82f1 8bbd
00000200: 827c dc3b bba5 c9bb 08f9 a9be 44c1 173e
00000210: a416 b8be a02c 29be b47f 11bd 1bf3 1abe
00000220: abea 0c3d 6e69 3d3d d4b3 ed3c f033 69be
00000230: faa7 1abf 74fd 2cbe c1ce 9d3e 9c56 90be
00000240: 5ccc dc3b 0d7e 26be b741 1ebe 7e3e b63d
00000250: 10ee 37bc 87ad 0e3e cf3b 993d 6b6c 223e
00000260: cf75 edbc 74ab 6ebe 2ec7 b5bd 9b9b 06be
00000270: 8898 833d 2ed7 f9bc 440a 99bc 451a 063e
00000280: 72a4 5a3e 40d0 e9bc 48e1 ce3d f17f cfbe
00000290: f256 b9bd 7cf8 c1bc 2825 d03d 22cb 0abd
000002a0: 8e95 db3d 132c cd3d b5fb 903e 7569 58be
000002b0: 8f7e 1a3e b487 2a3e bb93 4fbe e20f d7bb
000002c0: ff1c 13bf 6e07 2c3e 9186 433e f569 c93d
000002d0: 9552 133e 8c95 053e 8b14 5dbe 2d4f 293e
000002e0: c8bf babd d279 2dbe 4387 0d3e 99e5 0abe
000002f0: 22bd 973c 2f48 3c3d 342a 263d 735c f63d
00000300: 9808 a8bd f480 833e cd05 5c3b 780a 40bd
00000310: 423a 63be 98be 09bd 4766 343e d4e1 12be
00000320: 2dc3 083e 200b fd3d 12c3 8cbb f507 cbbd
00000330: c8be 82be 9da3 073e 21df 933d 9991 093e
00000340: 7466 fbbd 3595 dfbe 1a89 fb3c afc4 983c
00000350: 2a3e e83c 661b 36be 91f2 193e fe25 2f3e
00000360: c022 233d 46f4 13be fa98 03be 9913 a2bd
00000370: cda3 493e ed42 353e 5cca 81bd bdd0 043e
00000380: 473e b5bd e857 103e 9c80 10bc 468b 003e
00000390: 06f4 bfbd 94c9 55bd 392d a9bb 57fb 3bbe
000003a0: 1f6a 0abe ad66 60bd 5669 cc3d 0016 6b3b
000003b0: 5e71 07be e875 963d d1e5 02be a7a9 e8bd
000003c0: 7fb8 ee3d 4c4c 03bd a978 ad3e debe e6bd
000003d0: f0db e63c 0842 d7be cfff 663d 1dcc 82be
000003e0: b310 c73d 3161 9dbe 84cb 11be 6e65 36be
000003f0: 4e7a 4b3d b232 dc3d 5dc1 be3d 9cb4 40be

emb.layers.0.bias f4 [128]
-0.14070465 0.16464025 -0.08791046 0.09114165 -0.18273763 -0.13678998 0.09703558 0.0964782
0.023730727 0.14719762 0.15195094 0.09649093 -0.06660788 -0.15600148 0.10688428 0.072100595
0.10571325 -0.061324988 0.12108181 0.10084793 0.100170195 0.024896024 0.12552044 0.017816054
-0.02581322 -0.21490686 0.06950589 -0.07779038 -0.11849715 -0.12141 -0.09310511 -0.1298176
-0.18415837 -0.113434225 -0.1775796 0.036105264 0.005978907 0.1351682 -0.12309762 -0.01168804
0.08597733 0.17101613 -0.014426356 -0.026289148 -0.06169362 -0.058570385 -0.03911504 -0.1984953
0.08493124 0.021522244 -0.17401753 -0.10000395 -0.18827268 0.19898622 -0.0063497373 0.07360303
-0.23237571 0.054666307 -0.19935235 -0.10337469 -0.0006501503 -0.124987684 0.054925825 -0.13165595
0.14199862 -0.2125685 0.038043346 -0.24173282 0.06725451 0.036532626 -0.08348652 -0.057200328
0.13477309 0.05903921 0.13051024 -0.074191965 0.04995924 -0.19818138 -0.038142487 0.1509903
-0.052076817 -0.05869093 0.099341854 -0.0074648205 -0.15849197 -0.19011211 -0.19315372 -0.040451292
0.2072214 -0.09202748 0.1902444 0.12806587 -0.15369955 -0.05980363 0.16314138 -0.06702023
0.03049962 0.14627 -0.16244243 -0.14707032 0.07137771 0.046739507 0.11521403 -0.01577848
-0.06436193 -0.014828824 0.10215081 -0.009501934 -0.12432799 0.027585547 -0.11837114 0.073809735
0.027731145 -0.12475817 -0.088337466 0.12623008 0.0038582792 0.056909148 -0.07423614 -0.077639
0.18621512 0.21699911 0.02433076 0.11967573 -0.1799156 0.028599786 -0.06850192 0.06399857
00000000: e114 10be 7497 283e 660a b4bd 79a8 ba3d
00000010: 931f 3bbe ac12 0cbe 97ba c63d 5d96 c53d
00000020: f166 c23c f9ba 163e 0799 1b3e 099d c53d
00000030: b669 88bd dabe 1fbe 25e6 da3d 7aa9 933d
00000040: 3080 d83d e92f 7bbd bdf9 f73d 5c89 ce3d
00000050: 0826 cd3d bff2 cb3c 6e88 003e f9f2 913c
00000060: 3f76 d3bc 8b10 5cbe 1b59 8e3d 9050 9fbd
00000070: a2ae f2bd cea5 f8bd e4ad bebd e8ee 04be
00000080: 0394 3cbe 3450 e8bd 6dd7 35be 1de3 133d
00000090: b5ea c33b 8869 0a3e 9b1a fcbd 317f 3fbc
000000a0: e214 b03d da1e 2f3e 865c 6cbc 575c d7bc
000000b0: 73b2 7cbd 80e7 6fbd 1837 20bd 5a42 4bbe
000000c0: 6ef0 ad3d 6b4f b03c a731 32be dfce ccbd
000000d0: 8eca 40be 0bc3 4b3e 7511 d0bb 2fbd 963d
000000e0: e6f3 6dbe c7e9 5f3d 0623 4cbe 1cb6 d3bd
000000f0: d96e 2aba 8bf9 ffbd e7f9 603d d1d0 06be
00000100: 1668 113e 8fab 59be 57d3 1b3d cf88 77be
00000110: bcbc 893d 3ca3 153d fbfa aabd e44a 6abd
00000120: f501 0a3e 19d3 713d 7aa4 053e f5f1 97bd
00000130: 0fa2 4c3d 0ff0 4abe 4c3b 1cbd 349d 1a3e
00000140: 804e 55bd e765 70bd be73 cb3d 749b f4bb
00000150: b84b 22be c0ac 42be 17ca 45be 41b0 25bd
00000160: d931 543e e778 bcbd 6ecf 423e b323 033e
00000170: 6a63 1dbe a7f4 74bd 890e 273e e741 89bd
00000180: 57da f93c cec7 153e 4f57 26be 9a99 16be
00000190: 7a2e 923d ed71 3f3d 55f5 eb3d df41 81bc
000001a0: 30d0 83bd 99f4 72bc 7234 d13d 00ae 1bbc
000001b0: ac9f febd 16fb e13c 916c f2bd 8f29 973d
000001c0: 6d2c e33c 3681 ffbd 46ea b4bd 7542 013e
000001d0: 2fdb 7c3b 9119 693d 1e09 98bd 3201 9fbd
000001e0: 2daf 3e3e 0435 5e3e 4d51 c73c 8d18 f53d
000001f0: cc3b 38be 194a ea3c bc4a 8cbd af11 833d

emb.layers.2.weight f4 [32, 128]
-0.053232204 0.018309655 -0.034791198 0.054458544 0.18890506 0.10977843 -0.01641588 0.0026611695
0.07866008 0.020337773 -0.014069914 0.041800763 0.0273861 -0.008664087 -0.046105444 0.04133546
-0.00017667327 -0.18056726 -0.0073136063 0.09906712 0.0011602669 -0.028933562 -0.05974454 0.05196052
-0.01940099 -0.003063869 -0.061913267 0.02309844 0.028949846 -0.010641292 -0.0768417 -0.03414596
-0.09111056 -0.013229432 -0.13807364 -0.084663026 -0.07775301 0.061877754 -0.059997316 -0.0042199064
0.028286904 0.014987966 0.07868279 0.044268187 -0.016351093 0.08738724 0.13664077 0.003890381
-0.0107169 0.102472715 0.05313751 0.023185447 0.12811325 0.08277935 -0.096791424 -0.045968384
0.07337264 0.021616908 0.14800581 -0.09520764 -0.013557042 -0.09750909 -0.0071473834 -0.021085616
-0.030046538 0.03410522 0.0038192256 0.038755566 0.051723547 -0.07652333 0.012792664 -0.02308779
-0.05143039 -0.011010308 0.049737893 -0.058275625 0.06421706 0.008152726 0.023798348 -0.0041923746
0.04214643 -0.063973196 0.027937865 0.007349741 -0.091701195 0.041793454 -0.021426704 -0.016631301
-0.026841657 0.091994524 0.02606916 0.060381677 -0.01205548 -0.019057225 -0.042372003 0.041142
0.020589203 -0.02458566 -0.0030998823 0.13907818 -0.028503066 -0.001076025 -0.0051091714 -0.0005928378
0.018461771 -0.0579095 0.025589257 0.07771417 0.09042926 0.067790814 -0.071453035 0.039394278
-0.12021824 0.07990828 -0.17907849 -0.037743993 -0.023228412 -0.06671153 0.022448841 0.037735738
-0.029472912 0.025574574 0.054712467 -0.0345679 0.049883153 0.055619568 -0.043749988 0.09420712
-0.02225994 0.00917347 -0.12659344 0.05008388 -0.048904788 0.096426606 0.038087007 0.04230498
-0.075571865 -0.062448636 0.11007367 -0.06290205 0.11703459 -0.021595223 0.036863055 0.1306295
-0.037726242 -0.022619 0.015605942 0.08758492 -0.016929833 -0.060091637 -0.00063611916 -0.061650928
0.06894632 0.10660959 0.14005743 -0.07010816 -0.00014052891 0.05823574 0.051213644 0.09854073
-0.009216112 -0.019310778 -0.003682301 -0.047422998 0.0750789 0.0011242554 -0.06762432 -0.076917194
-0.039532416 0.051365558 -0.06191621 0.065730974 -0.007951706 0.07983222 -0.0061841016 -0.09269372
-0.0151267825 0.0147200255 -0.12684262 -0.08135294 0.018857863 -0.03270307 -0.06663491 0.0012017654
0.00024363284 0.082820065 -0.01665535 -0.21379383 0.070055164 -0.049107704 -0.012992622 -0.00028763738
0.0351414 0.11013263 -0.011040716 0.021371922 0.079943895 -0.04263411 0.000159774 0.03241036
-0.064275585 -0.007413367 -0.008167807 -0.0008688726 0.020372039 0.0011525988 -0.15777424 -0.022270199
-0.0073523396 -0.029487807 -0.13916442 -0.045542054 0.07927312 0.100469984 -0.024248216 0.03169572
0.0039708717 0.0361897 0.026193645 -0.041472413 0.09445847 -0.02621268 0.012939669 -0.08598191
-0.04897902 0.07085533 -0.008867102 -0.12862352 0.11363552 -0.03720215 0.042300336 0.08572709
0.0018542574 -0.10721422 0.07058532 -0.06581392 0.00086858997 0.030334253 0.05131886 -0.089220524
-0.0874596 0.05705495 0.033848997 0.07994205 -0.109653085 0.04890114 -0.09257775 0.0796114
-0.038668342 -0.08922867 0.113877244 0.05081318 -0.06332702 0.0032802802 -0.0207784 0.073758334
00000000: 030a 5abd 21fe 953c 3781 0ebd ec0f 5f3d
00000010: 5470 413e 83d3 e03d 987a 86bc 0467 2e3b
00000020: 8918 a13d 679b a63c 7f85 66bc 4737 2b3d
00000030: d058 e03c d1f3 0dbc 10d9 3cbd 5f4f 293d
00000040: 5f41 39b9 a0e6 38be faa6 efbb b4e3 ca3d
00000050: 1914 983a 1406 edbc b1b6 74bd 8ed4 543d
00000060: d3ee 9ebc 31cb 48bb c498 7dbd f138 bd3c
00000070: 3a28 ed3c d058 2ebc 2e5f 9dbd a2dc 0bbd
00000080: 2c98 babd 42c0 58bc 2d63 0dbe cf63 adbd
00000090: f83c 9fbd 8773 7d3d bfbf 75bd 2447 8abb
000000a0: f0b9 e73c 1690 753c 7124 a13d 8f52 353d
000000b0: baf2 85bc 15f8 b23d 8feb 0b3e c3f5 7e3b
000000c0: f095 2fbc 37dd d13d b8a6 593d 68ef bd3c
000000d0: 1f30 033e 3888 a93d 953a c6bd 5849 3cbd
000000e0: 6544 963d f115 b13c d68e 173e 39fc c2bd
000000f0: 5b1e 5ebc d9b2 c7bd 9934 eabb bebb acbc
00000100: 2824 f6bc eab1 0b3d f94b 7a3b 28be 1e3d
00000110: 12dc 533d 43b8 9cbd 5298 513c 9b22 bdbc
00000120: aca8 52bd 9464 34bc f6b9 4b3d 6cb2 6ebd
00000130: 3c84 833d 0393 053c c1f4 c23c 3060 89bb
00000140: bca1 2c3d 6104 83bd f3dd e43c 19d6 f03b
00000150: d6cd bbbd 9d2f 2b3d 0e87 afbc 5e3e 88bc
00000160: 09e3 dbbc a067 bc3d fe8e d53c c752 773d
00000170: 5984 45bc e61d 9cbc 448e 2dbd 8484 283d
00000180: b0aa a83c de67 c9bc 6527 4bbb 836a 0e3e
00000190: 437f e9bc 6809 8dba d66a a7bb ac68 1bba
000001a0: 243d 973c 8332 6dbd 90a0 d13c 9b28 9f3d
000001b0: fa32 b93d e9d5 8a3d f855 92bd e55b 213d
000001c0: fb34 f6bd f4a6 a33d 5a60 37be 7299 1abd
000001d0: 8349 bebc 0ea0 88bd a2e6 b73c ca90 1a3d
000001e0: 2d71 f1bc c581 d13c 2e1a 603d 1297 0dbd
000001f0: 4752 4c3d 58d1 633d 3033 33bd aaef c03d
00000200: 7a5a b6bc 524c 163c b6a1 01be c124 4d3d
00000210: 6350 48bd 507b c53d 1f01 1c3d fd47 2d3d
00000220: 6cc5 9abd 24ca 7fbd 4e6e e13d cad2 80bd
00000230: d5af ef3d 77e8 b0bc b7fd 163d bdc3 053e
00000240: d586 1abd 7b4b b9bc 11b0 7f3c b95f b33d
00000250: 6fb0 8abc a622 76bd 3cc1 26ba af85 7cbd
00000260: ba33 8d3d 2156 da3d 376b 0f3e de94 8fbd
00000270: f15a 13b9 9988 6e3d 66c5 513d b9cf c93d
00000280: 2dff 16bc a331 9ebc c252 71bb 9e3e 42bd
00000290: f7c2 993d c05b 933a 9f7e 8abd c386 9dbd
000002a0: beec 21bd b164 523d da9b 7dbd f69d 863d
000002b0: df47 02bc 137f a33d 01a4 cabb 34d6 bdbd
000002c0: 53d6 77bc 432c 713c 08e3 01be 5f9c a6bd
000002d0: ce7b 9a3c a8f3 05bd e277 88bd 8e84 9d3a
000002e0: b177 7f39 919d a93d cd70 88bc c5ec 5abe
000002f0: 1579 8f3d 2925 49bd 02df 54bc 09ce 96b9
00000300: 6ef0 0f3d 378d e13d 1fe4 34bc 2b14 af3c
00000310: a0b9 a33d 1ba1 2ebd 0289 2739 bac0 043d
00000320: eba2 83bd d4eb f2bb 44d2 05bc 0ec5 63ba
00000330: 43e3 a63c cc12 973a 928f 21be fe6f b6bc
00000340: e5eb f0bb 6a90 f1bc 1e81 0ebe 4e8a 3abd
00000350: f259 a23d 35c3 cd3d 32a4 c6bc 5fd3 013d
00000360: 161e 823b a73b 143d 0e94 d63c fade 29bd
00000370: 7173 c13d f9bb d6bc e800 543c 4917 b0bd
00000380: 3a9e 48bd 991c 913d 5247 11bc e2b5 03be
00000390: bdb9 e83d 4861 18bd 1e43 2d3d af91 af3d
000003a0: 8e0a f33a 2193 dbbd 098f 903d 73c9 86bd
000003b0: 16b2 633a 8a7f f83c ba33 523d 40b9 b6bd
000003c0: 051e b3bd 74b2 693d 3fa5 0a3d a8b8 a33d
000003d0: cc91 e0bd 904c 483d 6799 bdbd 4d0b a33d
000003e0: b262 1ebd 85bd b6bd 7938 e93d 7b21 503d
000003f0: 99b1 81bd f8f9 563b 7737 aabc 9c0e 973d

emb.layers.2.bias f4 [32]
-0.057694085 0.064969875 -0.03247228 -0.013104142 0.047253087 0.045877427 -0.08118537 -0.035883386
-0.06919463 0.048445005 -0.033400748 0.031979084 -0.030330269 -0.07006444 0.07277289 0.06743236
-0.054411814 0.008869909 -0.058924817 -0.03578101 0.051132955 0.026101392 -0.017060224 -0.0021160115
-0.055022363 0.05585095 -0.057735365 0.014467144 -0.06857789 0.011446019 -0.04414369 0.06889288
00000000: a250 6cbd ed0e 853d a701 05bd c1b2 56bc
00000010: 748c 413d f8e9 3b3d 8444 a6bd 75fa 12bd
00000020: eab5 8dbd 456e 463d 39cf 08bd 80fc 023d
00000030: 2f77 f8bc f27d 8fbd f409 953d fa19 8a3d
00000040: ecde 5ebd 1853 113c 265b 71bd 1c8f 12bd
00000050: ca70 513d 96d2 d53c e2c1 8bbc c8ac 0abb
00000060: 215f 61bd f7c3 643d eb7b 6cbd 9a07 6d3c
00000070: 9172 8cbd 1588 3b3c 04d0 34bd b617 8d3d

encoder.layers.0.self_attn.in_proj_weight f4 [96, 32]
-0.12894611 -0.04245445 -0.12965816 0.21274532 0.15798633 -0.010990785 0.09637326 -0.05408384
-0.14597419 0.22303694 0.055102173 -0.051929664 0.08059677 -0.015944244 -0.12491062 0.1970127
0.122308284 0.08759166 0.23199666 0.07393939 0.26096457 -0.0580511 -0.18345335 -0.18286969
0.13163413 0.0057099126 -0.24456455 -0.18228234 0.0391126 0.10215929 0.009687247 0.024433862
-0.038206376 0.14068177 0.22769192 0.14527796 -0.20747267 0.028591564 -0.0250137 0.058785174
0.11835311 -0.0038249835 0.09285567 -0.062539615 0.034459557 -0.050664976 -0.15745 -0.08990106
-0.11166066 0.09818477 -0.008459412 0.24025658 -0.095283605 -0.25394088 -0.10134848 -0.22433358
-0.023003887 -0.13203625 -0.06499678 0.20282567 0.14302556 -0.09823562 0.2537897 -0.0073493347
0.06885327 -0.1490173 -0.22911341 -0.14666155 0.26321447 0.205399 0.06312824 0.13282207
-0.28032547 -0.18142097 0.026675487 0.14582898 0.039780006 -0.22517024 0.06288153 0.063023485
-0.11254015 -0.025084157 0.19333875 -0.20772898 -0.21871373 0.19001222 0.41427606 0.24375547
-0.08003239 0.07775988 -0.07972532 -0.2020299 -0.15200396 -0.10259803 -0.19496162 0.10024017
-0.08902558 -0.08963818 -0.019786468 -0.24235144 -0.14946689 -0.18258043 0.035446208 0.14183512
-0.2386008 0.1807309 0.11231442 -0.0005084112 0.16756985 -0.23275015 -0.08727921 -0.12548016
0.010071964 0.12097198 0.08744482 -0.06542991 0.10825407 0.011968888 -0.01759278 0.030799547
0.06584102 0.054354943 0.060990408 -0.09810503 0.09616444 0.053636033 -0.14536865 0.08677835
-0.054727238 -0.096712396 0.11484378 0.23667423 0.03197731 0.128456 -0.039127104 -0.09758981
0.13134755 0.17459404 -0.23986092 -0.1969152 0.06162079 0.023741085 -0.12308745 -0.107498206
0.26725695 0.19195604 0.1610844 0.079149894 0.00788843 -0.2349554 -0.35049847 -0.042462084
0.17902459 0.050263382 -0.21943034 0.119529694 0.082773715 -0.050197296 0.1028355 0.004748082
0.099291466 0.09483599 -0.045445774 -0.04832194 0.3338148 0.21710587 -0.26109776 -0.21853271
-0.31784108 -0.14525378 0.22894336 0.03567222 0.01108192 0.08606753 0.20190524 -0.24821392
-0.15653817 -0.34819573 0.04609341 -0.084357075 0.059441276 -0.116742186 0.49627936 0.12365942
0.13500065 -0.26038998 -0.13972418 -0.27752915 -0.043955363 0.29620558 -0.053166702 -0.21596727
-0.15282798 0.1799306 0.064899705 0.17963095 0.17644536 -0.08639338 -0.09127668 0.187737
0.014101103 -0.08130622 -0.061536014 -0.13969775 -0.106455095 0.13623925 0.12168191 0.23799773
-0.16424754 -0.06345269 0.115005046 0.14640683 0.1436987 -0.10907686 -0.022340722 0.111147344
0.078240864 -0.26734897 -0.04248486 0.07001801 0.14151043 -0.08053232 0.14483419 -0.041921042
0.20192538 -0.21310511 -0.07126988 0.03522726 0.11749899 -0.18801363 -0.0108213825 -0.13536514
0.18429339 0.14569652 0.013046673 -0.06210973 0.16871698 -0.15708178 0.11563669 -0.14190169
-0.22275934 -0.27381513 -0.046215314 -0.0912311 0.11159339 -0.08408624 0.22197163 0.24873751
-0.057945877 -0.10025807 -0.14589521 0.19913962 0.075800486 -0.17919642 0.023789754 -0.008184045
00000000: 730a 04be b8e4 2dbd 1cc5 04be e9d9 593e
00000010: 2bc7 213e b212 34bc 585f c53d 0487 5dbd
00000020: 427a 15be cc63 643e d1b2 613d 33b4 54bd
00000030: eb0f a53d 819d 82bc 24d1 ffbd b2bd 493e
00000040: c47c fa3d 4263 b33d 8890 6d3e 896d 973d
00000050: 269d 853e fdc6 6dbd 32db 3bbe 3142 3bbe
00000060: 19cb 063e 381a bb3b 216f 7abe 39a8 3abe
00000070: 8934 203d e438 d13d 42b7 1e3c 8629 c83c
00000080: 4a7e 1cbd e20e 103e 1228 693e bfc3 143e
00000090: b773 54be db38 ea3c 88e9 ccbc b9c8 703d
000000a0: 1e63 f23d 93ac 7abb 1d2b be3d c514 80bd
000000b0: 7725 0d3d 1486 4fbd 933a 21be 0c1e b8bd
000000c0: 58ae e4bd 1915 c93d 5899 0abc d205 763e
000000d0: 0d24 c3bd 8a04 82be cb8f cfbd b4b7 65be
000000e0: a672 bcbc 8334 07be 081d 85bd 88b1 4f3e
000000f0: 4b75 123e c22f c9bd b9f0 813e b0d2 f0bb
00000100: f102 8d3d fe97 18be b59c 6abe 722e 16be
00000110: 0cc4 863e 1e54 523e 6149 813d 8202 083e
00000120: d286 8fbe 6bc6 39be 8d86 da3c 3154 153e
00000130: 5cf0 223d 0793 66be 08c8 803d 7512 813d
00000140: 737b e6bd 4a7d cdbc 98fa 453e e8b6 54be
00000150: 7ef6 5fbe 9092 423e fe1b d43e 099b 793e
00000160: 06e8 a3bd 9240 9f3d 0747 a3bd ede0 4ebe
00000170: eda6 1bbe ea1e d2bd 05a4 47be b84a cd3d
00000180: 0b53 b6bd 3994 b7bd 3b17 a2bc fa2a 78be
00000190: d90d 19be 5df6 3abe 0b30 113d 3a3d 113e
000001a0: c553 74be 8511 393e 1a05 e63d e646 05ba
000001b0: 6e97 2b3e 0e56 6ebe 71bf b2bd df7d 00be
000001c0: e104 253c 28c0 f73d 4516 b33d 1e00 86bd
000001d0: 4fb4 dd3d 2819 443c bc1e 90bc 554f fc3c
000001e0: a8d7 863d 4aa3 5e3d 14d1 793d 4aeb c8bd
000001f0: ddf1 c43d 75b1 5b3d 85db 14be d9b8 b13d
00000200: ab29 60bd 2611 c6bd 3733 eb3d bb5a 723e
00000210: a4fa 023d f889 033e be43 20bd 2bdd c7bd
00000220: f97f 063e c8c8 323e 1a9e 75be 23a4 49be
00000230: 1566 7c3d aa7c c23c 4615 fcbd 0528 dcbd
00000240: e7d5 883e 2090 443e 4ff3 243e 5719 a23d
00000250: 793e 013c 2698 70be 8974 b3be b9ec 2dbd
00000260: 3952 373e fae0 4d3d 59b2 60be fccb f43d
00000270: 4485 a93d ae9b 4dbd 6b9b d23d cc95 9b3b
00000280: 5359 cb3d 5f39 c23d 5925 3abd 3aed 45bd
00000290: c6e9 aa3e 0051 5e3e 9bae 85be 0ac7 5fbe
000002a0: 11bc a2be 68bd 14be 2170 6a3e 091d 123d
000002b0: f190 353c 2c44 b03d 3fc0 4e3e ca2b 7ebe
000002c0: 8b4b 20be b646 b2be 72cc 3c3d 67c3 acbd
000002d0: b278 733d 8716 efbd 5418 fe3e 2641 fd3d
000002e0: 9c3d 0a3e d651 85be db13 0fbe 4d18 8ebe
000002f0: 8a0a 34bd 42a8 973e 54c5 59bd 8626 5dbe
00000300: f07e 1cbe ba3f 383e 23ea 843d 2df1 373e
00000310: 18ae 343e 03ef b0bd 45ef babd 213e 403e
00000320: 5008 673c e083 a6bd 300d 7cbd ed0c 0fbe
00000330: 2105 dabd 4d82 0b3e 5d34 f93d adb5 733e
00000340: 8230 28be 7cf3 81bd c487 eb3d aceb 153e
00000350: c125 133e b063 dfbd e403 b7bc 38a1 e33d
00000360: bf3c a03d f7e1 88be 9b04 2ebd 9a65 8f3d
00000370: 1ce8 103e 21ee a4bd 6a4f 143e 66b5 2bbd
00000380: 87c5 4e3e 3a38 5abe f1f5 91bd 764a 103d
00000390: 4fa3 f03d a586 40be 2b4c 31bc 299d 0abe
000003a0: 68b7 3c3e 7831 153e b6c1 553c c666 7ebd
000003b0: 25c4 2c3e 0cda 20be eed2 ec3d ad4e 11be
000003c0: 061b 64be 7f31 8cbe 454c 3dbd 5fd7 babd
000003d0: 138b e43d 6835 acbd 884c 633e 0cb5 7e3e
000003e0: a858 6dbd 1a54 cdbd 8e65 15be 42eb 4b3e
000003f0: 493d 9b3d 447f 37be bbe2 c23c 5f16 06bc

encoder.layers.0.self_attn.in_proj_bias f4 [96]
-0.07532943 -0.13216537 0.12303054 0.1053587 -0.13987456 0.15563144 -0.10504587 0.07522306
0.13129902 -0.024020901 0.19692975 0.0497566 0.13355477 0.16796495 0.124767475 0.10494557
0.09430746 0.103281684 -0.11463133 0.1294367 -0.1353558 0.12472801 0.07399548 0.11164443
-0.11317849 0.1346457 -0.11721734 -0.1382317 0.16965722 -0.08729413 0.15585336 -0.16852732
3.9117407e-05 0.00036001203 -0.00051014376 -0.00021066809 0.0005669487 -0.0003527489 0.00034067698 4.910422e-05
-0.00037902826 7.665192e-05 -0.0006499244 -0.00010139337 -6.337148e-05 -0.0004999505 -0.00045651448 -0.00033235917
-0.0003463083 -0.00028083124 0.00024687403 -0.00028435403 0.00027691995 -0.00022905975 -7.244973e-05 -0.0003693996
0.00032962445 -0.00045881388 0.00040309678 0.00032276762 -0.0005581965 9.1223825e-05 -0.0004502538 0.00038977445
0.013869301 -0.008448945 -0.018966576 0.0046867677 0.013980366 -0.031743404 -0.0027131205 0.007060929
-0.0070451717 -0.006452281 -0.018759051 -0.017482456 -0.013175044 -0.024524983 -0.0062023704 0.01087033
0.018589968 -0.006619878 -0.020632675 6.121033e-05 0.056681175 0.0070002046 0.0008202607 0.020739518
0.009303908 -0.018748414 0.027830578 -0.00027220306 0.014487731 -0.016042255 0.02860803 -0.014598714
00000000: 5146 9abd 5c56 07be 70f7 fb3d 4dc6 d73d
00000010: 473b 0fbe d95d 1f3e 4a22 d7bd 8c0e 9a3d
00000020: 4073 063e 7bc7 c4bc f4a7 493e 94cd 4b3d
00000030: 95c2 083e 01ff 2b3e 1786 ff3d b4ed d63d
00000040: 4524 c13d 5985 d33d d5c3 eabd 0e8b 043e
00000050: b69a 0abe 6671 ff3d f18a 973d d6a5 e43d
00000060: 20ca e7bd 90e0 093e a50f f0bd 9c8c 0dbe
00000070: 9fba 2d3e 44c7 b2bd 0698 1f3e 6d92 2cbe
00000080: ff11 2438 ffbf bc39 2bbb 05ba c9e6 5cb9
00000090: 499f 143a 28f1 b8b9 e49c b239 41f5 4d38
000000a0: 50b8 c6b9 30c0 a038 b05f 2aba 27a3 d4b8
000000b0: 4ee6 84b8 1c0f 03ba 5658 efb9 7e40 aeb9
000000c0: b790 b5b9 883c 93b9 df6e 8139 5a15 95b9
000000d0: 912f 9139 c22f 70b9 27f0 97b8 faab c1b9
000000e0: 72d1 ac39 f58c f0b9 bc56 d339 2339 a939
000000f0: ef53 12ba 6b4f bf38 0b10 ecb9 a45a cc39
00000100: 113c 633c 726d 0abc cb5f 9bbc 7593 993b
00000110: e80d 653c 5f05 02bd 9cce 31bb 5e5f e73b
00000120: 2fdb e6bb a86d d3bb 95ac 99bc 5e37 8fbc
00000130: 24dc 57bc 9ee8 c8bc 413d cbbb 7819 323c
00000140: fd49 983c 90eb d8bb db05 a9bc 0c5e 8038
00000150: 852a 683d f961 e53b c406 573a ece5 a93c
00000160: 6b6f 183c 4696 99bc f4fc e33c 7ab6 8eb9
00000170: f35d 6d3c 0c6b 83bc 635b ea3c 722f 6fbc

encoder.layers.0.self_attn.out_proj.weight f4 [32, 32]
-0.13518967 0.016901674 0.06470554 -0.15053827 0.03682152 0.11004091 0.08400798 -0.042778395
-0.009553259 0.14680277 -0.08837632 0.075733736 -0.10891273 0.0014722566 0.14673282 0.05778219
-0.039793342 -0.06148699 -0.04353694 -0.117574 0.085384056 -0.13414875 -0.0279554 -0.13282585
-0.049312707 0.084253505 -0.10417322 0.00769828 -0.029789934 0.011684741 -0.10424292 -0.02432481
0.07756719 0.15195574 0.18111558 0.09952799 0.07169182 0.23821731 -0.073485106 0.034651097
0.07215101 0.020345334 0.07532854 -0.10448424 0.11817243 -0.0049796067 0.081748106 0.09651873
0.0774454 0.17997663 0.13668633 -0.100508146 -0.14524265 0.09494812 -0.09937788 0.08856945
-0.068822935 -0.16676785 -0.09539223 -0.056744244 0.08920935 -0.113059655 0.028534027 -0.13994512
0.022758543 -0.058825396 -0.0001490343 0.029247547 -0.084962055 0.024507273 -0.16699669 0.004020734
0.20700078 -0.10209496 -0.07078866 0.15619035 -0.04440026 0.09568466 -0.014772449 -0.083438255
0.017792791 0.03337453 0.070912726 -0.03308997 -0.003839107 0.077720255 -0.043022443 0.15530366
-0.14074083 0.17360815 -0.15395926 0.011773841 -0.00023911198 0.06705938 -0.137225 0.14945024
0.017608866 0.01966866 0.028677134 0.17184584 0.18868957 -0.18347831 -0.070598744 0.0012566816
0.15891185 0.09491454 -0.079676226 -0.017329711 -0.042022664 0.06664987 0.12244032 -0.100877866
0.12823932 0.019265803 0.19370359 -0.025628217 -0.1397074 -0.07147853 -0.14963096 -0.035605777
0.07211048 -0.039769087 -0.1108822 0.008208394 0.042969793 0.16301297 0.16019773 0.11704339
0.17329699 -0.07672384 -0.11378155 0.044929694 -0.13556027 -0.022442687 0.10548547 -0.066225246
-0.012799696 -0.07537771 -0.019878007 -0.1238631 -0.021744026 -0.14042622 0.09158362 -0.087656714
0.047338285 0.0753024 -0.033935357 0.06743332 0.043902166 -0.0025667266 -0.00402929 -0.04805619
-0.15267828 0.09912438 -0.10286739 -0.07698155 -0.049026493 -0.07724396 0.014198583 -0.07740607
0.07126096 -0.089415416 0.10584197 -0.015425329 -0.04767447 0.16483322 -0.09938639 -0.07665329
-0.15667336 -0.1601908 -0.005628938 0.116545014 0.035000138 0.08989728 0.0045437347 0.040124457
0.035051912 -0.009183892 -0.04464365 0.13331482 0.040008947 0.073030554 -0.1362514 -0.10878609
-0.13133077 -0.15782917 -0.07542728 0.025100332 -0.05155264 0.078664415 0.0013942973 -0.024977416
9.908394e-05 0.13138337 -0.061873533 0.08816617 -0.025851356 -0.06414363 0.0890464 0.17606856
-0.08055575 -0.17314292 0.11043223 -0.018773878 -0.045614902 0.00601918 -0.057340793 0.046491705
0.07879809 -0.12126984 -0.10351541 -0.10160673 -0.10829409 0.0945591 -0.15749598 -0.07898486
0.0041270186 0.079892874 0.036056206 0.106737904 0.03433747 0.0044603003 0.017733455 -0.06924314
-0.14166288 -0.07903166 -0.10386108 -0.019541143 -0.06979268 -0.09213458 0.029287858 -0.041176874
0.034983873 0.0015909228 -0.088867605 -0.014879999 -0.053637743 -0.0049469527 0.0745589 0.08965343
0.088132106 0.004388764 -0.011318098 0.19593535 -0.05423189 0.1685058 -0.16349216 -0.08977192
0.090015195 -0.12563615 0.15835288 -0.053906996 -0.15981628 -0.11974521 -0.07727023 -0.026765166
00000000: 296f 0abe 6175 8a3c 5784 843d b426 1abe
00000010: 2ad2 163d 215d e13d 600c ac3d 6638 2fbd
00000020: 4685 1cbc 7753 163e a5fe b4bd 4a1a 9b3d
00000030: a30d dfbd bcf8 c03a 2141 163e 05ad 6c3d
00000040: 58fe 22bd c8d9 7bbd ca53 32bd a3ca f0bd
00000050: d6dd ae3d 4a5e 09be b902 e5bc 8003 08be
00000060: 1ffc 49bd 1a8d ac3d c558 d5bd da41 fc3b
00000070: 050a f4bc 5b71 3f3c 507d d5bd d344 c7bc
00000080: 8cdb 9e3d 499a 1b3e 5d76 393e 55d5 cb3d
00000090: 29d3 923d 3def 733e 5c7f 96bd 4fee 0d3d
000000a0: e9c3 933d 42ab a63c d945 9a3d d5fb d5bd
000000b0: 6304 f23d f82b a3bb 8d6b a73d 9dab c53d
000000c0: b29b 9e3d cb4b 383e 80f7 0b3e 37d7 cdbd
000000d0: 7dba 14be 2974 c23d a186 cbbd e663 b53d
000000e0: 0af3 8cbd 31c5 2abe 005d c3bd a76c 68bd
000000f0: 64b3 b63d d28b e7bd 31c0 e93c c64d 0fbe
00000100: 2070 ba3c e6f2 70bd 1746 1cb9 8d98 ef3c
00000110: 9600 aebd 7ac3 c83c 2e01 2bbe 5dc0 833b
00000120: 03f8 533e 2a17 d1bd a5f9 90bd 5df0 1f3e
00000130: 0cdd 35bd 52f6 c33d 2408 72bc ade1 aabd
00000140: 30c2 913c bbb3 083d b13a 913d 5989 07bd
00000150: 8799 7bbb cc2b 9f3d 4d38 30bd ec07 1f3e
00000160: 5d1e 10be 56c6 313e 7fa7 1dbe 12e7 403c
00000170: 22ba 7ab9 6e56 893d b684 0cbe 7c09 193e
00000180: 7840 903c 2b20 a13c 4fec ea3c 5bf8 2f3e
00000190: d737 413e bde1 3bbe 1396 90bd 3db7 a43a
000001a0: cab9 223e 8e62 c23d 4a2d a3bd 0af7 8dbc
000001b0: f51f 2cbd ba7f 883d fec1 fa3d 0e99 cebd
000001c0: 2b51 033e 51d3 9d3c 3c5a 463e 44f2 d1bc
000001d0: 750f 0fbe 5663 92bd dc38 19be 5dd7 11bd
000001e0: a9ae 933d e9e4 22bd 3516 e3bd 807c 063c
000001f0: 1801 303d dfec 263e e00a 243e 72b4 ef3d
00000200: c474 313e 6321 9dbd 4d06 e9bd 3308 383d
00000210: 50d0 0abe bad9 b7bc c408 d83d 1aa1 87bd
00000220: d1b5 51bc a15f 9abd 34d7 a2bc f0ab fdbd
00000230: 8720 b2bc e4cb 0fbe 3190 bb3d 5d85 b3bd
00000240: cae5 413d 2538 9a3d cdff 0abd 7b1a 8a3d
00000250: c2d2 333d 8736 28bb 2208 84bb 91d6 44bd
00000260: b257 1cbe b901 cb3d 23ac d2bd 81a8 9dbd
00000270: 01d0 48bd 1532 9ebd 2ca1 683c 1387 9ebd
00000280: 44f1 913d 6e1f b7bd adc3 d83d 85ba 7cbc
00000290: 4e46 43bd 0aca 283e 178b cbbd 66fc 9cbd
000002a0: fb6e 20be 0f09 24be f472 b8bb 27af ee3d
000002b0: 4e5c 0f3d 111c b83d 9ce3 943b 8b59 243d
000002c0: 9892 0f3d 0978 16bc 43dc 36bd ae83 083e
000002d0: 6ce0 233d 0b91 953d 7d85 0bbe 3ecb debd
000002e0: 937b 06be f89d 21be 9e79 9abd 369f cd3c
000002f0: dc28 53bd cf1a a13d dbc0 b63a 709d ccbc
00000300: 49cb cf38 5d89 063e 1a6f 7dbd 7790 b43d
00000310: 39c6 d3bc bc5d 83bd f55d b63d 514b 343e
00000320: 6afa a4bd 614c 31be 4b2a e23d adcb 99bc
00000330: b1d6 3abd 8b3c c53b 2ede 6abd 166e 3e3d
00000340: e560 a13d 525c f8bd e3ff d3bd 3017 d0bd
00000350: 4bc9 ddbd 34a8 c13d a046 21be d0c2 a1bd
00000360: f13b 873b e09e a33d acaf 133d 6799 da3d
00000370: 72a5 0c3d b627 923b c045 913c 59cf 8dbd
00000380: 1310 11be 5adb a1bd 1eb5 d4bd bf14 a0bc
00000390: 77ef 8ebd 0eb1 bcbd 17ed ef3c 15a9 28bd
000003a0: 404b 0f3d 8386 d03a 3800 b6bd 3dcb 73bc
000003b0: 40b3 5bbd 0c1a a2bb 56b2 983d 389c b73d
000003c0: 9b7e b43d 9fcf 8f3b 8b6f 39bc 47a3 483e
000003d0: 4222 5ebd c98c 2c3e 7d6a 27be 57da b7bd
000003e0: e359 b83d c3a6 00be 4227 223e 95cd 5cbd
000003f0: e1a6 23be fa3c f5bd db3f 9ebd 9f42 dbbc

encoder.layers.0.self_attn.out_proj.bias f4 [32]
-0.015370476 0.0019843436 -0.014308392 -0.009316054 0.003093785 -0.0054489993 0.0014902056 0.00621859
-0.009439499 0.028520059 0.006557751 -0.023287749 0.008176405 -0.008776553 0.019981138 0.031920325
-0.0047674696 -0.020923711 -0.010653294 -0.0030472071 -0.0035475688 -0.0040625115 -0.004275027 -0.0050374474
-0.031482708 0.021996628 -0.0028081029 0.0025693902 -0.002037017 0.007986152 -0.023849871 -0.0063350275
00000000: 73d4 7bbc c30b 023b bf6d 6abc 5da2 18bc
00000010: 19c1 4a3b 858d b2bb 0153 c33a 50c5 cb3b
00000020: 21a8 1abc e6a2 e93c 67e2 d63b f3c5 bebc
00000030: 54f6 053c 88cb 0fbc 7caf a33c e3be 023d
00000040: 6f38 9cbb 3468 abbc 278b 2ebc a7b3 47bb
00000050: 547e 68bb d11e 85bb 8715 8cbb 2c11 a5bb
00000060: 03f4 00bd 4632 b43c 2608 38bb 3763 283b
00000070: 797f 05bb 59d8 023c ce60 c3bc 1096 cfbb

encoder.layers.0.linear1.weight f4 [128, 32]
0.091390595 -0.15847452 -0.1381622 0.11348458 -0.19209142 -0.020538101 -0.031538144 0.13605371
-0.078206226 0.009492731 -0.045119278 0.08340815 -0.14410524 -0.052407146 -0.041509397 0.06324185
0.17588054 0.19634315 0.11047035 0.2394168 0.052874617 -0.13061869 0.16227761 0.19458446
-0.038574394 -0.048128907 -0.18614525 0.09207573 -0.08750446 -0.107810296 0.03076127 0.020627068
-0.068595454 0.03340812 0.045933396 0.08218774 0.02259859 -0.09936314 -0.12199681 0.1592194
0.21982424 -0.056105617 -0.0217144 -0.093197085 0.023441467 0.03398979 0.069239296 -0.21313941
-0.101798095 0.17434351 0.022248847 0.010876967 0.060206067 0.12978987 0.05710122 0.14080074
0.10971184 -0.042929452 0.1740543 -0.024410535 0.01981896 -0.13327688 0.0054323943 0.19954664
-0.14807576 0.11415697 -0.04116084 -0.105715714 0.1531429 0.055803116 -0.037505437 -0.0885903
0.066278294 0.12760073 -0.09954056 -0.20961703 0.017619854 0.14501646 -0.05798952 0.13449001
-0.17395581 -0.14706804 0.12960717 0.11261634 0.034349725 -0.02271111 0.038046546 -0.08827001
0.20693645 -0.124982014 0.11067251 -0.15180017 0.098692656 -0.15579748 0.13578653 -0.08666574
0.07994529 -0.057778306 0.14792934 0.0588721 -0.11313272 -0.0035300765 -0.065944515 -0.05474945
0.055231128 -0.22461489 0.09061399 0.16052783 0.17519252 -0.161014 0.083030425 -0.024529815
-0.10547157 0.040729694 0.011738463 0.07837671 -0.10122619 -0.0751649 0.023776717 0.1117706
0.011508866 -0.2212601 0.07603424 0.0024094586 -0.17942469 -0.04422803 0.08261514 0.07169802
0.046603657 -0.0045709778 0.14623596 0.13672647 0.10685444 0.03662047 -0.015719082 0.045380093
-0.14939886 0.03648855 0.030386006 0.035001975 0.035741292 0.03189787 -0.14208256 -0.019237522
-0.114572965 0.08341639 -0.10722941 -0.08552583 0.068704896 -0.005664288 -0.0899579 -0.05738729
-0.17035007 0.13755907 -0.092190035 0.023812864 0.14596272 0.12876254 0.032248214 0.14008054
0.15443018 -0.18185559 0.08490717 -0.06015125 -0.04377695 -0.06880647 0.18974477 -0.063872986
-0.20247664 -0.033060886 -0.18345512 -0.16851284 -0.03526231 -0.13711026 0.0026066508 0.32674238
0.075228624 -0.03273172 -0.02683209 0.13486314 -0.043368272 0.011229049 -0.15251139 -0.1490919
-0.03882152 -0.07904689 -0.15853158 -0.024261136 0.1884356 -0.026817257 0.0042249975 -0.10056081
0.13378161 -0.059577234 0.17656896 -0.0071422285 -0.1006548 -0.00022532934 -0.06444852 -0.09263965
-0.053826652 -0.0785535 0.054761827 0.049297202 0.10875571 0.08028545 -0.27499858 -0.19868422
0.096100986 -0.16811675 -0.1896328 0.08464788 -0.14060514 0.0013852324 0.118753135 -0.15515742
0.091612615 -0.070185654 0.0087691685 0.13603683 0.12642129 -0.070267655 0.23365095 -0.03514803
-0.1486127 -0.20703517 -0.018291814 -0.17599303 -0.0062441053 0.016652454 0.037602447 -0.12334567
0.13926478 0.1263027 -0.016220978 -0.03325921 -0.19306721 -0.026552252 -0.007044206 -0.101179294
0.18922733 0.11365115 0.12752785 -0.13618751 0.14281343 0.0737257 0.06963237 0.06815308
-0.01059886 -0.14041042 0.11756418 0.09434962 0.028491475 -0.06614383 0.017586714 0.1148472
00000000: fe2a bb3d 2547 22be 647a 0dbe 9a6a e83d
00000010: 9db3 44be 853f a8bc 242e 01bd aa51 0b3e
00000020: 962a a0bd 6687 1b3c fece 38bd e4d1 aa3d
00000030: 5390 13be e0a8 56bd c205 2abd f184 813d
00000040: 071a 343e 2e0e 493e 473e e23d ad29 753e
00000050: 0e93 583d e8c0 05be 1a2c 263e 2641 473e
00000060: 2f00 1ebd d122 45bd dc9c 3ebe 3392 bc3d
00000070: 8a35 b3bd a5cb dcbd 0fff fb3c 19fa a83c
00000080: c67b 8cbd f4d6 083d a824 3c3d 0c52 a83d
00000090: ae20 b93c e77e cbbd 77d9 f9bd 690a 233e
000000a0: 9b19 613e 01cf 65bd 66e2 b1bc 1dde bebd
000000b0: 5208 c03c e138 0b3d 55cd 8d3d 3841 5abe
000000c0: 857b d0bd 1b87 323e 3743 b63c 4e35 323c
000000d0: a39a 763d a3e7 043e f8e2 693d 122e 103e
000000e0: 9ab0 e03d cbd6 2fbd 4a3b 323e 9af8 c7bc
000000f0: 5f5b a23c bc79 08be 3a02 b23b f455 4c3e
00000100: 2ca1 17be 21cb e93d 4598 28bd 7b81 d8bd
00000110: 7ed1 1c3e cf91 643d 4d9f 19bd d56e b5bd
00000120: eabc 873d c4a9 023e ecdb cbbd d9a5 56be
00000130: 8357 903c 327f 143e 6b86 6dbd c0b7 093e
00000140: 7921 32be 0199 16be beb7 043e 65a3 e63d
00000150: 4cb2 0c3d a60c babc b2d6 1b3d e8c6 b4bd
00000160: 26e7 533e 92f6 ffbd 45a8 e23d 8171 1bbe
00000170: 601f ca3d 6089 1fbe a00b 0b3e cf7d b1bd
00000180: 5bba a33d f2a8 6cbd ca7a 173e df23 713d
00000190: 21b2 e7bd db58 67bb eb0d 87bd f640 60bd
000001a0: 093a 623d 7201 66be d493 b93d 6861 243e
000001b0: ab65 333e dbe0 24be db0b aa3d c0f2 c8bc
000001c0: 7a01 d8bd 2ed4 263d af52 403c f883 a03d
000001d0: ad4f cfbd 0ef0 99bd 64c7 c23c fce7 e43d
000001e0: af8f 3c3c 0292 62be d7b7 9b3d 02e8 1d3b
000001f0: 1bbb 37be 7328 35bd 2032 a93d 69d6 923d
00000200: 7ae3 3e3d 24c8 95bb e1be 153e 0602 0c3e
00000210: 80d6 da3d 59ff 153d 4ec5 80bc 7ae0 393d
00000220: 04fc 18be 0575 153d 13ec f83c 3b5e 0f3d
00000230: 7665 123d 57a7 023d 177e 11be 0298 9dbc
00000240: 3ba5 eabd 36d6 aa3d 189b dbbd 2b28 afbd
00000250: 27b5 8c3d 7e9b b9bb d93b b8bd ef0e 6bbd
00000260: 4070 2ebe 49dc 0c3e 21ce bcbd 3213 c33c
00000270: 4077 153e 54da 033e b416 043d 4671 0f3e
00000280: f222 1e3e 5a38 3abe cfe3 ad3d 2861 76bd
00000290: 764f 33bd 68ea 8cbd 744c 423e d7cf 82bd
000002a0: 0956 4fbe da6a 07bd a9db 3bbe a18e 2cbe
000002b0: 366f 10bd a266 0cbe 58d4 2a3b c74a a73e
000002c0: 7711 9a3d b211 06bd f9ce dbbc 9019 0a3e
000002d0: eea2 31bd 0cfa 373c f22b 1cbe 8cab 18be
000002e0: 5003 1fbd 56e3 a1bd 1a56 22be 4abf c6bc
000002f0: 43f5 403e ddaf dbbc d971 8a3b d3f2 cdbd
00000300: 0cfe 083e 4207 74bd 7ece 343e 5b09 eabb
00000310: 1b24 cebd 6246 6cb9 96fd 83bd dbb9 bdbd
00000320: 5679 5cbd a8e0 a0bd f04d 603d ddeb 493d
00000330: 50bb de3d b36c a43d 9dcc 8cbe e073 4bbe
00000340: 98d0 c43d cc26 2cbe 1a2f 42be de5b ad3d
00000350: cbfa 0fbe b090 b53a d834 f33d 96e1 1ebe
00000360: 659f bb3d 7fbd 8fbd 8fac 0f3c 3d4d 0b3e
00000370: 9574 013e 7de8 8fbd 3242 6f3e 61f7 0fbd
00000380: ed2d 18be 0701 54be b7d8 95bc 8437 34be
00000390: 5a9b ccbb ba6a 883c 0605 1a3d a89c fcbd
000003a0: 6d9b 0e3e 7f55 013e dbe1 84bc cf3a 08bd
000003b0: 69b3 45be 1c84 d9bc 15d3 e6bb 1737 cfbd
000003c0: cfc4 413e efc1 e83d a996 023e bd74 0bbe
000003d0: af3d 123e 80fd 963d 6a9b 8e3d d893 8b3d
000003e0: d7a6 2dbc c0c7 0fbe 7dc5 f03d 603a c13d
000003f0: f466 e93c 6b76 87bd 0312 903c 0235 eb3d

encoder.layers.0.linear1.bias f4 [128]
-0.11969469 -0.15128963 0.04276737 -0.057010546 0.08034517 -0.22466865 0.10881889 0.010279177
-0.10994632 -0.17975041 -0.16997384 0.01690016 -0.012697779 0.05765816 -0.18881705 -0.106125504
-0.17655714 -0.10550125 -0.019017316 -0.13152105 0.16739516 -0.044753216 -0.0046636285 -0.038896095
-0.06697989 0.09611798 -0.019181632 0.077404566 -0.12180774 -0.019005418 0.10823329 -0.18091716
-0.1001505 -0.034390807 -0.008130395 0.13933955 0.021915268 -0.14690271 -0.04612233 -0.15490682
0.10721878 0.11081301 0.14201072 -0.03307654 -0.14159173 -0.10379357 -0.17034069 -0.031228706
-0.17766432 0.1177937 0.08367718 0.10625805 0.1046078 0.101378925 -0.14087982 0.019907624
-0.12842949 -0.0440541 -0.13246028 0.027623264 -0.021645932 0.105335325 -0.03882321 -0.120088615
0.09745304 -0.079087734 -0.14930542 -0.045087192 -0.080969535 -0.031960513 0.1338404 -0.100603074
-0.21067636 0.06959989 0.09767822 -0.14970522 -0.11805412 0.03497399 0.068516225 -0.17952566
-0.09725766 -0.064875536 -0.21175559 0.04110159 0.06089384 0.10039074 0.02403933 0.055382576
-0.0080776205 -0.14935581 -0.12177659 0.14352483 0.033547394 -0.12074323 0.08062445 0.1300543
0.040075857 -0.09054681 -0.21394663 -0.06827005 -0.18047097 -0.1154609 -0.084546454 -0.12830742
-0.12853499 -0.14505632 -0.06453155 -0.013165173 0.012310778 0.039977018 0.14103481 0.038371064
0.054065794 -0.015761998 0.05756587 0.13222681 -0.119497865 0.05730085 0.030509736 -0.049176995
-0.14667954 0.043663625 -0.11776746 -0.044689823 0.14536566 0.10087799 0.07911577 0.14110567
00000000: 7d22 f5bd abeb 1abe d62c 2f3d e483 69bd
00000010: 028c a43d 8a0f 66be 70dc de3d fe69 283c
00000020: 892b e1bd 7e10 38be 9f0d 2ebe 3472 8a3c
00000030: 580a 50bc f62a 6c3d 4259 41be 5458 d9bd
00000040: 65cb 34be 0a11 d8bd 34ca 9bbc 74ad 06be
00000050: a369 2b3e 264f 37bd 5ad1 98bb 8351 1fbd
00000060: c12c 89bd 81d9 c43d cc22 9dbc 4986 9e3d
00000070: 5676 f9bd 40b1 9bbc 6aa9 dd3d 5942 39be
00000080: b51b cdbd 60dd 0cbd 5935 05bc 07af 0e3e
00000090: a687 b33c aa6d 16be c5ea 3cbd e59f 1ebe
000000a0: 8595 db3d eef1 e23d 426b 113e 447b 07bd
000000b0: 6cfd 10be b991 d4bd ca6d 2ebe 58d3 ffbc
000000c0: a3ed 35be d33d f13d f15e ab3d d29d d93d
000000d0: 9d3c d63d c19f cf3d cd42 10be 5015 a33c
000000e0: 0583 03be 1272 34bd aba3 07be 2f4a e23c
000000f0: cf52 b1bc 0cba d73d 1605 1fbd 05f1 f5bd
00000100: 7695 c73d c0f8 a1bd 85e3 18be 59ad 38bd
00000110: 5bd3 a5bd 07e9 02bd 750d 093e fc08 cebd
00000120: 8bbb 57be 638a 8e3d 850b c83d 534c 19be
00000130: 5cc6 f1bd e340 0f3d 3c52 8c3d 93d5 37be
00000140: 062f c7bd 77dd 84bd 75d6 58be 245a 283d
00000150: d26b 793d a999 cd3d 21ee c43c d7d8 623d
00000160: ff57 04bc bbf0 18be 0166 f9bd 2cf8 123e
00000170: fe68 093d 3a48 f7bd 6f1e a53d f42c 053e
00000180: 9526 243d 9b70 b9bd d314 5bbe 2bd1 8bbd
00000190: 62cd 38be c476 ecbd b126 adbd 0563 03be
000001a0: ad9e 03be a589 14be 1e29 84bd bdb2 57bc
000001b0: 25b3 493c f1be 233d 6e6b 103e fa2a 1d3d
000001c0: 1874 5d3d 4e1f 81bc 31ca 6b3d 7766 073e
000001d0: 4cbb f4bd 4cb4 6a3d 8eef f93c d16d 49bd
000001e0: 2933 16be a1d8 323d 1130 f1bd ad0c 37bd
000001f0: bcda 143e 1f99 ce3d 7307 a23d 017e 103e

encoder.layers.0.linear2.weight f4 [32, 128]
0.058235068 0.018013885 0.017419187 0.024618907 -0.12157134 0.06521249 -0.008214893 0.09053282
0.06826531 0.02649367 -0.025328308 0.04269763 0.0010628088 0.0026148758 0.027832977 -0.025387142
-0.07142681 -0.005418593 -0.045595538 0.016394556 0.012172702 -0.010846124 -0.029929645 0.01352587
-0.079062544 -0.019450992 -0.032704238 -0.058387354 0.018466726 0.1231576 0.10677232 0.128124
0.056065552 -0.109044716 -0.09466634 -0.07081908 0.105195224 0.077967234 0.06321707 0.0013104145
0.113943 0.0026238482 0.023348596 0.07926655 -0.014985249 -0.116008736 -0.029599398 -0.04869226
-0.002069052 -0.0105319675 0.044552933 0.03092287 -0.13069683 -0.10148561 -0.0668183 0.028148491
0.097704224 -0.037369154 0.036560256 0.011215803 0.03291916 0.028199764 -0.0023874333 0.0075675864
-0.009225868 0.04284364 -0.12974592 0.011930025 0.045457378 0.07489527 0.07813466 -0.1397896
-0.041821726 0.11219447 0.047633782 -0.04728281 0.09620289 -0.08339444 0.0063867494 0.045174383
0.08179961 -0.013079139 0.10157556 -0.018549807 -0.0893816 0.059692528 0.06467872 0.07713158
-0.04445243 -0.2197316 -0.011946732 -0.13068293 -0.02002843 0.024557283 -0.023671128 0.0052551725
0.056051005 0.06655136 0.048633132 0.018418513 0.03836724 0.12298785 -0.051081013 -0.06091549
-0.11907776 0.13650577 0.026456716 0.08059647 0.15576507 0.007356011 -0.041902423 0.077770084
0.020671645 -0.040715095 0.11183626 0.07190582 0.14606376 -0.04186491 0.07703329 -0.069393456
0.0131295305 -0.03824301 0.06897857 0.09259246 -0.08677407 0.094445206 0.01599855 -0.03004745
-0.047887165 0.028235625 0.0021586267 0.036022138 -0.014781969 0.12960273 0.0028766058 0.030879784
-0.055007096 -0.027732125 0.09788141 0.08501088 0.0012084446 -0.0036062319 0.059644602 -0.037758272
-0.11626869 -0.031070419 -0.0716815 -0.040225424 -0.06530058 0.040263034 0.027686698 -0.06347348
-0.15396169 -0.081142135 -0.016807472 0.08304982 0.0116610415 -0.0610652 0.034495953 0.065236315
0.06146843 -0.017397478 -0.12735692 -0.07101582 0.009479713 0.077196024 0.014131022 0.03204845
-0.030110123 0.05034013 -0.10535497 -0.05821241 -0.04837869 -0.022160584 -0.0045911395 -0.06389636
-0.046464637 0.04264226 0.017297555 -0.007613543 -0.06774901 -0.00042932917 -0.032422 0.051907577
0.067570776 0.013098104 0.0013154153 -0.033353664 0.011642776 0.06530319 0.026580343 -0.044143103
0.00010499486 -0.15168841 -0.09241857 -0.0056000953 -0.056715555 0.019199107 0.041434057 -0.05722193
0.006424448 -0.032146398 -0.057676148 0.096971475 -0.009524902 0.033749852 -0.013984513 -0.0055700717
-0.03169148 -0.09558853 0.08152797 0.04883546 0.06297393 -0.015368041 -0.09870031 0.030547863
-0.052535783 -0.045222968 -0.084355384 -0.050508883 -0.015325593 0.053110395 -0.051301107 0.09662931
0.0009544373 -0.0050647887 0.046036452 0.03204252 -0.03357564 0.04423654 0.02466785 -0.10035242
-0.056921437 0.08362027 -0.01777431 -0.0020596522 0.014665205 0.041957803 -0.044521924 -0.03825711
-0.024877973 -0.12738548 0.011569561 0.060358617 0.012676415 0.005534398 0.10370226 -0.089330204
-0.034687378 0.040679675 -0.04226448 -0.032586243 0.004909492 0.010667024 0.04594799 -0.013748407
00000000: e587 6e3d db91 933c afb2 8e3c 97ad c93c
00000010: 65fa f8bd 208e 853d c297 06bc 4569 b93d
00000020: afce 8b3d 4109 d93c 507d cfbc b6e3 2e3d
00000030: f24d 8b3a 565e 2b3b fc01 e43c b2f8 cfbc
00000040: 3848 92bd 748e b1bb 63c2 3abd e04d 863c
00000050: 0370 473c f1b3 31bc 042f f5bc 9c9b 5d3c
00000060: 8beb a1bd b057 9fbc e1f4 05bd 9427 6fbd
00000070: 8847 973c 0d3a fc3d 72ab da3d f032 033e
00000080: fea4 653d d652 dfbd 6de0 c1bd 9809 91bd
00000090: 9870 d73d 49ad 9f3d f477 813d 37c2 ab3a
000000a0: f35a e93d def4 2b3b 8e45 bf3c 8056 a23d
000000b0: b184 75bc fd95 edbd 707a f2bc 8971 47bd
000000c0: ef98 07bb 468e 2cbc 237d 363d f551 fd3c
000000d0: 64d5 05be b0d7 cfbd 08d8 88bd aa97 e63c
000000e0: 2719 c83d 6610 19bd 35c0 153d 7dc2 373c
000000f0: 3ed6 063d 3103 e73c 7c76 1cbb 84f9 f73b
00000100: 1828 17bc d07c 2f3d 1ddc 04be 2776 433c
00000110: 8431 3a3d b162 993d 1105 a03d 0125 0fbe
00000120: 424d 2bbd 37c6 e53d a41b 433d 9fab 41bd
00000130: 0506 c53d b4ca aabd f047 d13b c608 393d
00000140: 8e86 a73d e349 56bc d906 d03d c4f5 97bc
00000150: b30d b7bd 2780 743d 4776 843d 29f7 9d3d
00000160: c013 36bd 5201 61be 3abc 43bc bfd1 05be
00000170: a912 a4bc 5b2c c93c f4e9 c1bc 9533 ac3b
00000180: bd95 653d 144c 883d 8933 473d 6ce2 963c
00000190: f826 1d3d 0ee1 fb3d 533a 51bd 8582 79bd
000001a0: 0adf f3bd 2bc8 0b3e c1bb d83c c30f a53d
000001b0: e180 1f3e b10a f13b e0a1 2bbd ec45 9f3d
000001c0: 9557 a93c dfc4 26bd 690a e53d 5c43 933d
000001d0: bd91 153e 8a7a 2bbd a1c3 9d3d 281e 8ebd
000001e0: 3e1d 573c b4a4 1cbd a344 8d3d 1ea1 bd3d
000001f0: 9bb6 b1bd 7d6c c13d 640f 833c 1226 f6bc
00000200: 5525 44bd 664e e73c bf77 0d3b f38b 133d
00000210: 1230 72bc 94b6 043e 7085 3c3b 9af7 fc3c
00000220: 1f4f 61bd 7b2e e3bc 0c76 c83d 2f1a ae3d
00000230: ac64 9e3a 8856 6cbb e64d 743d 6ba8 1abd
00000240: 471e eebd 6487 febc c0cd 92bd 6ac3 24bd
00000250: 4fbc 85bd daea 243d 37cf e23c 62fe 81bd
00000260: 22a8 1dbe d92d a6bd d3af 89bc 0616 aa3d
00000270: f40d 3f3c 811f 7abd a14b 0d3d 9e9a 853d
00000280: 52c6 7b3d 2885 8ebc da69 02be be70 91bd
00000290: cc50 1b3c f318 9e3d cd85 673c 3c45 033d
000002a0: 81a9 f6bc 7431 4e3d 59c4 d7bd 2370 6ebd
000002b0: bc28 46bd 1d8a b5bc 4571 96bb 18dc 82bd
000002c0: b451 3ebd a7a9 2e3d 9ab3 8d3c 077b f9bb
000002d0: febf 8abd 9617 e1b9 eecc 04bd 0a9d 543d
000002e0: 8c62 8a3d 6e99 563c 036a ac3a da9d 08bd
000002f0: 58c1 3e3c aebd 853d 05bf d93c 66cf 34bd
00000300: b030 dc38 3554 1bbe f245 bdbd 0181 b7bb
00000310: 924e 68bd 7247 9d3c c2b6 293d 8b61 6abd
00000320: 2d84 d23b f1ab 03bd d33d 6cbd fb98 c63d
00000330: 560e 1cbc 493d 0a3d 4c1f 65bc 2685 b6bb
00000340: edce 01bd ebc3 c3bd 23f8 a63d b107 483d
00000350: 7af8 803d 3cca 7bbc 6323 cabd 833f fa3c
00000360: c32f 57bd b83b 39bd 84c2 acbd 67e2 4ebd
00000370: 3218 7bbc 498a 593d 1c21 52bd 96e5 c53d
00000380: 3433 7a3a 87f6 a5bb b890 3c3d 043f 033d
00000390: 9c86 09bd 6031 353d 3b14 ca3c 9285 cdbd
000003a0: 7426 69bd 1b41 ab3d 6e9b 91bc 3bfb 06bb
000003b0: 5446 703c f2db 2b3d 9f5c 36bd 7db3 1cbd
000003c0: e4cc cbbc 5771 02be 428e 3d3c 993a 773d
000003d0: bdb0 4f3c e559 b53b da61 d43d c1f2 b6bd
000003e0: 5a14 0ebd bb9f 263d 851d 2dbd 2779 05bd
000003f0: cedf a03b bec4 2e3c f633 3c3d 0041 61bc

encoder.layers.0.linear2.bias f4 [32]
-0.055815123 0.06546768 0.06076415 0.04455309 -0.024247505 0.036512822 0.013974677 -0.014058123
-0.07875861 -0.031086657 0.074711904 -0.018676324 0.0027535434 -0.032509696 -0.041925117 0.02623429
-0.050530985 0.05375244 -0.024873732 -0.04362293 -0.0023340797 0.0021124026 -0.025795948 -0.066782966
-0.052020572 -0.020082884 -0.07854986 -0.09335672 0.041213952 -0.035986003 -0.06372412 -0.025322994
00000000: 669e 64bd eb13 863d d4e3 783d 4d7d 363d
00000010: b4a2 c6bc 788e 153d 0bf6 643c 0b54 66bc
00000020: 324c a1bd 72a9 febc 8e02 993d 17ff 98bc
00000030: cb74 343b e328 05bd acb9 2bbd 4be9 d63c
00000040: 94f9 4ebd 852b 5c3d ffc3 cbbc f5ad 32bd
00000050: 5cf7 18bb 3c70 0a3b 0652 d3bc 82c5 88bd
00000060: 8613 55bd dc84 a4bc c0de a0bd cf31 bfbd
00000070: f6cf 283d 0f66 13bd cb81 82bd 2b72 cfbc

encoder.layers.0.norm1.weight f4 [32]
1.0485215 1.0151432 0.9170858 0.9869585 1.0418074 1.0265117 1.0362012 1.0113128
1.0711644 0.9568735 1.0743368 1.0103908 1.0067295 1.0163664 0.9503125 1.0551524
1.0487387 0.9744363 1.0050894 1.0132136 0.9412104 0.9848934 0.8657094 1.0418707
0.92961687 1.0190243 0.9770694 1.0336249 1.0002248 1.0425544 0.947348 0.96298724
00000000: f435 863f 36f0 813f 23c6 6a3f 50a9 7c3f
00000010: f259 853f bc64 833f 3ea2 843f b372 813f
00000020: ea1b 893f a9f5 743f de83 893f 7c54 813f
00000030: 83dc 803f 4b18 823f ae47 733f 3c0f 873f
00000040: 123d 863f a874 793f c5a6 803f fcb0 813f
00000050: 2af3 703f f921 7c3f 229f 5d3f 055c 853f
00000060: 5ffb 6d3f 636f 823f 3821 7a3f d24d 843f
00000070: 5e07 803f 6c72 853f 6685 723f 5586 763f
