models/Proposed/pion_0.pt (torch, 165267 bytes, 35 tensors)

emb.layers.0.weight f4 [128, 20]
0	0x3e3bf5c4	0.18355471
1	0xbe460244	-0.19336802
2	0x3ea23f91	0.31689122
3	0xbe17bee5	-0.14818914
4	0xbdf58f73	-0.119902514
5	0xbe75da8a	-0.24009147
6	0x3da175b7	0.078837804
7	0xbe3962f7	-0.18104158
8	0xbe8036f5	-0.2504193
9	0x3dd690f1	0.10476864
10	0x3b8c9984	0.0042907614
11	0x39703bdd	0.00022910484
12	0xbe379de1	-0.1793132
13	0xbca8c1c3	-0.020600205
14	0x3e547207	0.20746623
15	0xbcdf6c39	-0.027273284
16	0xbda65095	-0.081208386
17	0x3d93499c	0.07191774
18	0xbd918ba9	-0.07106716
19	0x3e694ef7	0.22784029
20	0xbeadbeb1	-0.33934548
21	0xbecb572c	-0.39714944
22	0xbef6e11a	-0.48218614
23	0xbe901de6	-0.2814781
24	0x3d9e212f	0.07721173
25	0x3dc80e45	0.09768347
26	0x3d8f6b42	0.0700288
27	0xbcc83dd8	-0.024443552
28	0x3cbf5590	0.023356229
29	0xbdb6e816	-0.08930986
30	0x3cf70faf	0.030158846
31	0xbe187bb4	-0.14890939
32	0x3e178118	0.14795339
33	0x3e1ffb40	0.15623188
34	0xbcd7b351	-0.026330622
35	0xbe449a51	-0.19199492
36	0xbea5bd74	-0.32371104
37	0x3e64459e	0.22292182
38	0xba2aeda3	-0.0006520396
39	0x3d32fcab	0.043697994
40	0xbf14ac91	-0.58075815
41	0xbdeaf6de	-0.114728674
42	0xbd337ee3	-0.04382218
43	0x3e5d210f	0.21594642
44	0x3e70b96e	0.23508236
45	0x3e5a9470	0.21345687
46	0xbdb75197	-0.08951109
47	0xbd49d2dc	-0.049273357
48	0x3e4cf187	0.2001401
49	0x3d795747	0.06087425
50	0x3da9038f	0.08252632
51	0x3e12a366	0.14320144
52	0xbdc954d5	-0.098306336
53	0x3e2e4010	0.17016625
54	0xbe1baf26	-0.15203533
55	0xbe86eaea	-0.263511
56	0x3d61d857	0.05513796
57	0xbf039727	-0.51402515
58	0x3decb386	0.11557679
59	0x3d8cb63c	0.06870696
60	0x3ceeed7e	0.02916598
61	0x3c043395	0.008068939
62	0xbe1c6615	-0.15273316
63	0x3e35fe4d	0.1777279
64	0x3d8edb89	0.06975467
65	0xbe06faa4	-0.1318155
66	0x3e1350b5	0.14386256
67	0xbd94e34e	-0.072699174
68	0xbe4a0c92	-0.19731358
69	0xbd6b6d0b	-0.05747704
70	0xbe9297a0	-0.28631306
71	0x3d808280	0.06274891
72	0xbe19520b	-0.14972703
73	0xbe877436	-0.2645585
74	0x3cb3e909	0.021961706
75	0xbddf2e9c	-0.10897562
76	0xbd91c9fc	-0.071186036
77	0x3e8f67c2	0.28008848
78	0x3e3b076c	0.1826455
79	0xbe865f47	-0.26244566
80	0xbc49fc2b	-0.012328188
81	0xbe5c50ce	-0.215152
82	0xbd4c4b62	-0.04987658
83	0xbdfada1a	-0.12248631
84	0x3a62eacf	0.0008656205
85	0x3dfe66ff	0.12421989
86	0x3cfe0eb3	0.031012869
87	0xbde482b8	-0.11157745
88	0x3de17adb	0.11009761
89	0xbdf5bec0	-0.11999273
90	0x3d960654	0.07325426
91	0x3d525446	0.0513499
92	0xbd586a40	-0.052835703
93	0xbca7cf1f	-0.020484505
94	0xbe1f3e2e	-0.15551063
95	0xbcc5a198	-0.024124905
96	0x3c7c4ccf	0.015399172
97	0xbe4c1a55	-0.1993192
98	0x3e1fc92c	0.15604085
99	0xbe1f281d	-0.15542646
100	0x3d215ad1	0.03939325
101	0xbe3db38e	-0.18525526
102	0x3d3a4c78	0.045483083
103	0xbd2591fc	-0.040422425
104	0x3e488d45	0.1958514
105	0x3e4a49e2	0.19754747
106	0x3d3cf650	0.04613334
107	0xbe9272a7	-0.28603098
108	0xbe880c64	-0.26571953
109	0xbe9dfefc	-0.308586
110	0x3d56dae8	0.05245486
111	0xbdd8387e	-0.1055765
112	0xbdab8d80	-0.08376598
113	0xbd7a5eba	-0.061125495
114	0xbdf1b289	-0.11801631
115	0xbe142a38	-0.1446923
116	0xbcd0ab98	-0.025472447
117	0x3d999ffd	0.075012185
118	0x3e1e6985	0.1546994
119	0xbe2866ff	-0.1644554
120	0x3dac840f	0.08423626
121	0xbe079027	-0.13238584
122	0x3dae3717	0.08506601
123	0xbebd10c9	-0.3692687
124	0xbd45c560	-0.048283935
125	0x3d926056	0.07147281
126	0x3d430cb9	0.047619555
127	0xbac951cb	-0.0015359459
128	0xbbee0dbc	-0.007264821
129	0xbe37c0f5	-0.17944701
130	0xbe2c4834	-0.16824418
131	0xbe672753	-0.22573595
132	0x3e17b1f3	0.14813976
133	0x3e33e393	0.17567281
134	0xbe39f747	-0.18160735
135	0x3e262672	0.16225603
136	0x3dca57ef	0.09880053
137	0xbdf0172c	-0.1172317
138	0x3e3ad687	0.18245898
139	0x3d8b9c8d	0.06816969
140	0x3e564cfd	0.20927806
141	0xbe22a425	-0.15882929
142	0xbd9a5780	-0.075362206
143	0x3db7bda0	0.08971715
144	0xbdb1b5e7	-0.08677273
145	0xbe40cdfa	-0.18828574
146	0x3e27ce06	0.16387185
147	0x3da95adf	0.082692854
148	0x3d9f4730	0.0777725
149	0xbdebb8b1	-0.115098365
150	0xbe2de930	-0.16983485
151	0xbe841985	-0.2580072
152	0xbe04ac3e	-0.1295633
153	0xbeac5e05	-0.3366548
154	0xbd2eda38	-0.04268858
155	0x3df96944	0.12178281
156	0x3e446e21	0.19182636
157	0xbe04d07b	-0.12970154
158	0x3ddb4b49	0.10707719
159	0xbe5fe517	-0.21864735
160	0xbe03d77c	-0.1287517
161	0xbe00a2a3	-0.12562041
162	0xbe682d65	-0.22673567
163	0xbcb442a1	-0.022004427
164	0xbe22c392	-0.15894917
165	0xbdf9281c	-0.121658534
166	0x3e49350c	0.19649142
167	0x3d9d09ff	0.07667922
168	0x3dfa2c8d	0.12215529
169	0x3b374463	0.0027964346
170	0x3c1e80cf	0.009674265
171	0x3bf472c9	0.0074599725
172	0x3d8c7895	0.06858937
173	0x3dd313ec	0.10306534
174	0x3db58303	0.08862879
175	0x3e97bdd5	0.29637018
176	0xbd7ef8ab	-0.062248867
177	0x3debb728	0.11509544
178	0x3db6853b	0.089121304
179	0x3d88d31e	0.066808924
180	0xbc9f3b3e	-0.019437429
181	0x3e290f39	0.16509713
182	0x3d0e1640	0.034689188
183	0xbe1b6590	-0.15175462
184	0x3dc771e2	0.09738518
185	0x3dc141ac	0.09436354
186	0x3e09e6d5	0.13466962
187	0x3e36dea4	0.17858368
188	0x3d4dab02	0.050211914
189	0x3e793429	0.24336304
190	0x3ca3dbc3	0.020002251
191	0x3e44d843	0.19223122
192	0xbe2db501	-0.16963579
193	0xbddfb166	-0.10922508
194	0xbe8988e6	-0.26862258
195	0xbb8b05d8	-0.00424264
196	0x3d5d31da	0.05400262
197	0xbd5fc519	-0.054631326
198	0x3dee5466	0.116371915
199	0x3e374321	0.17896701
200	0xbe981ab9	-0.29707888
201	0x3e4a9969	0.19785084
202	0xbdbad696	-0.0912296
203	0x3e30098c	0.17191142
204	0x3ceed5e5	0.029154727
205	0x3e1cb068	0.15301669
206	0x3dd563dc	0.10419437
207	0x3e2c59c4	0.16831118
208	0x3e47268e	0.19448301
209	0xbd6799c2	-0.05654312
210	0x3ebc4923	0.3677455
211	0x3d1022d7	0.035189476
212	0x3db14740	0.08656168
213	0xbe4f5806	-0.20248422
214	0xbe07b117	-0.13251148
215	0x3e4414ea	0.19148603
216	0x3e2eb1a5	0.17059954
217	0x3daa5ae5	0.08318118
218	0xbc84f939	-0.01623212
219	0xbe9aca2b	-0.30232367
220	0xbe7d356e	-0.24727413
221	0x3d109233	0.035295676
222	0x3df58909	0.11989028
223	0x3e2c03e0	0.16798353
224	0x3e612454	0.21986514
225	0x3d894436	0.06702463
226	0xbf4b5485	-0.7942584
227	0xbf228478	-0.6348338
228	0xbc71bac8	-0.014754005
229	0x3d85b722	0.065290704
230	0x3c42a5ca	0.0118803475
231	0x3de745ed	0.11292634
232	0x3df0b6ee	0.11753641
233	0xbdb2d76f	-0.08732497
234	0x3bff5208	0.0077917613
235	0x3ccc0143	0.024902945
236	0x3e6e2b4d	0.23258705
237	0x3dd558fb	0.10417362
238	0x3e10bd54	0.14134723
239	0x3e8ee0ea	0.2790597
240	0xbb347e71	-0.0027541185
241	0xbe16891e	-0.14700744
242	0xbe64901e	-0.22320601
243	0x3e0c80e2	0.1372104
244	0xbe61d78a	-0.22054878
245	0x3da0dd20	0.07854676
246	0x3da1b1eb	0.07895263
247	0xbe02e605	-0.12783058
248	0xbb6f9e8a	-0.0036563003
249	0x3e08ff9f	0.13378762
250	0x3e6a8fa6	0.2290636
251	0xbe168a2d	-0.14701147
252	0x3e12b1c5	0.14325626
253	0xbb20b880	-0.0024524033
254	0xbd508f96	-0.050918184
255	0x3da8abec	0.082359165

emb.layers.0.bias f4 [128]
0	0xbdc83109	-0.09774978
1	0xbd4f97d9	-0.050681923
2	0xbe138473	-0.14405994
3	0x3cba256b	0.02272292
4	0x3dbf831b	0.09351178
5	0xbe258dd3	-0.16167383
6	0xbd69eeb1	-0.0571124
7	0xbd5084d3	-0.05090792
8	0x3e1c1892	0.15243748
9	0x3daff24b	0.085911356
10	0xbde93817	-0.113876514
11	0xbe043707	-0.12911616
12	0xbde4d400	-0.11173248
13	0xbdd47312	-0.103735104
14	0x3dca4aca	0.09877546
15	0x3e10529d	0.14094014
16	0xbd251c75	-0.040310342
17	0xbd96c9fd	-0.07362745
18	0xbe354a40	-0.17704105
19	0x3cc228c7	0.023701085
20	0x3dd02ddd	0.10164998
21	0xbcdc5a47	-0.026898516
22	0x3cb5c52a	0.022188742
23	0x3df0f4cf	0.117654435
24	0x3d7db6b6	0.061941825
25	0xbd7290ec	-0.05922024
26	0x3da744fd	0.08167455
27	0x3e227d4e	0.15868112
28	0xbe5bc925	-0.2146345
29	0x3d83c64b	0.06434306
30	0x3dc307d9	0.09522981
31	0x3d4314c6	0.047627233
32	0x3e57ee12	0.2108691
33	0x3dea92f0	0.11453807
34	0xbdc365ee	-0.09540926
35	0x3dc33e46	0.09533362
36	0x3daf4299	0.08557624
37	0x3e423aba	0.18967715
38	0x3e453391	0.19257952
39	0x3e5d918b	0.21637551
40	0xbdbd4850	-0.09242308
41	0xbdd3ea84	-0.10347465
42	0xbe265bc0	-0.16245937
43	0xbd34e0d7	-0.044159736
44	0xbd46628e	-0.048433833
45	0x3e2693fb	0.16267388
46	0x3d6709aa	0.0564057
47	0x3d6579c1	0.056024317
48	0x3e30b1e4	0.1725536
49	0x3dc6d7ce	0.0970913
50	0xbe1a510c	-0.1506998
51	0x3ddd8de6	0.108180806
52	0x3e4969ec	0.19669312
53	0xbcd1fa0b	-0.025631925
54	0xbe42ca71	-0.19022538
55	0x3dfb67a8	0.1227563
56	0x3e586b0b	0.21134584
57	0xbd511140	-0.05104184
58	0xbe4450f8	-0.19171512
59	0x3d2995f3	0.04140277
60	0x3d589689	0.052877937
61	0xbe2ad8f3	-0.16684322
62	0x3d56de5a	0.052458145
63	0x3daaa76f	0.08332717
64	0x3e54317e	0.20722005
65	0x3dde8efa	0.10867114
66	0xbe3b5e65	-0.18297727
67	0xbc0613b5	-0.008183409
68	0x3e3fb830	0.18722606
69	0xbe3ef40c	-0.18647784
70	0x3e616ed4	0.22014934
71	0x3d8f6b75	0.07002918
72	0x3db35375	0.087561525
73	0x3be318d5	0.0069304504
74	0x3d92dfbd	0.07171581
75	0x3e12a2a2	0.14319852
76	0x3e16cb44	0.14725977
77	0xbe2dd9b9	-0.16977586
78	0xbe22c266	-0.1589447
79	0xbdc12b54	-0.09432092
80	0xbe410df6	-0.18852982
81	0x3dd5ca73	0.10439005
82	0x3de4b03d	0.11166427
83	0x3d897506	0.067117736
84	0xbbe467c1	-0.0069703762
85	0xbdd348fa	-0.103166535
86	0x3e42f193	0.19037466
87	0xbdb6f9ad	-0.089343406
88	0xbe032678	-0.12807643
89	0xbdf0d1bf	-0.11758756
90	0xbdbe12b1	-0.09280909
91	0xbdeeefeb	-0.116668545
92	0x3ca22448	0.01979269
93	0x3e579bbd	0.21055503
94	0x3e323a1a	0.17404976
95	0x3d10673a	0.035254695
96	0xbd61aad9	-0.055094574
97	0xbe0fee50	-0.14055753
98	0xbe1e3f39	-0.15453805
99	0xbd104f95	-0.035232145
100	0x3e052bb8	0.13004959
101	0x3d809a63	0.06279447
102	0xbe30cf5f	-0.17266606
103	0xbd7dc496	-0.061955057
104	0xbe17786b	-0.1479203
105	0xbcb44d69	-0.022009568
106	0xbe17dd90	-0.14830613
107	0x3e02dfd3	0.12780695
108	0xbde3c2ec	-0.11121163
109	0x3b4ae2ea	0.0030958005
110	0xbe6325e8	-0.22182429
111	0x3da741ac	0.08166823
112	0x3bf81681	0.007571042
113	0xbcdc99b4	-0.02692876
114	0xbd44b277	-0.04802176
115	0xbe23eedf	-0.16009091
116	0x3e37f05e	0.17962787
117	0x3db2aa87	0.08723932
118	0x3e0be378	0.13660991
119	0xbe5907c8	-0.21194375
120	0xbe9159d8	-0.28388858
121	0xbdfe0da6	-0.12404947
122	0xbdf3e07b	-0.119080506
123	0xbe65c4c9	-0.22438349
124	0xbde7e2ad	-0.11322532
125	0x3cfbef33	0.030753708
126	0x3e33a816	0.17544588
127	0xbdf24a39	-0.11830563

emb.layers.2.weight f4 [32, 128]
0	0xbe08dcb0	-0.13365436
1	0xbdc71fa0	-0.09722829
2	0xbd965162	-0.07339741
3	0x3d65df48	0.05612114
4	0x3dc18da1	0.09450842
5	0x3e7e2d0b	0.2482187
6	0xbd6f4740	-0.05841756
7	0x3d88d016	0.06680314
8	0xbad671e9	-0.0016360852
9	0x3d407a9a	0.046991922
10	0xbdcb0ed7	-0.0991494
11	0x3b18036a	0.0023195394
12	0xbdaf3d56	-0.08556621
13	0xbdd40ecb	-0.10354384
14	0x3deba8ba	0.115067914
15	0x3ce62437	0.02809344
16	0x3d74a13d	0.05972408
17	0x3ca8510c	0.020546459
18	0xbd6a2e4e	-0.057173066
19	0xbb76b7b4	-0.0037646117
20	0x3ce550f8	0.02799271
21	0x3d4ce81b	0.05002604
22	0xbdc8c0da	-0.098024085
23	0xbba9f89a	-0.0051871063
24	0x3d50ba7c	0.050959095
25	0xbdd7949a	-0.105263904
26	0x3a1a124e	0.00058773614
27	0xbd90cc4c	-0.070702165
28	0x3e77a04c	0.24182242
29	0xbd8ff180	-0.07028484
30	0xbc37b584	-0.01121271
31	0x3c80bb9c	0.01571446
32	0x3bb99861	0.005663917
33	0x3d086dab	0.033307713
34	0x3d0284f5	0.03186508
35	0x3e05f03d	0.13079925
36	0x3db6f63c	0.08933684
37	0xbcb95671	-0.022624226
38	0xbc96edd6	-0.018423956
39	0x3db56cb6	0.088586256
40	0x3d2e4a27	0.042551186
41	0x3bc3cdc6	0.005975458
42	0x3d199e7d	0.03750466
43	0xbe19ef99	-0.15032806
44	0xbe0c6d26	-0.13713512
45	0x3ccb179e	0.024791535
46	0xbcf3f7cd	-0.029781247
47	0x3d255978	0.040368527
48	0x3d306065	0.04306068
49	0x3d875bce	0.06609307
50	0xbe46d264	-0.19416195
51	0x3cc6079e	0.024173554
52	0xbd0f8b21	-0.035044793
53	0xbd43204a	-0.047638215
54	0x3e80b479	0.2513769
55	0xbde73ca7	-0.112908654
56	0x3cc5d599	0.024149703
57	0xbc61a7fb	-0.01377296
58	0x3dcf403b	0.10119673
59	0x3bc5966f	0.006029896
60	0x3d9962ca	0.07489546
61	0x3dd98627	0.10621291
62	0xbd9c197a	-0.07622047
63	0xbd57c66f	-0.052679475
64	0xbc78ca8e	-0.015185012
65	0xbd19590e	-0.037438445
66	0x3d51a979	0.051187012
67	0xbaba0ee9	-0.0014195117
68	0x3d69c23b	0.05707
69	0x3d66352d	0.056203056
70	0x3d20d635	0.039266784
71	0xbb4688e7	-0.0030294002
72	0x3b0a0fee	0.0021066624
73	0x3d1871c6	0.037217878
74	0xbd4944a6	-0.049137734
75	0xbd539078	-0.051651448
76	0x3d89fbaf	0.06737458
77	0xbdb04708	-0.08607298
78	0x3e5e4731	0.21706845
79	0xbd1fb47e	-0.03899049
80	0x3c486453	0.01223095
81	0xbcf3cdce	-0.029761221
82	0x3dcd75ec	0.100322574
83	0xbd4fcc70	-0.050732076
84	0xbbd348a4	-0.0064478684
85	0x3c643853	0.013929444
86	0x3d0f3472	0.034962125
87	0x3d11e367	0.03561726
88	0xbdd0491a	-0.10170193
89	0xbe52b339	-0.2057618
90	0xbd6dcbb3	-0.05805559
91	0x3c10b75f	0.008832782
92	0xbda893c5	-0.0823131
93	0xbd94a914	-0.072588116
94	0xbde3385a	-0.110947326
95	0xbd34ea90	-0.04416901
96	0xbdc7f418	-0.09763354
97	0x3cb9c7bb	0.022678247
98	0xbe49f43e	-0.19722077
99	0xbdacca9a	-0.08437081
100	0x3da63a82	0.08116628
101	0x3a26212d	0.0006337341
102	0xbc55e220	-0.013054401
103	0x3ccbe925	0.024891445
104	0xbe57130e	-0.21003363
105	0xbe1a7c90	-0.1508658
106	0x3ce27444	0.02764333
107	0x3cfd32b3	0.030907964
108	0xbcab6234	-0.02092085
109	0xbd859a84	-0.06523612
110	0xbc81c746	-0.015842091
111	0xbda715a6	-0.08158426
112	0x3cabb752	0.020961437
113	0x3d5ba23f	0.053621527
114	0x3dd441e8	0.10364133
115	0x3e152833	0.14566116
116	0xbd2ee66e	-0.042700224
117	0x3cbca801	0.02302933
118	0xbb6823da	-0.003542176
119	0xbde28212	-0.11059965
120	0x3e16c0d4	0.14721996
121	0x3dca3f1e	0.0987532
122	0xbdd574f9	-0.104227014
123	0xbe379e9d	-0.179316
124	0xbd6e16e2	-0.05812729
125	0xbdd9494f	-0.10609686
126	0x3de03c41	0.109489925
127	0xbdbb50cd	-0.09146271
128	0x3dcbad96	0.09945218
129	0x3ba45d92	0.0050160373
130	0x3da348a6	0.07972841
131	0x3d34cd5c	0.04414116
132	0x3d0a6502	0.033787735
133	0xbdfafbe9	-0.12255079
134	0x3cf5746c	0.02996274
135	0x3cda2286	0.02662779
136	0x3d414361	0.0471834
137	0xbdcb372e	-0.09922634
138	0x3c6b08ba	0.014345342
139	0x3cbb8fdc	0.022895746
140	0x3d82b9a0	0.063830614
141	0x3d4797c8	0.048728734
142	0x3d289e04	0.04116632
143	0x3d8c6be1	0.06856514
144	0xbd3daf6f	-0.046309885
145	0x3ceb25ca	0.028704543
146	0x3c8029f1	0.015645
147	0xbdb76ee2	-0.08956696
148	0xbd92890e	-0.07155047
149	0x3bfe4f9c	0.007760955
150	0x3d9c7733	0.07639923
151	0xbd087997	-0.033319082
152	0xbdb85494	-0.09000507
153	0x3dbad340	0.09122324
154	0xbe092d1c	-0.13396114
155	0x3df138ac	0.117783874
156	0x3d244c00	0.04011154
157	0x3d904924	0.070452005
158	0xbd8d8e99	-0.06911964
159	0xbc4e013f	-0.012573539
160	0x3c938c5f	0.01801127
161	0x3d00539e	0.031329744
162	0x3c8b1e66	0.016982269
163	0x3d6efb5e	0.05834519
164	0xbd130ca2	-0.03590072
165	0xbd8b0815	-0.06788651
166	0x3d1c6d2f	0.038190063
167	0x3cae7799	0.021297263
168	0x3c5b2580	0.01337564
169	0x3d94d440	0.07267046
170	0xbd17371b	-0.036917787
171	0xbd535efc	-0.051604256
172	0x3da1801c	0.07885763
173	0xbda7519c	-0.08169863
174	0xbcf35daa	-0.029707748
175	0x3c62d207	0.01384402
176	0x3cb8dd89	0.022566574
177	0x3da0b880	0.078476906
178	0x3e4063ae	0.18788025
179	0xbd1d35cc	-0.038381383
180	0xbdc35043	-0.09536793
181	0xbda69968	-0.08134729
182	0xbd98a057	-0.074524574
183	0x3cfa5207	0.030556692
184	0x3d11aebd	0.035567034
185	0x3dd8169a	0.10551186
186	0xbd154efc	-0.03645228
187	0x3c5153fc	0.012776371
188	0xbd75be37	-0.059995856
189	0x3b908e0b	0.004411464
190	0x3d83e962	0.064409986
191	0x3ca9c16a	0.02072211
192	0xbd7e4a9d	-0.062082876
193	0xbdb10b33	-0.08644714
194	0x3d54b6aa	0.051932015
195	0xbccdd4b4	-0.025125839
196	0x3d3f167f	0.046652313
197	0x3e21b691	0.157923
198	0x3d21d604	0.03951074
199	0x3cae6a65	0.021290967
200	0x3d0ce955	0.03440221
201	0x3b1e0813	0.00241137
202	0x3d57aed5	0.052656967
203	0x3cd127a5	0.0255316
204	0xbd0f4bef	-0.034984525
205	0xbc578953	-0.013155299
206	0xbbb1f82e	-0.0054311967
207	0x3d36e125	0.04464831
208	0xbdfbbdd0	-0.12292063
209	0xbcdcea16	-0.02696709
210	0xbdffc7bc	-0.12489268
211	0xbd801f34	-0.062559515
212	0x3d88fecc	0.06689224
213	0x3d56f486	0.05247929
214	0x3c1e08e9	0.009645679
215	0x3c960c5e	0.018316444
216	0xbccde6c4	-0.025134452
217	0x3df59438	0.11991161
218	0x3d621254	0.05519326
219	0x3dec65bf	0.11542844
220	0xbd913516	-0.070902035
221	0x3ce3df4d	0.027816439
222	0xbc8d8fb4	-0.017280437
223	0xbdc5df53	-0.09661736
224	0x3de6fab5	0.11278287
225	0x3c8f3596	0.017481606
226	0x3e3f4415	0.18678315
227	0x3c1a6c5b	0.009425248
228	0xbd227add	-0.039667953
229	0x3cae982e	0.0213128
230	0xbca8fa01	-0.020627024
231	0x3c9037fe	0.017604824
232	0x3dffad4c	0.12484226
233	0x3abff022	0.0014643709
234	0x3d1177e7	0.03551474
235	0xbd3459d0	-0.044030964
236	0xbdb8e593	-0.09028163
237	0x3d38c569	0.04511014
238	0x3c309a7f	0.010779022
239	0x3d665e3b	0.05624221
240	0xbd97ca87	-0.07411676
241	0x3dbefffd	0.0932617
242	0xbd77aa66	-0.06046524
243	0x3cc245f7	0.023715002
244	0xbb95c904	-0.004571082
245	0xbd8c8c4d	-0.06862698
246	0x3cd6b905	0.026211271
247	0xbd93b676	-0.07212536
248	0xbe3ff9e6	-0.18747672
249	0x3dc55d33	0.09636917
250	0x3da960bf	0.08270406
251	0x3d0cc855	0.03437074
252	0xbd2977c4	-0.041373983
253	0x3dc587e7	0.09645062
254	0x3c924c0d	0.01785853
255	0xbb0f6fbf	-0.0021886674

emb.layers.2.bias f4 [32]
0	0xbd46b335	-0.04851075
1	0x3d522ea3	0.051314007
2	0xbd6ce6fb	-0.057837468
3	0xbc95e29d	-0.018296534
4	0x3ad3ca04	0.0016158228
5	0x3cacd671	0.021098347
6	0xbd86f0bd	-0.06588886
7	0x3d73c4d4	0.05951388
8	0xbda2698a	-0.07930286
9	0x3c4fd3c8	0.01268477
10	0x3d983b21	0.07433153
11	0x3d697f4b	0.05700616
12	0xbd10c9e5	-0.03534879
13	0x3d495306	0.049151443
14	0xbdb09e34	-0.08623925
15	0x3d319eb6	0.04336425
16	0x3d90f7a7	0.07078486
17	0xbc980cee	-0.018560853
18	0xbdd1ad8c	-0.102381796
19	0x3d8cb2a6	0.06870012
20	0x3d12f004	0.035873428
21	0xbd812def	-0.06307589
22	0xbb60f115	-0.0034323384
23	0xbd476fd8	-0.048690647
24	0x3d1ceb99	0.03831062
25	0x3c35531c	0.011067178
26	0x3d51b16a	0.051194586
27	0xbd2166e8	-0.03940478
28	0xbd394255	-0.045229275
29	0x3d8a5b7a	0.06755729
30	0x3d456218	0.048189253
31	0xbdad8007	-0.08471685

encoder.layers.0.self_attn.in_proj_weight f4 [96, 32]
0	0x3d817e94	0.06322971
1	0xbdc3c63d	-0.09559295
2	0xbcee6edb	-0.029105594
3	0xbc9e8228	-0.019349173
4	0x3e3884a9	0.18019356
5	0xbdbebf90	-0.093138814
6	0xbe2d3ea1	-0.16918422
7	0x3dd13f70	0.10217178
8	0x3dd5a065	0.104309835
9	0x3e1913b5	0.14948924
10	0x3e602935	0.21890719
11	0xbe0887c1	-0.13333036
12	0xbe0d49b9	-0.13797654
13	0x3dd77bd0	0.10521662
14	0xbe40f695	-0.18844064
15	0xbe25a5ec	-0.16176575
16	0xbe29607f	-0.16540717
17	0xbd8d5029	-0.06900055
18	0xbe157fd3	-0.14599542
19	0x3de5a95b	0.112139426
20	0xbd68c3ca	-0.056827344
21	0x3e249e7e	0.16076085
22	0xbe0440df	-0.12915371
23	0xbd812e10	-0.06307614
24	0xbd34eb44	-0.04416968
25	0x3e18465f	0.14870594
26	0x3caefad5	0.02135984
27	0xbd715c24	-0.058925763
28	0x3d9f5764	0.0778034
29	0x3d6054ef	0.0547685
30	0x3e277950	0.16354871
31	0x3d0c75a3	0.034291875
32	0xbe2c1aa2	-0.16807035
33	0xbdd94869	-0.10609514
34	0xbb259e51	-0.0025271366
35	0x3cea84ac	0.028627716
36	0xbe88dc74	-0.26730692
37	0x3bf74ff5	0.0075473734
38	0xbcde21fe	-0.027115818
39	0x3d34d3ba	0.04414723
40	0x3e5d4fea	0.21612516
41	0x3d77dd46	0.060513757
42	0xbb4af1ec	-0.003096695
43	0x3e3ebfcb	0.1862785
44	0x3e2170b7	0.15765654
45	0x3d9a0e68	0.07522279
46	0x3c2c7098	0.010524891
47	0x3dbabee3	0.0911844
48	0xbd61af64	-0.055098906
49	0x3e11bdfe	0.14232633
50	0x3e042efb	0.12908547
51	0x3c88df27	0.01670797
52	0xbe5b4bfe	-0.21415707
53	0xbdeacb98	-0.11464614
54	0xbd6b2556	-0.057408653
55	0x3e2f9da0	0.17149973
56	0x3d4f48ea	0.050606646
57	0x3e6447ac	0.22292966
58	0xbdb40949	-0.087908335
59	0xbcb0b2cb	-0.02156963
60	0xbd1a3387	-0.037646797
61	0xbe0d3fa0	-0.13793802
62	0x3df579fd	0.11986158
63	0x3c715758	0.014730297
64	0xbdcacaf1	-0.09901989
65	0xbe4fe96e	-0.2030389
66	0xbdb54121	-0.08850313
67	0x3e196779	0.14980878
68	0x3e695ebe	0.22790048
69	0xbd5db4db	-0.054127555
70	0xbdf1bb66	-0.118033215
71	0x3d71e193	0.059053015
72	0xbe1f84eb	-0.15578048
73	0xbe1434bc	-0.14473242
74	0xbca9c01f	-0.020721493
75	0xbd8ec2d1	-0.06970752
76	0xbe1b485f	-0.15164326
77	0x3c874fca	0.016517539
78	0x3d42665f	0.04746091
79	0xbdd93a10	-0.10606778
80	0x3e6a4354	0.22877246
81	0xbd62df2d	-0.05538862
82	0xbe04458d	-0.12917157
83	0xbe01eb28	-0.12687361
84	0xbd2bdeab	-0.0419604
85	0x3df31cb7	0.11870711
86	0xbdc7a21b	-0.09747716
87	0xbde231b9	-0.1104464
88	0xbb6ecd3a	-0.0036438243
89	0x3d5357aa	0.051597275
90	0xbe1361fc	-0.14392847
91	0xbdf2f580	-0.11863232
92	0xbdb6b849	-0.08921868
93	0x3dd1570f	0.10221683
94	0x3e27c41b	0.16383402
95	0xbd33dcf7	-0.0439119
96	0xbe50909c	-0.20367664
97	0xbe4cd561	-0.20003273
98	0x3d204155	0.039124805
99	0x3d5f60ba	0.054535605
100	0xbdb58298	-0.088627994
101	0x3dc30aa4	0.09523514
102	0xbd898062	-0.0671394
103	0x3e6fd86e	0.23422405
104	0xbe275a19	-0.16342963
105	0x3d322a80	0.043497562
106	0xbd965733	-0.07340851
107	0xbe6f318b	-0.23358743
108	0xbe91ba79	-0.2846258
109	0x3e344b49	0.17606844
110	0x3d7cc9ae	0.061715774
111	0x3dcac934	0.09901658
112	0x3e1d3b31	0.15354611
113	0xbd0fc319	-0.03509817
114	0x3da40d63	0.08010366
115	0x3e0b2c50	0.13591123
116	0xbce1b365	-0.027551362
117	0x3de3ce9c	0.11123392
118	0x3c66d034	0.014087725
119	0xbdd1272b	-0.10212549
120	0x3e26a213	0.16272764
121	0x3e146bb9	0.14494218
122	0x3e313901	0.17306902
123	0x3d09ff17	0.03369054
124	0x3e17a347	0.14808379
125	0xbe491a56	-0.19638953
126	0x3e0d0bcc	0.13774031
127	0x3e52af26	0.20574626
128	0xbdeecb3e	-0.11659859
129	0xbdde3e4e	-0.108517274
130	0xbde0debe	-0.10979985
131	0xbd4b548c	-0.049641177
132	0x3e77790b	0.24167268
133	0xbbad775e	-0.0052937707
134	0x3d41a01f	0.047271844
135	0xbe1dabf4	-0.15397626
136	0xbd403a30	-0.046930492
137	0x3dcf5203	0.10123064
138	0x3deb37f5	0.11485282
139	0x3e1b2009	0.15148939
140	0x3d99fe3c	0.075191945
141	0x3d9c0096	0.07617299
142	0xbbd28c7b	-0.006425438
143	0x3d464509	0.04840568
144	0x3dce3754	0.10069147
145	0xbd2617d5	-0.04055007
146	0x3d007bb1	0.03136796
147	0x3e176466	0.14784393
148	0xbd608ea3	-0.05482353
149	0x3e1db0b3	0.15399437
150	0x3de4d236	0.11172907
151	0xbdc25e38	-0.09490627
152	0x3c34ba63	0.011030766
153	0x3e287f38	0.1645478
154	0xbe3dea8c	-0.18546504
155	0x3e04d570	0.12972045
156	0xbe745ae3	-0.23862796
157	0xbc62e6c0	-0.01384896
158	0xbd5906c8	-0.052984983
159	0x3e31816b	0.17334525
160	0x3e61124e	0.21979639
161	0x3db09305	0.08621792
162	0x3d966adf	0.07344603
163	0xbdd95453	-0.10611787
164	0xbe03a111	-0.1285441
165	0xbe38d435	-0.180497
166	0x3d10161f	0.035177346
167	0xbdd9b80b	-0.106308065
168	0x3e113023	0.14178519
169	0xbe060cbc	-0.13090795
170	0x3d0b2a0c	0.033975646
171	0xbd984efe	-0.074369416
172	0x3de15cfd	0.11004064
173	0xbc8be105	-0.017075071
174	0x3e20d8cd	0.15707703
175	0x3e2b8ef7	0.16753756
176	0xbe3958eb	-0.18100326
177	0xbe431b61	-0.19053413
178	0x3cb60d24	0.022223063
179	0xbe65f5cb	-0.22457044
180	0x3cddbc7f	0.027067421
181	0xbd88e26c	-0.066838115
182	0xbe2cff1c	-0.16894192
183	0xbe21643b	-0.15760891
184	0xbe4d2d63	-0.20036845
185	0xbdf001ef	-0.11719119
186	0xbc63b33f	-0.013897716
187	0xbccf5e65	-0.025313566
188	0x3da8504e	0.08218442
189	0xbe41f268	-0.18940127
190	0xbc81194c	-0.015759133
191	0xbd8b05f0	-0.06788242
192	0xbda04788	-0.078261435
193	0x3e247a0d	0.16062184
194	0xbe5621a1	-0.20911266
195	0x3db8a8e8	0.09016591
196	0xbd802fa4	-0.06259087
197	0xbd167332	-0.036730953
198	0xbde62c1b	-0.11238881
199	0x3e42597e	0.18979451
200	0x3b503eef	0.0031775793
201	0xbc19fa30	-0.009398028
202	0x3e0cca91	0.13749148
203	0x3db6ebea	0.08931716
204	0xbe4a57a7	-0.19759999
205	0x3e41cb15	0.18925126
206	0xbd9418b3	-0.072312735
207	0xbdaa465f	-0.083142035
208	0xbd8e3729	-0.06944115
209	0x3e04bb5a	0.12962094
210	0x3d847512	0.06467642
211	0xbe4302d0	-0.19044042
212	0xbdf82897	-0.12117117
213	0x3ccfde51	0.025374563
214	0x3e5627fa	0.20913687
215	0xbe44a368	-0.1920296
216	0x3c92d9c3	0.017926103
217	0xbdf016e2	-0.117231146
218	0xbdf825a4	-0.121165544
219	0x3c824353	0.015901243
220	0x3d6e72ad	0.058214832
221	0x3e11ea2a	0.14249483
222	0x3e079ee1	0.13244201
223	0xbd8897ce	-0.066695794
224	0x3e47e836	0.19522175
225	0xbbfdae16	-0.0077417
226	0xbe841407	-0.2579653
227	0x3cabd695	0.020976344
228	0x3e7cc5ed	0.24684878
229	0xbd76e818	-0.060279936
230	0xbde6d3f2	-0.11270894
231	0xbd079293	-0.03309877
232	0x3e00c0ac	0.12573498
233	0xbd9f3c17	-0.07775133
234	0xbe2b7fae	-0.16747925
235	0x3ddd731d	0.10812972
236	0xbe7e00c9	-0.24804987
237	0xbd94fa1e	-0.072742686
238	0xbe0b4981	-0.13602258
239	0x3e2086ed	0.1567647
240	0xbe2f0882	-0.17093089
241	0x3dd166d6	0.102246925
242	0x3cfa25bc	0.030535571
243	0x3e5f4317	0.21802936
244	0x3db47e44	0.08813146
245	0x3defd713	0.11710944
246	0x3e8196e3	0.2531043
247	0x3d285e19	0.041105364
248	0xbe292338	-0.16517341
249	0x3c3c210f	0.011482491
250	0xbda15e33	-0.07879295
251	0x39cd5c53	0.00039169434
252	0xbe0cf721	-0.13766147
253	0xbcf1aef2	-0.029502366
254	0x3e086a59	0.13321818
255	0xbdcfa9f4	-0.10139838

encoder.layers.0.self_attn.in_proj_bias f4 [96]
0	0x3d9a4f46	0.075346515
1	0xbdb6d374	-0.0892705
2	0x3dbf417c	0.09338662
3	0x3db97526	0.090555474
4	0x3da35e34	0.07976952
5	0xbdb32749	-0.087477274
6	0x3db361ff	0.08758926
7	0x3dae5fe0	0.085143805
8	0x3dee48a0	0.11634946
9	0x3db4a36c	0.08820233
10	0x3dbab790	0.09117043
11	0x3d4c8d82	0.04993964
12	0x3db67d8b	0.08910664
13	0xbda445cb	-0.080211245
14	0x3da53f95	0.08068768
15	0xbd1e9b8c	-0.03872256
16	0xbe08e337	-0.13367926
17	0xbd8f1168	-0.06985742
18	0xbdf8b70b	-0.12144288
19	0xbde2da9e	-0.11076854
20	0xbdaa63bd	-0.08319805
21	0xbdd40e5d	-0.10354302
22	0xbdb03e9b	-0.08605691
23	0xbe1aa7c1	-0.15103056
24	0x3e938f30	0.2882018
25	0x3d95d32e	0.0731567
26	0x3cba83a5	0.022767851
27	0xbe321b46	-0.17393216
28	0x3e0aa6b6	0.13540158
29	0x3cb20d77	0.021734936
30	0x3d9e4601	0.07728196
31	0xbe7bfd80	-0.24608421
32	0xb7b0e4b6	-2.1087337e-05
33	0x384cb733	4.8808008e-05
34	0xb7e16618	-2.6869631e-05
35	0xb7081a22	-8.112316e-06
36	0xb704d9f7	-7.918562e-06
37	0x3808f53e	3.2653326e-05
38	0xb81ceb25	-3.7412294e-05
39	0xb874f2d6	-5.8400292e-05
40	0xb8c0a086	-9.185173e-05
41	0xb7d070f7	-2.4848136e-05
42	0xb8953f59	-7.116673e-05
43	0xb5a32b71	-1.215709e-06
44	0xb75feedc	-1.334745e-05
45	0x37007568	7.65673e-06
46	0xb8894fa5	-6.547504e-05
47	0x381205ed	3.481463e-05
48	0xb8a9bb23	-8.093405e-05
49	0xb896b02d	-7.185373e-05
50	0xb81a6962	-3.6814607e-05
51	0xb7ae2bcc	-2.076281e-05
52	0xb83be0dc	-4.479369e-05
53	0xb8aa2ffe	-8.115171e-05
54	0xb846d12b	-4.740168e-05
55	0xb901fc82	-0.00012396465
56	0x38ff17ed	0.00012163804
57	0xb6ceed4a	-6.1669025e-06
58	0x381f8ff5	3.8042625e-05
59	0x356774c7	8.622414e-07
60	0x3861bccb	5.3820007e-05
61	0xb81763f7	-3.6094305e-05
62	0x37c93530	2.3985835e-05
63	0xb8ce1d1b	-9.828267e-05
64	0x3d248658	0.040167183
65	0x39b43d14	0.00034377782
66	0xbc9bab0a	-0.019002456
67	0xbc91839b	-0.01776295
68	0x3c3f6227	0.011681116
69	0x3b0ff89b	0.0021968249
70	0x3cdf9af7	0.027295573
71	0xbcab811c	-0.020935588
72	0x3c8bc7f7	0.017063124
73	0x3c84c459	0.016206907
74	0x3ccf507d	0.025306934
75	0x3cda7b0d	0.026670003
76	0xbcde13af	-0.027108995
77	0xbcb22e22	-0.021750513
78	0x3d11b9c7	0.03557756
79	0xbc920f29	-0.017829495
80	0x3c8f0a27	0.017460896
81	0xbd24419a	-0.040101625
82	0x3c6be39b	0.014397527
83	0xbbc5258b	-0.0060164384
84	0x3d0ca14f	0.034333523
85	0x3c25311d	0.01008251
86	0x3c127de3	0.008941147
87	0x3ba1a091	0.004932471
88	0x3d2200bf	0.039551493
89	0x3c0eac28	0.008708037
90	0x3d09d210	0.033647597
91	0xbab96cd3	-0.0014146812
92	0xbcaaa5a2	-0.020830933
93	0x3c3367e5	0.010950063
94	0x3d1c308f	0.038132247
95	0xbbbeff63	-0.0058287843

encoder.layers.0.self_attn.out_proj.weight f4 [32, 32]
0	0x3e24fb3c	0.16111463
1	0x3dd211ce	0.10257302
2	0x3db76d70	0.089564204
3	0x3dbf1d60	0.09331775
4	0x3d803921	0.062608965
5	0xbc9d2b34	-0.01918564
6	0x3c054723	0.008134636
7	0x3dd27560	0.10276294
8	0xbd948b73	-0.0725316
9	0xbd8bcde1	-0.06826378
10	0xbc1d5772	-0.009603368
11	0x3e13f074	0.14447194
12	0x3cb5fa19	0.022213982
13	0x3c727b58	0.014799915
14	0xbc7bd8a1	-0.015371473
15	0xbd261150	-0.040543854
16	0xbdf2d0c4	-0.11856225
17	0x3db3cf1b	0.087797366
18	0x3e117976	0.1420649
19	0xbd889d3d	-0.06670616
20	0x3d113a95	0.03545626
21	0x3e022f7d	0.12713428
22	0x3df3e51b	0.11908933
23	0x3ba151a0	0.0049230605
24	0x3d72096a	0.05909101
25	0x3dab9399	0.083777614
26	0x3d218fac	0.039443657
27	0xbd27bac1	-0.040949587
28	0x3d576e06	0.05259516
29	0xbe4478a5	-0.19186647
30	0x3dccabf9	0.09993739
31	0x3d2da624	0.042394772
32	0xbd87d358	-0.066321075
33	0x3d33df06	0.043913864
34	0x3e4f1e5f	0.2022643
35	0x3cbedf05	0.023299703
36	0x3e2724e3	0.16322665
37	0xbe1680db	-0.14697592
38	0x3e0792d9	0.13239612
39	0xbb27ad1f	-0.0025585366
40	0xbe6e3f59	-0.23266353
41	0xbd489111	-0.04896647
42	0xbd5f70c1	-0.05455089
43	0xbd862748	-0.06550461
44	0x3de47737	0.11155551
45	0xbe5e2bf0	-0.21696448
46	0xbe07bb3b	-0.13255017
47	0x3e2c4cf1	0.16826226
48	0xbcb87038	-0.022514448
49	0x3e2d3a39	0.16916741
50	0x3c5403b0	0.012940332
51	0xbdda845e	-0.10669778
52	0x3d3ab33c	0.045581087
53	0x3d3a3a8c	0.04546599
54	0xbddf746a	-0.10910876
55	0x3cf98d4e	0.030462887
56	0x3d9b3dc7	0.075801425
57	0xbdcdd68f	-0.100506894
58	0x3dcaa70e	0.098951444
59	0x3dae5ffe	0.08514403
60	0x3d001db1	0.031278316
61	0xbdc114e1	-0.094278105
62	0xbcf4cdb6	-0.029883247
63	0xbd352453	-0.044224095
64	0xbd95407b	-0.07287689
65	0xbd824f15	-0.0636274
66	0xbddd4478	-0.10804075
67	0x3c95ca2f	0.018284885
68	0x3baa76fc	0.0052021723
69	0xbd579714	-0.052634314
70	0xbd91a961	-0.071123846
71	0x3cf3677b	0.02971243
72	0xbdcf478e	-0.1012107
73	0x3d5837de	0.052787654
74	0x3ddd6476	0.10810177
75	0x3d28904d	0.04115324
76	0xbd88986f	-0.066696994
77	0x3d9634a8	0.07334262
78	0x3d9c3d5f	0.07628893
79	0x3c5cd4ba	0.013478452
80	0xbe245d46	-0.16051206
81	0x3e0514b2	0.12996176
82	0xbd2d95c5	-0.04237916
83	0x3e1dca5a	0.15409222
84	0xbd867c51	-0.0656668
85	0xbde3df50	-0.11126578
86	0x3d6b56ce	0.05745583
87	0x3c805fb4	0.015670635
88	0x3d9abec3	0.07555916
89	0xbe009c10	-0.12559533
90	0x3ce74975	0.02823327
91	0xbc1bec4a	-0.009516785
92	0xbdc781db	-0.09741565
93	0x3d8e4363	0.06946447
94	0xbda1195b	-0.07866164
95	0xbe0a36c6	-0.13497457
96	0x3db82652	0.08991684
97	0xbd9258c9	-0.07145841
98	0x3d003209	0.031297717
99	0xbdd01ca4	-0.10161713
100	0x3cc99e1e	0.024611529
101	0xbd884735	-0.06654207
102	0xbddac1db	-0.10681506
103	0x3e06e886	0.13174638
104	0x3c5891fc	0.013218399
105	0xbdfa7ff2	-0.12231435
106	0xbe03d64e	-0.1287472
107	0x3dac9ae1	0.08427978
108	0x3dc2d7c5	0.09513811
109	0xbd1a1daa	-0.037625946
110	0xbdae238b	-0.08502873
111	0xbcc05e7a	-0.02348255
112	0xbe08ccba	-0.13359347
113	0xbc8ac69c	-0.016940407
114	0xbde0c478	-0.109749734
115	0xbe216fe1	-0.15765335
116	0xbd921993	-0.07133784
117	0xbdb06799	-0.0861351
118	0x3dbab610	0.09116757
119	0x3dcada3f	0.099049084
120	0x3d704c51	0.05866653
121	0x3db0ee86	0.08639245
122	0xbd933617	-0.07188051
123	0xbd3612d4	-0.04445155
124	0xba83fd43	-0.0010069985
125	0x3da1b998	0.07896727
126	0xbd5de8a4	-0.05417694
127	0xbdc628d3	-0.09675755
128	0x3db469ed	0.08809266
129	0x3d1df43c	0.038563
130	0x3dd578e5	0.104234494
131	0x3d852188	0.06500536
132	0xbc91c42c	-0.017793737
133	0xbe13ed6e	-0.14446041
134	0xbda69d7a	-0.08135505
135	0x3bb4b9ad	0.0055152983
136	0x3dbcd4ef	0.09220301
137	0xbda23943	-0.07921078
138	0xbddbb0bd	-0.107270695
139	0xbcc48007	-0.02398683
140	0x3d999ba2	0.07500388
141	0xbd8fbf33	-0.0701889
142	0xbbcf90a5	-0.0063343816
143	0x3d572007	0.052520778
144	0xbde38dd5	-0.11111037
145	0xbcf95314	-0.030435123
146	0xbe06d7c4	-0.13168246
147	0xbdfafb33	-0.12254944
148	0x3e25d2a9	0.16193642
149	0xbe0ffdb0	-0.14061618
150	0xbd867e8d	-0.065671064
151	0x3dcd1748	0.10014206
152	0xbdfb40fe	-0.12268256
153	0xbd0bae9f	-0.03410208
154	0x3d18f7ac	0.037345573
155	0xbd66faad	-0.056391407
156	0xbe382c34	-0.17985612
157	0xbd4b1158	-0.049577087
158	0xbd87925f	-0.06619715
159	0x3d0a80ae	0.033814125
160	0xbde8ddc4	-0.113704234
161	0x3d66723f	0.056261297
162	0xbd93239a	-0.07184525
163	0xbe2990fc	-0.16559213
164	0xbd55c6bf	-0.052191492
165	0xbdbb54d7	-0.09147041
166	0xbd192a8c	-0.03739409
167	0xbcd48f13	-0.02594713
168	0x3e1d6a73	0.15372638
169	0x3d9d24cc	0.07673034
170	0xbe1a4a59	-0.15067424
171	0x3d8e5617	0.06950014
172	0x3d86bebc	0.065793484
173	0x3cd967c8	0.026538745
174	0x3d729046	0.05921962
175	0xba3f60a7	-0.0007300474
176	0xbc294fd8	-0.010333978
177	0xbdceaf08	-0.10091978
178	0x3ccab1f6	0.024743062
179	0xbd81ee09	-0.0634423
180	0x3dce6d9f	0.10079502
181	0x3d8f8a30	0.07008779
182	0xbe12e909	-0.14346708
183	0x3cdc97ea	0.026927907
184	0xbdd10986	-0.102068946
185	0x3dae5910	0.08513081
186	0xbda9819e	-0.08276676
187	0x3d01fa5c	0.031732902
188	0x3cbedd05	0.02329875
189	0x3cd918d7	0.026501102
190	0xbd5176ad	-0.05113857
191	0x3e1d58f6	0.15365967
192	0xbe1133a2	-0.14179853
193	0x3df0d03f	0.1175847
194	0x3d80f086	0.06295876
195	0xbdd06084	-0.10174659
196	0xbd22c967	-0.039742853
197	0xbcd072b5	-0.025445322
198	0x3ddf6848	0.10908562
199	0xbd00c89b	-0.031441312
200	0x3c469b32	0.012121962
201	0x3d41a8e5	0.04728021
202	0x3c10df54	0.008842308
203	0xbe007fc6	-0.12548742
204	0xbe171acc	-0.14756316
205	0xbd8d3b3d	-0.068960644
206	0xbcb20130	-0.021729082
207	0xbcde9fa7	-0.027175738
208	0x3e217191	0.15765978
209	0x3d8aa25a	0.06769247
210	0x3dc2f426	0.09519224
211	0x3dff94b4	0.12479535
212	0xbcce7d0e	-0.025206115
213	0x3d80890c	0.062761396
214	0xbc7adcb1	-0.015311406
215	0x3dce2c69	0.10067064
216	0x3d3ef19c	0.046617135
217	0xbdb2fd2e	-0.087396964
218	0x3dfe7c43	0.12426045
219	0x3d088981	0.03333426
220	0x3d90ebaf	0.07076203
221	0x3d21c620	0.039495587
222	0xbd9ff0b8	-0.07809585
223	0x3d9c2ad3	0.076253556
224	0xbe315b65	-0.1732002
225	0x3db37d30	0.08764112
226	0x3d18900c	0.03724675
227	0x3e58e480	0.21180916
228	0xbdd577dc	-0.10423252
229	0x3d89e799	0.06733627
230	0x3da1c2e2	0.07898499
231	0x3e325ed4	0.17418987
232	0x3d1fd258	0.03901896
233	0x3e365c68	0.17808688
234	0x3dda2fb2	0.106536284
235	0x3e0b6c4e	0.13615534
236	0x3d0708fb	0.03296755
237	0x3d142b47	0.036174085
238	0x3c81daec	0.01585146
239	0xbdffe236	-0.12494318
240	0xbdd68b8a	-0.10475834
241	0x3e37078b	0.17873971
242	0xbe298036	-0.16552815
243	0x3d1912ee	0.03737157
244	0xbd2b1b7c	-0.041774258
245	0xbe406b56	-0.18790945
246	0x39ade24d	0.0003316574
247	0xbda04d82	-0.078272834
248	0x3c862c7a	0.01637863
249	0xbd1387a4	-0.03601803
250	0xbdf052ca	-0.11734541
251	0x3d9d56e4	0.07682589
252	0x3bde5518	0.0067850463
253	0x3d996e59	0.0749175
254	0xbdcc129d	-0.09964488
255	0x3e0c20e3	0.1368442

encoder.layers.0.self_attn.out_proj.bias f4 [32]
0	0xba77f0c7	-0.0009458181
1	0xbc0ebdcb	-0.008712242
2	0xbc54e880	-0.012994885
3	0xbbd200cc	-0.0064087864
4	0xbb77a43a	-0.0037787096
5	0x3b4e7bcb	0.0031506892
6	0x3c503f3f	0.012710392
7	0xbb650d9f	-0.0034950746
8	0xbc12e322	-0.0089652855
9	0xbabe2160	-0.0014505796
10	0x3c32d86e	0.010915859
11	0xbaa816a6	-0.0012824133
12	0x3b2275ae	0.002478938
13	0x3cbf6a53	0.023366129
14	0xbb48d1c5	-0.003064261
15	0x396c3e88	0.00022530009
16	0xbb95fccd	-0.0045772553
17	0x3acfd048	0.0015854919
18	0xbc889459	-0.0166723
19	0x3bd28af4	0.006425256
20	0x3c8b0d9d	0.016974265
21	0x3bca4b21	0.006173507
22	0x3c909640	0.01764977
23	0xbc7a3cab	-0.015273253
24	0x3c2cf090	0.010555401
25	0x3c236d5e	0.009974806
26	0xba810607	-0.0009843715
27	0xbae6801b	-0.0017585786
28	0xbc0f38ac	-0.008741539
29	0xbc6d0b68	-0.0144680515
30	0xbb1fe0a9	-0.0024395382
31	0xbc7000ae	-0.0146486

encoder.layers.0.linear1.weight f4 [128, 32]
0	0xbd9909bc	-0.0747256
1	0x3d72d111	0.059281413
2	0xbe066b92	-0.13126972
3	0x3c1beecc	0.009517383
4	0xbd28a1af	-0.04116982
5	0x3dda8c70	0.106713176
6	0xbacca8ae	-0.0015614235
7	0xbd23067b	-0.039801102
8	0xbe33996d	-0.17538996
9	0x3deea387	0.11652284
10	0x3dcc4c51	0.09975494
11	0xbe010c46	-0.12602338
12	0x3e00a2d9	0.12562121
13	0xbde22c66	-0.110436246
14	0xbda22878	-0.07917875
15	0xbd82ddc6	-0.06389956
16	0x3df1b208	0.11801535
17	0x3e2cfd86	0.16893587
18	0x3cb8b944	0.022549279
19	0x3e301f4b	0.17199437
20	0xbe4a9ef7	-0.19787203
21	0x3dff00fc	0.1245136
22	0x3d18ea68	0.037332922
23	0x3d8a8f34	0.06765595
24	0xbe08d65b	-0.1336302
25	0x3d1b1a73	0.03786702
26	0xbc13f44a	-0.009030411
27	0x3d8ff620	0.070293665
28	0x3dca7365	0.09885291
29	0x3dc5e13e	0.09662102
30	0xbde51d94	-0.11187282
31	0xbd825ee3	-0.063657545
32	0xbde44bb7	-0.11147254
33	0x3cf2f2a4	0.029656716
34	0x3dd04ab4	0.101704985
35	0xbd839bb0	-0.064261794
36	0xb812b920	-3.4981524e-05
37	0x3dacbb68	0.084341824
38	0xbd77245f	-0.06033742
39	0x3ca3b4f4	0.019983746
40	0xbd8d1248	-0.068882525
41	0xbdf07080	-0.11740208
42	0x3cfc27fb	0.030780783
43	0x3c803364	0.015649505
44	0x3e4c809a	0.19970933
45	0xbe0d0366	-0.13770828
46	0xbc9692b9	-0.01838051
47	0xbdb1274f	-0.08650076
48	0x3d4b7a0d	0.049676944
49	0x3e3e9550	0.18611646
50	0x3ba9723a	0.0051710876
51	0xbdf05174	-0.11734286
52	0xbe10edea	-0.14153257
53	0xbcd5e128	-0.02610834
54	0xbe2c325d	-0.16816087
55	0x3e5ede8f	0.21764587
56	0x3c564a0e	0.013079179
57	0xbe3f9c77	-0.1871203
58	0xbda7c299	-0.081914134
59	0x3b8842f8	0.004158374
60	0xbdb647f9	-0.089004464
61	0x3e22c60b	0.1589586
62	0x3ccf5fc7	0.025314225
63	0x3dd35a26	0.10319929
64	0xbdfcc34f	-0.1234194
65	0xbb8009b8	-0.0039074086
66	0x3d2f44fd	0.0427904
67	0x3da7c01f	0.08190941
68	0xbe264d06	-0.1624032
69	0x3da6f765	0.081526555
70	0xbe307a78	-0.17234218
71	0x3d44feaf	0.048094448
72	0x3e438992	0.19095448
73	0xbe00d34d	-0.12580605
74	0xbdf84000	-0.12121582
75	0x3e364ff1	0.17803933
76	0xbde76af3	-0.11299696
77	0xbc800783	-0.015628582
78	0xbd6dea4a	-0.058084764
79	0xbda16b25	-0.07881764
80	0x3d9f89c1	0.07789946
81	0x3e25e484	0.16200453
82	0x3d48a21c	0.048982725
83	0x3c3e9841	0.01163298
84	0xbe1e1426	-0.15437374
85	0xbd945181	-0.07242108
86	0x3d93cf79	0.07217307
87	0xbdf60cd9	-0.12014169
88	0x3da65e04	0.08123401
89	0x3d9e2b48	0.07723099
90	0x3d5bc852	0.053657837
91	0x3d1451ed	0.036210943
92	0x3e2ac45f	0.16676472
93	0x3e0ba010	0.13635278
94	0x3d480b85	0.04883911
95	0x3e663de1	0.22484542
96	0xbe337db1	-0.17528416
97	0x3ddb6348	0.10712296
98	0x3d9275b4	0.07151356
99	0x3db82bdd	0.08992741
100	0x3d2f1412	0.04274375
101	0xbd67c2d9	-0.056582306
102	0xbe1a99d3	-0.15097742
103	0xbd9d556f	-0.07682311
104	0x3d0a538a	0.033771075
105	0xbd253628	-0.04033485
106	0x3dee8cd5	0.11647955
107	0xbcd9f5c4	-0.026606448
108	0xbcc803c3	-0.024415856
109	0x3c15ac48	0.009135313
110	0xbcd21f77	-0.02564977
111	0xbde0b905	-0.1097279
112	0xbddbf101	-0.10739327
113	0x3dbb40ac	0.091431946
114	0xbc95e2d6	-0.01829664
115	0xbc3db538	-0.01157885
116	0x3e2d8c49	0.16948046
117	0x3cb22396	0.021745484
118	0xbcfe0b77	-0.031011326
119	0xbe0041c7	-0.12525092
120	0x3e35d6f9	0.17757787
121	0xbdbd13e2	-0.09232308
122	0xbdd95eee	-0.106138095
123	0x3e1eebba	0.1551961
124	0x3b559dd1	0.0032595287
125	0xbd57fd84	-0.052732006
126	0x3e19af9c	0.15008396
127	0xbe189d8d	-0.14903851
128	0x3d376d8d	0.04478221
129	0xbdf67d1a	-0.1203558
130	0x3db199fc	0.08671948
131	0xbdde0e72	-0.10842599
132	0x3ce35001	0.02774811
133	0xbcc9d762	-0.024638835
134	0xbda61f8e	-0.08111487
135	0xbe09ad46	-0.13445005
136	0xbd9e9a65	-0.07744292
137	0xbd814089	-0.06311137
138	0xbb8bcd51	-0.004266419
139	0x3d55f88d	0.05223899
140	0x3d68fe3f	0.056883093
141	0xbde3397c	-0.11094949
142	0xbb74a6ef	-0.0037330945
143	0xbdad7766	-0.08470039
144	0xbd0481f3	-0.03235049
145	0x3da765ea	0.081737354
146	0xbe17f656	-0.14840063
147	0x3d91f71d	0.07127211
148	0xbd18def9	-0.03732202
149	0xbd0ff000	-0.03514099
150	0x3dac664a	0.084179476
151	0x3d7eb0e9	0.062180433
152	0x3df4dcd7	0.11956184
153	0x3e14d2b7	0.14533506
154	0x3d0544ed	0.032536436
155	0x3c1886c0	0.009309471
156	0x3d863d18	0.065546215
157	0x3d047db4	0.032346442
158	0x3e04ac5d	0.12956376
159	0xbe189d10	-0.14903665
160	0x3d19d285	0.037554283
161	0xbdee1546	-0.11625151
162	0x3d40e1c5	0.04709031
163	0xbe449cdb	-0.1920046
164	0x3d11e70d	0.035620738
165	0x3dff6c89	0.12471873
166	0xbdf60ba8	-0.12013942
167	0x3d3bc457	0.04584154
168	0xbe0ac104	-0.13550192
169	0xbddc2eda	-0.10751124
170	0xbdc9f4b9	-0.0986113
171	0xbd2fdb83	-0.042933952
172	0x3d9059f3	0.070484065
173	0x3d7aa757	0.061194744
174	0xbde17b2b	-0.110098206
175	0x3dc5b50a	0.09653671
176	0xbd8ec067	-0.069702916
177	0x3d8abca5	0.06774262
178	0xbe1a0051	-0.15039183
179	0x3e05ba8f	0.13059448
180	0xbae4cfb0	-0.0017456915
181	0xbe3f2a4a	-0.18668476
182	0xbd6285d2	-0.055303402
183	0x3e196ee7	0.14983712
184	0xbe06d2e3	-0.13166384
185	0xbe161b2e	-0.14658806
186	0x3df1d5c6	0.11808352
187	0x3ebd6143	0.36988267
188	0x3cfb0b1b	0.030644944
189	0xbe3610ba	-0.17779818
190	0x3e231c9d	0.15928884
191	0x3daf79df	0.08568167
192	0x3d749d20	0.05972016
193	0xbd24b20e	-0.04020887
194	0x3cfe25db	0.03102391
195	0xbdf500ea	-0.11963065
196	0x3dfaec9c	0.12252161
197	0xbcf21036	-0.029548746
198	0x3e35fdab	0.17772548
199	0xbd21bf3e	-0.039489023
200	0xbd9a216f	-0.07525908
201	0xbcee8dee	-0.029120412
202	0xbe0ab361	-0.1354499
203	0x3e066c38	0.1312722
204	0xbd8db1eb	-0.06918701
205	0x3a9a16b1	0.001175603
206	0x3e097218	0.1342243
207	0xbdbbda77	-0.09172528
208	0xbe84acf2	-0.25913197
209	0x3cb921b8	0.022599086
210	0x3e2b52bc	0.1673078
211	0x3d80b3ee	0.06284319
212	0xbd391eb7	-0.045195308
213	0x3df04c7a	0.11733337
214	0x3e2bf145	0.16791256
215	0x3d7d831b	0.06189261
216	0xbe04b68b	-0.1296026
217	0x3dc16576	0.0944318
218	0x3cfcd6a7	0.030864073
219	0xbde6b730	-0.11265409
220	0xbd902faa	-0.07040341
221	0x3e20be21	0.15697528
222	0x3e04916c	0.12946099
223	0xbd6c1dff	-0.057645794
224	0x3d8f6a3d	0.07002685
225	0xbe2262f5	-0.15858062
226	0x3dd08b70	0.101828456
227	0x3e2777e0	0.16354322
228	0x3dbb24df	0.09137892
229	0xbda106b2	-0.07862605
230	0x3dc63a49	0.09679086
231	0x3e17e902	0.14834979
232	0x3e1565c3	0.145896
233	0x3d0defb2	0.03465242
234	0x3e2179dc	0.15769142
235	0xbdbeff61	-0.093260534
236	0x3c5884b6	0.0132152345
237	0x3d5219df	0.051294204
238	0xbd3a0d8e	-0.045423083
239	0xbd899ee0	-0.06719756
240	0x3e354d83	0.1770535
241	0x3e0aee82	0.13567546
242	0xbe127c27	-0.14305173
243	0xbe0104a9	-0.12599434
244	0xbdd70ebe	-0.10500859
245	0xbd9f3411	-0.07773603
246	0x3db676d4	0.089093834
247	0x3d3ee00c	0.046600387
248	0xbb84f82e	-0.0040579056
249	0x3ddbed61	0.10738636
250	0x3e2f077a	0.17092696
251	0xbdc1e880	-0.09468174
252	0xbd64a320	-0.05581963
253	0xbd50bc15	-0.05096062
254	0x3df5e11d	0.120058276
255	0xbe051977	-0.12997995

encoder.layers.0.linear1.bias f4 [128]
0	0xbe034ce6	-0.12822303
1	0x3e008a59	0.12552775
2	0xbe6a7cc8	-0.22899163
3	0xbe0c40d6	-0.13696608
4	0x3daf4962	0.085589185
5	0x3d04b937	0.032403197
6	0x3caa32ab	0.020776113
7	0xbe1ed6fc	-0.15511698
8	0xbe0511dd	-0.12995096
9	0xbe1d2a85	-0.15348251
10	0x3c9ea024	0.01936347
11	0x3c8c8bbf	0.01715648
12	0x3de75e09	0.11297233
13	0xbd69758a	-0.05699686
14	0xbded5bc9	-0.11589772
15	0xbe045a0f	-0.1292498
16	0xbe3564b5	-0.17714198
17	0xbd62b69a	-0.055349924
18	0x3dacdc7a	0.0844049
19	0xbd57e7ba	-0.052711226
20	0x3dd686e4	0.10474947
21	0x3d3d8c99	0.046276662
22	0xbe3b51e4	-0.18292958
23	0xbe419dc1	-0.18907835
24	0x3e0a5539	0.13509072
25	0xbdfeb8da	-0.124376014
26	0xbdc750f3	-0.09732237
27	0xbe1d06eb	-0.1533467
28	0xbe1e6b5d	-0.15470643
29	0x3d73bdb3	0.059507083
30	0x3dbd27bc	0.09236094
31	0xbe039833	-0.12851028
32	0xbd0288e1	-0.03186882
33	0x3c1ff3bb	0.0097627
34	0x3ccd130a	0.025033493
35	0xbdf2e724	-0.11860493
36	0x3dbbf80d	0.09178171
37	0xbdf29a5a	-0.118458465
38	0xbc31fb50	-0.01086314
39	0xbe4408ab	-0.19143932
40	0xbd17d7db	-0.03707109
41	0xbd7691cd	-0.06019764
42	0xbd0e557b	-0.03474949
43	0x3db2a1cb	0.08722266
44	0x3d535093	0.051590513
45	0x3d475fac	0.048675224
46	0xbd9c729e	-0.07639049
47	0xbc8575e3	-0.016291564
48	0x3d1e59e8	0.03865996
49	0x316602e8	3.3471057e-09
50	0xbe33a96b	-0.17545097
51	0x3d7d4902	0.061837204
52	0xbdcccd58	-0.10000104
53	0x3dbb0ae3	0.09132936
54	0x3e0113c7	0.126052
55	0x3ca82311	0.020524533
56	0xbc361358	-0.01111301
57	0x3bf0c2d2	0.007347443
58	0x3d65de66	0.0561203
59	0x3dbac5de	0.091197714
60	0xbcdb33d4	-0.026758112
61	0x3d170549	0.036870275
62	0x3d2b7e87	0.041868713
63	0x3df98397	0.12183302
64	0xbe2f9e15	-0.17150147
65	0x3ac0fcd3	0.0014723785
66	0xbdbacb5b	-0.09120818
67	0xbdd77333	-0.105200194
68	0x3d5cb47f	0.053883072
69	0xbd904f21	-0.07046343
70	0xbe174d53	-0.1477559
71	0xbcae09cf	-0.021244911
72	0x3dbc97d9	0.0920865
73	0x3dbcdb62	0.092215315
74	0xbe40a710	-0.1881373
75	0x3b254b93	0.0025222048
76	0xbd826991	-0.063677914
77	0x3d82984c	0.063767046
78	0x3ded4f52	0.11587395
79	0xbd4dbbff	-0.050228115
80	0xbd8b4474	-0.06800166
81	0xbe3c0f18	-0.18365133
82	0xbda8730d	-0.08225069
83	0xbe3a1b3c	-0.18174452
84	0xbdf7b818	-0.1209566
85	0xbce7bfdb	-0.028289726
86	0xbe015c1f	-0.12632798
87	0xbe1e1b53	-0.15440111
88	0x3d8330ba	0.06405778
89	0xbd87b3b6	-0.06626074
90	0xbe6592e7	-0.2241932
91	0xbe61647d	-0.2201099
92	0x3c01367f	0.007886528
93	0x3ac1aafe	0.0014775691
94	0xbe0af4dc	-0.13569969
95	0x3dea1a7f	0.11430835
96	0x3debfc22	0.115227
97	0x3d6f36f8	0.05840203
98	0xbe0b2c7b	-0.13591187
99	0xbd39ad2c	-0.045331165
100	0x3c8d6b9a	0.017263222
101	0xbde20f63	-0.11038091
102	0xbdc0f61e	-0.09421943
103	0xbbf396a3	-0.007433729
104	0x3dd782f4	0.10523024
105	0x3d018d11	0.031628672
106	0xbe2f7326	-0.1713377
107	0xbda57f9f	-0.080809824
108	0xbe48cc95	-0.19609292
109	0x3c9ef803	0.01940537
110	0xbdbbe01d	-0.091736056
111	0xbcf96ee0	-0.030448377
112	0x3dcc24de	0.09967969
113	0xbd23971c	-0.03993903
114	0xbe9a2e3b	-0.30113396
115	0x3d4138e8	0.04717341
116	0xbe1759a3	-0.14780287
117	0xbe46ccad	-0.19414015
118	0x3d55898d	0.05213313
119	0xbe26481d	-0.16238447
120	0xbcb453b2	-0.022012565
121	0xbd4b80eb	-0.049683493
122	0x3d1855f0	0.03719133
123	0x3da630c2	0.081147686
124	0x3e2163c7	0.15760718
125	0x3d54ecd3	0.051983666
126	0xba9f7468	-0.0012165429
127	0x3d14162d	0.03615396
