models/Proposed/proton_0.pt (torch, 167647 bytes, 35 tensors)

emb.layers.0.weight f4 [128, 20]
0	0xbd20a507	-0.039219882
1	0x3d519306	0.051165603
2	0x3de98d01	0.114038475
3	0x3e7665ab	0.24062221
4	0x3e286e1e	0.16448256
5	0x3e0b67f3	0.13613872
6	0x3e47045d	0.19435258
7	0x3d2d3495	0.042286474
8	0x3d73e32a	0.059542812
9	0x3dff1e6f	0.124569766
10	0xbe636b39	-0.22208871
11	0x3bf232b8	0.0073913
12	0x3c9071ee	0.01763245
13	0x3e1560f8	0.14587772
14	0xbd4c7ebe	-0.04992556
15	0xbe3b7c21	-0.1830907
16	0x3d9ff2ce	0.07809983
17	0xbe747129	-0.23871292
18	0xbd137983	-0.036004554
19	0xbe21e6dc	-0.15810722
20	0xbc196d24	-0.0093644
21	0xbeaf382f	-0.34222552
22	0x3e8f3691	0.27971318
23	0xbd195bc3	-0.037441026
24	0xbe0852f2	-0.13312891
25	0xbd726928	-0.059182316
26	0xbdd82975	-0.10554782
27	0xbdac8193	-0.08423152
28	0xbe135c5d	-0.14390703
29	0x3e203f89	0.15649237
30	0x3dbab319	0.091161914
31	0xbe64e4a5	-0.22352846
32	0x3e569e28	0.2095877
33	0x3dffda0f	0.12492763
34	0x3b3117f4	0.0027022334
35	0xbdbc78c5	-0.092027225
36	0x3e78e426	0.24305782
37	0x3e6b0eb5	0.22954829
38	0x3d84525c	0.06461021
39	0x3e32b2f8	0.17451084
40	0x3d894734	0.06703034
41	0x3d9b7a34	0.07591668
42	0xbec1bd8e	-0.3783993
43	0x3dcf3abd	0.10118625
44	0xbc8ff12b	-0.017571053
45	0xbcc8395c	-0.024441414
46	0xbe3fa30d	-0.18714543
47	0x3d2221c4	0.039582983
48	0x3e2f1251	0.17096831
49	0xbdcc1784	-0.09965423
50	0xbdc69373	-0.096960925
51	0x3decd191	0.11563409
52	0x3e08a567	0.13344346
53	0x3defc1b5	0.117068686
54	0x3d8e82bc	0.06958529
55	0xbe49e7d9	-0.19717349
56	0xbc6999d9	-0.014257872
57	0x3c807a78	0.015683398
58	0x3dd5449d	0.104134776
59	0x3bfc79c3	0.007704945
60	0xbceae51b	-0.0286737
61	0x3c8e4eb9	0.017371522
62	0x3da17f0c	0.078855604
63	0xbe332634	-0.17495042
64	0x3c84e906	0.016224395
65	0xbe60a75c	-0.21938843
66	0x3dea0538	0.11426777
67	0xbcb78392	-0.022401605
68	0x3dd734aa	0.10508092
69	0xbe0b1e52	-0.13585785
70	0xbe602b2d	-0.2189147
71	0xbd6968ed	-0.05698483
72	0xbe4a1b1b	-0.19736902
73	0xbe5d66ce	-0.21621248
74	0x3d4ba59b	0.04971848
75	0xbcdc15b0	-0.02686581
76	0x3bc6fda0	0.006072715
77	0x3e75a62b	0.2398917
78	0xbe42bfb4	-0.19018441
79	0xbe84e404	-0.25955212
80	0x3e53f561	0.20699073
81	0x3dccf61f	0.100078814
82	0xbe1a7ded	-0.150871
83	0xbe60856f	-0.21925901
84	0xbc7dbc2e	-0.01548676
85	0x3a4f3a05	0.0007905069
86	0xbda4e0b0	-0.08050668
87	0xbcd33895	-0.025783816
88	0x3d8d7182	0.069064155
89	0xbd1ba659	-0.03800044
90	0x3d75956f	0.059956964
91	0xbe1b9def	-0.15196966
92	0xbe64f8a6	-0.22360477
93	0xbcb0c79c	-0.021579556
94	0xba9b0347	-0.0011826538
95	0xbe760cb2	-0.2402828
96	0xbe58e591	-0.21181323
97	0x3d8ff8be	0.07029866
98	0x3d9fec33	0.07808723
99	0xbcd5cbc7	-0.026098145
100	0x3e43e2fc	0.19129556
101	0xbeaf8572	-0.34281498
102	0xbeaf9a3b	-0.34297356
103	0x3d7f576b	0.062339228
104	0x3d417d1b	0.04723845
105	0xbd1db1ec	-0.038499758
106	0xbcbab58d	-0.022791648
107	0xbe1b5cb3	-0.1517208
108	0xbe010223	-0.12598471
109	0x3e5c47aa	0.21511713
110	0xbd50997e	-0.05092763
111	0xbd0a31b4	-0.033738807
112	0x3e0151bd	0.12628837
113	0xbe2ebd27	-0.17064343
114	0xbd9d0bb9	-0.076682515
115	0x3ded7326	0.115942284
116	0x3e05575d	0.13021608
117	0x3d3ffd11	0.046872202
118	0x3dd18520	0.1023047
119	0x3d173871	0.03691906
120	0xbcb0396c	-0.021511756
121	0xbd8a4435	-0.06751291
122	0xbd8f5436	-0.06998484
123	0x3e51a5c0	0.20473385
124	0xbe8b1554	-0.2716471
125	0x3d152898	0.036415666
126	0xbd8b9a88	-0.06816584
127	0xbe892bad	-0.26791134
128	0x3e66d42c	0.22541875
129	0xbe9fd613	-0.31218013
130	0xbd492710	-0.04910952
131	0x3d79d61c	0.060995206
132	0x3db8a24e	0.09015332
133	0x3e150527	0.14552747
134	0xbe1843a6	-0.14869556
135	0xbc97c8c8	-0.018528357
136	0x3c0b8660	0.008515924
137	0x3dd56741	0.10420085
138	0x3e3b612d	0.18298788
139	0xbdfff8b3	-0.124986075
140	0x3d8da11a	0.06915493
141	0x3c287cd2	0.010283666
142	0x3e548a58	0.20755899
143	0xbe16c48f	-0.14723419
144	0x3dd97eb7	0.10619872
145	0xbcd8e398	-0.026475713
146	0xbd28e140	-0.04123044
147	0x3c435fdd	0.011924711
148	0xbe1958ea	-0.14975324
149	0xbd3a7d23	-0.045529496
150	0xbe9e31f1	-0.30897477
151	0x3d567301	0.05235577
152	0x3c2503d8	0.010071717
153	0x3b4ba366	0.0031072735
154	0xbebc48c4	-0.36774266
155	0xbe4550af	-0.1926906
156	0x3de511ad	0.11185012
157	0x3d81a8d8	0.063310325
158	0x3dd355ba	0.103190854
159	0xbe8d040f	-0.2754216
160	0x3d5dd95a	0.05416236
161	0xbe09b44d	-0.13447686
162	0xbe1ced16	-0.15324816
163	0xbe395bc3	-0.1810141
164	0x3cc32cd1	0.023825081
165	0x3e0a22f5	0.13489898
166	0xbdcae270	-0.09906471
167	0xbd354d62	-0.04426325
168	0xbdad825f	-0.08472132
169	0xbd9f1370	-0.07767379
170	0xbe194d91	-0.14970995
171	0xbe68f795	-0.22750695
172	0xbe3738d7	-0.17892776
173	0x3bede874	0.0072603766
174	0x3e729d8d	0.23692913
175	0xbe5ea796	-0.21743616
176	0x3e03b15c	0.12860626
177	0x3d17e9a3	0.037088048
178	0x3e699fe8	0.22814906
179	0xbe870176	-0.26368302
180	0xbedf70bc	-0.43640697
181	0x3dffc87c	0.12489411
182	0x3e227b59	0.15867366
183	0x3dd64d80	0.10464001
184	0x3e7edfc1	0.24890043
185	0xbeb4688d	-0.35236016
186	0xbe9e3c31	-0.30905297
187	0xbe440130	-0.19141078
188	0xbe4ed403	-0.20198064
189	0xbdb6c1cd	-0.08923683
190	0x3d8e4775	0.06947223
191	0x3e26b42e	0.1627967
192	0x3ce9174d	0.028453493
193	0x3e6a56f6	0.22884735
194	0xbd850360	-0.06494784
195	0x3df060f2	0.11737241
196	0x3e2d382f	0.16915964
197	0x3db1310b	0.08651932
198	0x3dae2f74	0.08505145
199	0x3dc9a851	0.09846557
200	0xbddaf770	-0.10691726
201	0x3e2bae6f	0.1676576
202	0xbd627eee	-0.05529683
203	0x3dc5f0aa	0.09665044
204	0xbd819a87	-0.06328302
205	0x3db2f47d	0.08738039
206	0xbd9ee530	-0.07758558
207	0xbd17e970	-0.037087858
208	0xbc02411d	-0.0079500945
209	0xbd1e8403	-0.038700115
210	0x3e0da13c	0.13831037
211	0x3e6f36fb	0.23360817
212	0x3e2ed456	0.17073187
213	0xbd3e49a5	-0.04645695
214	0xbe09361a	-0.13399544
215	0x3e014b57	0.12626396
216	0x3dd1cf81	0.10244656
217	0xbeb4d894	-0.35321486
218	0x3e5d2f2c	0.21600026
219	0x3e52fe4a	0.20604816
220	0xbe298c7c	-0.16557497
221	0xbe7abc3b	-0.24485867
222	0xbe3bb139	-0.18329324
223	0x3e04b4e5	0.12959631
224	0xbe23a7ec	-0.15982026
225	0xbd9305e2	-0.071788564
226	0xbd189543	-0.037251722
227	0x3d6ae427	0.05734649
228	0xbe310a03	-0.17288975
229	0xbcb3fcf8	-0.02197121
230	0x3e40b0a7	0.18817388
231	0x3e640672	0.22268084
232	0x3d0ed3fa	0.034870125
233	0x3e13a692	0.1441901
234	0xbe57989a	-0.21054307
235	0xbe3dacbe	-0.18522927
236	0x3e045c25	0.12925775
237	0xbe00123b	-0.12506954
238	0xbe50a02b	-0.20373599
239	0x3e62074b	0.22073095
240	0xbdf1cc12	-0.118065014
241	0x3baf2809	0.0053453487
242	0x3dc44840	0.09584093
243	0xbe448ef3	-0.19195156
244	0x3e59fe52	0.21288422
245	0x3e5eeaef	0.21769308
246	0x3e4557fe	0.19271848
247	0xbe2280fb	-0.15869515
248	0xbccba8ec	-0.024860822
249	0x3e12e462	0.14344934
250	0x3d107021	0.035263184
251	0x3d70a475	0.05875059
252	0xbd95f39b	-0.07321855
253	0xbdf11df5	-0.11773292
254	0xbea91625	-0.33024707
255	0x3e5686e8	0.209499

emb.layers.0.bias f4 [128]
0	0x3d0eca19	0.034860704
1	0x3da67911	0.0812856
2	0x3e32163f	0.17391299
3	0xbe675994	-0.22592765
4	0x3db75ce7	0.089532666
5	0x3de56696	0.11201207
6	0xbddd951a	-0.108194545
7	0x3cf6a76c	0.03010913
8	0x3d8d49f5	0.06898872
9	0xbe26cfd9	-0.16290225
10	0x3d0d42f6	0.034487687
11	0xbe947fc3	-0.29003724
12	0x3d4b0263	0.049562823
13	0xbcbaae9b	-0.022788337
14	0x3e30edcd	0.17278214
15	0x3e5c7c6e	0.21531841
16	0xbe386810	-0.18008447
17	0xbc5495b9	-0.01297515
18	0x3dbd9569	0.09257013
19	0xbe28e7d7	-0.1649469
20	0x3e1eb40b	0.15498368
21	0x3e3be9a8	0.18350852
22	0xbd8f9115	-0.07010094
23	0xbe09625f	-0.13416432
24	0x3d1f75d0	0.038930714
25	0x3daec692	0.08533968
26	0x3df00ffc	0.11721799
27	0xbe0318f5	-0.12802489
28	0x3cfaf529	0.03063448
29	0xbdc3332c	-0.09531245
30	0x3e010e2f	0.12603067
31	0xbe54d3b8	-0.2078389
32	0xbe01c839	-0.12674035
33	0x3d701fcb	0.05862407
34	0xbd869b6a	-0.06572612
35	0x3df9d3ee	0.121986255
36	0xbe4247dd	-0.18972726
37	0xbe0d5e04	-0.13805395
38	0x3de4c73c	0.111708134
39	0xbd2c9c0e	-0.042141013
40	0xbe016006	-0.12634286
41	0xbe1c88e4	-0.15286595
42	0xbdaea3e5	-0.08527354
43	0xbdfb9456	-0.12284152
44	0xbdb11ed7	-0.0864846
45	0xbd6056c9	-0.054770265
46	0x3d38fc39	0.045162413
47	0xbe1965d0	-0.14980245
48	0xbe3cc89c	-0.18435901
49	0xbdc3c5b3	-0.095591925
50	0x3e466a3e	0.19376466
51	0xbd4f8141	-0.050660376
52	0xbe5e59a5	-0.21713884
53	0x3d63bc57	0.055599537
54	0x3e0daae2	0.13834718
55	0x3ded9173	0.11600008
56	0x3e2e4ada	0.17020741
57	0xbd195812	-0.037437506
58	0x3d0fde0d	0.035123874
59	0xbe34c0c2	-0.17651656
60	0x3c7901fd	0.015198228
61	0x3ccd6c4a	0.02507605
62	0x3dc325c3	0.09528687
63	0xbe46ecb9	-0.1942624
64	0xbe26a581	-0.16274072
65	0xbdc4b84b	-0.096054636
66	0x3c04f19c	0.008114245
67	0xbe2a4e6d	-0.1663148
68	0xbd94db4c	-0.0726839
69	0xbda07883	-0.07835486
70	0x3d4b7492	0.049671717
71	0x3e00df01	0.12585069
72	0xbda64ab5	-0.08119718
73	0x3c688ae8	0.014193274
74	0xbd05262d	-0.03250711
75	0x3dcf2969	0.1011532
76	0xbdee6bae	-0.11641632
77	0xbe06353c	-0.13106245
78	0x3dd488d1	0.10377658
79	0xbdf16651	-0.117870934
80	0x3e223c7f	0.1584339
81	0x3ddebbb2	0.10875644
82	0xbd9712b1	-0.07376612
83	0x3e461011	0.19342066
84	0xbdb4a4fb	-0.0882053
85	0xbe68d74d	-0.2273838
86	0xbd0a250f	-0.033726748
87	0xbd88fb8b	-0.06688603
88	0x3db011cb	0.08597144
89	0xbdf8fdf2	-0.12157811
90	0xbcb08887	-0.021549476
91	0x3cfab12b	0.030602058
92	0xbd9ad794	-0.075606495
93	0xbe2fd6e5	-0.1717182
94	0xbd9a5bd1	-0.07537044
95	0x3d4b4d71	0.0496344
96	0xbe78f61c	-0.24312633
97	0x3e3004dd	0.17189355
98	0xbd66792f	-0.056267913
99	0xbe551501	-0.20808794
100	0xbe36389a	-0.1779503
101	0xbca5c2a6	-0.020234417
102	0x3dabc758	0.08387631
103	0xbdc2c96c	-0.095110744
104	0xbe283ec4	-0.16430193
105	0x3d59e0d6	0.053192936
106	0x3cee731e	0.029107627
107	0xbd8a7394	-0.06760326
108	0xbe3b0407	-0.18263255
109	0x3bc936b1	0.006140553
110	0x3d96aaef	0.07356822
111	0xbd70c023	-0.058776986
112	0x3d91400a	0.070922926
113	0x3d47f57d	0.0488181
114	0x3e50f744	0.20406824
115	0xbdbbc6af	-0.09168755
116	0xbe0f463c	-0.13991636
117	0x3e34ddba	0.17662707
118	0x3d873fca	0.06603964
119	0xbdff13c7	-0.12454944
120	0xbd8d03df	-0.06885504
121	0xbdd521ff	-0.10406875
122	0x3cebb3e5	0.028772304
123	0x3e5801ef	0.21094488
124	0x3d94cdc7	0.072658114
125	0xbcf5ed04	-0.030020244
126	0x3d804ba4	0.06264427
127	0xbc915454	-0.017740406

emb.layers.2.weight f4 [32, 128]
0	0xbc5a8a03	-0.013338569
1	0xbdda89f9	-0.106708474
2	0x3c31cf64	0.010852668
3	0xbda1d076	-0.07901089
4	0xbc78d8bc	-0.015188392
5	0xbdaea962	-0.08528401
6	0xbd29bab3	-0.041437816
7	0x3d9acdc1	0.07558776
8	0x3c0c2c57	0.008555493
9	0x3dfb2038	0.122620046
10	0xbc97cbd5	-0.018529812
11	0xbca6fe0a	-0.020384807
12	0x3d09a210	0.03360182
13	0xbccdc834	-0.025119878
14	0xbd43174d	-0.047629643
15	0xbd4f315a	-0.050584175
16	0x394f14f8	0.0001974887
17	0xbdab2af0	-0.08357799
18	0xbd1dfaf7	-0.038569417
19	0xbcf0231c	-0.029313616
20	0xbc2b3c2e	-0.01045136
21	0x3cf4d932	0.029888723
22	0xbd801cb3	-0.06255474
23	0x3d19b11f	0.03752243
24	0xbd353748	-0.044242173
25	0x3cc5a7f7	0.024127943
26	0xbc9a0c95	-0.018804828
27	0x3dfd70b7	0.12375014
28	0x3d62e824	0.055397168
29	0xbccb91f6	-0.024849873
30	0x3a9e28ca	0.00120666
31	0x3e7d14dd	0.2471499
32	0x3ce5b145	0.02803863
33	0x3d741248	0.059587747
34	0xbe025a06	-0.12729654
35	0x3da8d71b	0.08244153
36	0xbc17c39e	-0.009262947
37	0x3d6119ac	0.054956123
38	0x3d9974f3	0.074930094
39	0x3cf2f0e0	0.029655874
40	0x3b281d31	0.0025652165
41	0xbca2bbf9	-0.019865023
42	0xbdedcc46	-0.11611228
43	0x3ca9d4a2	0.020731274
44	0x3dc26a01	0.09492875
45	0x3dd92e4b	0.10604533
46	0xbcd3202e	-0.02577218
47	0x3d65e3c0	0.056125402
48	0x3da1b1b1	0.0789522
49	0xbda16f30	-0.078825355
50	0x3d75f258	0.06004557
51	0xbd4b5bd6	-0.04964813
52	0x3e4be01e	0.19909713
53	0x3d1b1159	0.03785834
54	0xbd8d3b3e	-0.06896065
55	0xbd1589be	-0.036508314
56	0x3d8fd036	0.07022135
57	0xbdd02448	-0.1016317
58	0x3d3f2b4c	0.04667215
59	0x3d7d6fa4	0.061874047
60	0xbd267b37	-0.04064485
61	0x3d44c513	0.048039507
62	0x3e0ee141	0.13953115
63	0x3d90dbe0	0.07073188
64	0x3ca85dcd	0.02055254
65	0xbbd6c973	-0.0065547763
66	0x3ca0b1f1	0.0196161
67	0xbe11a804	-0.14224249
68	0x3e06773b	0.1313142
69	0xbd551e0c	-0.052030608
70	0xbd24bfb9	-0.040221903
71	0xbd149f95	-0.036285
72	0xbd966a07	-0.07344442
73	0x3cc018a6	0.023449253
74	0x3d1e612f	0.0386669
75	0x3d8ca7cc	0.06867942
76	0xbdf15877	-0.117844515
77	0x3d68f75d	0.05687653
78	0x3c9b9060	0.018989742
79	0x3dda3d3e	0.10656212
80	0x3d3aed7e	0.045636646
81	0x3cce6ddc	0.02519887
82	0xbce1890e	-0.027531173
83	0x3d42cbdf	0.047557708
84	0x3e01fe02	0.12694553
85	0xbdc860fc	-0.09784123
86	0xbc0b06fd	-0.008485553
87	0x3d9275bb	0.071513616
88	0x3b1465ca	0.0022643679
89	0xbd507d3c	-0.050900683
90	0x3d4ee8b9	0.05051491
91	0x3d210c60	0.039318442
92	0xbce5aaca	-0.02803554
93	0x3d6177a5	0.055045743
94	0xbca4d5e7	-0.020121528
95	0x3b412fa2	0.0029477854
96	0x3d63c6f4	0.05560966
97	0xbd35a489	-0.044346366
98	0xbb0e4e98	-0.0021714326
99	0xbd733800	-0.059379578
100	0xbd87708e	-0.06613265
101	0x3dcb716b	0.09933742
102	0xbd978d12	-0.07399954
103	0xbad7ee4d	-0.0016474217
104	0x3c090074	0.008361924
105	0xbcf8ffd9	-0.030395435
106	0xbbede26e	-0.0072596585
107	0x3bd5605f	0.0065117325
108	0xbdafbd18	-0.08580989
109	0xbdf280d4	-0.11840978
110	0xbd0f79bd	-0.035028208
111	0x3bc80e28	0.006105203
112	0xbd79bfa4	-0.06097378
113	0xbc01e8f5	-0.007929076
114	0xbd54bdb9	-0.051938746
115	0x3c760525	0.015015875
116	0x3d302028	0.042999417
117	0x3d6a20fc	0.057160363
118	0x3d7e83b4	0.06213732
119	0x3d54fe69	0.052000437
120	0x3d396076	0.045258008
121	0xbc99c97f	-0.018772839
122	0x3cf2726e	0.02959558
123	0x3d69a79c	0.05704461
124	0x3d74f971	0.0598082
125	0xbd8aa497	-0.06769674
126	0xbd1042ad	-0.035219837
127	0xbd0b9668	-0.034078985
128	0x3d6c42ab	0.057680767
129	0xbdc2d591	-0.09513391
130	0x3dbb37e3	0.09141519
131	0xba7b8efd	-0.0009596197
132	0x3dd37a68	0.103260815
133	0x3d466768	0.04843846
134	0xbd2c798b	-0.0421081
135	0xbd919fdb	-0.07110568
136	0xbde3478f	-0.11097633
137	0xbc7d993f	-0.015478431
138	0xbd6ecc75	-0.058300454
139	0x3da811ab	0.08206495
140	0xbd1fd757	-0.039023723
141	0xbb3580aa	-0.0027695098
142	0xbda1125a	-0.078648284
143	0x3d13c6f4	0.03607841
144	0xbddcbdb4	-0.107783705
145	0xbd362b50	-0.0444749
146	0xbc80ff41	-0.015746715
147	0x3d99306b	0.07479938
148	0x3af30021	0.0018539467
149	0xbc39f07f	-0.011348843
150	0x3d2a645d	0.04159962
151	0xbdba2c29	-0.09090454
152	0x3c21f057	0.009883962
153	0x3d708767	0.05872288
154	0x3da1477a	0.07874961
155	0xbd94bb64	-0.072623044
156	0xbd4e2c96	-0.05033549
157	0x3daffb45	0.08592848
158	0x3ceb83f0	0.028749436
159	0xbe120d8f	-0.14262985
160	0xbd859394	-0.06522289
161	0x3da259f5	0.07927314
162	0xbdfb23d6	-0.122626945
163	0xbda4a6ea	-0.08039649
164	0xbd108a8f	-0.03528839
165	0xbde6c3ba	-0.11267801
166	0xbdc64c50	-0.09682524
167	0x3e0b3097	0.13592754
168	0x3d81cd24	0.063379556
169	0x3cff1e2e	0.03114232
170	0x3cb60cae	0.022222843
171	0x3c3b649e	0.011437563
172	0xbdc82cdc	-0.09774181
173	0xbdb78efb	-0.08962818
174	0xbd1d7282	-0.03843928
175	0x3dc5f8f1	0.096666224
176	0xbd6052c8	-0.054766446
177	0xbc4d8777	-0.012544504
178	0x3c4e8bee	0.012606604
179	0xbcba5018	-0.02274327
180	0xbbca5433	-0.006174588
181	0x3d8d343f	0.06894731
182	0xbd8cb56f	-0.06870543
183	0xbb824509	-0.003975515
184	0xbd2eb217	-0.04265031
185	0x3d51cee8	0.05122271
186	0x3d375bab	0.044765156
187	0xbdd2b326	-0.10288076
188	0xbc0e22fd	-0.008675334
189	0x3d14b68f	0.036306914
190	0xbd5a755a	-0.05333457
191	0x3c939709	0.018016355
192	0xbd115757	-0.035483684
193	0x3d62abb4	0.05533953
194	0x3d12613b	0.035737257
195	0x3d992978	0.07478613
196	0xbdf9de6e	-0.12200628
197	0xbd6b7cfe	-0.05749225
198	0x3da9a496	0.082833454
199	0x3d870370	0.065924525
200	0xbe04a112	-0.12952068
201	0xbe1bd18a	-0.15216652
202	0x3d5532c3	0.052050363
203	0x3da16af6	0.07881729
204	0xbda87975	-0.08226291
205	0x3e013f69	0.12621845
206	0x3c801b66	0.015638065
207	0xbceda231	-0.029008003
208	0x3d356024	0.04428114
209	0xbc97f71b	-0.018550446
210	0xbd240dc1	-0.04005218
211	0x3b70eb79	0.0036761446
212	0xbdf4e9a8	-0.11958629
213	0x3d9730f4	0.07382384
214	0xbd2ea4d4	-0.04263766
215	0xbd6e34b0	-0.058155715
216	0xbd85d8d9	-0.06535501
217	0xbced37f7	-0.02895735
218	0xbcd89085	-0.0264361
219	0x3ca9f806	0.02074815
220	0xbd51199b	-0.05104981
221	0xbd953b36	-0.07286684
222	0xbc91a632	-0.017779443
223	0xbc9de4ca	-0.019274134
224	0x3dc35059	0.095368095
225	0x3d7b77aa	0.061393417
226	0xbd0c6a02	-0.034280784
227	0xbc627f55	-0.013824304
228	0x39fb2552	0.00047902256
229	0xbd3567d8	-0.044288486
230	0xbcbec864	-0.023288913
231	0xbe40ed51	-0.18840529
232	0x3e0efc5d	0.13963456
233	0x3db95a32	0.090504065
234	0x3cd10e68	0.025519565
235	0x3d86eac5	0.065877475
236	0xbd24a66a	-0.040197767
237	0x3d9a0001	0.07519532
238	0xbbfe3425	-0.007757681
239	0xbd90e6d0	-0.07075274
240	0xbd9944fd	-0.074838616
241	0x3d44bb56	0.04803022
242	0x3c15882a	0.009126702
243	0xbc512c83	-0.01276696
244	0xbdcb0ad0	-0.09914172
245	0x3cda0305	0.026612768
246	0x3d86b1f0	0.06576908
247	0xbd6538e8	-0.055962473
248	0xbd909985	-0.070605315
249	0x3db34501	0.08753396
250	0xbd986a42	-0.07442142
251	0x3db9c23f	0.090702526
252	0x3c90ddde	0.01768392
253	0xbdb1b404	-0.086769134
254	0x3c9d7c55	0.019224325
255	0xbd095647	-0.033529546

emb.layers.2.bias f4 [32]
0	0xbcb8db22	-0.022565428
1	0xb8bc808d	-8.988483e-05
2	0xbc1adc61	-0.0094519565
3	0xbc2b3ec3	-0.010451975
4	0x3c4fe5d1	0.01268907
5	0xbda1f6db	-0.07908412
6	0xbdb5fd65	-0.08886222
7	0xbd3d1e94	-0.04617174
8	0xbd55b053	-0.05217011
9	0xbda9d610	-0.08292782
10	0xbd9ff003	-0.078094505
11	0x3d99e8a1	0.075150736
12	0xbd670c74	-0.05640836
13	0xbbf73d54	-0.0075451527
14	0xbd52ac30	-0.051433742
15	0x3c8c913a	0.017159093
16	0xbc880c9a	-0.016607571
17	0xbcea346e	-0.028589454
18	0xbd433205	-0.047655124
19	0xbd15884b	-0.036506932
20	0xbc3d8cb9	-0.011569195
21	0x3b26b323	0.0025436364
22	0xbcbf9a8e	-0.023389127
23	0x3d238b88	0.03992799
24	0xbd8e10e7	-0.069368176
25	0xbb0eba0a	-0.0021778368
26	0x3dac148d	0.08402357
27	0x3d134368	0.035952955
28	0x3d5bdad6	0.053675495
29	0x3bcb66b2	0.0062073106
30	0xbd3556b1	-0.04427213
31	0xbccc4efa	-0.024940003

encoder.layers.0.self_attn.in_proj_weight f4 [96, 32]
0	0x3e2dcca5	0.16972597
1	0xbe2617ac	-0.16219968
2	0xbe22cc44	-0.15898234
3	0xbbf26b4d	-0.007398045
4	0xbe4bc43f	-0.1989908
5	0x3e4c78b7	0.19967924
6	0xbe168610	-0.14699578
7	0xbe338799	-0.17532195
8	0xbe0a4c1d	-0.13505597
9	0xbe5d09dc	-0.21585792
10	0xbe2ff69d	-0.17183919
11	0x3dbec0dc	0.09314129
12	0x3dda1e6a	0.10650332
13	0x3e5a84a5	0.21339662
14	0xbe4854b6	-0.19563565
15	0x3d8200d5	0.06347815
16	0xba1e27ba	-0.00060331414
17	0x3d858c36	0.06520884
18	0x3e0bfd70	0.13670897
19	0x3e20ce23	0.15703635
20	0xbe5992e4	-0.2124744
21	0x3ab6087c	0.0013888027
22	0xbdafd60d	-0.08585749
23	0x3db5fe1e	0.0888636
24	0xbd6e9ea4	-0.05825676
25	0x3d08f550	0.033437073
26	0xbca6edba	-0.020377029
27	0x3e555ae7	0.20835458
28	0x3e74bc11	0.23899867
29	0xbd98a3cb	-0.07453116
30	0xbdf7629e	-0.120793566
31	0x3e4c6796	0.1996139
32	0x3e03aff4	0.1286009
33	0xbd776e9d	-0.060408223
34	0x3d2df4b5	0.0424697
35	0xbdda970d	-0.10673342
36	0x3e833d59	0.25632742
37	0xbe5a8186	-0.21338472
38	0x3cbddccf	0.023176579
39	0xbe2480e3	-0.16064791
40	0x3d958130	0.07300031
41	0xbe0041bb	-0.12525074
42	0x3db267f9	0.087112375
43	0x3e186af9	0.14884557
44	0x3dac22fe	0.08405112
45	0x3a541b22	0.00080912013
46	0xbc23cec4	-0.009998027
47	0x3c84b965	0.016201684
48	0x3e6825a5	0.2267061
49	0xbda4af12	-0.080412045
50	0x3d66e61f	0.056371804
51	0x3d3ed476	0.046589337
52	0xbdd2da3f	-0.102955334
53	0x3e5b246d	0.21400614
54	0xbcf7830d	-0.030213857
55	0xbe1c0d56	-0.15239462
56	0xbe1f57d4	-0.15560848
57	0x3e447afc	0.1918754
58	0xbd833eae	-0.064084396
59	0xbe46c2c1	-0.1941023
60	0xbcf069bc	-0.029347293
61	0xbdef6f21	-0.11691118
62	0x3e0f4e7f	0.13994788
63	0xbe32f872	-0.17477587
64	0xbe2f7b20	-0.17136812
65	0x3c148306	0.009064442
66	0xbd30ac7c	-0.043133244
67	0xbdc9e0ad	-0.09857307
68	0xbd2d5165	-0.042313952
69	0x3e308e42	0.17241767
70	0x3e1536cc	0.14571685
71	0x3e6a124b	0.2285854
72	0xbdddfae5	-0.1083887
73	0x3e3045e2	0.17214158
74	0xbe0972e6	-0.13422737
75	0x3e3b80ee	0.18310902
76	0x3cc6b5b4	0.024256565
77	0xbdac9aa9	-0.084279366
78	0xbe2aafd6	-0.16668639
79	0x3e014144	0.12622553
80	0xbe495849	-0.19662584
81	0x3d2c4815	0.04206093
82	0xbd880b89	-0.06642825
83	0x3e70813b	0.23486798
84	0xbe5bee20	-0.21477556
85	0xbdbe4b54	-0.092917114
86	0xbc22c1d1	-0.009933905
87	0xbe2880f9	-0.16455449
88	0xbdc2e0a3	-0.09515502
89	0x3e50aa7b	0.20377533
90	0x3c12a5fb	0.008950706
91	0xbda1deda	-0.07903834
92	0x3e5347b5	0.20632823
93	0x3e36989a	0.1783165
94	0xbe1b2e14	-0.15154296
95	0x3cf364e4	0.029711194
96	0xbd90bf48	-0.07067734
97	0xbd1480c7	-0.036255624
98	0xbe1ddde8	-0.15416682
99	0x3dc98b80	0.09841061
100	0x3e89d9f5	0.269241
101	0xbe3c54b7	-0.18391691
102	0xbd46def8	-0.048552483
103	0xbd82ccea	-0.063867405
104	0x3e3098a1	0.17245723
105	0x3db4ef06	0.088346526
106	0x3e51f3f6	0.2050322
107	0x3e19c7b3	0.15017585
108	0xbd8b7c67	-0.06810837
109	0xbcda911f	-0.026680527
110	0x3e833ec7	0.25633833
111	0x3e39c88b	0.18142907
112	0x3e2c8ed7	0.16851364
113	0x3e37056c	0.17873162
114	0xbe80cb41	-0.2515507
115	0x3e4117c8	0.18856728
116	0x3e1b6fde	0.15179393
117	0x3d0d275a	0.034461357
118	0xbe15273b	-0.14565746
119	0xbd5c4725	-0.053778786
120	0x3dfdeef9	0.12399096
121	0xbe071858	-0.1319288
122	0xbd23b957	-0.039971676
123	0xbdfaf670	-0.122540355
124	0xbcbb0574	-0.022829749
125	0xbe68d1c1	-0.22736265
126	0xbe4e9ef8	-0.2017783
127	0xbd9e6437	-0.07733958
128	0xbe1a8186	-0.15088472
129	0x3de24ae8	0.110494435
130	0x3e6d574d	0.23177834
131	0xbdbe0f96	-0.092803165
132	0xbe360e8e	-0.1777899
133	0xbc4ad694	-0.012380261
134	0xbe3be3fc	-0.18348688
135	0xbdf47020	-0.11935449
136	0xbd82736f	-0.063696735
137	0xbd2fff37	-0.042968
138	0xbe21bf5e	-0.15795657
139	0x3e5e8a19	0.21732368
140	0xbdb23889	-0.087021895
141	0x3ea2b5ce	0.3177933
142	0x3cfb70e6	0.030693483
143	0x3e0ec3b6	0.13941845
144	0xbc3ca0fe	-0.011512993
145	0xbe1d117e	-0.15338704
146	0x3dddc5fc	0.10828778
147	0x3dbdffdf	0.09277319
148	0xbd870b00	-0.06593895
149	0xbdd417c9	-0.10356099
150	0x3df58aff	0.11989402
151	0x3d9da22c	0.076969475
152	0x3c277855	0.0102215605
153	0x3e23a958	0.15982568
154	0x3d1027d7	0.035194244
155	0x3d4cc567	0.049992945
156	0x3ea49cf1	0.32150987
157	0xbd98a3d6	-0.07453124
158	0xbde9d8e6	-0.11418323
159	0xbd492b17	-0.04911336
160	0xbd6c302e	-0.057663135
161	0x3cffd5d9	0.0312299
162	0x3df45cb9	0.11931748
163	0xbd8d5db7	-0.0690264
164	0x3dc59f77	0.09649556
165	0x3e1b2077	0.15149103
166	0xbd3a2794	-0.0454479
167	0xbd116e1e	-0.035505407
168	0xbd9e4b57	-0.07729214
169	0x3e1ec73e	0.15505692
170	0x3ddf9743	0.10917523
171	0xbe901d15	-0.28147188
172	0x3d01ab2e	0.03165739
173	0xbdc92028	-0.098205864
174	0x3e354ad2	0.17704323
175	0xbe16878d	-0.14700146
176	0x3e8a08d4	0.2695986
177	0x3e4e9602	0.20174411
178	0xbe56aad3	-0.20963602
179	0x3de74416	0.11292283
180	0xbe077d45	-0.1323138
181	0x3dec128b	0.11526974
182	0x3d9a95e7	0.07548123
183	0xbe47b21c	-0.19501537
184	0xbe568c37	-0.20951925
185	0xbdc1ca40	-0.09462404
186	0xbe520c7b	-0.20512573
187	0xbe740f73	-0.23834018
188	0x3ce7af50	0.028281838
189	0xbe833a33	-0.2563034
190	0x3e48f7c0	0.19625759
191	0xbe55fafa	-0.20896521
192	0x3dec57c0	0.115401745
193	0xbd8ca572	-0.06867494
194	0xbe06576e	-0.1311929
195	0x3c80fca6	0.015745472
196	0x3e0ec43c	0.13942045
197	0x3e666b2d	0.22501822
198	0x3dbe4fe0	0.09292579
199	0x3e5141da	0.20435277
200	0xbe7c7d4b	-0.2465717
201	0xbdcee009	-0.10101325
202	0xbe7070e1	-0.2348056
203	0x3d9c8301	0.076421745
204	0xbda0d905	-0.07853893
205	0x3e773132	0.2413986
206	0x3de1c460	0.11023784
207	0x3dab46c6	0.08363108
208	0xbe225456	-0.15852484
209	0xb930b7b2	-0.000168531
210	0xbdbe4824	-0.092911035
211	0xbddd8c05	-0.10817722
212	0xbda6afff	-0.08139037
213	0xbe53d163	-0.20685343
214	0xbe08f7fd	-0.1337585
215	0xbdb27836	-0.08714335
216	0x3e5ef180	0.21771812
217	0x3e82ff27	0.2558529
218	0x3e11a42a	0.1422278
219	0x3e9a27bf	0.3010845
220	0x3e3b896e	0.18314144
221	0x3e628540	0.22121143
222	0xbd95056a	-0.07276423
223	0x3d8bd6ed	0.06828103
224	0x3e3ee4c7	0.18641959
225	0x3e10a844	0.14126688
226	0xbe048990	-0.12943101
227	0xbda73c94	-0.08165851
228	0xbe2d32e2	-0.16913942
229	0x3dfa0a66	0.122090146
230	0x3cfaea5f	0.030629335
231	0x3e09cc4f	0.13456844
232	0x3d105444	0.035236612
233	0xbe5d13c4	-0.21589571
234	0x3d52d3a1	0.051471356
235	0xbd8a7dd8	-0.06762284
236	0xbe304f28	-0.17217696
237	0x3e10319c	0.14081424
238	0xbe1b921b	-0.15192454
239	0xbd072661	-0.032995585
240	0xbe32cc7d	-0.17460819
241	0xbd7fd13d	-0.062455405
242	0x3e7208db	0.2363619
243	0xbd8c93ea	-0.0686415
244	0x3e224014	0.15844756
245	0xbcfa55ca	-0.030558486
246	0x3d5082f4	0.050906137
247	0x3e4cf416	0.20014986
248	0x3e2419f4	0.16025525
249	0x3e3b04af	0.18263505
250	0xbd8a8272	-0.06763162
251	0x3e62a518	0.22133291
252	0x3cdd52c0	0.027016997
253	0xbd0a2b8a	-0.03373293
254	0x3cd28552	0.025698338
255	0xbe06b386	-0.1315442

encoder.layers.0.self_attn.in_proj_bias f4 [96]
0	0x3e0554ae	0.13020584
1	0xbd95dd8e	-0.07317649
2	0x3d8986da	0.06715174
3	0xbdd17a8a	-0.102284506
4	0x3e33864d	0.175317
5	0xbdfd2ae0	-0.123616934
6	0x3de88bc9	0.11354787
7	0x3da89afa	0.082326844
8	0xbd8051dc	-0.062656134
9	0xbdd24619	-0.10267276
10	0xbe01bc7d	-0.12669559
11	0xbe27f2ec	-0.16401261
12	0x3d758024	0.059936658
13	0xbd954fe2	-0.07290627
14	0xbd9709fd	-0.07374952
15	0x3d797d53	0.060910534
16	0x3db67446	0.08908896
17	0x3d840bd5	0.06447569
18	0xbdae023c	-0.0849652
19	0x3da59096	0.08084218
20	0xbd9f1b20	-0.077688456
21	0x3d8e0a21	0.06935526
22	0x3d8ef8db	0.06981059
23	0xbd958563	-0.07300832
24	0xbd8ad4a4	-0.06778839
25	0xbdb6ab23	-0.089193605
26	0x3da1731b	0.07883283
27	0xbda72d56	-0.08162944
28	0xbd921346	-0.07132582
29	0xbd0e7ffd	-0.034790028
30	0x3dbc3b52	0.09191002
31	0xbd9a0edd	-0.07522366
32	0xb800d67f	-3.0717343e-05
33	0xb78f7d65	-1.710532e-05
34	0xb763bd52	-1.3574334e-05
35	0x386904b7	5.555592e-05
36	0xb88921f6	-6.538995e-05
37	0xb744500b	-1.1701147e-05
38	0xb8b7d168	-8.765125e-05
39	0xb6ac645a	-5.137682e-06
40	0x3846fb50	4.744093e-05
41	0x37aa5795	2.0306363e-05
42	0xb76a6f5b	-1.3973414e-05
43	0x388908e6	6.5343265e-05
44	0xb7e2dfdb	-2.704554e-05
45	0x38b1b3b9	8.473494e-05
46	0x3848217b	4.7714897e-05
47	0x361aa2d7	2.3042574e-06
48	0x380cbe52	3.355585e-05
49	0x36273ae7	2.4919225e-06
50	0xb87a6da5	-5.970676e-05
51	0x378f8504	1.7108869e-05
52	0x35806dbf	9.568683e-07
53	0x36c75b42	5.941286e-06
54	0xb6a66500	-4.9589435e-06
55	0xb5cacd51	-1.5109928e-06
56	0x374e4361	1.2294245e-05
57	0xb86cbe39	-5.6443943e-05
58	0x363cb5f1	2.8120087e-06
59	0x3641938d	2.8845127e-06
60	0x35b4af55	1.3462073e-06
61	0x3749be6a	1.2024868e-05
62	0x3857a662	5.141495e-05
63	0xb8798716	-5.9492035e-05
64	0x3cc8fc7c	0.024534456
65	0x3cd505d3	0.026003754
66	0xbccabf5b	-0.024749449
67	0xbc016bdd	-0.007899252
68	0x3cb659c3	0.022259599
69	0xbc7b32d8	-0.015331946
70	0xbc3baed9	-0.011455261
71	0x3aeae72c	0.0017921678
72	0xbd1a285c	-0.037636146
73	0xbd0b98f5	-0.034081418
74	0xbc7dcdf5	-0.0154909985
75	0x3d1b26b2	0.0378787
76	0xbc4666de	-0.012109486
77	0x3abbe349	0.0014334704
78	0xbbf52ad3	-0.0074819117
79	0xbcc6ce30	-0.02426824
80	0x3c762977	0.015024534
81	0xbc7c5a1a	-0.015402341
82	0xbcb5c5ee	-0.022189107
83	0x3beb94e0	0.007189378
84	0x3be3a32c	0.006946942
85	0xbd16968c	-0.036764666
86	0xbc94a4fb	-0.018145075
87	0xbc51cb26	-0.012804782
88	0xbc07c0e3	-0.008285734
89	0x3bddbc06	0.006766799
90	0xbcb60744	-0.022220261
91	0x3cbefa95	0.023312846
92	0x3b7b2e2e	0.0038327086
93	0x3c9208fa	0.017826546
94	0xbd178e1d	-0.037000764
95	0xbd2f3e61	-0.0427841

encoder.layers.0.self_attn.out_proj.weight f4 [32, 32]
0	0x3d64de7f	0.05587625
1	0xbd0a142b	-0.03371064
2	0xbca84e25	-0.020545075
3	0x3e0be004	0.13659674
4	0x3e2826ee	0.164211
5	0x3d9b3f9a	0.075804904
6	0xbe21fc24	-0.1581884
7	0xbdfe3d64	-0.12414053
8	0x3dd363db	0.1032178
9	0x3e0af26a	0.13569036
10	0x3deaac45	0.11458639
11	0xbe036146	-0.12830076
12	0x3dcc3e29	0.099727936
13	0xbcf9da9a	-0.030499745
14	0x3d78b4c6	0.060719274
15	0xbe3c01c5	-0.1836005
16	0xbddfdf83	-0.10931303
17	0xbdd33776	-0.10313313
18	0xbdb7906f	-0.089630954
19	0x3e15f233	0.14643173
20	0x3daeede6	0.08541469
21	0xbd1875ae	-0.037221603
22	0x3d902c87	0.07039743
23	0x3c7e333d	0.015515146
24	0x3e1ac4ab	0.15114085
25	0xbcbc05ed	-0.022952044
26	0xbd17c75b	-0.037055355
27	0xbd69309a	-0.056931116
28	0x3e11a411	0.14222743
29	0x3c9c1728	0.01905401
30	0x3da0af6b	0.07845958
31	0x3e047ade	0.12937495
32	0x3d8341c1	0.06409026
33	0xbe052f5e	-0.1300635
34	0xbd44998e	-0.047998004
35	0x3e22f866	0.15915069
36	0xbcdaa169	-0.026688294
37	0x3db3b6fc	0.08775136
38	0xbd5601c4	-0.052247778
39	0xbd5bba67	-0.053644564
40	0x3df9d7b9	0.12199349
41	0x3defd670	0.117108226
42	0xbc60d213	-0.013721961
43	0x3deb0f4b	0.11477526
44	0x3d583b89	0.052791152
45	0x3d772fc7	0.0603483
46	0xbdc095e2	-0.09403588
47	0xbd72d179	-0.0592818
48	0xbd4d41fa	-0.05011175
49	0xbe0fcab3	-0.14042167
50	0xbcb8a83f	-0.022541163
51	0x3d696116	0.056977354
52	0xbd92b6b1	-0.07163752
53	0xbda92e7b	-0.082608186
54	0xbd4e65cb	-0.050390046
55	0x3c56f845	0.0131207155
56	0xbdce147d	-0.100625016
57	0xbe2003cd	-0.1562645
58	0x3c8de84c	0.017322682
59	0x3cc2aeac	0.02376493
60	0xbcdcf38b	-0.0269716
61	0xbdd24d43	-0.10268643
62	0x3cf632af	0.030053465
63	0xbd247938	-0.040154666
64	0x3e39e4e1	0.18153717
65	0x3df9c957	0.12196606
66	0xbe15bfdf	-0.14623974
67	0xbe08b145	-0.13348873
68	0x3cf764fd	0.030199522
69	0xbd830881	-0.06398106
70	0xbe3bb06b	-0.18329017
71	0xbdee9f7a	-0.116515115
72	0xbda856d4	-0.08219686
73	0xbcb39d0e	-0.021925475
74	0xbd265e81	-0.04061747
75	0x3db60e15	0.08889405
76	0xbdb04cee	-0.08608423
77	0xbdbbaf5d	-0.09164307
78	0xbb590e88	-0.0033120234
79	0x3e1cd880	0.15316963
80	0xbe016d73	-0.12639408
81	0xbd881c5e	-0.066460356
82	0x3e07fd2f	0.13280176
83	0xbc1eead1	-0.009699539
84	0xbcc60278	-0.024171099
85	0xbdcd8ef6	-0.10037033
86	0x3da27306	0.07932095
87	0xbd90dc33	-0.0707325
88	0x3e30acb7	0.17253385
89	0x3de1b5fd	0.1102104
90	0xbe0f9281	-0.1402073
91	0x3d69f6bb	0.057120066
92	0x3d055275	0.03254934
93	0xbc96de5f	-0.018416582
94	0x3d91fdcc	0.07128486
95	0xbe088752	-0.1333287
96	0xbcd7e44c	-0.026353978
97	0xbdc57e2d	-0.09643207
98	0xbd5bc379	-0.053653214
99	0x3e178edd	0.14800592
100	0xbda8a098	-0.08233756
101	0xbd839193	-0.064242505
102	0x3da6b087	0.08139139
103	0xbd3df4ca	-0.046376027
104	0x3e159025	0.14605768
105	0xbdc91fac	-0.09820494
106	0x3dd85620	0.10563302
107	0xbe3827a7	-0.17983876
108	0xbdd77d15	-0.105219044
109	0x3d02ecb1	0.031964008
110	0x3d022ebb	0.031782847
111	0x3d051883	0.03249408
112	0x3d9f0ba5	0.07765893
113	0x3d2e5f1d	0.042571176
114	0xbc949122	-0.018135611
115	0xbe286a63	-0.16446833
116	0x3dcb0f3d	0.09915016
117	0xbc95e967	-0.018299771
118	0xbdcee6b2	-0.101025954
119	0x3e371faa	0.17883173
120	0x3d85e511	0.065378316
121	0xbe01bbd4	-0.12669307
122	0xbd42e098	-0.04757747
123	0x3e435ad3	0.19077615
124	0x3c0703c1	0.008240641
125	0xbd614484	-0.054996982
126	0x3beb0e76	0.0071733547
127	0xbe1e5572	-0.15462282
128	0x3e0e039e	0.13868567
129	0xbc3f910e	-0.011692299
130	0xbdce8bf3	-0.10085287
131	0xbd83047c	-0.0639734
132	0x3d85307b	0.065033875
133	0x3e2f5d4f	0.17125438
134	0xbe396629	-0.18105377
135	0xbd5cfdac	-0.053952858
136	0xbd6aaa16	-0.057291113
137	0x3e1f2240	0.15540409
138	0xbdbf902f	-0.09353673
139	0x3b108187	0.002204986
140	0xbe465a93	-0.19370489
141	0xbc66902a	-0.014072457
142	0x3bfe4d23	0.0077606603
143	0xbe0299ef	-0.12754034
144	0x3cfe31fa	0.03102969
145	0xbdba80db	-0.091066085
146	0x3e0c92f6	0.13727936
147	0x3e1b3ed0	0.1516068
148	0xbdad8b45	-0.08473829
149	0xbe07fe15	-0.13280518
150	0x3c159608	0.0091300085
151	0xbe307d47	-0.1723529
152	0x3d5d7f08	0.054076225
153	0xbdfc5db8	-0.12322563
154	0xbe12fcf7	-0.14354311
155	0x3e20410a	0.1564981
156	0x3cc63507	0.024195207
157	0xbddccd09	-0.10781295
158	0xbe17a440	-0.1480875
159	0xbd9dd43a	-0.07706495
160	0xbe2ecae9	-0.17069592
161	0xbda4fe95	-0.0805637
162	0xbd5ff80f	-0.054679926
163	0xbe19f3de	-0.15034434
164	0x3b465c0b	0.0030267264
165	0x3e06bf22	0.13158849
166	0xbc7f9c1e	-0.015601186
167	0x3d8b359b	0.06797334
168	0xbd8edec8	-0.06976086
169	0xbdbd4249	-0.092411585
170	0xbd95e57e	-0.07319163
171	0x3d3c8ed0	0.046034634
172	0x3e03bf44	0.12865931
173	0xbe10e9cf	-0.14151691
174	0x3d9ac8b3	0.075578116
175	0xbd297246	-0.041368745
176	0x3da3dbd7	0.080009155
177	0x3d91f510	0.0712682
178	0xbdb788e7	-0.08961659
179	0xbd7d7c06	-0.061885856
180	0xbddf1352	-0.10892357
181	0x3e34f90f	0.17673133
182	0x3e0c13b8	0.13679397
183	0xbc32acaa	-0.010905424
184	0x3c427999	0.011869811
185	0x3ccc41bc	0.024933688
186	0x3dd2e1b9	0.102969594
187	0xbbcab690	-0.006186314
188	0xbdeadc81	-0.11467839
189	0xbe0c02a2	-0.1367288
190	0x3e00b55b	0.12569182
191	0x3d2c372c	0.042044804
192	0xbdc25f71	-0.0949086
193	0xbe2be4c1	-0.16786481
194	0x3dbdf686	0.09275536
195	0xbe1a33ff	-0.15058897
196	0x3db6f6fd	0.08933828
197	0x3daf4252	0.085575715
198	0xbe2d0a06	-0.16898355
199	0xbe22fa1b	-0.1591572
200	0x3de3db0b	0.111257635
201	0x3dde69ac	0.10859999
202	0xbe220c6e	-0.15825054
203	0xbd9a83eb	-0.075446926
204	0x3d77542a	0.060383
205	0xbc4341de	-0.011917559
206	0x3e231167	0.15924607
207	0xbdc5281d	-0.096267916
208	0x3dfaa9cc	0.122394174
209	0xbc5bdecf	-0.013419821
210	0x3d0130e2	0.03154076
211	0xbd2127e5	-0.039344687
212	0xbe158781	-0.14602472
213	0xbde66e40	-0.11251497
214	0x3e195a2b	0.14975803
215	0x3c6ed92f	0.014578148
216	0x3d433fd5	0.047668297
217	0x3e4fc3f7	0.20289598
218	0xbe349f4e	-0.17638895
219	0xbc2d01f5	-0.010559549
220	0x3c50654f	0.012719466
221	0x3c15f35b	0.009152259
222	0x3e063645	0.1310664
223	0xbd23107e	-0.03981065
224	0x3d8fae59	0.07015676
225	0x3b96a85f	0.004597708
226	0x3d8b25c8	0.067943156
227	0x3da78897	0.08180349
228	0xbc930b1c	-0.017949633
229	0xbdc29911	-0.09501851
230	0x3d7b17e9	0.0613021
231	0xbdb878d6	-0.090074226
232	0xbbdd199f	-0.006747439
233	0x3d869c4a	0.065727785
234	0x39151e63	0.00014221067
235	0xbe31b535	-0.17354281
236	0xbcb08380	-0.02154708
237	0xbd59984c	-0.053123757
238	0x3d822002	0.06353761
239	0xbdbabee1	-0.091184385
240	0xbcb1e67f	-0.021716354
241	0x3d7e4618	0.062078565
242	0x3ceb4a07	0.028721822
243	0x3e1bbea5	0.15209444
244	0x3dc7c556	0.09754436
245	0xbda29bff	-0.0793991
246	0xbd6be3a4	-0.057590142
247	0x3ce0c69d	0.027438456
248	0x3df69524	0.12040165
249	0xbd6c4b55	-0.05768903
250	0x3dcea14b	0.10089358
251	0xbdb17532	-0.08664931
252	0xbcaa4b47	-0.020787848
253	0xbdf5382a	-0.11973603
254	0xbd89e44f	-0.067329995
255	0x3ddd4b50	0.1080538

encoder.layers.0.self_attn.out_proj.bias f4 [32]
0	0xbc4bf1cc	-0.012447786
1	0xba749dee	-0.00093313947
2	0x3cab44f8	0.02090691
3	0xbc075ef7	-0.0082623875
4	0x3babe4f4	0.005245799
5	0xbcd56c5e	-0.02605265
6	0xbc270354	-0.010193665
7	0xbc1d40a5	-0.009597932
8	0xbcf33537	-0.02968846
9	0xbc6dfda4	-0.014525805
10	0xbcbc848a	-0.023012418
11	0x3d2aced3	0.04170115
12	0x39030920	0.00012496533
13	0x3bea98f8	0.0071593486
14	0xbb1fbfb9	-0.002437575
15	0xbc730f84	-0.014835242
16	0xbbd993f9	-0.006639954
17	0xbca8383a	-0.020534623
18	0x3a931d64	0.0011223969
19	0x3bb2adfd	0.00545287
20	0x3ca43212	0.020043407
21	0xbaf98f09	-0.001903982
22	0x3c77a8d1	0.015115933
23	0x3b85d842	0.004084618
24	0xbb9697fe	-0.0045957556
25	0x3cbfe771	0.02342579
26	0x3cd63ce6	0.026152086
27	0xbafbbcbc	-0.0019206028
28	0x3c06f0e6	0.008236146
29	0x3bc0db81	0.005885542
30	0xbac65f22	-0.0015134553
31	0x3b326293	0.00272194

encoder.layers.0.linear1.weight f4 [128, 32]
0	0xbd0053e9	-0.031330023
1	0x3cfcdaad	0.030865991
2	0xbb6987b8	-0.0035633873
3	0xbd2af705	-0.041739482
4	0x3baf4b4a	0.0053495513
5	0xbe5c40c7	-0.21509086
6	0xbdc9b0bf	-0.09848165
7	0x3e40b91f	0.18820618
8	0xbd57d4ac	-0.052693054
9	0xbd2ad4b1	-0.041706745
10	0xbe2243b6	-0.15846142
11	0xbdd3e055	-0.10345522
12	0xbe292fb8	-0.1652211
13	0xbd3cac7f	-0.046062943
14	0x3e0891ef	0.13336919
15	0x3de71b1d	0.11284468
16	0xbd2f0b7c	-0.04273556
17	0x3cd9c735	0.026584247
18	0x3e248536	0.16066441
19	0xbaf897b2	-0.0018966107
20	0x3de78f27	0.11306601
21	0x3e0c1107	0.1367837
22	0x3d3dcc91	0.046337668
23	0xbd218d68	-0.039441496
24	0xbe093cf7	-0.13402162
25	0xbdffbf45	-0.12487654
26	0xbd6ea310	-0.058260977
27	0x3e370a87	0.1787511
28	0xbc2d4854	-0.010576326
29	0x3ca7799d	0.020443732
30	0xbd905fa1	-0.0704949
31	0xbe71391e	-0.23556945
32	0xbcf5e41a	-0.030015994
33	0xbd21765f	-0.039419528
34	0x3d84332f	0.06455075
35	0x3d98cd81	0.07461072
36	0xbc246a0f	-0.010035052
37	0x3dbc49f0	0.0919379
38	0xbe05beaa	-0.13061014
39	0xbd59a4c5	-0.053135652
40	0x3dfcdea1	0.123471506
41	0x3d6e1a05	0.058130283
42	0x3dbf6454	0.09345308
43	0x3e2dd357	0.16975151
44	0xbde94bbf	-0.113914005
45	0xbe27686f	-0.16348432
46	0xbbea9caf	-0.0071597914
47	0x3dea4937	0.11439746
48	0x3dee6df9	0.11642069
49	0x3d107d4e	0.03527575
50	0x3d9eb6b7	0.07749694
51	0x3da5bacf	0.080922715
52	0x3d0463b0	0.032321632
53	0xbbc0375f	-0.0058659757
54	0x3e12f78f	0.14352249
55	0xbdaab397	-0.08335035
56	0x3c15b1b8	0.00913661
57	0x3c610f2d	0.013736528
58	0x3e2612dc	0.16218132
59	0x3d7553e5	0.05989446
60	0xbe06962f	-0.13143228
61	0x3dcc25d3	0.09968152
62	0xbda0aef6	-0.07845871
63	0x3de808f5	0.113298334
64	0x3e135eb4	0.14391595
65	0xbd2743e4	-0.04083623
66	0x3e1b33e4	0.15156513
67	0xbe33a439	-0.17543115
68	0xbdde894e	-0.108660325
69	0xbcdd80dd	-0.027038986
70	0x3da29d60	0.07940173
71	0x3d04784f	0.032341298
72	0xbd62c2f8	-0.055361718
73	0xbd1d8dfc	-0.038465485
74	0x3d8d1eef	0.06890666
75	0xbd5928db	-0.05301748
76	0x3d223341	0.03959966
77	0x3e22a1da	0.15882054
78	0xbe2ce67a	-0.16884795
79	0x3ca4aded	0.020102466
80	0x3ddc8a00	0.10768509
81	0x3e0795ae	0.13240692
82	0x3dfb719d	0.122775294
83	0xbd779e4b	-0.060453694
84	0xbd8f1720	-0.069868326
85	0xbdca6940	-0.09883356
86	0xbda020b6	-0.07818739
87	0x3da5e105	0.0809956
88	0xbe1e9a98	-0.1548866
89	0x3ba265cf	0.004955984
90	0x3d2b5e54	0.041838005
91	0xbe200aac	-0.15629071
92	0x3d7ac08a	0.061218776
93	0x3ca0381e	0.019558009
94	0x3c611508	0.013737924
95	0xbda70713	-0.08155646
96	0x3e36c0bf	0.17846964
97	0xbddc8e41	-0.1076932
98	0x3e2e9940	0.17050648
99	0x3d9f7af1	0.07787121
100	0x3db96ff6	0.09054558
101	0x3c042e51	0.008067683
102	0x3e6b27b0	0.22964358
103	0xbc8087b9	-0.015689718
104	0xbe120428	-0.14259398
105	0x3e019a00	0.12656403
106	0xbd88b4a8	-0.066750824
107	0xbe30ce2e	-0.17266151
108	0x3e5e6621	0.21718647
109	0x3cce6ac9	0.025197404
110	0x3dcb51e2	0.09927727
111	0x3d3da7ac	0.046302482
112	0x3bc870fe	0.0061169853
113	0xbdad5117	-0.08462732
114	0xbe267ce5	-0.16258581
115	0x3da4234c	0.08014545
116	0x3d9d6731	0.07685698
117	0x3e7e15b1	0.24812962
118	0xbe0b3c4d	-0.13597222
119	0xbe267b6c	-0.16258019
120	0x3d7d13be	0.061786406
121	0x3dc2d581	0.09513379
122	0xbd1704a4	-0.03686966
123	0x3d913de6	0.07091884
124	0x3d586382	0.052829273
125	0x3e067f44	0.13134485
126	0x3b83534f	0.004007734
127	0x3d623b42	0.055232294
128	0x3e1c4180	0.15259361
129	0xbdc237e3	-0.09483316
130	0x3d818a5d	0.06325219
131	0xbaa484b8	-0.001255176
132	0xbd1b103d	-0.037857283
133	0xbe4ddec4	-0.2010451
134	0xbe2060dd	-0.1566195
135	0xbe183360	-0.14863348
136	0x3d6bf63e	0.05760788
137	0x3daf4766	0.0855854
138	0xbe59d13b	-0.21271221
139	0x3df97bad	0.121817924
140	0x3d784a60	0.060617805
141	0xbdb10e66	-0.086453244
142	0xbd73baca	-0.059504308
143	0xbe357751	-0.17721297
144	0x3ddd7aa9	0.10814411
145	0xbbf14460	-0.0073628873
146	0x3d22935d	0.039691318
147	0xbdca835e	-0.098883376
148	0x3e4a1291	0.19733645
149	0x3e58f536	0.2118729
150	0xbdf2ef4c	-0.118620485
151	0xbe216e1e	-0.15764663
152	0xbc9740e5	-0.018463561
153	0x3d87cefa	0.066312745
154	0x3e1ad2fd	0.15119548
155	0x3decd07b	0.11563202
156	0xbda2f733	-0.07957306
157	0xbb90aff9	-0.004415509
158	0x3e1973ae	0.14985535
159	0x3db1efbc	0.08688304
160	0xbd050190	-0.032472193
161	0xbdee435f	-0.11633944
162	0xbdff8fad	-0.12478576
163	0xbde82abf	-0.11336278
164	0xbd976a39	-0.07393307
165	0xbdfb6237	-0.12274592
166	0xbde1dc81	-0.11028386
167	0xbd6d1f43	-0.05789114
168	0xbd5552a3	-0.05208076
169	0x3e27c33e	0.16383073
170	0xbe2fb0e5	-0.17157324
171	0xbcae7cb5	-0.0212997
172	0x3d4ff9c8	0.05077532
173	0xbda9820a	-0.08276756
174	0xbc5b858e	-0.013398541
175	0xbb8a4ba9	-0.004220445
176	0x3d8c235b	0.06842681
177	0xbdbf36d8	-0.093366325
178	0x3e024ff4	0.12725812
179	0xbe17e23c	-0.14832395
180	0xbd8c4df3	-0.06850805
181	0xbd29ac93	-0.041424345
182	0xbc49b763	-0.012311789
183	0x3d70d36a	0.05879537
184	0x3e22fc1c	0.15916485
185	0xbe2ae871	-0.16690232
186	0x3e075aa3	0.13218169
187	0x3c38a1d8	0.011269055
188	0xbd86228e	-0.065495595
189	0xbdf31aaa	-0.1187032
190	0xbe32f22f	-0.17475198
191	0xbdc13edf	-0.0943582
192	0x3db91587	0.09037309
193	0x3e1558a1	0.1458459
194	0x3d26f5b1	0.040761653
195	0xbe172ded	-0.14763613
196	0x3d368608	0.044561416
197	0x3dd30f26	0.10305624
198	0x3d7f78df	0.06237113
199	0xbe154130	-0.14575648
200	0xbd8c1b0c	-0.06841096
201	0x3d773e1a	0.06036196
202	0xbdb1f8fb	-0.086900674
203	0xbe622ad9	-0.22086658
204	0x3ce856da	0.028361727
205	0xbe057513	-0.13032942
206	0x3d415868	0.04720345
207	0x3d857036	0.06515543
208	0xbd5e577a	-0.054282643
209	0x3e473d66	0.19457015
210	0x3c1f74a5	0.0097324
211	0xbdfaf93b	-0.12254568
212	0xbdb7b556	-0.08970134
213	0xbb5f29c6	-0.0034051999
214	0xbd3582b4	-0.0443141
215	0xbda0335c	-0.07822296
216	0x3e270afc	0.16312784
217	0xbe686a8a	-0.22696891
218	0xbe0df7c6	-0.1386405
219	0xbd19963d	-0.037496794
220	0xbe709a23	-0.23496298
221	0xbcef7fd7	-0.029235763
222	0x3d96786e	0.07347189
223	0xbc4e20cf	-0.012581064
224	0xbbf85ef2	-0.0075796777
225	0xbb139f42	-0.0022525345
226	0xbe061f63	-0.1309791
227	0xbd007b00	-0.031367302
228	0x3de2585c	0.110520095
229	0x3cdb53b6	0.026773315
230	0x3d33f30a	0.043932952
231	0x3d9a5b52	0.07536949
232	0x3de1febd	0.110349156
233	0x3e006ced	0.12541552
234	0xbe3b004c	-0.18261832
235	0xbd2da806	-0.042396568
236	0xbdc884e6	-0.09790973
237	0xbd365f45	-0.04452445
238	0x3db79844	0.08964589
239	0xbe0d0482	-0.13771251
240	0xbe0d1647	-0.1377803
241	0xbda5b35e	-0.08090852
242	0xbe3b5563	-0.18294291
243	0x3d7cd808	0.06172946
244	0x3da74bee	0.08168779
245	0xbe0cac21	-0.13737537
246	0x3c40271a	0.011728073
247	0x3e00ea55	0.1258939
248	0x3e336a67	0.17521058
249	0xbc92e26e	-0.017930236
250	0xbdf63023	-0.120209
251	0x3cfc4a76	0.030797224
252	0x3da261da	0.0792882
253	0x3d3dd4c2	0.04634548
254	0xbd7cf738	-0.061759204
255	0x3d355dd2	0.044278927

encoder.layers.0.linear1.bias f4 [128]
0	0x3cfd7114	0.030937709
1	0x3db69cc3	0.08916619
2	0xbb8b595d	-0.0042525963
3	0xbe6ea4dd	-0.23305078
4	0xbdc60ea2	-0.0967076
5	0xbe231ea6	-0.1592966
6	0xbd210f6c	-0.039321348
7	0xbb62e9b0	-0.0034624152
8	0xbda9f888	-0.08299357
9	0x3d333f2c	0.043761417
10	0x3e0c34c7	0.13692008
11	0x3dca0016	0.09863298
12	0x3da5f443	0.0810323
13	0x3be7ab70	0.0070699975
14	0x3e112f51	0.14178206
15	0xbccce7ca	-0.02501287
16	0x3dbe3b99	0.09288711
17	0xbe267570	-0.16255736
18	0xbb4f6214	-0.0031644152
19	0xbaefca98	-0.001829463
20	0xbdadeaad	-0.084920265
21	0xbdff2d44	-0.124598056
22	0xbe0ca44a	-0.13734546
23	0x3e329fdf	0.17443798
24	0xbde13d5a	-0.1099803
25	0xbe2d2e59	-0.16912211
26	0xbe1a0375	-0.15040381
27	0xbd621511	-0.05519587
28	0xbd32939b	-0.0435978
29	0x3d4cca2c	0.049997494
30	0xbdfebd3d	-0.12438438
31	0xbe3721d5	-0.17884
32	0x3d1a2eaf	0.037642177
33	0xbcffd1dd	-0.031228
34	0xbe1752f2	-0.14777735
35	0xbe3dc9bc	-0.18533987
36	0xbdfeec1e	-0.124473795
37	0x3c2ec1f3	0.010666358
38	0x3d3e0f0a	0.04640106
39	0xbdfb4c99	-0.12270469
40	0xbd44e33f	-0.04806828
41	0xbd730832	-0.059333988
42	0xbd804bda	-0.062644675
43	0x3d8f7c13	0.07006087
44	0xbc52d4ca	-0.012868116
45	0xbcf1f558	-0.029535934
46	0x3dd9e59f	0.106395
47	0x3dd1b698	0.10239905
48	0xbe4b0748	-0.19826996
49	0xbda2dfc6	-0.07952838
50	0xbe27b6aa	-0.16378275
51	0xbd178d51	-0.037000004
52	0x3e0fd583	0.14046292
53	0xbd96301c	-0.07333395
54	0x3dafae76	0.08578198
55	0x3db4c2d3	0.08826222
56	0x3d7ced29	0.06174961
57	0x3d275036	0.04084798
58	0x3a25f220	0.000633033
59	0xbdc12c31	-0.09432257
60	0x3db29275	0.08719341
61	0x3cdee21b	0.027207425
62	0xbdc80ad5	-0.09767691
63	0xbe3b2de1	-0.1827922
64	0xbe2b5a8d	-0.16733761
65	0x3db498c1	0.08818198
66	0xbe0517d3	-0.1299737
67	0x3d8af91a	0.067857936
68	0xbdd62e6f	-0.10458075
69	0x3e032d5f	0.12810276
70	0xbddd8b54	-0.1081759
71	0xbd5f86f4	-0.05457206
72	0x3e2c5d46	0.16832456
73	0x3ded2667	0.1157959
74	0x3d23d488	0.039997607
75	0xbe1c3114	-0.15253097
76	0xbd48ea7a	-0.04905174
77	0x3db7a2eb	0.08966621
78	0xbe333079	-0.1749896
79	0xbdf61d70	-0.120173335
80	0xbc267a7d	-0.010161039
81	0xbe292e0f	-0.16521476
82	0x3d663df6	0.056211434
83	0xbd9958c4	-0.07487634
84	0xbdf24385	-0.118292846
85	0xbde10123	-0.10986545
86	0xbd13f682	-0.03612376
87	0xbd902c70	-0.07039726
88	0x3ded69af	0.11592423
89	0x3a359df3	0.00069281383
90	0xbd9c8f2d	-0.07644496
91	0xbd09f7fe	-0.03368377
92	0xbe05e03c	-0.1307382
93	0x3de9517c	0.11392495
94	0x3dd0c08c	0.101929754
95	0xbe5a286a	-0.21304479
96	0x3dd31222	0.10306193
97	0x3e3416d6	0.17586836
98	0x3d9f75a7	0.07786112
99	0x3e061921	0.13095523
100	0x3e257bd8	0.16160524
101	0x3dbaef23	0.09127643
102	0xbd051a9b	-0.032496076
103	0xbe464243	-0.19361214
104	0xbd35c3de	-0.044376247
105	0xbd0c1ec5	-0.03420903
106	0xbdc351e0	-0.09537101
107	0x3d438849	0.047737394
108	0x3dd1eaf6	0.10249893
109	0x3e10d5c7	0.1414405
110	0x3df107d5	0.11769072
111	0xbc1769f4	-0.00924157
112	0x3db5cda6	0.08877115
113	0xbccd55d1	-0.025065335
114	0xbc9b2d7c	-0.018942587
115	0x3d5d2f47	0.054000165
116	0xbd04b91b	-0.032403093
117	0xbc645320	-0.013935834
118	0x3e201d13	0.15636091
119	0x3e38b0d0	0.18036199
120	0xbcd650c8	-0.026161566
121	0x3ccd072f	0.02502784
122	0x3d50ec25	0.051006455
123	0x3d4bb47e	0.049732678
124	0xbde26f1b	-0.11056348
125	0xbde2d1bb	-0.11075159
126	0xbd366b12	-0.044535704
127	0xbdceedba	-0.101039365
